nfl_data/models/model_objs/nfl_model_1.pth (torch, 653433 bytes, 11 tensors)

weight f4 [256, 209]
0.011271511 0.019183807 0.0033165708 5.6714166e-36 -0.010417149 -0.0032835011 0.021200377 0.057455722
-0.021798953 -0.014660498 -0.022550663 -0.037946932 0.011516469 0.0432917 0.04488433 0.024429116
-0.056602854 -0.054280702 -0.026241777 -0.010973029 0.004452883 -0.06684075 0.017413992 -0.05542833
-0.045146033 -0.05230629 0.0611704 -0.056058913 0.048359923 0.00842841 -0.0059483647 0.03300441
-0.0138483355 0.032094732 0.046574075 -0.060556024 0.024446396 0.012151954 0.014745037 0.0066395416
0.010702249 -0.053185407 0.0007486374 0.056821596 0.037307654 -0.011464979 -0.06188776 0.062221397
-0.032960813 0.07385478 -0.05863141 0.04866655 -0.05194475 0.04498582 0.007267694 0.04508549
0.06526738 0.11063507 0.04859141 -0.005845615 -0.039422005 0.015274325 0.00044942222 0.028998822
0.016197106 -0.017609565 0.015672848 0.00714539 -0.021611271 0.048289772 0.052661162 0.06173853
-0.007122667 -0.036403883 -0.06332405 -0.019012706 -0.059025764 -0.020611152 -0.061823454 -0.06291699
-0.017204344 -0.072598234 -0.037318397 0.04661126 0.03733042 0.016146686 -0.037532147 0.046569653
-0.010412178 -0.008019515 0.058862533 -0.09146015 0.054811075 0.06942888 0.015054218 -0.028769732
-0.031919427 -0.0058980044 -0.0007332369 -0.013895406 0.023464782 0.04324828 -0.091295116 0.019999264
-0.024373177 -0.036672458 -0.0046865502 -0.043639526 0.039168425 0.031262983 -0.049367722 0.0025037623
-0.050823487 -0.009480436 -0.01952609 -0.050623246 -0.05574404 -0.022423303 6.8740166e-25 0.058469974
1.19188355e-26 -0.017176263 -0.058469646 0.07573122 0.019862484 -0.0096985 0.030575246 -0.15374768
-0.030859765 0.15819725 -0.011837821 -0.008316055 -0.03238003 -0.025641274 -0.011118284 -0.018743156
-0.0068206666 0.0288957 -0.04201887 0.015973069 -0.04059111 -0.010065339 0.050520085 0.03426915
0.0039345366 -0.011697775 -0.081359945 -0.037539687 -0.05820666 0.006831626 -0.015182966 -0.029913466
0.06777673 0.042797934 -0.04206899 -0.03457267 0.023919221 0.008357867 -0.04379758 -0.01604352
0.03368965 -0.06609166 0.060136665 0.01815109 0.07580708 9.535624e-05 -0.032521605 -0.03743753
0.008856374 0.016306875 -0.10741351 0.02281228 -0.058384284 0.03794411 0.049725335 -0.050920796
0.0069356016 0.021719884 0.020335225 -0.007345064 0.007818291 0.04765384 0.06450738 0.04051117
-0.039196014 0.082311586 -0.029929532 -0.027960395 -0.017335165 -0.023469068 0.067865394 0.011370957
-0.039427508 0.041819822 -0.0042397655 0.045683388 -0.03483292 -0.04203121 -0.02991234 -0.044634745
0.031481866 0.084508486 0.019341066 0.04553138 0.03515668 0.027581496 0.07401559 0.15465222
-0.14450203 0.04939959 0.035951957 -0.03977612 -2.9019587e-29 -0.076860145 0.023092885 -0.04787964
0.017861547 0.026042912 -0.07237825 0.0007529177 -0.02093406 0.01733362 0.020303175 -0.06465509
0.049340345 0.042834494 0.012432198 -0.06625489 -0.016929198 -0.023472285 -0.031361073 0.043782942
0.034023866 0.043395933 -0.029499007 0.0146161765 0.014774651 -0.048244838 -0.08309158 -0.04424111
0.03105505 -0.057166185 -0.07076239 0.042196102 0.01680826 0.048776757 -0.0546955 -0.057028048
0.021869393 0.045440644 0.04027115 -0.01295954 0.008110768 0.05053715 -0.059268285 -0.010404821
00000000: 25ac 383c 5c27 9d3c d35a 593b 423c f104
00000010: b1ac 2abc 0230 57bb 6aac ad3c b156 6b3d
00000020: b893 b2bc 9632 70bc 2bbc b8bc 3e6e 1bbd
00000030: 92af 3c3c a352 313d a2d8 373d 921f c83c
00000040: 65d8 67bd 7155 5ebd fff8 d6bc 38c8 33bc
00000050: 7de9 913b cee3 88bd caa7 8e3c d108 63bd
00000060: 0ceb 38bd 1f3f 56bd d08d 7a3d 089e 65bd
00000070: 0e15 463d 5017 0a3c 80ea c2bb a22f 073d
00000080: 21e4 62bc c475 033d 75c4 3e3d 9809 78bd
00000090: cf43 c83c fd18 473c 2b95 713c 8390 d93b
000000a0: 7c58 2f3c f1d8 59bd 3540 443a c3bd 683d
000000b0: e9cf 183d 9bd7 3bbc 057e 7dbd dddb 7e3d
000000c0: eb01 07bd 2d41 973d 7d27 70bd 9456 473d
000000d0: 05c4 54bd 0d43 383d d625 ee3b 90ab 383d
000000e0: e7aa 853d a494 e23d c907 473d 938c bfbb
000000f0: f878 21bd 2a41 7a3c 6ea0 eb39 f08e ed3c
00000100: cbaf 843c ef41 90bc 5864 803c e023 ea3b
00000110: 1f0a b1bc 7fcb 453d 3bb3 573d 8ae1 7c3d
00000120: 4365 e9bb 3d1c 15bd 0ab0 81bd 89c0 9bbc
00000130: 00c5 71bd b8d8 a8bc 973a 7dbd 9fda 80bd
00000140: 20f0 8cbc 62ae 94bd 2ddb 18bd 73eb 3e3d
00000150: c8e7 183d 0e46 843c 4fbb 19bd d2bf 3e3d
00000160: d797 2abc 4964 03bc d719 713d 764f bbbd
00000170: 9481 603d bb30 8e3d f7a5 763c 80ae ebbc
00000180: f2bd 02bd 0c44 c1bb b236 40ba 8fa9 63bc
00000190: 3739 c03c 1c25 313d eff8 babd 7fd5 a33c
000001a0: 42aa c7bc dc35 16bd a291 99bb 5cbf 32bd
000001b0: 126f 203d 9d0d 003d cf35 4abd 2916 243b
000001c0: 4a2c 50bd d553 1bbc 2ef5 9fbc 525a 4fbd
000001d0: dd53 64bd 13b1 b7bc 92bd 5417 367e 6f3d
000001e0: ad13 6c14 3cb5 8cbc de7d 6fbd f818 9b3d
000001f0: a6b6 a23c 75e6 1ebc f078 fa3c 0870 1dbe
00000200: 9ecd fcbc 76fe 213e 6cf3 41bc 1040 08bc
00000210: eca0 04bd a60d d2bc 7729 36bc 3f8b 99bc
00000220: e67f dfbb adb6 ec3c fb1b 2cbd f4d9 823c
00000230: dd42 26bd 17e9 24bc 26ee 4e3d cf5d 0c3d
00000240: 49ed 803b 06a8 3fbc 0ba0 a6bd 37c3 19bd
00000250: 1b6a 6ebd d5db df3b fac1 78bc 160d f5bc
00000260: 87ce 8a3d e34c 2f3d 8950 2cbd 129c 0dbd
00000270: 3ef2 c33c 6fef 083c 1765 33bd b36d 83bc
00000280: 29fe 093d 105b 87bd dd51 763d 98b1 943c
00000290: be40 9b3d fef9 c738 6035 05bd 1858 19bd
000002a0: 531a 113c ff95 853c 9dfb dbbd d2e0 ba3c
000002b0: 5c24 6fbd 486b 1b3d cbac 4b3d 5392 50bd
000002c0: 0b44 e33b e6ed b13c 0f96 a63c ddae f0bb
000002d0: 4a18 003c ac30 433d 721c 843d 0aef 253d
000002e0: 008c 20bd fa92 a83d c72e f5bc 330d e5bc
000002f0: 7a02 8ebc 3442 c0bc 03fd 8a3d 404d 3a3c
00000300: bd7e 21bd 434b 2b3d bbed 8abb 811e 3b3d
00000310: f7ac 0ebd eb28 2cbd b90a f5bc ecd2 36bd
00000320: 21f3 003d c912 ad3d 2871 9e3c 1d7f 3a3d
00000330: 7300 103d 97f2 e13c 7c95 973d 275d 1e3e
00000340: 57f8 13be 3957 4a3d 5c42 133d 49ec 22bd
00000350: 9425 1390 da68 9dbd 4a2d bd3c 711d 44bd
00000360: 6152 923c f257 d53c 0c3b 94bd 745f 453a
00000370: e87d abbc 3cff 8d3c d852 a63c e369 84bd
00000380: 1a19 4a3d 3973 2f3d 6bb0 4b3c a5b0 87bd
00000390: 1aaf 8abc f348 c0bc 7874 00bd be55 333d
000003a0: 9c5c 0b3d efbf 313d e7a7 f1bc b078 6f3c
000003b0: 6111 723c 619c 45bd eb2b aabd 2b36 35bd
000003c0: 2967 fe3c 1727 6abd dfeb 90bd d2d5 2c3d
000003d0: 7ab1 893c 23ca 473d 6308 60bd 3e96 69bd
000003e0: 7127 b33c f81f 3a3d 5df3 243d 4054 54bc
000003f0: 07e3 043c 0b00 4f3d 4dc3 72bd fb78 2abc

bias f4 [256]
0.08206561 0.035694283 0.029427182 0.0017291079 0.068852544 0.07597399 -0.005136419 -0.0056326664
0.04454838 -0.01368022 -0.023861036 -0.031017145 -0.02283848 0.0051448415 -0.0400674 0.049182087
0.054558378 0.043001223 0.10443604 -0.056762695 0.06972827 -0.024193984 0.023608414 -0.03229182
0.066616744 0.060406096 -0.004190724 -0.04352546 0.06695126 -0.033397146 0.059901174 0.0024294227
-0.009751894 0.08690451 -0.030453937 0.0041804393 -0.0072037484 0.020469537 0.07942538 0.024929557
-0.043257643 0.07881681 -0.05253094 -0.050371274 0.069035836 -0.047471907 0.045696277 0.031647574
0.01469645 0.056694258 -0.046143826 0.07596899 0.03163839 0.039977994 0.07573723 0.015755957
0.050397865 -0.0032660759 -0.019065898 0.040968787 -0.05191529 -0.015112259 0.06783739 0.017938076
0.07067897 -0.036014386 0.017414676 0.04394035 -0.046779074 0.04005523 0.037645362 -0.038124066
0.01653631 -0.036594227 -0.020601556 -0.04830219 -0.027946442 0.025531545 0.005009513 0.04185693
-0.0050830757 0.060106073 0.0691496 0.023176758 0.03051525 -0.010409234 0.07031648 0.04061786
0.040726937 -0.06336919 -0.022352982 -0.00094666326 0.05261591 0.014378492 0.052405395 0.05900676
-0.0392379 -0.033270083 0.0090007875 0.06615638 0.05376901 0.053385608 -0.041272018 -0.031226277
0.03454773 0.0473902 -0.03738861 0.07361003 -0.00072644505 0.00047386985 0.024512723 0.08283469
-0.046541326 -0.04932311 0.031195316 -0.006076609 -0.01790227 -0.0011350806 0.009423111 0.05812111
0.05092085 0.05399148 0.0037734641 0.009595475 -0.062010277 -0.012388653 0.048481856 0.07257804
0.028208124 -0.026731838 -0.0023253483 -0.027060462 -0.023570098 -0.006531095 0.042976297 0.027604718
0.023667008 -0.04763749 -0.04225842 -0.02527667 0.006872063 0.00625355 -0.042722765 0.07851571
0.013437548 0.020150084 0.036450863 -0.034223534 0.017190604 0.034200035 0.04480012 0.022820419
0.007961425 -0.018129101 0.029818254 0.0108516645 0.067004874 0.0053417217 0.0814747 0.05039964
-0.0103422 -0.05843421 0.078685425 0.07971171 -0.001779801 -0.037463386 0.035846062 -0.0051310016
0.014158572 0.030809745 0.060994565 -0.04889487 0.044670805 -0.0479355 0.0070895874 0.053169742
0.022304239 -0.048746 -0.009055269 0.050451413 0.023768475 0.050316382 0.08117626 -0.023849549
0.04681242 0.06534017 0.082425736 0.0740941 -0.03790998 0.005946027 0.010496727 0.070510685
0.09166308 -0.034900412 0.09182694 0.030392414 -0.020336043 -0.0347824 0.03496346 0.0019380011
0.034142047 -0.03366657 0.012965464 -0.016584542 0.038390916 0.090098344 0.0059038415 0.07515663
0.0047455644 0.04729555 0.020417873 -0.01355081 -0.026909498 -0.0260344 0.052353702 0.010716695
0.022647345 -0.007756349 0.042453777 -0.0031300485 0.002728866 0.07448222 -0.010676315 0.035392754
0.057907287 0.03013129 -0.02666419 -0.03244323 -0.04817038 0.012734841 0.051242847 -0.01588206
0.003255271 0.025017127 0.053856313 -0.0011353347 0.024110546 0.07750156 -0.03218612 -0.013597274
0.03938383 0.026076116 0.027402885 -0.020567728 0.043194514 0.05627658 -0.04953503 0.036259614
0.02210292 0.014661498 0.019435922 -0.01650652 0.0063344124 0.06525175 0.03626367 0.08530548
00000000: 0412 a83d 2b34 123d 4611 f13c 3ca3 e23a
00000010: 9002 8d3d 4098 9b3d 684f a8bb 3b92 b8bb
00000020: 5d78 363d 0023 60bc 3878 c3bc ab17 febc
00000030: c417 bbbc 0f96 a83b b71d 24bd 2873 493d
00000040: 9b78 5f3d 0d22 303d 90e2 d53d 0080 68bd
00000050: b2cd 8e3d 7632 c6bc 6f66 c13c 6d44 04bd
00000060: 5c6e 883d 626c 773d 5752 89bb c147 32bd
00000070: be1d 893d 72cb 08bd ef5a 753d f336 1f3b
00000080: 68c6 1fbc fefa b13d 897a f9bc 11fc 883b
00000090: 6c0d ecbb bbaf a73c c6a9 a23d 1239 cc3c
000000a0: ed2e 31bd b56a a13d af2a 57bd 1c52 4ebd
000000b0: a962 8d3d e771 42bd 052c 3b3d e3a0 013d
000000c0: 61c9 703c 3d38 683d 4f01 3dbd a195 9b3d
000000d0: 4297 013d f7bf 233d 1f1c 9b3d a312 813c
000000e0: fe6d 4e3d a90b 56bb 1630 9cbc e3ce 273d
000000f0: 21a5 54bd 6999 77bc 54ee 8a3d dff2 923c
00000100: 23c0 903d d283 13bd 39a9 8e3c ccfa 333d
00000110: 6a9b 3fbd f410 243d 0632 1a3d fb27 1cbd
00000120: 2877 873c d4e3 15bd 98c4 a8bc 84d8 45bd
00000130: f0ef e4bc 8827 d13c d726 a43b 2c72 2b3d
00000140: ee8f a6bb c931 763d 4e9e 8d3d 2fdd bd3c
00000150: 1efb f93c 7e8b 2abc 1602 903d ea5e 263d
00000160: 4ad1 263d b5c7 81bd 9a1d b7bc 7f29 78ba
00000170: c883 573d c493 6b3c 0aa7 563d 13b1 713d
00000180: ecb7 20bd 3646 08bd 0a78 133c ff7c 873d
00000190: e53c 5c3d deaa 5a3d d90c 29bd 40ce ffbc
000001a0: ec81 0d3d 3a1c 423d cd24 19bd dbc0 963d
000001b0: e76e 3eba bc71 f839 e8ce c83c 3ca5 a93d
000001c0: 1ea2 3ebd 0807 4abd 528d ff3c 4a1e c7bb
000001d0: c8a7 92bc fcc6 94ba 6463 1a3c 6710 6e3d
000001e0: 6292 503d 2c26 5d3d 394c 773b 5736 1d3c
000001f0: 7dfe 7dbd c7f9 4abc e994 463d cca3 943d
00000200: b914 e73c bafc dabc df64 18bb e7ad ddbc
00000210: 1416 c1bc cc02 d6bb ea07 303d 4a23 e23c
00000220: 50e1 c13c 871f 43bd 2a17 2dbd 0511 cfbc
00000230: 0b2f e13b 94ea cc3b 11fe 2ebd d8cc a03d
00000240: 2929 5c3c ca11 a53c 804d 153d fa2d 0cbd
00000250: 4fd3 8c3c 5615 0c3d 5580 373d e3f1 ba3c
00000260: a370 023c 7b83 94bc 6945 f43c 2ecb 313c
00000270: da39 893d 9c09 af3b 35dc a63d da6f 4e3d
00000280: 5572 29bc b658 6fbd d325 a13d e53f a33d
00000290: 3648 e9ba 3573 19bd 52d3 123d f621 a8bb
000002a0: 5bf9 673c b864 fc3c 70d5 793d fd45 48bd
000002b0: bcf8 363d 0458 44bd c54f e83b 84c8 593d
000002c0: 61b7 b63c e3a9 47bd 8d5c 14bc 24a6 4e3d
000002d0: 1bb6 c23c 8d18 4e3d bd3f a63d 2160 c3bc
000002e0: 61be 3f3d 11d1 853d d3ce a83d a6be 973d
000002f0: 7f47 1bbd e4d6 c23b 77fa 2b3c e867 903d
00000300: dab9 bb3d bcf3 0ebd c30f bc3d 83f9 f83c
00000310: c697 a6bc fd77 0ebd d835 0f3d 8704 fe3a
00000320: 88d8 0b3d f5e5 09bd 196d 543c 4edc 87bc
00000330: cb3f 1d3d 7b85 b83d 0375 c13b b8eb 993d
00000340: ae80 9b3b fbb8 413d 6243 a73c 3704 5ebc
00000350: 4f71 dcbc 1846 d5bc d670 563d 1495 2f3c
00000360: ed86 b93c f928 febb 03e4 2d3d 8021 4dbb
00000370: c6d6 323b 228a 983d b6eb 2ebc fef7 103d
00000380: 3130 6d3d e5d5 f63c dc6e dabc 31e3 04bd
00000390: 4e4e 45bd cba5 503c 05e4 513d 181b 82bc
000003a0: 6256 553b b8f0 cc3c 7098 5c3d 83cf 94ba
000003b0: 7b83 c53c 23b9 9e3d 98d5 03bd 1ac7 5ebc
000003c0: f050 213d 949d d53c 047c e03c a77d a8bc
000003d0: bbec 303d 4582 663d 3ee5 4abd f684 143d
000003e0: 2f11 b53c c836 703c 1538 9f3c ae38 87bc
000003f0: e790 cf3b b6a2 853d 3789 143d a4b4 ae3d

weight f4 [256, 256]
-0.07834837 -0.07088188 0.03861194 0.009620778 0.002627956 -0.054969154 0.009695503 -0.008090949
-0.013653769 0.019606154 -0.020158267 0.0020173849 0.058248874 -0.0284264 0.029695092 0.062121082
-0.0077621182 -0.025990145 0.042386264 0.036153015 -0.042008087 -0.007485717 -0.022360548 0.04642847
0.05115646 -0.01555077 0.02485778 0.010774642 -0.00812973 0.0028262574 -0.019021984 0.013745358
0.07855671 -0.058084566 -0.0127691375 -0.009820008 0.011909683 0.031128861 0.038295697 -0.011717714
0.0068339757 0.015407976 -0.054040868 -0.04526715 0.061689805 -0.036194492 -0.03550485 -0.03753351
-0.036625646 -0.03495483 -0.052502662 0.018437216 0.068015054 -0.07190108 -0.049269743 -0.019796045
-0.036255326 -0.014925652 -0.022020927 0.015447025 -0.028022518 -0.021269921 -0.079328366 0.06773222
0.050348394 0.021053161 0.055728022 0.03632429 0.027503034 0.014902672 -0.05596759 0.012740091
-0.076240495 0.046214204 -0.03926861 0.021548292 -0.008729929 0.045949582 0.0007518324 -0.04466731
0.07199672 -0.004994702 -0.045901697 0.015876072 -0.056796763 0.037264124 -0.022587826 -0.0002212999
-0.0496537 -0.028177314 -0.0053705475 0.009351979 0.022918584 -0.02683405 -0.047366336 -0.019064488
-0.055177532 -0.05498273 -0.023828885 0.043541495 -0.06364584 -0.028419618 -0.032763444 0.07619162
0.046714127 0.06849771 0.0051417276 0.012597166 -0.030714406 -0.03223416 0.012095249 -0.048894916
-0.06243327 -0.018457098 -0.06261017 -0.022981917 0.03996826 -0.09373254 0.04843436 -0.028971467
-0.014241881 0.050094895 -0.05099069 0.00015843869 -0.05600871 0.06861367 0.012424261 0.057045884
-0.09253973 0.028820729 0.008701026 -0.08976221 -0.053002335 0.022052802 -0.009803669 -0.0048882873
-0.0046092533 0.025896043 -0.07960982 -0.014858534 0.024868328 0.036640286 -0.06245224 -0.055933155
-0.056853842 -0.0058915294 0.09098873 0.0062654433 0.05463021 -0.027382556 -0.019331606 -0.05936893
0.058539223 0.019717466 0.006427439 -0.03168712 0.04721637 0.00030286817 0.051914465 0.026697254
0.016441246 -0.011356674 0.0034444197 0.047342557 -0.013697006 0.03984444 -0.03709946 -0.0004849602
-0.007512876 -0.03326975 -0.05669302 -0.015887303 0.009076383 0.025842028 0.05524997 -0.059716124
-0.023169348 0.035424046 -0.033072025 0.030260572 -0.059746787 -0.020253433 -0.055669736 0.01338288
-0.05711787 -0.06597612 -0.08076338 -0.017625019 -0.03063467 -0.048998367 0.02379173 -0.052862544
0.06396404 -0.05835808 0.076997355 -0.03235247 -0.0439633 -0.04738964 -0.040381942 -0.019950802
-0.0029568733 -0.047928456 -0.04282301 0.032917365 0.06292602 0.00485928 0.02690954 -0.033216372
-0.007978942 0.015449975 -0.003677763 0.037049893 0.03397334 -0.051639106 0.01319679 -0.02986757
0.011426442 -0.046726994 0.017292935 -0.062029775 0.056642115 0.025244478 0.021101873 0.010503819
-0.034722134 -0.03883199 -0.12935835 -0.05659189 0.053416602 0.0075611076 -0.078366905 0.058212563
-0.06547375 0.031065146 0.011996102 -0.050543502 0.020942476 0.03311798 0.010806289 0.07290874
0.018551446 -0.044295732 0.062553 0.058069278 -0.0064394563 -0.030436236 -0.0014554256 1.911062e-05
0.04799109 -0.0526968 -0.031056523 0.06554016 -0.014412291 0.030383768 -0.06935761 0.032370504
00000000: 1c75 a0bd 852a 91bd 8e27 1e3d 78a0 1d3c
00000010: c939 2c3b 5627 61bd e3d9 1e3c e68f 04bc
00000020: 0fb4 5fbc 169d a03c f322 a5bc 1a36 043b
00000030: 5f96 6e3d 7bde e8bc 1f43 f33c ad72 7e3d
00000040: 5e59 febb 49e9 d4bc 389d 2d3d 2f15 143d
00000050: ac10 2cbd bf4a f5bb 782d b7bc c82b 3e3d
00000060: 7089 513d a8c8 7ebc 8ba2 cb3c 2088 303c
00000070: 8f32 05bc bb38 393b fed3 9bbc 3634 613c
00000080: 57e2 a03d 15ea 6dbd a535 51bc 19e4 20bc
00000090: d520 433c f401 ff3c f3db 1c3d a8fb 3fbc
000000a0: 8bef df3b bc71 7c3c f559 5dbd 0c6a 39bd
000000b0: 73ae 7c3d ad40 14bd 896d 11bd bdbc 19bd
000000c0: c604 16bd cc2c 0fbd 080d 57bd a509 973c
000000d0: 7a4b 8b3d e040 93bd 12cf 49bd 512b a2bc
000000e0: 7780 14bd b98a 74bc 3b65 b4bc 8515 7d3c
000000f0: 7b8f e5bc 423e aebc e976 a2bd 31b7 8a3d
00000100: 1e3a 4e3d ae77 ac3c 1143 643d c7c8 143d
00000110: 0b4e e13c 562a 743c 463e 65bd d1bb 503c
00000120: fa23 9cbd 1b4b 3d3d 1fd8 20bd 0b86 b03c
00000130: fa07 0fbc a135 3c3d 9e16 453a 12f5 36bd
00000140: 0473 933d 99aa a3bb 6b03 3cbd 890e 823c
00000150: b9a3 68bd 44a2 183d 1b0a b9bc bd0c 68b9
00000160: ae61 4bbd 1cd4 e6bc 6bfb afbb 0b39 193c
00000170: c1bf bb3c 15d3 dbbc 3403 42bd 212d 9cbc
00000180: d601 62bd 9235 61bd cb34 c3bc 9158 323d
00000190: c058 82bd 42d0 e8bc f632 06bd 5a0a 9c3d
000001a0: 5057 3f3d 8748 8c3d f07b a83b 5864 4e3c
000001b0: c79c fbbc f707 04bd 272b 463c 0946 48bd
000001c0: 07ba 7fbd 5733 97bc c339 80bd 9344 bcbc
000001d0: c2b5 233d d9f6 bfbd 1c63 463d 9255 edbc
000001e0: c756 69bc 4e30 4d3d 9ddb 50bd 9022 2639
000001f0: 6469 65bd 5385 8c3d 218f 4b3c f2a8 693d
00000200: 7885 bdbd 7319 ec3c c08e 0e3c 40d5 b7bd
00000210: fa18 59bd 14a8 b43c 919f 20bc ed2d a0bb
00000220: 3809 97bb f023 d43c 790a a3bd 3571 73bc
00000230: aab8 cb3c 2014 163d eccd 7fbd 2a1a 65bd
00000240: 93df 68bd bb0d c1bb 4d58 ba3d 594e cd3b
00000250: edc3 5f3d 6251 e0bc 515d 9ebc d62c 73bd
00000260: d3c6 6f3d 8686 a13c 449d d23b 5bca 01bd
00000270: f465 413d 47ca 9e39 43a4 543d 33b4 da3c
00000280: cbaf 863c 5811 3abc c6bb 613b 45ea 413d
00000290: 6869 60bc ec33 233d 9af5 17bd 4242 feb9
000002a0: 922e f6bb dd45 08bd f136 68bd 1726 82bc
000002b0: 1cb5 143c a9b2 d33c cb4d 623d e598 74bd
000002c0: a5cd bdbc ce18 113d 8876 07bd 05e5 f73c
000002d0: 0cb9 74bd 87ea a5bc f305 64bd de43 5b3c
000002e0: 6df4 69bd 7d1e 87bd 4567 a5bd 5862 90bc
000002f0: 8ff5 fabc 83b2 48bd e0e6 c23c 6586 58bd
00000300: 94ff 823d e208 6fbd cab0 9d3d 0684 04bd
00000310: dc12 34bd a41b 42bd 8967 25bd dd6f a3bc
00000320: 1ac8 41bb a150 44bd 2e67 2fbd 5cd4 063d
00000330: 5bdf 803d 983a 9f3b 6571 dc3c e40d 08bd
00000340: 1cba 02bc e421 7d3c a006 71bb a1c1 173d
00000350: a127 0b3d 8783 53bd 5937 583c d6ac f4bc
00000360: f935 3b3c ce64 3fbd eaa9 8d3c ef12 7ebd
00000370: 9001 683d 82cd ce3c d6dd ac3c 3618 2c3c
00000380: cc38 0ebd 4b0e 1fbd 8476 04be e6cc 67bd
00000390: 5ecb 5a3d 2bc3 f73b d47e a0bd 4c70 6e3d
000003a0: 1a17 86bd 557c fe3c 4c8b 443c b406 4fbd
000003b0: 8e8f ab3c b8a6 073d dc0c 313c 2d51 953d
000003c0: 34f9 973c 716f 35bd ca1b 803d 0dda 6d3d
000003d0: 1302 d3bb 6a55 f9bc fbc3 beba be4f a037
000003e0: 4e92 443d 9ad8 57bd 406a febc eb39 863d
000003f0: 8821 6cbc 61e7 f83c 5d0b 8ebd ef96 043d

bias f4 [256]
-0.029078513 -0.016546935 -0.037451655 -0.044581436 -0.0126917055 0.045959916 0.047973324 0.03270974
-0.024083193 -0.026558092 0.05068062 0.009430171 0.06680899 0.039398335 -0.026495373 -0.050282087
-0.001314534 -0.038424432 -0.045817137 0.03359615 0.0138539765 0.0012690753 -0.040285163 -0.0084660845
0.046011258 0.0032196457 0.048657853 0.06317077 0.054891106 0.040973265 0.012475807 -0.0033600493
-0.017332627 -0.029035373 0.07880075 0.011817141 0.00645988 -0.042479847 0.007705895 0.0036427185
0.068461165 0.009246461 0.050715163 0.028305897 -0.018647673 -0.037190434 0.03644048 -0.0009420737
0.010978864 0.0044620656 -0.017572764 0.06920937 -0.008239173 0.04158975 -0.03236076 0.006191439
-0.020656362 0.018146064 0.048440497 -0.0018618484 0.009041557 0.019254565 0.065004095 -0.028806323
0.009703435 -0.032425214 0.04494031 0.008380989 0.051994372 0.00019929695 0.0693459 -0.021086356
0.0378098 0.056732472 -0.0002485799 0.013561105 -0.056591637 -0.006038524 0.020520546 -0.042646214
0.07314352 -0.0069208965 0.06178186 0.07274183 0.0011345627 -0.009669453 0.005484411 -0.03665753
0.04518906 -0.028239595 0.024750648 -0.010294184 -0.03461266 0.07000083 0.0767832 -0.014213617
0.06481318 -0.02704851 0.034724906 -0.04081894 -0.0435488 -0.016920751 0.06403984 -0.013248248
-0.0010674719 0.062759526 -0.0003578527 -0.024166454 0.008800737 -0.012069175 -0.040638376 0.033339184
0.045739237 0.02806808 0.06441195 0.016198898 -0.025498832 0.025193991 -0.009461262 0.005368317
-0.0017439986 -0.012744402 0.018740335 0.054573942 0.07934451 -0.035630666 0.057979457 -0.00011624608
0.026121583 0.027374404 0.047047094 0.0061552064 0.058527872 0.028823415 0.011695075 0.069571875
-0.0368935 -0.005464366 0.004488704 0.058363546 -0.013138413 -0.010134397 0.027163472 -0.033267837
0.020800693 -0.023288544 -0.044721145 -0.0221559 0.034957245 0.042801592 0.045528453 0.02237602
-0.0082069095 -0.021606095 -0.024600847 -0.0350174 0.075160764 0.03274225 -0.041016776 -0.03915299
0.04005189 0.053856198 0.05132859 -0.00901614 0.005185709 0.04452588 0.0015516208 -0.03364861
0.07290691 0.04380113 -0.02452857 0.01121857 0.007509906 -0.007856906 0.020541599 -0.03670377
0.012996173 0.038625557 0.032344375 0.028968325 -0.040389836 -0.013711814 -0.03425299 0.005827509
0.011930984 -0.03339579 -0.03268984 -0.015730267 0.06879926 0.017915832 -0.026671598 -0.015157648
0.07090836 0.061703358 0.049030017 0.047564957 0.026036248 0.040853668 -0.039078552 0.008439891
0.009834798 0.05507812 0.011193304 -0.013464099 -0.0096318945 -0.041017268 0.02290396 0.053856008
0.07197062 -0.020347549 -0.003363614 -0.015642991 0.056355443 0.04974223 0.062059466 0.018241314
0.01465059 0.035074554 0.02248834 -0.010085241 -0.042325526 0.06099608 0.032682687 0.0052682767
0.006713252 0.018683147 -0.021158932 0.029954787 0.011913295 0.06474968 0.05250011 0.019563187
-0.03465827 -0.017009798 0.07644148 0.002675622 -0.05240695 -0.02589459 -0.015860789 0.014554873
0.054079574 -0.015114885 -0.013399812 0.067214556 0.05500625 0.06479941 -0.040066767 0.039179254
0.06667836 0.04314998 0.035225715 0.0005722838 -0.04157117 0.036559217 0.031261493 0.046554256
00000000: 1036 eebc 708d 87bc e866 19bd 069b 36bd
00000010: dff0 4fbc 7740 3c3d ad7f 443d a6fa 053d
00000020: 1e4a c5bc 5b90 d9bc 7b96 4f3d 0181 1a3c
00000030: 27d3 883d 2660 213d d30c d9bc 97f4 4dbd
00000040: 714c acba f062 1dbd c0aa 3bbd 1e9c 093d
00000050: cafb 623c 1a57 a63a 0e02 25bd 55b5 0abc
00000060: 4d76 3c3d b100 533b 754d 473d ad5f 813d
00000070: 7fd5 603d 95d3 273d 5467 4c3c 4634 5cbb
00000080: 27fd 8dbc 97db edbc 4a62 a13d af9c 413c
00000090: 67ad d33b 59ff 2dbd bc81 fc3b adba 6e3b
000000a0: 5e35 8c3d 787e 173c b4ba 4f3d c5e1 e73c
000000b0: 01c3 98bc ff54 18bd 9d42 153d 7ff5 76ba
000000c0: b1e0 333c 8536 923b c2f4 8fbc a4bd 8d3d
000000d0: 99fd 06bc 045a 2a3d b78c 04bd 8ee1 ca3b
000000e0: 8837 a9bc 0ea7 943c 8b69 463d 4409 f4ba
000000f0: 0a23 143c c0bb 9d3c de20 853d 3dfb ebbc
00000100: 28fb 1e3c 4dd0 04bd 5513 383d 6a50 093c
00000110: 0df8 543d 5efa 5039 3905 8e3d 4bbd acbc
00000120: 73de 1a3d 4f60 683d d453 82b9 662f 5e3c
00000130: a2cc 67bd d0de c5bb b41a a83c ccad 2ebd
00000140: 45cc 953d b0c8 e2bb fa0e 7d3d abf9 943d
00000150: 9bb5 943a a06c 1ebc 93b6 b33b 3526 16bd
00000160: 2a18 393d b956 e7bc dfc1 ca3c f0a8 28bc
00000170: 01c6 0dbd 985c 8f3d 8340 9d3d 3be0 68bc
00000180: c6bc 843d d694 ddbc b43b 0e3d c331 27bd
00000190: 3a60 32bd 639d 8abc 5227 833d 2e0f 59bc
000001a0: 6aea 8bba 1188 803d 2d9e bbb9 baf8 c5bc
000001b0: f730 103c cabd 45bc 6d74 26bd ab8e 083d
000001c0: 1159 3b3d 08ef e53c 6aea 833d 8db3 843c
000001d0: ede2 d0bc a163 ce3c 6903 1bbc b5e8 af3b
000001e0: e296 e4ba e5cd 50bc 5585 993c ed88 5f3d
000001f0: 607f a23d 76f1 11bd de7b 6d3d 24c9 f3b8
00000200: eefc d53c 4940 e03c 74b4 403d 9db1 c93b
00000210: ecba 6f3d 151f ec3c b39c 3f3c b37b 8e3d
00000220: a31d 17bd 6d0e b3bb fa15 933b 9d0e 6f3d
00000230: 8042 57bc be0a 26bc ee85 de3c db43 08bd
00000240: 3766 aa3c 9ec7 bebc 852d 37bd 4a80 b5bc
00000250: 542f 0f3d b950 2f3d 0b7c 3a3d ea4d b73c
00000260: 4676 06bc 44ff b0bc b787 c9bc 686e 0fbd
00000270: e3ed 993d bd1c 063d 3501 28bd e35e 20bd
00000280: 730d 243d 5198 5c3d ed3d 523d 6fb8 13bc
00000290: e1ec a93b c560 363d c15f cb3a 20d3 09bd
000002a0: 3850 953d d068 333d 24f0 c8bc 18ce 373c
000002b0: a815 f63b 41ba 00bc db46 a83c b156 16bd
000002c0: e7ed 543c d535 1e3d 897b 043d fb4e ed3c
000002d0: d06f 25bd 84a7 60bc dd4c 0cbd b0f4 be3b
000002e0: 2d7a 433c 06ca 08bd c8e5 05bd c3dc 80bc
000002f0: a0e6 8c3d 39c4 923c 657e dabc c957 78bc
00000300: 6738 913d a9bc 7c3d b3d3 483d 79d3 423d
00000310: f849 d53c 2d56 273d d510 20bd 7847 0a3c
00000320: 2222 213c 9899 613d 1f64 373c 8698 5cbc
00000330: 18cf 1dbc b901 28bd 16a1 bb3c 1e98 5c3d
00000340: 5565 933d e7af a6bc 1470 5cbb bb25 80bc
00000350: f7d4 663d 82be 4b3d 1132 7e3d cf6e 953c
00000360: 0709 703c 56aa 0f3d 7839 b83c 913c 25bc
00000370: 885d 2dbd 07d7 793d 48de 053d 82a1 ac3b
00000380: d7fa db3b 660d 993c 7f55 adbc be63 f53c
00000390: fb2f 433c 7b9b 843d 5b0a 573d fa42 a03c
000003a0: d5f5 0dbd 2258 8bbc 5a8d 9c3d 7d59 2f3b
000003b0: aca8 56bd e420 d4bc 7cee 81bc 9077 6e3c
000003c0: 8b82 5d3d 6ca4 77bc e38a 5bbc c9a7 893d
000003d0: 3c4e 613d 8eb5 843d 0d1d 24bd 6d7a 203d
000003e0: aa8e 883d 09be 303d d748 103d 5105 163a
000003f0: 8846 2abd 1ebf 153d 0d0c 003d adaf 3e3d

weight f4 [128, 256]
-0.10852765 0.04397861 0.09509118 0.07725759 -0.07909729 -0.10784278 0.07742132 0.02742554
-0.024959225 -0.037310753 -0.06893519 0.049214754 0.061058026 0.018509896 0.08125464 0.099728465
0.0766483 0.036725644 0.029707324 -0.0068750684 -0.022870857 0.09715461 0.12019594 -1.8264078e-05
0.047138423 0.04215698 0.035049964 0.07834699 0.026324319 0.064907104 -0.059894137 0.03552503
-0.068698816 0.076454796 0.0180994 -0.015101878 0.032468528 0.05074928 0.0974565 0.049181122
-0.022835772 -0.11872323 0.10510053 0.015778467 0.085468516 0.07375328 0.043899983 -0.0013054853
-0.016384108 -0.017827548 0.06782615 -0.053479426 0.042354695 0.093095034 0.02593172 -0.079245076
-0.02959689 -0.04539684 -0.012395119 -0.054410167 0.07015364 0.05885682 0.032589108 0.095416345
0.0075982814 0.022282496 -0.029451188 0.036930617 -0.02825223 -0.053421006 0.08157648 0.00268547
0.020596124 -0.0067257527 -0.06942093 -0.00096884026 0.03050366 -0.019303342 0.057985242 -0.056641683
-0.021708662 0.0034829627 0.07197294 -0.0671126 0.04658543 0.030348988 -0.0072213723 0.048639253
-0.041709103 0.0057142517 0.00057564327 -0.00043294375 -0.05084101 0.012624988 -0.025695559 0.053193223
-0.042358905 0.07525245 0.013099375 -0.022982337 -0.0072764037 -0.011113087 -0.028983206 0.052195627
6.744256e-07 0.0813526 0.041652314 0.03881043 0.036970906 0.0879397 0.09321856 0.007305974
-0.011580631 -0.037539855 0.11086112 0.036407687 0.03781232 -0.047271345 0.0067960005 0.01665586
0.028417898 0.08535614 0.06971965 -0.0078395605 0.014342009 -0.044528764 -0.03857938 -0.038025394
0.043209963 -0.03161802 -0.07119449 0.051963948 0.098708495 0.025083978 -0.07432564 -0.046515763
0.03001224 0.032469783 0.029398607 0.03387174 0.0073877038 0.017606545 0.073389575 0.07141445
-0.05103769 0.002430877 0.04161758 -0.028368333 -0.06404433 0.09783913 -0.04626691 0.076074034
-0.008001276 0.00069110934 0.04302391 0.0141706 0.022155235 -0.04209184 0.07539336 -0.011291382
-0.010329652 -0.03247378 -0.013378941 0.043734603 0.010659013 0.04653371 0.0007855078 -0.024138555
-0.02474277 0.0016003544 0.01760785 0.05772175 0.012780993 0.092631824 0.00033103363 0.056885775
0.008219351 -0.028979914 0.008329212 0.0010394957 -0.06816218 0.0007445822 0.009177124 0.012001616
0.051841523 -0.0011110363 0.022515923 -0.048107143 0.057371456 -0.06346518 0.06755711 0.030796073
-0.011695979 -0.014300009 0.038970515 -0.05049006 0.038753636 -0.010064974 0.009348408 0.068212844
-0.013282476 0.097017884 0.06673669 -0.010969165 -0.03419628 -0.02125993 -0.03634274 0.1104834
-0.04791409 0.024076179 0.04647324 0.023532238 0.09000035 -0.027420785 0.009378381 -0.002407775
0.058530614 0.086377725 -0.077615306 0.019741047 0.06412645 0.010706388 -0.023217693 0.0066880984
-0.009128951 -0.04887097 -0.04689274 0.007944017 -0.060458206 0.06524175 -0.09147932 -0.016987035
0.07994144 -0.046454553 0.03267812 0.06516087 0.053160824 -0.06584446 0.029006803 -0.039395206
0.03754143 0.06961589 -0.049688764 0.07524803 -0.009699724 0.046969865 0.04597216 -0.009115558
-0.0028293303 -0.073052034 -0.09294872 0.05589096 0.002701454 0.008971844 0.08531549 0.06528274
00000000: bf43 debd ea22 343d 2abf c23d 3a39 9e3d
00000010: c3fd a1bd addc dcbd 128f 9e3d 87ab e03c
00000020: 4a77 ccbc 29d3 18bd e52d 8dbd 6995 493d
00000030: fb17 7a3d 11a2 973c d568 a63d 703e cc3d
00000040: c9f9 9c3d a16d 163d c65c f33c 4148 e1bb
00000050: aa5b bbbc fff8 c63d 4a29 f63d cf35 99b7
00000060: 3814 413d ccac 2c3d 8d90 0f3d 6374 a03d
00000070: 19a6 d73c 04ee 843d 8e53 75bd b282 113d
00000080: f7b1 8cbd 5594 9c3d 3145 943c de6d 77bc
00000090: b8fd 043d 7ade 4f3d 4697 c73d 2572 493d
000000a0: 1612 bbbc 2a25 f3bd f23e d73d d841 813c
000000b0: 1e0a af3d f60b 973d 78d0 333d d11c abba
000000c0: f737 86bc 140b 92bc 70e8 8a3d 3e0d 5bbd
000000d0: 1e7c 2d3d 9ca8 be3d c26e d43c 3e4b a2bd
000000e0: 2d75 f2bc 09f2 39bd e614 4bbc 32dd 5ebd
000000f0: b6ac 8f3d d913 713d 287c 053d a569 c33d
00000100: 01fb f83b c889 b63c 9e43 f1bc 8f44 173d
00000110: 3871 e7bc fccf 5abd 9211 a73d b6fe 2f3b
00000120: 34b9 a83c b463 dcbb 902c 8ebd c5f9 7dba
00000130: d0e2 f93c 0b22 9ebc ef81 6d3d 1c01 68bd
00000140: 5dd6 b1bc 6b42 643b 8c66 933d 5572 89bd
00000150: 5dd0 3e3d 719e f83c 43a1 ecbb f439 473d
00000160: 2ad7 2abd 9e3e bb3b c4e6 163a bafc e2b9
00000170: aa3e 50bd 0ad9 4e3c 7e7f d2bc 23e1 593d
00000180: 8880 2dbd f51d 9a3d c39e 563c 7445 bcbc
00000190: e66e eebb aa13 36bc 306e edbc 15cb 553d
000001a0: 2d0a 3535 319c a63d 9e9b 2a3d aff7 1e3d
000001b0: ce6e 173d bb19 b43d 5fe9 be3d f466 ef3b
000001c0: b0bc 3dbc 64c3 19bd 280b e33d 3a20 153d
000001d0: 17e1 1a3d 999f 41bd fcb0 de3b df71 883c
000001e0: a7cc e83c 33cf ae3d 2dc9 8e3d 8071 00bc
000001f0: bffa 6a3c cb63 36bd 6905 1ebd 84c0 1bbd
00000200: eefc 303d e681 01bd 6bce 91bd 26d8 543d
00000210: ae27 ca3d ea7c cd3c 0b38 98bd 5087 3ebd
00000220: 3bdc f53c 09ff 043d 59d5 f03c 18bd 0a3d
00000230: 8d14 f23b 9a3b 903c 464d 963d bd41 923d
00000240: e60c 51bd 594f 1f3b 3277 2a3d b564 e8bc
00000250: ac29 83bd e25f c83d 5f82 3dbd b4cc 9b3d
00000260: c917 03bc 902b 353a d739 303d ce2b 683c
00000270: e57e b53c 7e68 2cbd d567 9a3d 7dff 38bc
00000280: b33d 29bc 3a03 05bd 5933 5bbc 0e23 333d
00000290: 24a3 2e3c 229a 3e3d 89ea 4d3a 38be c5bc
000002a0: 59b1 cabc fcc2 d13a 563e 903c a46d 6c3d
000002b0: 5f67 513c c1b5 bd3d 958e ad39 0f01 693d
000002c0: 75aa 063c 4967 edbc 3f77 083c b03f 883a
000002d0: 9d98 8bbd 1130 433a a65b 163c 6da2 443c
000002e0: c757 543d 31a0 91ba 5073 b83c ff0b 45bd
000002f0: 55fe 6a3d 08fa 81bd 625b 8a3d 0c48 fc3c
00000300: 7ea0 3fbc 964a 6abc 8c9f 1f3d aace 4ebd
00000310: 22bc 1e3d 90e7 24bc 112a 193c 2db3 8b3d
00000320: be9e 59bc 50b1 c63d 3fad 883d 03b8 33bc
00000330: 6611 0cbd 4e29 aebc 20dc 14bd 1f45 e23d
00000340: 9141 44bd 683b c53c b95a 3e3d aec6 c03c
00000350: 1a52 b83d 8ea1 e0bc c8a7 193c c3cb 1dbb
00000360: ccbd 6f3d cee6 b03d c6f4 9ebd fab7 a13c
00000370: ba54 833d d969 2f3c 0833 bebc d627 db3b
00000380: 9891 15bc ed2c 48bd 9a12 40bd 9f27 023c
00000390: 06a3 77bd 779d 853d 8259 bbbd 6528 8bbc
000003a0: 56b8 a33d 2147 3ebd 7ed9 053d 1073 853d
000003b0: 2abf 593d 76d9 86bd ad9f ed3c de5c 21bd
000003c0: 0bc5 193d c792 8e3d 7286 4bbd a41b 9a3d
000003d0: 97eb 1ebc 7963 403d 4e4d 3c3d 6c59 15bc
000003e0: 496c 39bb 4e9c 95bd e65b bebd ebed 643d
000003f0: e10a 313b a4fe 123c e3b9 ae3d f5b2 853d

bias f4 [128]
-0.02260824 0.014051884 0.035555374 0.037879884 0.0054109595 0.019874373 0.0022143784 0.012010434
0.04035064 0.042097718 -0.02454494 0.043521963 -0.026763178 0.033231534 0.013107819 0.058740787
0.024741221 -0.0008139622 -0.019639635 -0.005595684 -0.0014995391 -0.008320453 0.019408397 0.05955816
0.015197698 0.021087999 0.063431054 -0.007968174 -0.05280716 0.05903523 -0.022746265 -0.015127825
0.047226388 0.036835916 0.014763242 0.047866184 0.02897047 -0.0011979562 0.047242492 -5.145994e-24
-0.03290466 -0.038291823 -2.6030474e-23 0.02493863 0.046186168 0.052603647 -0.022834402 0.027391044
0.039222404 -0.009866725 0.057959374 0.040286202 -0.03012882 -0.0128832515 0.04239868 0.058607414
0.054764368 -0.022372037 -4.4237166e-29 0.05291342 0.036422025 0.0495417 0.014564236 -0.016072696
-0.048052534 0.05526373 0.054647155 0.03825528 0.052886754 -0.0008412494 0.013325917 0.02527177
-0.009087401 0.05688773 0.059257712 0.0537103 0.015854543 0.06794394 -0.030403437 0.06385173
0.034531184 0.074874826 0.06729872 0.01476263 0.04886602 -0.012526157 -0.03461647 0.055445973
0.01875303 -0.05759749 0.057873614 -0.02058448 -0.044811107 -0.057233192 0.001334353 0.010020332
-0.0013825295 -0.004387703 0.022999423 -0.052067216 -0.044780403 -0.031077666 0.010530316 0.006355633
-0.020486046 0.044966497 -0.0287311 -0.008490851 0.03985742 -0.00076057407 -0.0052948757 -0.017742453
0.010835638 0.05405092 0.025274657 0.010280101 0.012070932 0.05461491 0.0073583983 0.031213133
-8.1745784e-05 0.04197741 0.064477295 -0.0015504948 -0.02420209 0.032099377 -0.025820235 -0.040493246
00000000: ea34 b9bc e039 663c 83a2 113d f027 1b3d
00000010: 6b4e b13b 95cf a23c 1b1f 113b 69c7 443c
00000020: b646 253d a86e 2c3d 7812 c9bc 1644 323d
00000030: 743e dbbc ca1d 083d 2dc2 563c 2e9a 703d
00000040: 1aae ca3c 1460 55ba 4de3 a0bc 005c b7bb
00000050: 2f8c c4ba 8252 08bc 5cfe 9e3c 42f3 733d
00000060: c4ff 783c bdc0 ac3c 24e8 813d f28c 02bc
00000070: 524c 58bd edce 713d 6056 babc b2da 77bc
00000080: 7570 413d 42e1 163d 86e1 713c 550f 443d
00000090: 7b53 ed3c bd04 9dba 5881 413d 7513 c798
000000a0: 09c7 06bd e3d7 1cbd 55c0 fb99 194c cc3c
000000b0: b52d 3d3d ec76 573d 360f bbbc 2f63 e03c
000000c0: aca7 203d 0ba8 21bc cf66 6d3d 2503 253d
000000d0: b7d0 f6bc 4614 53bc 3daa 2d3d 540e 703d
000000e0: 9a50 603d 9045 b7bc 204f 6090 bebb 583d
000000f0: 432f 153d 3dec 4a3d d59e 6e3c e3aa 83bc
00000100: bcd2 44bd 395c 623d b2d5 5f3d 92b1 1c3d
00000110: c89f 583d 4b87 5cba f254 5a3c be06 cf3c
00000120: 53e3 14bc 1c03 693d 37b8 723d 55ff 5b3d
00000130: 63e1 813c 3126 8b3d a110 f9bc b2c4 823d
00000140: 9270 0d3d f957 993d e9d3 893d f5de 713c
00000150: bc27 483d 833a 4dbc 00ca 0dbd 511b 633d
00000160: f49f 993c 58eb 6bbd e20c 6d3d c9a0 a8bc
00000170: da8b 37bd 5a6d 6abd 75e5 ae3a 522c 243c
00000180: fe35 b5ba b8c6 8fbb 4969 bc3c 6f44 55bd
00000190: a86b 37bd 9796 febc 5987 2c3c ea42 d03b
000001a0: 5ad2 a7bc ca2e 383d 7c5d ebbc 361d 0bbc
000001b0: 8941 233d 4361 47ba a380 adbb 9f58 91bc
000001c0: f687 313c 7f64 5d3d cc0c cf3c de6d 283c
000001d0: 29c5 453c e2b3 5f3d b81e f13b afb2 ff3c
000001e0: ef6e abb8 81f0 2b3d ac0c 843d f939 cbba
000001f0: 7643 c6bc a37a 033d f584 d3bc 3fdc 25bd

weight f4 [64, 128]
0.10421184 0.00011056925 -0.010801036 -0.0299897 0.011294655 0.089534216 0.08015165 0.07328326
-0.06593145 -0.03935659 4.3357136e-06 0.07774132 0.0079535125 0.10554443 -0.011090135 0.045968454
0.094399676 0.00019159766 0.12064763 0.0351176 -0.013228153 0.06608326 0.04718175 -0.09972447
-0.09964965 0.1155729 -0.044262838 0.10516433 -0.047848634 0.04888588 0.10725848 0.044741232
-0.03607751 -7.698571e-05 -0.025588578 -0.05603796 0.03037419 0.10298206 -0.047899213 1.615235e-34
0.043040078 0.098821625 2.3436063e-32 -0.092462584 0.08977213 0.017662361 0.118128054 -0.024219232
0.0038113068 0.11745186 -0.021086069 -0.094559826 0.10986003 0.04849017 -0.0014324755 0.03503924
-0.06207409 0.003399521 -1.6331156e-31 0.121549875 0.03254453 -0.0036092654 0.025871193 0.02501459
-0.04605935 -0.012175213 -0.057351153 0.06716708 -0.04404346 5.6506383e-19 9.017646e-06 -0.015754238
0.0018768203 -0.010630894 0.0043839123 0.043448072 0.08575723 -0.08543223 -0.07424659 0.083933406
-0.00377592 0.061235555 0.058213323 0.034272883 0.0014036435 0.09037758 0.04571711 0.11038306
0.05479138 0.015530892 -0.026155574 -0.054706022 -0.012117052 0.019599201 1.3644233e-05 0.018311033
-0.01704652 0.124252036 -0.081645936 0.08108779 0.020622361 -0.07829609 -0.060956758 0.007453256
0.10620609 0.091558225 -0.020778226 -0.012094625 0.0017911836 0.074083775 0.09478616 -0.023723736
4.3564087e-05 -0.07908233 0.005615813 0.002261399 -0.046554115 0.086001985 0.051154856 0.05650795
-0.007868047 -0.084903836 -0.07480808 -0.032492105 0.0063823257 0.061475977 0.08937056 0.09325111
3.7059433e-28 -2.7547336e-21 1.0055429e-33 1.3900893e-19 -4.433168e-21 -3.5297134e-21 -2.5483443e-21 -8.20738e-30
-9.971737e-22 5.636436e-36 -8.413122e-31 -4.6649846e-24 -2.7245757e-27 -4.296654e-21 4.0339793e-27 2.6572345e-19
-7.7674214e-21 -1.8011033e-27 -3.5024564e-21 -3.8999624e-28 2.5692435e-28 -3.844008e-20 -5.708118e-36 -1.8821568e-21
-2.2019306e-21 -2.3194585e-21 -6.7506366e-32 -9.31866e-22 -4.4696846e-21 1.8524678e-30 -9.5402884e-29 -1.0690425e-25
-2.72524e-21 -2.7832198e-19 3.620172e-19 -3.9860836e-21 -1.5825503e-20 -2.5404108e-21 -9.808761e-24 3.3421342e-21
-1.1996951e-21 -2.9989097e-20 -2.3192123e-28 2.8727763e-19 6.053292e-26 -1.9758934e-21 -2.2730775e-20 -5.5135195e-27
-5.9542085e-23 -5.3079277e-22 -1.04122054e-20 -8.864609e-22 -5.61794e-20 4.9138694e-29 -5.514113e-21 -1.7642496e-21
-2.7187664e-21 4.483266e-20 -1.8883878e-27 -2.0109387e-21 -6.261074e-36 -1.0130256e-20 -9.448175e-21 -9.276926e-21
-1.3101053e-21 3.3080244e-26 -2.4765032e-21 -3.3319063e-21 6.112903e-22 -5.3936294e-23 -9.271499e-34 -1.5189015e-20
-1.539303e-19 -1.9940522e-21 -6.5314194e-22 -3.6375114e-21 -1.9781598e-21 -3.2941406e-21 -2.7530923e-21 -9.774311e-22
-5.737998e-36 -1.1723675e-19 -2.134799e-20 -5.706639e-36 -6.970869e-36 4.6536684e-20 -1.7072614e-23 -5.062541e-21
-2.6871505e-21 -9.819728e-21 6.585293e-26 -2.0157002e-21 -4.94951e-22 -5.7153215e-36 -4.848656e-24 -3.143634e-32
-2.3286481e-21 -1.5388155e-21 -8.79261e-22 -3.99685e-30 -7.798245e-30 -1.0376726e-28 -1.5891004e-21 -3.4052863e-23
-2.7361294e-19 5.299111e-20 -2.638356e-21 -2.9931215e-21 -1.8496104e-21 -1.04160126e-20 -1.19915275e-20 -6.053314e-23
-4.2136548e-23 -4.0893548e-21 4.6208887e-22 2.5456918e-21 -1.8333483e-21 -4.3555664e-22 2.717048e-19 -1.987131e-21
-4.5784174e-22 -1.9009366e-21 -1.888174e-21 -3.3625292e-21 -8.261632e-22 -2.1841633e-21 -5.825167e-21 -3.597549e-21
00000000: 046d d53d 6ae1 e738 d4f6 30bc f6ac f5bc
00000010: 370d 393c b75d b73d 8c26 a43d 8915 963d
00000020: 1107 87bd 6034 21bd 7f7b 9136 d736 9f3d
00000030: 734f 023c ae27 d83d 66b3 35bc 6b49 3c3d
00000040: 9e54 c13d 9be7 4839 1b16 f73d 79d7 0f3d
00000050: e5ba 58bc a956 873d a741 413d 583c ccbd
00000060: 1e15 ccbd 7cb1 ec3d f34c 35bd 6560 d73d
00000070: eefc 43bd 8f3c 483d 55aa db3d 9542 373d
00000080: 03c6 13bd 6373 a1b8 239f d1bc 0f88 65bd
00000090: 4bd3 f83c 42e8 d23d f731 44bd 99b3 5607
000000a0: cb4a 303d fe62 ca3d be5f f30a 065d bdbd
000000b0: 73da b73d a8b0 903c 1fed f13d 6967 c6bc
000000c0: 1ec7 793b 9a8a f03d b1bc acbc 95a8 c1bd
000000d0: 4cfe e03d a19d 463d e7c1 bbba 4e85 0f3d
000000e0: 6741 7ebd 80ca 5e3b 93fd 538c 24ef f83d
000000f0: 6a4d 053d 6d89 6cbb d3ef d33c 66eb cc3c
00000100: bba8 3cbd 8b7a 47bc 0be9 6abd e58e 893d
00000110: ea66 34bd 04c7 2621 7f4a 1737 080f 81bc
00000120: a4ff f53a 342d 2ebc eca6 8f3b 9bf6 313d
00000130: 7da1 af3d 18f7 aebd 990e 98bd 47e5 ab3d
00000140: 6d75 77bb 22d2 7a3d 1871 6e3d b961 0c3d
00000150: 76fa b73a e117 b93d dd41 3b3d 8410 e23d
00000160: ed6c 603d 4875 7e3c 3744 d6bc 6c13 60bd
00000170: 9a86 46bc 818e a03c 89e9 6437 0501 963c
00000180: 25a5 8bbc da77 fe3d fc35 a7bd 5b11 a63d
00000190: 3af0 a83c b359 a0bd cbad 79bd 713a f43b
000001a0: 9482 d93d e182 bb3d 1937 aabc 8928 46bc
000001b0: 26c6 ea3a 3cb9 973d 3f1f c23d 4858 c2bc
000001c0: 95b8 3638 ebf5 a1bd db04 b83b fb33 143b
000001d0: 87af 3ebd cf21 b03d c187 513d e174 673d
000001e0: fbe8 00bc 10e2 adbd fb34 99bd 7116 05bd
000001f0: d422 d13b 3cce 7b3d ea07 b73d 70fa be3d
00000200: 5ee4 ea11 4c24 509d 1113 a708 df1c 2420
00000210: f87a a79d 4b59 859d 268c 409d 2777 268f
00000220: 4ab0 969c 5abf ef04 be82 888d c577 b498
00000230: f6dc 5793 b052 a29d 69cd 9f13 feda 9c20
00000240: f2b8 129e b7b2 0e93 ae51 849d 8230 f791
00000250: 5cd8 a211 3587 359f e7cb f284 3536 0e9d
00000260: 885f 269d da40 2f9d ad41 af8b d2d1 8c9c
00000270: 23dc a89d 404a 160e 03e0 f190 4f57 0496
00000280: cfe9 4d9d d44a a4a0 7eb2 d520 0997 969d
00000290: b877 959e b1f2 3f9d a2ba 3d99 4786 7c1d
000002a0: f54a b59c 989e 0d9f 5fff 9291 2b94 a920
000002b0: 4cdf 9515 564b 159d a4af d69e bb69 da93
000002c0: c4f6 8f9a 1a6c 209c 56ae 449e 4cf5 859c
000002d0: 5da6 849f ac29 7910 3b51 d09d 8d4d 059d
000002e0: 976c 4d9d 5cb7 531f 0e9d 1593 36f1 179d
000002f0: 8728 0585 ea5a 3f9e 9278 329e 763c 2f9e
00000300: 3efa c59c 31ce 2315 8a1e 3b9d 71c0 7b9d
00000310: 4cc0 381c f368 829a 980c 9a88 c974 8f9e
00000320: 94ba 35a0 94aa 169d 6966 459c da6b 899d
00000330: 2d77 159d f2e5 789d 8d04 509d 89b4 939c
00000340: 4411 f484 a268 0aa0 46a0 c99e ccbb f284
00000350: 0541 1485 66c3 5b1f bf1d a599 e441 bf9d
00000360: 0d09 4b9d 4a7d 399e 410b a315 504d 189d
00000370: fb96 159c 571a f384 c392 bb98 103a 238b
00000380: 9bf2 2f9d 0b8a e89c c3de 849c aa21 a28e
00000390: ce2a 1e8f 678a 0391 5823 f09c 67ab 249a
000003a0: 3883 a1a0 523e 7a1f 3a59 479d 6427 629d
000003b0: abc0 0b9d bfc0 449e 7883 629e 335c 929a
000003c0: 85c2 4b9a d07d 9a9d 65a8 0b1c d758 401d
000003d0: 1d86 0a9d 90a3 039c de62 a020 b424 169d
000003e0: ca5f 0a9c 76a1 0f9d 99aa 0e9d c610 7e9d
000003f0: 48b1 799c dd07 259d 8f11 dc9d 5ce9 879d

bias f4 [64]
0.08704384 -5.6147986e-21 -0.0011295982 0.064243294 -0.0114397425 -0.013160424 -0.068991855 0.019348742
0.0811176 -0.038280714 -0.023904406 0.09683571 0.04257611 -0.034342278 -0.039308444 -7.685666e-22
0.08771697 0.08326908 -0.012757855 -0.055999428 -0.072829895 0.013054044 0.042068996 -0.04002344
-0.04905588 0.017367436 0.0886613 0.067258276 0.08971867 0.020026563 -0.05496891 -0.002148963
0.093938425 0.009363634 0.052053247 0.009627858 0.04656552 -0.0055734813 0.025470417 0.05731556
0.016194988 0.05572493 -0.033826098 0.044322375 0.018293245 -0.008902753 0.020931447 -0.026297197
-0.05527744 0.098343566 0.058474254 0.034207694 -0.023580624 0.021709856 -0.05855969 0.024104986
-3.065254e-21 0.0054323976 -0.01717621 0.04378036 0.058527704 0.050177973 -0.0007038294 -0.013710138
00000000: 0a44 b23d 001f d49d 070f 94ba fd91 833d
00000010: c26d 3bbc d29e 57bc 9a4b 8dbd 4181 9e3c
00000020: fc20 a63d 3dcc 1cbd 2cd3 c3bc cd51 c63d
00000030: 4a64 2e3d 7daa 0cbd e401 21bd f648 689c
00000040: f4a4 b33d fb88 aa3d 5206 51bc a85f 65bd
00000050: d727 95bd a1e0 553c 8a50 2c3d 9eef 23bd
00000060: d2ee 48bd 2746 8e3c 0e94 b53d b5be 893d
00000070: 6cbe b73d bf0e a43c 1427 61bd 9ed5 0cbb
00000080: ca62 c03d ed69 193c c935 553d 2abe 1d3c
00000090: 7dbb 3e3d c0a1 b6bb 56a7 d03c b8c3 6a3d
000000a0: 5aab 843c d33f 643d 3c8d 0abd 618b 353d
000000b0: b7db 953c dadc 11bc 6d78 ab3c 386d d7bc
000000c0: 996a 62bd 5a68 c93d b382 6f3d 5e1d 0c3d
000000d0: 272c c1bc ded8 b13c 49dc 6fbd d277 c53c
000000e0: a39a 679d 4102 b23b 20b5 8cbc 0953 333d
000000f0: bfba 6f3d 6b87 4d3d 3181 38ba 7da0 60bc

weight f4 [16, 64]
-0.013239905 -8.1198965e-21 0.16443981 -0.05721459 -0.015387248 -0.0030086327 -0.03982958 -0.026093563
-0.05328054 -0.019465407 -0.033085626 -0.1087353 -0.010385059 -0.00010116619 0.12666422 -5.713563e-36
-0.036195703 0.0026732672 -0.14109266 -0.01095957 -0.061884236 -0.02172915 -0.13559465 0.07152833
0.092432365 -0.099165134 -0.015016236 0.003324805 0.11460466 -0.0056751617 -0.005393361 0.04081943
-0.04103212 -0.016659748 0.0115348045 -0.03764213 -0.07941533 -0.04749837 -0.08782703 -0.120911196
0.054485984 -0.053246006 0.08066828 -0.076969445 0.22712252 -0.009346118 0.13842697 -0.054916136
0.02489324 0.114762664 0.04140374 0.14895323 -0.09614615 -0.14236179 -0.027771985 -0.04805687
-3.7872835e-35 -0.024572521 0.0026161787 -0.0834419 0.026976453 0.11406511 0.24223155 0.16134605
-2.8917997e-34 2.8625074e-22 -6.4939257e-17 -3.0410054e-15 2.9498116e-26 -1.5865344e-20 5.495403e-21 -2.843938e-25
-2.7736319e-17 -5.461908e-16 2.4596959e-21 -5.715328e-36 -9.0635046e-20 -2.0286101e-35 -7.6430984e-27 -2.6776584e-20
1.4865941e-18 8.140404e-18 5.715142e-36 4.712627e-21 -6.2057615e-27 9.048945e-36 3.5914574e-19 -4.0528513e-25
-5.6323e-36 5.6179464e-36 2.2122722e-23 -1.0438062e-18 3.5624274e-21 -1.7862038e-35 2.79292e-21 -2.0706154e-28
-5.680821e-36 -3.4200033e-21 2.4735924e-18 -3.3446775e-25 -4.400608e-25 -5.8630292e-24 -7.4022977e-16 9.841397e-34
-1.0087501e-24 -3.8020082e-24 -1.4955802e-18 1.5367176e-15 1.2065817e-15 -5.9759105e-19 -2.937101e-15 5.6898156e-36
-1.3712499e-33 -1.3079749e-27 -2.6045385e-30 -9.210323e-23 -1.163386e-28 -8.505975e-31 -4.3010392e-32 5.581488e-23
-1.2616105e-21 -3.0087212e-25 -2.7259829e-34 -6.0056135e-22 -4.751986e-16 -3.9295234e-31 -4.272422e-24 1.1358298e-25
0.08638964 -6.975412e-23 -0.13565315 0.117753714 -0.0080130575 0.006181566 -0.047923025 -0.08317735
-0.00045680086 0.13926591 -0.11596836 0.14877798 0.21800987 0.004132633 -0.030849745 -9.184132e-24
0.15514675 -0.07552194 0.03544586 -4.2968016e-13 0.08122422 0.16041061 0.04956726 -0.111700855
0.1251388 0.014843502 0.10653249 -0.114370726 -0.15509903 0.1461919 0.0835901 -0.041634325
0.013078726 -0.022649894 -0.015708618 -0.011709429 0.03796268 -0.032161508 0.1639209 0.1158515
-0.15678118 -0.090290196 -0.093524285 0.036053464 -0.2229731 0.05022637 -0.025118137 0.02735683
-0.018572956 0.09448103 0.101942785 0.1011608 -0.04861316 0.12373715 0.11271165 -0.14487322
4.360889e-22 0.029434053 -0.0021130026 -0.02223171 -0.050194472 0.146752 -0.24521397 -0.09522417
0.11285255 1.2145717e-19 0.17046514 -0.018523451 0.0015366155 -0.0019003458 0.1459825 -0.067727916
-0.060306802 -0.020944448 -0.014564825 -0.079001956 -0.037474528 -5.0200193e-05 -0.025803495 -1.9389191e-20
-0.08437889 0.04909319 -0.11916851 0.0015401903 0.07826142 0.030949304 0.027948702 0.15169346
0.06735966 -0.06800904 -0.1145239 0.121078074 0.06545993 0.023211142 -0.003711932 0.02765179
0.09283093 4.693365e-05 0.0961594 -0.05337429 -0.17010778 0.08907309 -0.12849444 -0.052391227
0.006504761 -0.08734041 0.08520956 0.034915175 0.21891035 -0.0045263325 0.14400388 0.107844524
-0.0413978 -0.09442037 -0.04189849 0.07305015 0.08190618 -0.03140412 0.015024278 0.13618107
-5.7438945e-36 -0.03294626 -3.6597135e-06 -0.14957194 0.0313618 0.07728377 0.20692176 0.11760783
00000000: 30ec 58bc 6961 199e e962 283e d959 6abd
00000010: cc1a 7cbc 7b2c 45bb 5724 23bd 2bc2 d5bc
00000020: b23c 5abd eb75 9fbc cb84 07bd 9db0 debd
00000030: 1826 2abc 2f29 d4b8 44b4 013e 3107 f384
00000040: f241 14bd fb31 2f3b 987a 10be c58f 33bc
00000050: 537a 7dbd 5501 b2bc 53d9 0abe 727d 923d
00000060: 2e4d bd3d 1717 cbbd a906 76bc f9e4 593b
00000070: d9b5 ea3d b5f6 b9bb cbba b0bb 4632 273d
00000080: 4c11 28bd 067a 88bc 7afc 3c3c a22e 1abd
00000090: 81a4 a2bd a78d 42bd a8de b3bd 4aa0 f7bd
000000a0: b22c 5f3d 7c18 5abd 6935 a53d 28a2 9dbd
000000b0: ce92 683e 7620 19bc cdbf 0d3e beef 60bd
000000c0: e8ec cb3c b008 eb3d f896 293d 3287 183e
000000d0: 46e8 c4bd 4ac7 11be 1382 e3bc 48d7 44bd
000000e0: d55d 4986 504c c9bc 3274 2b3b 96e3 aabd
000000f0: b9fd dc3c f89a e93d 8c0b 783e e637 253e
00000100: 6c31 c087 2807 ad1b 5fbd 95a4 a620 5ba7
00000110: 4e11 1215 0cd8 959e 479c cf1d ff07 b096
00000120: 88d2 ffa3 c56d 1da6 70d9 391d 691a f384
00000130: 8601 d69f 05b8 d785 1d63 1794 cfe5 fc9e
00000140: f061 db21 f929 1623 6318 f304 bb09 b21d
00000150: e6d5 f593 2573 4005 9200 d420 fedb fa96
00000160: 5192 ef84 05f6 ee04 35f5 d519 e209 9aa1
00000170: af95 861d 18f1 bd85 ee06 531d a83d 8391
00000180: aaa2 f184 3e34 819d d784 3622 8806 cf96
00000190: 3531 0897 a1d0 e298 515b 55a6 ac84 a308
000001a0: b518 9c97 4415 9398 6cb5 dca1 df76 dd26
000001b0: 02e3 ad26 b460 30a1 f3a3 53a7 9b04 f204
000001c0: 85d6 e388 c441 cf92 264e 538e 23b1 de9a
000001d0: 097a 1391 7004 8a8d 9e52 5f8b bdf3 861a
000001e0: 31a6 be9c 173b ba96 322c b587 2f82 359c
000001f0: 78f7 08a6 680a ff8c 0548 a598 e29b 0c16
00000200: 0ded b03d b6a7 a89a a9e8 0abe dc28 f13d
00000210: 3349 03bc bc8e ca3b ef4a 44bd e358 aabd
00000220: c67e efb9 b99b 0e3e d280 edbd 4159 183e
00000230: fb3d 5f3e 0a6b 873b 9bb8 fcbc 9ea5 3199
00000240: cade 1e3e 3fab 9abd ae2f 113d 70e3 f1aa
00000250: e258 a63d ae42 243e 0a07 4b3d 6bc3 e4bd
00000260: 6324 003e 2932 733c b52d da3d 333b eabd
00000270: 48d2 1ebe 54b3 153e 4931 ab3d c188 2abd
00000280: 2748 563c 458c b9bc 5caf 80bc e8d8 3fbc
00000290: c17e 1b3d c9bb 03bd e1da 273e 8d43 ed3d
000002a0: 3f8b 20be 11ea b8bd a989 bfbd ccac 133d
000002b0: 0f53 64be 2bba 4d3d 8dc4 cdbc 6e1b e03c
000002c0: 5026 98bc 457f c13d 61c7 d03d 652d cf3d
000002d0: 981e 47bd e769 fd3d 5ed5 e63d a559 14be
000002e0: bfcc 031c af1f f13c 4d7a 0abb 461f b6bc
000002f0: b898 4dbd 2846 163e 5f19 7bbe e404 c3bd
00000300: 3d1f e73d 2d64 0f20 6a8e 2e3e 7ebe 97bc
00000310: 4368 c93a 0615 f9ba 707c 153e efb4 8abd
00000320: 4404 77bd b193 abbc 4ea1 6ebc c7cb a1bd
00000330: e47e 19bd 0c8e 52b8 da61 d3bc 3020 b79e
00000340: d7ce acbd f115 493d 9f0e f4bd 36e0 c93a
00000350: 8647 a03d 6589 fd3c adf4 e43c 8855 1b3e
00000360: ddf3 893d 5348 8bbd 828b eabd c8f7 f73d
00000370: db0f 863d 4b25 be3c e343 73bb 0286 e23c
00000380: 251e be3d 9fda 4438 38ef c43d 009f 5abd
00000390: bc30 2ebe f46b b63d 0c94 03be 2f98 56bd
000003a0: e425 d53b 87df b2bd 5a82 ae3d 3703 0f3d
000003b0: 092a 603e a151 94bb c175 133e 97dd dc3d
000003c0: bd90 29bd 785f c1bd c09d 2bbd 519b 953d
000003d0: 6dbe a73d 9ba1 00bd 6428 763c 0d73 0b3e
000003e0: 7951 f484 a8f2 06bd 6699 75b6 6329 19be
000003f0: 3b75 003d f446 9e3d 4ce3 533e 60dc f03d

bias f4 [16]
0.075529456 -8.239011e-21 0.029934827 0.02567084 0.112470366 0.06745145 -0.09493889 -0.041846324
0.095789425 0.06459801 0.09771133 0.09138277 -0.096750565 -0.082728654 -0.08916837 0.008658149
00000000: 30af 9a3d 6aa1 1b9e e239 f53c a74b d23c
00000010: dd56 e63d fc23 8a3d 526f c2bd 0d67 2bbd
00000020: 3f2d c43d f64b 843d e11c c83d e426 bb3d
00000030: 2925 c6bd a46d a9bd e89d b6bd e9da 0d3c
