nfl_data/models/model_objs/SmartBetterModel.pth (torch, 836927 bytes, 11 tensors)

weight f4 [256, 135]
000000 e7 bc 68 3d 94 f0 b5 3d 17 67 aa 3d 67 20 43 bd
       0.056820776 0.08883777 0.08320444 -0.047638323
000010 ba eb b5 3d 3e fe 99 3b ef 0d 26 bd 8b ec e6 bd
       0.08882852 0.0046994975 -0.04054063 -0.11275586
000020 a6 ef af 3c 44 a0 8b bb 0a 89 e3 3b 8c cf 31 be
       0.021476578 -0.0042610485 0.0069438266 -0.17364329
000030 a9 1a 0d be 2b db b1 bd 53 7e fc bd f0 8d 2b be
       -0.13779701 -0.08684381 -0.12328782 -0.16753364
000040 a8 12 ef 3d d1 14 64 bd dd 13 25 3d f8 d2 18 3d
       0.1167348 -0.055683915 0.040302146 0.03731057
000050 a2 6a b5 ba 33 cc 2c bb 8e e4 b7 bd b9 1b c6 bd
       -0.0013840983 -0.002636683 -0.0897914 -0.096732564
000060 c3 4b 1d 3d a8 3d ae 3b 39 72 8a bd 51 21 f6 3c
       0.03840233 0.0053174086 -0.067600675 0.030045183
000070 b3 3c 9b 39 ff 80 10 bd af 42 60 bc a5 f3 0f be
       0.00029609128 -0.03527927 -0.013687774 -0.14057787
000080 fd 44 82 3d 7e ec 81 3d c5 17 f3 bc f5 eb 5b 3d
       0.06360815 0.063439354 -0.02967442 0.053691823
000090 1a 95 33 3d 10 59 45 3c bf 5c 9c bd 09 33 25 3d
       0.043843366 0.01204516 -0.076348774 0.040331874
0000a0 44 ea ac bc fb ee 64 3d d1 37 2f bd 78 24 b1 3d
       -0.0211078 0.055891972 -0.04277784 0.08649534
0000b0 45 b8 87 3d 67 d1 35 3c b5 6d a9 3c 58 13 f3 bd
       0.066269435 0.011097289 0.020682195 -0.11868924
0000c0 5b 69 de bd a6 e6 bb 3d 82 16 2d 3c 8d 7b b8 3a
       -0.10859939 0.09174852 0.010564448 0.0014074907
0000d0 de 40 a0 3d 9f 0e 98 bc 2a 85 a6 3e 6b 49 14 be
       0.078248724 -0.01856166 0.3252347 -0.14481132
0000e0 a1 f8 bc bd 33 74 92 bd d6 fb ff bb 1b 83 23 bd
       -0.0922711 -0.071510695 -0.0078120036 -0.039919954
0000f0 8c a7 d5 bd 37 45 81 3c 21 da 23 3c 13 3c 5a be
       -0.10432348 0.015780075 0.010000736 -0.21311979
000100 4e b3 37 3e 09 4f da 3d 06 83 0d be 70 1b 23 3e
       0.17939493 0.10659606 -0.13819513 0.15928435
000110 35 76 c4 3d 5d 47 30 be 94 d0 a5 3c ef 64 81 bc
       0.09592859 -0.17214723 0.02024106 -0.0157952
000120 c8 77 d3 3d e2 30 ad 3d 18 9e 95 be a6 39 4b 3e
       0.10325581 0.08456589 -0.29222178 0.1984621
000130 0e a8 bf 3d 3d 77 50 3c 44 36 9b bc f2 fa 07 bc
       0.09358226 0.012723741 -0.018946774 -0.008299576
000140 d3 b0 b6 3d 4c 82 f5 bd e1 00 12 bb 01 df 09 3d
       0.08920445 -0.11987743 -0.0022278356 0.03365994
000150 f0 d8 16 bd 54 7f 47 bb 2b 11 8b 3d 28 ff 32 3d
       -0.03682798 -0.0030440884 0.06790384 0.043700367
000160 b7 e9 55 bd 65 e3 df 3d d0 2e 62 bb 67 3b c3 3d
       -0.05222484 0.10932044 -0.0034512766 0.095328145
000170 bc 58 21 be 03 06 57 3d d8 69 68 bd 17 be f1 3d
       -0.15756506 0.052495968 -0.056741565 0.11803835
000180 9f ee ba bd a6 5f 8d bb 0b 50 58 bd 46 7d 75 3d
       -0.091275446 -0.0043143807 -0.05281071 0.059933923
000190 ce 89 30 bd 05 22 d5 bd d1 85 78 3d 12 ef 22 bd
       -0.04310017 -0.10406879 0.060674492 -0.039778776
0001a0 0a 7c a2 3d 74 78 38 3e d8 9a 80 3c d2 1d 81 3d
       0.07933815 0.18014699 0.015698835 0.06304516
0001b0 5e de a7 bc 90 4e 62 be 76 1b 1e 3e 09 da 0a be
       -0.020491775 -0.22100282 0.15440163 -0.13559736
0001c0 fa 47 b1 3d 75 10 bd bd 9c 37 ff 3d 08 c7 c8 3d
       0.086563066 -0.092316546 0.124617785 0.09803587
0001d0 85 77 6b 3d 96 9d e2 bd 01 a3 57 bd 1a 57 fb 3c
       0.05748703 -0.110652134 -0.052645687 0.030681182
0001e0 63 e3 f1 3d 5f 20 0e be 74 91 b6 bd 46 61 76 be
       0.11810949 -0.13879536 -0.08914462 -0.24060544
0001f0 94 86 d4 bd f6 51 29 3c 8d 30 9b 3d b3 75 16 be
       -0.10377231 0.010334482 0.0757762 -0.14693336
000200 87 df cf bd fd e7 95 be 0b d7 11 3e 17 f5 be bc
       -0.10150056 -0.29278556 0.14242189 -0.023310227
000210 24 e6 b1 3b 62 9e 56 3d 5b a6 8e 3b 18 a2 dc 3d
       0.005429046 0.05239714 0.004353327 0.107731044
000220 d0 2c e7 3a c9 76 81 3d f0 96 a3 3d 23 49 96 3d
       0.0017637257 0.063214846 0.079877734 0.073381685
000230 c5 78 7b 3d c1 08 c6 bc 94 df 93 bc 66 bb 65 bd
       0.06139447 -0.024174096 -0.018050946 -0.05608692
000240 b8 95 4a 3d 94 77 02 be a2 24 f0 bb 57 80 15 be
       0.04945919 -0.12740928 -0.0073285857 -0.14599739
000250 8a 83 74 bd dc 13 f9 bd a7 5f ce 3a 30 73 a8 3c
       -0.059695758 -0.12161991 0.0015745059 0.020562738
000260 76 82 b5 ba 10 58 ac bd df 87 ce bc c0 bb 06 3d
       -0.0013848084 -0.08415234 -0.025211273 0.032893896
000270 db 72 56 3d 18 0a 5b 3a da c6 92 3c f4 7d af bd
       0.05235563 0.0008355691 0.017917085 -0.085689455
000280 18 58 16 3d 26 aa 84 bd 65 4e 7f 3c 6b bc 4e bc
       0.036705106 -0.06477766 0.015582656 -0.0126181645
000290 38 44 9d bd 52 e7 50 bb ea cb 60 3d be 13 f2 bb
       -0.07679027 -0.003187616 0.054881968 -0.0073876074
0002a0 45 72 19 bc 40 8a 81 bd b9 c9 41 bd d3 43 a6 bc
       -0.009365623 -0.06325197 -0.04731152 -0.020296013
0002b0 71 2e 82 3d aa 84 23 3d e5 ec 42 bc 8a e0 99 bd
       0.06356514 0.03992144 -0.0118973 -0.075135306
0002c0 3d c1 32 3d a7 cf 82 3c 67 a9 9b 3d fd e5 00 3e
       0.043641318 0.015968157 0.0760067 0.12587734
0002d0 ed fa cd bd e3 77 a0 3b 3c 9c ea bc ad 38 b8 bc
       -0.10057626 0.004897104 -0.028638951 -0.022487963
0002e0 51 4d 22 3d 38 31 1f be 02 74 2e bd e4 b4 d4 3d
       0.039624516 -0.15546119 -0.042591102 0.10386065
0002f0 bd d9 aa 3d 3d 7a 67 3e 16 37 05 bd 68 82 b5 ba
       0.083423115 0.22605224 -0.032523237 -0.0013848068
000300 b5 f3 0e be 6e 19 91 bd 93 b5 b1 bd 2d a1 ac bd
       -0.13960154 -0.070849285 -0.08677211 -0.08429179
000310 99 50 ec 3d 91 67 03 3e fa d6 fd bd e6 ff dd 3d
       0.1153881 0.12832476 -0.12394519 0.108398244
000320 99 ca 6d 3c e9 fc 4c bd 7c f7 0f 3c b4 22 58 bd
       0.014513635 -0.05004588 0.008787032 -0.05276747
000330 7a a6 d7 bd 23 5e c8 3d de 13 5d bd 4e 75 00 bd
       -0.105298 0.0978358 -0.053974025 -0.03136187
000340 29 db bd 3c db 5d 3a be 0b 0e d8 3d c6 60 3e bc
       0.023175793 -0.18199866 0.105495535 -0.011619752
000350 15 3f a7 bd 1f 0b 0d bc e3 31 88 3d 12 53 cb 3d
       -0.08166329 -0.0086086085 0.0665014 0.09927954
000360 79 95 c6 bd b3 1e 28 bc 74 9b 0b 3b 40 a8 00 bd
       -0.096964784 -0.0102612255 0.0021302374 -0.031410456
000370 2b f7 36 bb 07 a0 91 bc ab 56 41 bc 98 ab bf 3d
       -0.002791832 -0.017776502 -0.011800448 0.09358901
000380 be 6a 15 3d 61 d8 e9 3c 8c 3f c1 3d 5c 96 08 3c
       0.03647875 0.02854556 0.09435949 0.00833663
000390 f5 5d 8d bc 00 18 8e bc a1 d0 5c 3e 2b a1 ed bd
       -0.017256716 -0.017345428 0.2156396 -0.11603006
0003a0 8c 0c 01 bd 5c 26 04 bd 8d 68 44 bd 13 fa 99 bd
       -0.031506106 -0.032263145 -0.04795127 -0.07518401
0003b0 f4 44 a4 bd dd d8 d2 3d d1 2e ed 3c c7 d9 47 3e
       -0.08020964 0.1029527 0.028952988 0.19516669
0003c0 17 4b 07 3e ed ce 50 3d 8c 9e 2a 3d 62 a2 1b 3c
       0.13212238 0.05097859 0.04165511 0.009499164
0003d0 64 77 6d bd 0d e0 d9 3d b0 c5 e6 bc fa 8d 07 3e
       -0.057975188 0.106384374 -0.028170437 0.13237754
0003e0 91 a6 cf bc ec 77 4d 3e a2 8a 23 3d b9 2d 3f 39
       -0.02534798 0.20065278 0.039927132 0.00018232212
0003f0 aa ea 6e 3c 84 4c 62 bd 53 0d 30 bd 2b 67 ed 3c
       0.014582315 -0.055248752 -0.042981457 0.028979858

bias f4 [256]
000000 37 cc 9c 3d e9 19 a4 3d 9d 3d 36 b9 00 c8 87 bd
       0.076561384 0.080127545 -0.00017379825 -0.06629944
000010 14 d8 c5 3d 36 98 77 bd 28 82 80 bc 06 81 0a be
       0.09660354 -0.060447894 -0.015687063 -0.13525781
000020 60 27 0f 3b 99 ea dd ba c0 1e 80 bd e1 56 4e bd
       0.0021843538 -0.0016930877 -0.06255865 -0.050375823
000030 3a 9c ab 3d 32 1c 32 bd 17 e9 1f bc 6d 06 ec 3b
       0.08379407 -0.04348392 -0.009760163 0.0072029145
000040 c8 47 87 bd 36 a0 ce bc 6e 37 02 3d 6e 2e 96 3c
       -0.06605488 -0.025222879 0.031791143 0.018332686
000050 65 15 78 bb 19 cd 09 bd f0 79 a2 3d 16 21 8f bd
       -0.003785455 -0.033642862 0.07933414 -0.069887325
000060 2b 34 12 bd 79 87 8f 3c 50 f9 93 3d 74 cb 95 3b
       -0.035694283 0.017520653 0.07225287 0.0045713726
000070 9c 3d cd bb 8c 9e fb bd 09 7b 0c 3c 35 b0 f5 bd
       -0.006263448 -0.122861 0.008574256 -0.119964994
000080 ac 45 90 bd 5f b9 9e 3b 34 e8 ec 3c ae 30 20 3d
       -0.07044539 0.0048438753 0.028919317 0.039108925
000090 8b 03 b3 bd d1 a5 bc 3d 6b 56 99 bd 45 e1 1c 3d
       -0.0874091 0.092113145 -0.07487186 0.03830077
0000a0 75 1f 25 3d 15 17 39 bb 27 c9 78 3c a2 c8 8f 3c
       0.040313203 -0.0028242518 0.015184677 0.017551724
0000b0 bd 65 98 3d a1 34 90 bd a6 04 16 bd 0a 6d 31 3d
       0.0744128 -0.07041288 -0.036625527 0.04331688
0000c0 c7 c3 78 bd 59 f3 ff bd 5a 93 1a bd a3 c5 c2 bd
       -0.060733583 -0.12497587 -0.03773818 -0.095103525
0000d0 22 0d 8c bd c1 c4 11 3d b1 dd ca bd 9b b6 14 3d
       -0.068384424 0.03558803 -0.099055655 0.03630696
0000e0 5e ba 68 bd 36 1c 5f bd 4d b6 c5 3c 11 a6 28 bc
       -0.05681836 -0.054470263 0.02413478 -0.0102935
0000f0 75 df d1 3d 33 ba 68 3d a8 69 a8 bd 88 19 c6 bd
       0.10247699 0.0568182 -0.08223277 -0.096728384
000100 a2 d8 57 bd 2b e2 0d bc 67 58 23 3d 66 d8 0c bd
       -0.05269683 -0.00865988 0.03987923 -0.03438606
000110 92 29 a2 3c f1 3b 3e bd b9 f3 64 3d b7 61 05 3d
       0.019795213 -0.046443883 0.055896495 0.03256389
000120 50 a3 f7 3c ae d5 e1 bd fb e7 8b 3d 29 d9 68 bd
       0.03022924 -0.11027084 0.06831356 -0.056847725
000130 ca 0d 90 3c 84 5c 17 bd f9 01 ad bd e1 82 a1 bc
       0.0175847 -0.036953464 -0.08447642 -0.019715728
000140 7b 74 a3 3b 20 90 94 3d c0 a6 59 bb 59 54 1b bd
       0.004988251 0.07254052 -0.0033210963 -0.037922237
000150 f4 d6 79 bd 7f 83 26 3d d7 05 75 bc 6f 54 dc bb
       -0.06099601 0.04065275 -0.014955006 -0.0067239325
000160 02 c7 a2 3c 14 41 c0 3d 6a df 69 bd 4a ca 10 3d
       0.019870285 0.09387413 -0.05709783 0.035349168
000170 78 6e b2 3c e5 fc c2 bd 21 eb 54 3c 98 54 10 3d
       0.021781191 -0.09520892 0.012995512 0.035236925
000180 7c b8 02 bd a8 0e a0 bd d5 9c d5 bd ab 80 81 bd
       -0.03191422 -0.078152955 -0.10430304 -0.063233696
000190 7d bf 65 bd d8 d8 ae bb 8b e5 30 bd bd f7 84 3d
       -0.05609082 -0.0053359084 -0.04318766 0.06492565
0001a0 9d ab 95 3d 49 29 9b bc 93 56 87 3c 38 24 92 3d
       0.07308123 -0.018940585 0.016520774 0.071358144
0001b0 31 80 4d bb b9 d2 bc bd 6e 7d e7 bb 03 93 8f bd
       -0.0031356926 -0.0921988 -0.007064513 -0.07010462
0001c0 29 02 92 bd 50 bb 02 3c a3 c0 30 3d ea d1 03 bd
       -0.07129318 0.007979229 0.043152463 -0.03218261
0001d0 34 af 93 3c 5a 44 dd 3b 56 dc a4 bd d1 71 aa 3d
       0.01802788 0.006752533 -0.08049838 0.0832249
0001e0 f0 73 de bc 38 3d 56 3d e1 a5 5d bd 5c 31 38 bd
       -0.027154893 0.052304476 -0.054113273 -0.044968948
0001f0 38 65 a4 bd 7c 1c af 3d 86 94 43 bc e7 ae 1a bd
       -0.080271184 0.08550355 -0.011937266 -0.037764456
000200 b7 ef 58 bd b9 0b 98 bc 6f d6 ba 3c 4f 66 38 bd
       -0.052962985 -0.018560277 0.022807328 -0.045019444
000210 ae 15 92 3d 6b bc 39 bd b0 0b d7 bc 8e 8d e4 bc
       0.07133041 -0.045345705 -0.02625069 -0.02789953
000220 25 48 37 bd 5d cf f1 bd 61 2a 63 bd 9f 64 90 3b
       -0.044746537 -0.118071295 -0.055460338 0.004406526
000230 79 3e 06 bd df 3e 2e 3d 0a 6c fc bb 26 10 1c 3d
       -0.032774422 0.042540427 -0.007703309 0.038101338
000240 c7 32 fa bc ab a8 6e 3d 20 d2 6f 3c d0 58 d5 3d
       -0.03054179 0.058266323 0.0146375 0.1041733
000250 f5 19 b3 bd a8 6f 54 3d 1e f3 8f bc 60 0f 81 3d
       -0.08745185 0.051864296 -0.017571982 0.06301761
000260 7a 70 59 3d 0f 10 be 3d f2 84 9d bd bd e2 fd bd
       0.05308578 0.09280407 -0.07691373 -0.123967625
000270 08 3c 3a bd 0d 40 5b bd 1c 1b 66 3d 53 63 7f bd
       -0.045467407 -0.05352788 0.056178197 -0.062350582
000280 3b 53 6e 3c 4a 1e 12 3d 2c 4c ad 3d 8f fe 3d bd
       0.014546211 0.035673417 0.08461794 -0.046385344
000290 61 91 b0 3d b6 9b 69 bd cf af fe 3c ba 02 3e bc
       0.08621479 -0.057033263 0.031089691 -0.01159733
0002a0 46 ff 3f bd 2e 6a 9d bd 0f 20 74 3d 82 8e 40 bd
       -0.046874307 -0.07686268 0.059600886 -0.047010906
0002b0 d0 e2 26 bd 18 ff 0f bd 60 20 1b 3d eb 53 e8 bc
       -0.04074365 -0.035155386 0.037872672 -0.028360328
0002c0 9c f6 e5 bd e3 5c 86 3d 23 cf 80 bd aa 0d c8 bd
       -0.11228678 0.065606855 -0.06289508 -0.09768231
0002d0 44 d4 7f 3c 06 2b ea bd 04 ad fd bd 5e 67 b0 bc
       0.015614573 -0.11433987 -0.12386516 -0.021533664
0002e0 bf f7 be bc b0 e2 7c 3d ae 00 15 3d 19 25 55 3d
       -0.023311494 0.061739624 0.0363776 0.052037332
0002f0 71 7e 65 bd 56 c0 ab 3d e2 4d 4e 3d 43 49 af bd
       -0.056028787 0.083862945 0.050367244 -0.085588954
000300 5c cc e5 bd 37 65 64 bd b2 ce 9c bc 3d 64 bf 3d
       -0.11220619 -0.05576059 -0.019141529 0.09345291
000310 84 14 a6 bd f6 7d 98 bc fa 36 76 bd cd 34 42 3d
       -0.08109382 -0.01861475 -0.060111023 0.047413636
000320 24 83 98 bc 69 52 40 bd 68 e2 63 39 65 42 22 bd
       -0.01861722 -0.046953592 0.0002173275 -0.0396141
000330 f6 b6 3d bb a4 d8 18 bd 67 d3 34 3d cd 14 eb bd
       -0.0028948165 -0.03731598 0.04414692 -0.11478577
000340 ea 4c 50 bd 09 57 cf bc b9 76 0b 3d a4 8f a4 3d
       -0.0508546 -0.025310056 0.03404877 0.0803521
000350 7e f7 2f bd 1e 07 8a bd f4 e6 0d be cd 4a 2f 3d
       -0.042960636 -0.06739639 -0.13857633 0.042795945
000360 01 d2 ab 3d 77 b1 62 bc 85 e8 a8 3d 33 c2 1d bd
       0.083896644 -0.013836256 0.082474746 -0.03851528
000370 77 c5 dc bd 0d de cf bd 79 93 16 3d f3 e7 d6 bd
       -0.10779851 -0.10149775 0.036761735 -0.104934596
000380 51 25 fd bc 5e b3 90 bd 09 4a 60 3d 20 cd 85 bd
       -0.030901583 -0.070654616 0.054758105 -0.06533265
000390 db 0c 94 bd 7a 8a 78 3c e7 4c 9b bd f0 4b 54 3d
       -0.072290145 0.015169734 -0.07583027 0.051830232
0003a0 07 64 65 3d 5f 34 a8 b9 73 44 ea bd 59 16 0c bc
       0.056003597 -0.00032082477 -0.11438837 -0.00855025
0003b0 97 cc 17 bd 2c 15 a9 bd 2d a0 05 3d d2 a6 9a 3c
       -0.037060346 -0.08255991 0.03262346 0.018878374
0003c0 f9 36 95 3c 05 9c 69 bd dc 52 0c bd af 2b cf bd
       0.01821469 -0.057033557 -0.03425871 -0.10115754
0003d0 de 77 a7 3d c5 99 9d 3d 32 2f e5 bd 54 c7 9d 3d
       0.0817716 0.07695345 -0.111906424 0.077040344
0003e0 c9 db 71 3d e2 96 60 bb 16 1e 02 bd 14 3c c3 3b
       0.059047494 -0.003426962 -0.031766973 0.0059580896
0003f0 24 a1 b5 bd 32 04 90 bc 97 1f 14 3d 24 4d 16 bd
       -0.08868626 -0.017580125 0.03616294 -0.03669466

weight f4 [256, 256]
000000 f3 f9 9d 3d 09 37 d5 3a 74 24 e8 3a af 95 18 bd
       0.0771369 0.0016267012 0.0017711059 -0.037252124
000010 b0 1b 3b bd 2f fb 7e bd cb d6 ad bd 04 d6 ff 3c
       -0.0456807 -0.062251266 -0.08488234 0.03122998
000020 a8 47 5b bb 42 fa 8a bd 97 11 5b 3d c5 bd 38 3d
       -0.0033459459 -0.06786014 0.05348357 0.045102853
000030 30 eb 4a 3d cf 05 01 3d b6 4e 1f 3b 7e 9c c8 bc
       0.0495407 0.03149968 0.002430839 -0.024488684
000040 0c cf 25 bd 7f b6 f4 bc f0 39 1f bc a3 91 4b bc
       -0.04048066 -0.029872177 -0.009718403 -0.012424859
000050 13 a1 c6 bc 61 74 0f 3d b3 ad fb 3c 89 ff 21 bd
       -0.024246728 0.035023097 0.030722475 -0.039550338
000060 ab 7b 0c bc 93 7b 91 bc 46 78 ee bc 54 b3 71 3d
       -0.008574407 -0.01775912 -0.029110085 0.05900891
000070 f2 3a fb bc 3d bf 49 3d c3 99 c3 bb 4d d3 05 3d
       -0.030667756 0.049254645 -0.0059692576 0.032672215
000080 08 54 79 bd 8e 8f 2b bd 9d 57 92 3c b3 f8 b5 39
       -0.060871154 -0.04188495 0.017864043 0.00034708306
000090 86 6c 45 bc 11 a4 a3 bd 37 d5 38 3d bc cb a8 bd
       -0.0120498 -0.079902776 0.045125213 -0.08241984
0000a0 fc a5 8d 3d 7e 12 03 bc f7 b1 25 bd 6a 6c 3e bc
       0.06916425 -0.008000014 -0.040452924 -0.011622528
0000b0 81 b0 2c 3d b4 1d 13 3d c7 da 8f ba 82 f7 18 3d
       0.042160515 0.035917 -0.0010975235 0.037345417
0000c0 24 da e2 3c 66 fe 98 3d b5 75 12 3d ca 94 fb 3c
       0.027691908 0.07470398 0.035756785 0.030710597
0000d0 61 66 a5 3c 58 5e b0 bd b8 e4 b6 3c cc b7 1b bc
       0.02019042 -0.08611745 0.022325858 -0.00950427
0000e0 0e 27 4f bd c4 9f 2f bd f4 01 e7 bc 60 28 e1 bc
       -0.050574355 -0.042876974 -0.028199174 -0.027485073
0000f0 10 de 25 bd 6c 1d e8 bc d9 b7 0f bd c9 44 2a 3d
       -0.04049498 -0.028334342 -0.03508744 0.041569505
000100 09 94 c7 3d 60 c0 59 bd 79 d6 84 bd 04 79 0a bd
       0.09745032 -0.05316198 -0.0648622 -0.033806816
000110 7e f7 3f bb 02 2f e7 bc f9 34 dc bc 3d b3 75 bc
       -0.0029291804 -0.028220657 -0.026880728 -0.014996347
000120 6c 6d 25 3d 3b a9 c8 3d 43 a1 be bd b6 d7 d7 bc
       0.040387556 0.09797903 -0.09308102 -0.026347976
000130 af ec ae 3c 03 8b 1f bd 63 b9 9a 3d 57 2d 4c bd
       0.021353094 -0.03895093 0.07554891 -0.049847927
000140 bf 53 6c 3d cf 04 67 3c 51 71 2e 3b c0 b2 b0 bc
       0.057697054 0.014100268 0.0026617835 -0.02156961
000150 b7 ca 71 bc ed ce 48 3d e3 62 96 bb f9 58 4a 3c
       -0.014757804 0.049025465 -0.004589425 0.012350314
000160 64 e7 55 bb 14 ba e4 3c ca 60 49 3d b5 dc fb 3c
       -0.003263914 0.02792076 0.04916457 0.03074489
000170 e6 fd 97 3c fe 64 e1 3c 72 89 12 bc a2 0a b5 3c
       0.018553685 0.027513977 -0.008943902 0.022099797
000180 b1 6f bc bc 69 8b b7 bc d2 82 f3 3c 5a e6 26 3d
       -0.023002477 -0.022405343 0.029725466 0.040747024
000190 5e d7 44 3d c3 92 61 bd f4 b4 c6 bc 54 92 02 3d
       0.048056953 -0.055071604 -0.024256207 0.03187783
0001a0 ec 7a d4 3b e9 9c 1d bd 75 bb 64 3d c1 13 34 3d
       0.00648438 -0.03847972 0.055842835 0.04396415
0001b0 ad 88 0c 3d ad 9f 78 ba f8 59 3d 3d 22 54 8b bc
       0.03431003 -0.0009484243 0.04622838 -0.017007891
0001c0 f5 e0 0e 3d 42 37 0d bd 1c 10 95 bd fd b8 18 3c
       0.034882504 -0.034476526 -0.07278463 0.009321448
0001d0 02 7a 9e bc d2 1c a0 3c aa e4 56 bd f1 17 42 bd
       -0.019345287 0.019544993 -0.052464165 -0.047386114
0001e0 91 f8 5b 3c ec 1e 77 bd e9 89 6f bd ad 7f 01 3c
       0.013425962 -0.060332224 -0.05848113 0.007903975
0001f0 82 1d a9 3d 8e ce 98 bd d5 75 53 3d a8 81 8d 3d
       0.08257581 -0.07461272 0.051626045 0.069094956
000200 0e 93 9c 3c c5 70 bd bc 99 a0 40 3b c2 80 d3 3c
       0.01911309 -0.023125062 0.0029392599 0.025818232
000210 1e 8c 33 bd 1f ca 16 bc 25 29 e8 3c 15 ab 81 bd
       -0.043834798 -0.009203463 0.028339932 -0.063314594
000220 7e ba 79 bc 7a 47 19 bd 44 99 6f bc cc 13 96 3d
       -0.015242217 -0.03742168 -0.014623944 0.07327995
000230 ae 97 00 bc e1 66 25 3d bd 90 ba bd f3 63 c3 3a
       -0.007848663 0.040381316 -0.09109638 0.0014907107
000240 20 68 5d bd 54 64 35 3d c7 d7 41 bd d3 9e 60 3c
       -0.05405438 0.044285133 -0.047324922 0.013709742
000250 da 6f 7c 3d 7c ed 4a bc 8f 21 7d 3d 7f 9f 1b 3c
       0.061630107 -0.012385722 0.061799582 0.009498476
000260 75 c9 a8 bd cd 7b 50 bd 8f f0 43 3d e4 30 d7 3d
       -0.0824155 -0.050899316 0.047836836 0.10507372
000270 c1 8a 68 bc 8b 8f 00 be e6 3d 9e bd 1c 26 1d 3d
       -0.014193238 -0.12554757 -0.0772665 0.038366422
000280 42 54 ba bc 93 03 40 bc ce fa 2e 3d 71 d7 0a 3d
       -0.022745255 -0.011719602 0.042719655 0.033896867
000290 4f be b4 bd 9b c9 1a bd 7d e2 cb bb ce 23 87 3d
       -0.08825361 -0.037789922 -0.006222068 0.06598626
0002a0 9f 56 60 bd 1a 17 87 bb 51 f3 a3 bc 11 fb 74 bc
       -0.05477011 -0.004122627 -0.020013483 -0.014952437
0002b0 d4 da 67 3d d7 ae bc 3d 4a 7b 35 3d 1b 16 01 bd
       0.056605175 0.092130356 0.04430703 -0.031515222
0002c0 dc b0 b2 3d 3b 0f 17 bc a1 e8 5a 3d 2e 46 8f 3c
       0.087251395 -0.00921994 0.05344451 0.017489519
0002d0 3e df 74 3d 67 f2 02 bb f6 c7 0e bd 27 be 64 bc
       0.059783213 -0.001998091 -0.034858666 -0.0139613515
0002e0 37 8a 32 3d 7b a6 db 3b 54 83 07 3d 95 4c b9 bc
       0.043588843 0.0067031956 0.03308423 -0.022619525
0002f0 72 b2 23 3c f0 34 91 bd 19 cc c1 bd fc ba 4b bc
       0.009991275 -0.07090175 -0.09462757 -0.012434717
000300 cd 09 18 3d fa a1 73 bd 9c 0e 2d bd 23 9f d5 3b
       0.03711872 -0.059480645 -0.04225026 0.0065192147
000310 fe 7d 29 bd 42 58 fc 3c 01 6b 58 bd e0 20 db 3d
       -0.04137992 0.030803803 -0.052836422 0.1069963
000320 68 38 8c 3d c1 76 8a bd 65 40 36 3c da 93 72 bd
       0.06846696 -0.06760932 0.011123751 -0.059223033
000330 8a 77 88 bb 18 56 db 3c d6 69 67 bd 37 11 71 3d
       -0.004164641 0.026774451 -0.056497417 0.058854308
000340 80 a3 a3 3c da 63 81 bd 03 6d 1e bd fa 41 80 bd
       0.019975424 -0.06317873 -0.03867818 -0.06262584
000350 c1 74 b9 3d 6c 18 f9 bc 15 40 68 bc f2 41 22 bc
       0.09055472 -0.030407153 -0.014175435 -0.009903418
000360 6e 57 ec 3c 7d 28 04 bd ed a8 31 bd e6 a6 11 3e
       0.028850283 -0.032265175 -0.04337399 0.14223823
000370 10 70 e4 bc ae 95 9d 3a bf 5c 85 3c 3a a0 30 bd
       -0.027885467 0.0012022757 0.016279576 -0.043121554
000380 94 42 e5 bc df 8f ca bc e1 64 2a 3b 3e 2f 3f 3d
       -0.027985848 -0.024726806 0.002600007 0.046675913
000390 ca 2d 29 3d da 5e 17 bc 58 a6 f0 bc a8 2f 77 bd
       0.041303433 -0.009238923 -0.029376194 -0.060348183
0003a0 c9 d5 49 3d e0 58 89 3d 8c c3 71 bc a1 6d 34 bd
       0.049276147 0.06706405 -0.014756095 -0.044049863
0003b0 53 1b 38 3c cb 31 dc bc 60 06 95 bd 25 7c 96 bd
       0.011236983 -0.026879212 -0.072766066 -0.073478974
0003c0 c2 6a 1a 3d e2 42 0a 3a be 1e 8e 3c 15 4e 03 bd
       0.03769947 0.00052742485 0.017348643 -0.032056887
0003d0 8a 02 e4 3c 56 03 a7 3d f9 02 8e bd 81 7e fe 3c
       0.027833242 0.08154933 -0.06934161 0.031066181
0003e0 1c 03 84 3d 5e 87 46 ba 5b 0f 5b bd 60 91 a1 bd
       0.064459056 -0.0007573272 -0.05348144 -0.07889056
0003f0 da e2 b3 3d 18 7d 58 bd 55 0f 86 bd c5 73 88 bd
       0.08783503 -0.052853674 -0.06545893 -0.06662706

bias f4 [256]
000000 91 7e 66 bc d7 b9 07 3d f5 61 1c 3d 77 c9 64 3c
       -0.014068262 0.033136215 0.038179357 0.013964049
000010 71 c7 8a 3d 01 15 98 bc 3e 24 07 bd 7d 9e 87 bb
       0.06776322 -0.018564703 -0.032993548 -0.0041387663
000020 d7 54 55 bc 6e a6 95 3d d9 be ad bb db b6 8c 3d
       -0.013020716 0.073071346 -0.005302292 0.068708144
000030 b5 85 0e 3d 96 af b0 bd d4 8b eb 3c d0 01 e6 bc
       0.03479548 -0.0862724 0.028753199 -0.028077036
000040 6e 27 a4 bc 98 f4 95 bd 3b 96 15 bd c2 93 75 3d
       -0.020038333 -0.07322043 -0.036520224 0.059955366
000050 bd 96 da 3c fb be 73 bd 08 c2 a8 ba d2 3e 82 bd
       0.026683206 -0.059508305 -0.0012875209 -0.06359638
000060 7e a1 2b bc 34 65 53 bd 81 11 3a bd 0d 92 7e bd
       -0.010475514 -0.051610187 -0.04542685 -0.062151004
000070 30 77 28 bb 28 af 92 bd 9e da e7 bb 89 2d ce bc
       -0.0025705807 -0.07162315 -0.0070756217 -0.025168197
000080 68 8d 56 3c 6b e1 5e 3d df ff b5 bd 5d a0 ac 3c
       0.013095237 0.054414194 -0.08886694 0.02107256
000090 84 6f 98 3d c7 aa 10 3d 14 1c 83 bc 87 4b 0b bc
       0.07443145 0.035319116 -0.0160046 -0.008501894
0000a0 e1 af c0 bd 94 05 25 bc ad f4 22 3b 9e 89 01 bd
       -0.09408546 -0.010072131 0.0024865076 -0.031625383
0000b0 3e 17 f7 3c 13 e7 79 3d be 75 89 bd bb ac 81 3c
       0.03016245 0.061011385 -0.06711911 0.015829435
0000c0 53 ea 54 3d 9f 5e 05 3d 31 23 17 3d cf bc 72 3d
       0.05198128 0.03256094 0.036898796 0.059262093
0000d0 5b 52 55 3d 66 7d 05 bb 15 d3 2e 3d 88 9e b5 3c
       0.052080493 -0.0020368933 0.042681772 0.02217032
0000e0 06 e3 15 3d fd 8b 71 3c bd f0 b0 bc 75 34 8d bd
       0.03659346 0.014742848 -0.021599168 -0.06894771
0000f0 e6 54 b6 bc ba 1f 40 3d be 8e 66 3d 09 fe f6 3c
       -0.02225728 0.046905257 0.056288473 0.03015043
000100 e0 c6 0d bd 99 03 bd 3c 06 85 8d 3c 64 dd 52 bd
       -0.03461349 0.023073005 0.017275345 -0.051480666
000110 0c 0d 71 3d 96 fa 66 3c da 23 b5 bc d9 c9 84 3c
       0.058850333 0.01409783 -0.022111822 0.01620953
000120 8e 8b 6c 3d 03 06 6d 3d bd cb e3 bc 0f 3d 66 ba
       0.057750277 0.05786706 -0.02780711 -0.0008782902
000130 e4 bb 63 3c 82 f8 ac bc ce af 52 3d ac 9b 05 3c
       0.013899777 -0.021114592 0.05143719 0.008154791
000140 eb c2 32 3d 8f 6d 8a bd 5e 15 32 bc c8 38 21 3d
       0.04364292 -0.06759178 -0.010869352 0.03936079
000150 41 67 83 bd bb 9c 8c 3d 0c f4 6b ba 6a 22 8a 3c
       -0.064161785 0.068658315 -0.00090009044 0.016862113
000160 94 b5 95 bd 15 ac aa bd ae 21 81 bc 34 f9 57 bb
       -0.07310024 -0.08333603 -0.01576313 -0.0032954933
000170 f6 05 10 bd 75 f7 06 bd fd 8a c7 bc 73 30 04 bd
       -0.035161935 -0.032950837 -0.024358267 -0.032272767
000180 c7 0d 88 bc c6 4a 24 bd 50 b3 db bc e4 5a 3a 3b
       -0.016608132 -0.040110372 -0.026818901 0.0028435523
000190 66 ae 8a 3d 60 3a f9 3c 68 d5 01 3d a2 89 23 bd
       0.06771545 0.030423343 0.03169766 -0.03992618
0001a0 6e 3e 91 bb 5e ff 58 3d a0 13 d8 bc ff e6 86 bc
       -0.004432491 0.052977912 -0.026376545 -0.01646757
0001b0 f7 f6 98 3b 7b fb 1f 3d 47 ed cc bd d6 37 ee bc
       0.0046681124 0.03905819 -0.100061946 -0.029079359
0001c0 e1 19 3e bb 4a 71 8b 3d 09 c6 81 3c e3 13 5c bb
       -0.0029007124 0.068087175 0.0158415 -0.003358119
0001d0 4b 3e 3b bc 16 3f 06 3d e3 73 14 bd ba eb be bb
       -0.011428426 0.032775007 -0.03624333 -0.0058264406
0001e0 7b 68 02 3d bc d9 76 bd 8b 55 ad 3c c3 fa 1b 3d
       0.03183792 -0.06026624 0.021158954 0.038080942
0001f0 d5 b9 8d 3d 0d 4d 61 3c 2a 35 7c 3b 6a e0 be 3c
       0.0692021 0.0137512805 0.0038483837 0.023300368
000200 7f dc 9f bd 57 1b e3 bc ce b6 15 bc 53 d7 40 3d
       -0.07805728 -0.027722998 -0.009137822 0.04708035
000210 f6 f9 92 bb 5a ce 16 3c 77 11 11 3d 93 36 f6 bc
       -0.004485364 0.0092044715 0.035417046 -0.03005532
000220 0b 03 d4 bc ef 15 7a 3d 72 d9 41 bd aa 53 02 3b
       -0.025880357 0.061056074 -0.047326513 0.0019886293
000230 ec 62 17 bc 32 a7 8a 3d ab f3 e7 bc 6d 02 39 3c
       -0.009239893 0.06770171 -0.028314432 0.011292082
000240 43 9b d9 ba e7 d5 b5 bc 43 3a 52 3d d4 72 81 bd
       -0.0016602058 -0.022196723 0.051325094 -0.0632073
000250 54 6e 8e 3c 99 6d 4e bc af 7c 5e 3d 44 2a e0 3c
       0.017386593 -0.012599372 0.054318126 0.027363904
000260 eb 75 3f 3d 9f 7d df 3b 56 b1 d7 3b 93 47 94 bd
       0.046743315 0.006820395 0.0065824194 -0.07240214
000270 bd 76 ac 3c ec 75 02 bd e5 5c 87 bd 58 4d b4 bd
       0.021052713 -0.03185074 -0.06609515 -0.08803815
000280 4c 51 32 3d 09 18 bf bc 32 06 7d 3d 6a 4f 42 3d
       0.043534562 -0.02332689 0.061773486 0.047439016
000290 cd a5 01 bd 93 5a 69 3c 90 71 c9 3b 8c 27 5f bd
       -0.03165226 0.014242786 0.006147571 -0.054481074
0002a0 ea 9d 43 3c 22 53 35 bd 7f c8 cb 3c b9 50 0b bd
       0.011939505 -0.044268735 0.024875877 -0.03401253
0002b0 40 93 b6 bd 57 0e 4b 3c 77 7c 9c bc 49 0d 6b 3d
       -0.089148045 0.012393556 -0.019102318 0.057385717
0002c0 cf 88 f5 3c 81 8d 10 bd ce 58 b0 bc d4 79 82 bd
       0.029972462 -0.0352912 -0.02152672 -0.06370893
0002d0 81 5e 97 bd 23 95 66 bd 24 20 7e 3c 34 02 af bb
       -0.07391072 -0.05629457 0.015510593 -0.005340839
0002e0 cc c7 14 3d 54 d0 ea 3c ec 89 2f 3c 3f 31 c9 bc
       0.036323354 0.028663792 0.0107140355 -0.024559615
0002f0 d9 9a dd 3b c4 aa 94 bd ba 83 bc bc db fc 41 bd
       0.006762844 -0.072591335 -0.02301203 -0.047360282
000300 2e 21 a7 bd 4e 85 e8 ba bd af 54 bc e2 0b ab bd
       -0.081606254 -0.0017739923 -0.012981352 -0.08351876
000310 0f dc dc bb 28 7f 6b 3d d1 99 8c 3d e6 d1 0f bc
       -0.0067401 0.057494313 0.06865276 -0.008778071
000320 f4 1d 5f 3c 70 8e 53 3d b4 7d 98 3c e6 92 db 3b
       0.013617981 0.05164951 0.018614627 0.0067008613
000330 5f a3 98 3c ea e3 97 bd 92 d4 df 3c f6 1b 22 bd
       0.018632589 -0.07416518 0.027323041 -0.039577447
000340 55 80 13 bd f7 aa 11 3d ec ce 57 3c 87 d1 e7 3c
       -0.03601106 0.035563435 0.013171893 0.028298153
000350 d3 1d 8e 3d 76 8d 80 3d 82 d2 a9 bd 65 c8 87 3c
       0.06939282 0.062769815 -0.08292104 0.016575048
000360 f5 16 58 3d 3f ec 94 3c d5 d8 b4 3c 4b b8 e7 3c
       0.05275627 0.018179057 0.02207605 0.02828612
000370 91 ac 46 3d 84 0c b0 bc 2f 86 b3 bc 23 15 6d 3d
       0.048504416 -0.021490343 -0.02191457 0.057881486
000380 35 05 8f bc d5 c2 07 3c f7 6d 9a bd 48 8c 8e bd
       -0.017458538 0.008286198 -0.075405054 -0.0696035
000390 e9 8f 26 bd 93 7c 95 bc 96 d8 9e bd 48 26 0f bd
       -0.040664587 -0.018247878 -0.07756154 -0.034948617
0003a0 05 a4 4c 3d 73 82 ae bb dd c4 ab bd 23 9a c4 bb
       0.04996111 -0.0053256094 -0.08387158 -0.00599982
0003b0 3a 9d 63 3d 69 db 6f 3d 9a 85 69 bc 67 33 b2 bd
       0.055569865 0.058558855 -0.0142530445 -0.087012105
0003c0 71 a5 81 3c 20 1d 41 3c cf 60 50 bb b4 28 6d 3d
       0.015825959 0.011786729 -0.0031795984 0.057900146
0003d0 69 4e 3f 3c d9 ab 19 bb 22 fc ca bd 26 9e 2b 3c
       0.011676409 -0.0023448376 -0.09911372 0.010474717
0003e0 bb a9 a2 bd d6 db 88 bb 25 20 0a bc cb 02 8f bd
       -0.0794253 -0.004176597 -0.008430515 -0.069829546
0003f0 25 90 f6 3b 75 3f 22 bd 50 0b f0 ba e8 10 9c bd
       0.0075245076 -0.0396113 -0.0018313918 -0.07620412

weight f4 [256, 256]
000000 7a 76 3c 3a be ca ee bd f7 76 97 bc 36 b5 6c bd
       0.0007189285 -0.11659764 -0.018489344 -0.057790004
000010 41 9b 98 bc 26 ae b2 3c 25 32 09 be 73 c9 f8 bc
       -0.018628718 0.021811556 -0.13398035 -0.030369496
000020 11 23 3b 3c 5a 0c 1c 3d cf 9a b7 bd af 3d 3d bd
       0.011421935 0.038097717 -0.08965074 -0.046201404
000030 5e 43 87 bd 75 a5 11 bd b7 6c a8 bc 6d 4b 0d bd
       -0.06604646 -0.035558183 -0.020559652 -0.03449576
000040 02 18 e3 bc ac 35 8a bc 54 10 54 bc 65 28 51 3b
       -0.027721409 -0.016871296 -0.012943346 0.0031914946
000050 ff 02 0b ba 30 8d 25 3c 38 18 b8 bc 4d c0 01 3d
       -0.00053028757 0.0101044625 -0.022472486 0.031677533
000060 60 b9 0b 3d c7 77 5a 3d 4e 00 97 3c 81 51 62 3b
       0.034112334 0.053336885 0.018432762 0.0034533443
000070 c0 b5 e8 bd 47 83 e0 bc 2c e3 84 bd b8 4a 41 3c
       -0.11362791 -0.027406348 -0.06488642 0.0117975995
000080 77 3e 5a bc ed 4e 81 3d 7b 1b 89 bc 18 71 92 bd
       -0.013320557 0.06313882 -0.016736737 -0.07150477
000090 4d c4 29 3d de 98 32 be d3 ab 20 3c 40 ce 95 bd
       0.041446973 -0.17441127 0.009806591 -0.0731473
0000a0 70 e3 d7 b7 32 4e ad bc 7c 80 3a 3b 56 1d dd bb
       -2.5735906e-05 -0.02115545 0.002845793 -0.006747882
0000b0 53 78 36 3e 3a a9 95 3c 2d a6 4d bd eb 41 e7 3c
       0.17819338 0.01826917 -0.050207306 0.028229674
0000c0 90 95 7a 3b 4d 79 ad bc 13 bf 7c bc f5 b8 0e be
       0.003823612 -0.021176005 -0.015426415 -0.13937743
0000d0 1b c2 a9 3d 66 ac 83 3d f1 d2 98 bd 36 2f 5b 3d
       0.08288976 0.06429367 -0.07462109 0.05351182
0000e0 d6 6c 86 bd 3e 95 be 3c 15 25 9a bc 45 de a2 bd
       -0.065637276 0.023264524 -0.01881651 -0.07952551
0000f0 07 c7 55 bd bb 8c 4e 3c fe de 2d bd 4e fc ff bc
       -0.05219176 0.012606795 -0.04244899 -0.031248238
000100 78 c5 69 3c 8a 43 62 3c d1 3f 52 3d 74 ec a8 3c
       0.014268272 0.013810048 0.05133039 0.020620562
000110 31 bd 9d bd 26 7c b4 bc b6 6f 5b 3d 4b 3e 4d bd
       -0.07702101 -0.022031855 0.053573333 -0.050108235
000120 a4 b3 0a be 83 c5 23 bd 02 c4 11 3d 49 d5 ab 3d
       -0.1354509 -0.039983284 0.03558732 0.0839029
000130 95 7c b7 bb 0c f1 1c 3d 8b d0 f8 3c dc 35 d0 bd
       -0.005599568 0.038315818 0.030372879 -0.10166523
000140 8d 75 6f 3c ec 06 f7 bc 6c 6d 3b bc 4e 88 2c 3d
       0.014615429 -0.030154668 -0.011439662 0.042122178
000150 2a 5c eb bc 77 69 eb 3c b4 b6 ad bc e7 33 d9 3d
       -0.02873047 0.028736813 -0.021205284 0.10605603
000160 c4 ba c8 3b 5b 8f 4b bd 6e 6b e6 bc 66 96 85 bd
       0.00612578 -0.04969726 -0.028127398 -0.06522827
000170 c3 f9 5f 3d 95 0b cd 3c 94 e8 5e bd 10 09 0f 3d
       0.05468155 0.025029937 -0.054421023 0.034920752
000180 37 8e 41 3a 98 5c 08 3d 0d 7d 97 bd 1c 0d 85 bd
       0.00073835574 0.03329143 -0.073968984 -0.06496641
000190 08 43 55 3d 53 a0 05 3d 52 02 88 bc ac c6 34 3d
       0.05206588 0.0326236 -0.016602669 0.04413478
0001a0 6e cf 93 3c a7 70 37 3d 85 0f 78 bd 9b 08 39 bd
       0.018043246 0.044785168 -0.060561676 -0.045174222
0001b0 e2 b5 3a 3d 92 7e 55 3c e5 a9 32 be a7 1d 1d bc
       0.045583613 0.013030665 -0.17447622 -0.009589589
0001c0 1f 10 49 3c 93 78 a7 bd 80 cb 63 3d 65 d2 4e bd
       0.01227191 -0.081772946 0.055613995 -0.050493617
0001d0 67 53 cc 3d c5 a2 44 bd 95 18 31 3d ee 74 25 be
       0.09976845 -0.04800679 0.043236334 -0.16157886
0001e0 f3 84 e0 bb 0d 37 dd bd df 42 84 bd 8b 8f bc bb
       -0.0068517863 -0.10801516 -0.06458067 -0.0057544163
0001f0 95 29 aa bd c5 d5 83 3d 3a 60 28 bd 14 14 09 be
       -0.083087124 0.06437258 -0.041107394 -0.13386565
000200 ef e2 89 bd f9 b4 40 bd 8e 79 30 bd 00 3f b2 3d
       -0.06732737 -0.04704759 -0.043084674 0.087034225
000210 e4 57 c2 3c f6 12 2c bd 4a 8e bb 3c 30 5e f5 36
       0.02372355 -0.04201027 0.022894997 7.312534e-06
000220 c4 e9 6a 3d 73 37 2f bd 80 4f 0f bd 25 ec 3d 3d
       0.057351843 -0.04277749 -0.034987926 0.046367783
000230 fa 4f 84 bc f8 3a e9 bc d9 67 62 3d b8 9b 42 3d
       -0.016151417 -0.028470501 0.055274818 0.047511786
000240 22 9b 3c bd e5 77 df bc 70 b2 07 bd dc 84 e4 bd
       -0.046046384 -0.02727885 -0.033129156 -0.111581534
000250 30 34 f3 bd 03 8a 1d 3d ef a5 70 bc ce e4 2b 3d
       -0.11875188 0.038461696 -0.014687999 0.041966252
000260 d7 63 f9 3b 6e 2c 04 be aa 7d 5d bd 32 74 45 bd
       0.007610779 -0.12907574 -0.05407492 -0.048206516
000270 72 3d d7 3c 94 47 22 bd c8 ed 4d bd 8c 9a 89 bd
       0.026274417 -0.039619043 -0.050275594 -0.067189306
000280 dd f9 93 3d 3d 0a b5 bd 05 11 0a bd 60 33 87 bd
       0.07225392 -0.088398434 -0.033707637 -0.06601596
000290 a8 d1 55 bd 35 38 85 bd 9e d2 4f bd f6 f3 17 3c
       -0.052201897 -0.06504861 -0.05073797 0.009274473
0002a0 3d 81 51 bd b5 a0 a3 3c 13 68 db bd a6 a0 84 bd
       -0.05114864 0.019974092 -0.1071321 -0.06475954
0002b0 20 4d 5c 3d 48 b3 78 3c 29 74 5b 3d 50 fd 15 3c
       0.05378449 0.015179463 0.053577576 0.009154633
0002c0 2b 6f 44 3c cf 71 0b bd bd 78 29 3d e0 e8 71 3d
       0.011989395 -0.034044083 0.04137491 0.059059978
0002d0 87 71 0f bd 83 4d 42 bd 4c cf 2e 3d a6 9f 89 bd
       -0.035020377 -0.047437202 0.042678162 -0.06719904
0002e0 8d c6 f3 3b 45 01 05 bd ad 4d 65 bd 94 b2 b7 bd
       0.0074394406 -0.032471914 -0.05598228 -0.08969608
0002f0 f5 6a 35 ba 1a 4c 01 bd 2c 0f 3c 3b 9d 7b ab bc
       -0.000692054 -0.031566717 0.0028695567 -0.020932967
000300 04 16 6c 3c b8 b1 29 be 9d bc 45 bd c7 e0 38 bd
       0.014409546 -0.165717 -0.04827558 -0.04513624
000310 59 18 e0 3c 45 48 68 3b c9 d8 60 bb 81 94 4d bc
       0.02735536 0.0035443467 -0.0034308902 -0.012547613
000320 e2 40 ce bc 13 a2 33 bc c4 39 72 bd 92 e1 b1 bd
       -0.025177423 -0.0109639345 -0.05913712 -0.08685602
000330 e0 9b e8 b6 a7 b3 25 bd 9a d2 ad bd 1c b0 23 bd
       -6.932285e-06 -0.040454533 -0.08487435 -0.039962873
000340 8e d6 9b b8 9c 35 77 bd fd b0 39 3c f2 03 72 3c
       -7.43094e-05 -0.06035386 0.011333701 0.014771448
000350 f6 08 0d 3d 56 8a 09 3d fb 61 34 3d 0d 44 01 3b
       0.034432374 0.033579193 0.044038754 0.00197244
000360 dd 3a 17 bd 43 bd f0 3b 5c 68 8a bd 1d b4 1a bd
       -0.03692137 0.0073467805 -0.06758186 -0.037769426
000370 57 1a a0 bd 4a d2 ac 3d 26 68 8e 3c 77 4b 28 3d
       -0.07817524 0.08438547 0.017383646 0.041087594
000380 0b 63 9f bc c3 a3 fd bc cf 86 5a bd 7f 9f 14 3c
       -0.019456407 -0.030961877 -0.05335122 0.00907123
000390 02 38 bc 3c a4 a4 d8 3b 9e 9f 09 bb aa e8 34 3c
       0.022975925 0.0066114236 -0.002099968 0.0110418
0003a0 64 f0 bf bd ca 85 90 bd f8 70 c1 3b 13 b8 59 bd
       -0.09372023 -0.07056768 0.0059033595 -0.053154062
0003b0 5a 79 40 bd 99 e2 98 bc ea e2 3a bd 76 aa 90 3d
       -0.04699073 -0.018662738 -0.04562656 0.07063763
0003c0 72 8a 8b bc 05 a7 68 bd 45 ee 9f 3b ca 80 b5 bd
       -0.01703379 -0.056799907 0.004880699 -0.08862455
0003d0 1a 65 bb bc 09 5c 75 bd 72 77 8a bb 92 10 5f bd
       -0.022875357 -0.059902225 -0.004225665 -0.054459162
0003e0 04 c1 b9 bd 6a ba e2 3b 1a 64 0d bd 8a 6e 53 3d
       -0.09070018 0.006919195 -0.034519292 0.05161909
0003f0 e9 27 4d bd f7 43 92 3c 4a 7b c9 3b 30 26 09 bd
       -0.05008689 0.017854674 0.0061487304 -0.033483684

bias f4 [256]
000000 24 e4 b5 bc 9d ba 8a bd 4a 00 1d 3d c1 dd 20 3d
       -0.022203512 -0.06773875 0.038330354 0.03927398
000010 52 1a 32 bd 71 8f 82 3c ee 0a ba 3b 1d 11 20 3d
       -0.043482132 0.015937539 0.0056775725 0.03907882
000020 be 6a 52 bd 76 0a 8b bc f0 f2 6b 3a ef d8 c7 bc
       -0.05137133 -0.016972762 0.0009000739 -0.024395434
000030 ac 49 2b 3a c8 6b a4 3a 56 df 57 3d f3 d7 68 bb
       0.000653411 0.0012544328 0.052703224 -0.0035529106
000040 6a 34 3e bc 9d 28 a8 bd bb 96 4c 3d ef be 82 3c
       -0.011609176 -0.08210871 0.049948435 0.015960185
000050 f5 49 b9 3c 61 2e 17 3d 8e 0f fa bc 24 e9 e2 bc
       0.022618273 0.036909465 -0.030524995 -0.02769906
000060 71 31 26 bd 6e a5 18 bd a2 67 32 bd 54 5f 49 bd
       -0.040574495 -0.03726714 -0.043555863 -0.049163178
000070 94 9f c2 bb 7b c7 09 3d d4 32 ac bc 9a 19 fa 3c
       -0.0059394334 0.033637505 -0.02102033 0.030529786
000080 c3 5f c8 bc 43 9f e9 bc 03 10 55 3c cd ab da 3c
       -0.024459725 -0.028518325 0.013004306 0.02669325
000090 3b 68 2d 3d 67 fe f1 bc 71 94 c9 bc d7 9c 38 3c
       0.04233573 -0.029540254 -0.024606915 0.011267862
0000a0 15 37 6b bd ff 89 1e bd 29 99 76 3d 18 9e 41 bc
       -0.057425577 -0.038705822 0.06020466 -0.011817478
0000b0 03 a9 91 3c 84 81 3d bb 49 4a 07 bd 9e ee 00 3d
       0.017780786 -0.0028916309 -0.03302983 0.031477563
0000c0 2c e7 08 3d da 2f 06 bd 98 8e 4c bd b4 98 09 3c
       0.033423588 -0.03276048 -0.049940675 0.008398224
0000d0 f0 c9 ab bd a3 49 53 bd 04 23 b8 bc e7 32 37 3c
       -0.08388126 -0.051583897 -0.022477634 0.01118157
0000e0 a8 84 f3 bc ee 08 fa bc a6 8a b5 3c db 41 e3 3c
       -0.029726341 -0.030521836 0.02216084 0.027741363
0000f0 4d 08 b7 bc c2 d2 14 bd 25 17 73 bc 69 e1 b0 3c
       -0.022342825 -0.036333807 -0.014837061 0.021591859
000100 ed ab 1a 3a dd be 4a bc 66 b0 3c 3d ba 8b db 3a
       0.0005900253 -0.012374607 0.046066664 0.0016750016
000110 9b 94 d6 bc 36 ad 04 bd 2a 8c 32 3d 7d 20 7d bc
       -0.026193907 -0.03239175 0.043590702 -0.01544964
000120 cb fc 12 3c f9 7e 96 bd e1 49 1b 3d c6 40 a2 bd
       0.008971403 -0.07348437 0.037912253 -0.07922511
000130 0a 18 0f bc 4d 50 ae bd b6 42 0e bd d4 4c 91 bc
       -0.008733759 -0.0851141 -0.03473159 -0.01773683
000140 3c 74 01 3b 3c b9 e3 3c c4 4b 04 3d f2 8a 8f 3c
       0.001975312 0.027798288 0.03229882 0.017522309
000150 08 69 72 3d a4 be 96 bc cc 5b ac bd 04 8c 24 bb
       0.059182197 -0.018401451 -0.08415946 -0.002510787
000160 d2 90 7a 3c 1d 3e 4b bc 78 c7 5a 3b 80 cc 09 bc
       0.015293317 -0.012404946 0.0033383053 -0.008410573
000170 83 aa 21 3d 19 0e dd 3c cf 68 31 bd 59 49 e1 3c
       0.039469253 0.026984261 -0.043312844 0.027500795
000180 af 55 12 bd 2c 4d 2f bd cf 0a 3c 3c 75 e6 7d 3c
       -0.035726245 -0.042798206 0.011477186 0.01549684
000190 a3 27 cc 3c 9f c5 89 bc f5 f8 a4 3c fd 2b 98 3c
       0.024921244 -0.016817866 0.020138243 0.018575663
0001a0 f6 59 01 bd 22 39 78 bd a7 76 54 3c 5e ad 38 bb
       -0.031579934 -0.06060136 0.012967742 -0.0028179507
0001b0 10 3f ce 3c 42 d3 3c 3d e3 bc 04 3c 62 31 b5 bc
       0.025176555 0.04609991 0.008101675 -0.022118274
0001c0 a4 0e 80 bd 3d 69 cd bc 65 8d a5 bd fe 90 77 3d
       -0.062527925 -0.025074596 -0.080836095 0.06044101
0001d0 2c f4 83 3c 82 73 37 bd 65 6b b3 bd 9b 46 cf 3c
       0.016107641 -0.04478789 -0.08760718 0.025302222
0001e0 26 31 a0 3c a1 42 a4 3c 7a d5 7a bc 66 69 80 3b
       0.019554686 0.020051302 -0.015309686 0.0039188145
0001f0 a2 99 1c 3d 72 f5 10 bd 61 a2 91 3c 17 55 f8 bc
       0.038232453 -0.035390325 0.017777624 -0.030314011
000200 02 64 5a 3c b4 11 6a bd b0 19 f1 3c 98 08 ed 3c
       0.013329508 -0.05714579 0.029431194 0.028934762
000210 69 dc 48 3d bb 6f 18 3d f9 c2 b0 bd 50 ef c8 3c
       0.049038325 0.03721593 -0.08630938 0.024528176
000220 bb 94 4b 3d 5b 2c a9 bc 4e ac 72 3d a4 02 f2 3b
       0.049702387 -0.020651033 0.059246354 0.0073855687
000230 01 51 3c 3d 1e 5b 8a bc ee bd 31 bb d3 18 4c 3c
       0.04597569 -0.016889151 -0.0027121264 0.01245709
000240 5e 6a 98 bd 4d e4 56 3d 83 6a 21 3d 8f 92 2f bd
       -0.07442163 0.05246382 0.039408218 -0.04286438
000250 97 7f ac bd 41 9a 0d bd 77 fd 2a 3d b4 f4 72 3d
       -0.08422773 -0.034570936 0.04174563 0.0593154
000260 6e 9b f9 3c b9 52 8e 3c 2a 65 4f bd 37 4c 31 bd
       0.030469622 0.01737343 -0.050633587 -0.043285575
000270 2f 10 49 bd d7 78 9d bc 48 5c b7 3c 91 11 5e bd
       -0.0490877 -0.01922266 0.02238287 -0.05421597
000280 10 c7 76 bc 6c cb 63 3d 06 10 e9 bc 10 0e 14 bd
       -0.015062109 0.05561392 -0.028450023 -0.036146224
000290 fb 00 c8 3c fa 64 de bc 06 16 8c bd 03 7c 10 bd
       0.02441453 -0.027147759 -0.06840138 -0.035274517
0002a0 b4 14 42 bb 98 3b 60 3c be 06 e9 3c 43 ab 84 bc
       -0.002961439 0.013686083 0.028445598 -0.016194945
0002b0 3d 8f be 3c 36 db fd bc 8a 37 65 bd ca 16 67 3c
       0.02326166 -0.030988317 -0.05596117 0.014104554
0002c0 8d 6c 0e 3d 89 fa b1 bd 85 16 41 bd 36 29 8c bd
       0.03477149 -0.08690364 -0.047140617 -0.06843798
0002d0 53 92 d4 3c 91 6e 5e 3d c3 38 ac bc cb ff 64 bc
       0.02594868 0.054304663 -0.02102316 -0.013977001
0002e0 be 57 f2 bc ee 75 06 3d 39 67 b3 3c a8 38 58 3d
       -0.029582854 0.03282731 0.021899806 0.052788407
0002f0 2d 10 52 3d 4a 5b 7d 3d af 1e 19 3c c0 21 ea bb
       0.051284958 0.06185464 0.009345694 -0.0071451366
000300 b7 51 a9 bd cf 45 fc 3c 8e 75 83 3d 82 70 71 3c
       -0.08267539 0.030795006 0.06418906 0.014736297
000310 df 69 44 3b fd 4a 45 3d 85 a9 6f bd 39 3e 7f bd
       0.002997033 0.048167218 -0.058511276 -0.0623152
000320 59 11 83 bd 67 59 23 3d b0 e2 9a bd 12 02 40 3d
       -0.06399793 0.039880183 -0.075627685 0.046876974
000330 c2 ef 01 bd af 63 ea 3c 7d eb 50 3d da d3 04 bd
       -0.03172279 0.028611986 0.05100583 -0.0324286
000340 19 b1 45 bd 3f b6 16 3c df c3 de 3a ae db 33 bd
       -0.048264597 0.009198724 0.001699563 -0.043910675
000350 9b d4 f6 bc 26 b9 54 3d 8d 2c 37 3d d5 65 99 bd
       -0.030130675 0.051934384 0.04472022 -0.07490126
000360 74 44 4a bd b8 d2 a9 ba c3 9a 3d 3d 95 d9 a1 3c
       -0.04938169 -0.0012956476 0.04629017 0.019757072
000370 a9 68 93 3c d4 c3 23 bd 6c 89 98 bc 12 4e 8b bd
       0.017994242 -0.039981678 -0.018620215 -0.06802
000380 e3 ef 93 3c d7 c9 91 bd ee 24 8d 3c 00 15 c2 3c
       0.018058723 -0.07118576 0.017229524 0.023691654
000390 af 2e 82 bc 87 f3 2e 3d d7 5b 66 bd 74 37 a6 bd
       -0.015891401 0.042712715 -0.05623993 -0.081160456
0003a0 31 68 11 bd d5 c0 29 bc 1e 73 53 3d 87 be d5 bc
       -0.035499755 -0.010360916 0.051623456 -0.026091827
0003b0 2c fb 35 3c fa 2d 9e bc 78 e4 ca 3b ad d6 63 3c
       0.011107247 -0.019309033 0.0061917864 0.013906163
0003c0 32 e2 14 3d 83 08 03 bc ec 87 30 bd 26 48 44 3c
       0.03634853 -0.007997635 -0.043098375 0.011980092
0003d0 84 10 23 3d 64 bd a0 bc 4a f3 e3 3a a8 bb 43 3d
       0.039810672 -0.019621558 0.0017391231 0.047786385
0003e0 21 b0 de bb 4e 20 7d bd c2 d8 1a 3d 5d 23 af 3c
       -0.0067958985 -0.061798386 0.037804373 0.021379167
0003f0 ec 7f 8d bd 21 39 de 3c 71 bb a4 bd 6c af 09 3c
       -0.06909165 0.02712685 -0.08043564 0.00840364

weight f4 [128, 256]
000000 5f a2 37 bd be 18 b6 bc 5d b3 75 bd 81 bf ad bd
       -0.044832584 -0.022228595 -0.059985507 -0.08483792
000010 f1 07 4c bd 06 6e 92 3c 07 80 ab bc 3f 14 76 3d
       -0.04981226 0.017874729 -0.020935072 0.060077902
000020 13 a6 9f 3d f8 c4 a0 bc 82 22 e5 bd 82 00 88 bd
       0.07795348 -0.019625172 -0.111882225 -0.06640722
000030 98 14 11 bd 4f 2b 64 bd 5b c4 ee 3c d3 12 99 3d
       -0.03542003 -0.055705365 0.029146364 0.074742936
000040 69 45 97 bb ae 7f 84 3d 00 0e bc 3c 1e 7c 0d 3d
       -0.0046164286 0.064696655 0.022955894 0.034542195
000050 c6 a3 08 be 72 54 1b bd 1e de 93 bc 52 07 d5 3d
       -0.13343725 -0.03792233 -0.01805025 0.10401787
000060 21 c6 14 bd ce 98 71 bd 2a 80 62 3d ac d7 51 3d
       -0.036321763 -0.058983617 0.055298008 0.05123107
000070 19 3a 20 bd 2e 9f a3 bd 66 94 9f bd dc c5 eb 3a
       -0.039117906 -0.079893455 -0.07791977 0.0017988044
000080 2c 86 9e bd 90 c6 d2 3c cf 58 84 bc b6 1d c5 3c
       -0.07740435 0.025729448 -0.016155628 0.024062019
000090 76 b1 36 bd d4 57 52 bd 52 ff 4f ba b4 9f 3a 3c
       -0.044602834 -0.05135329 -0.0007934469 0.011390615
0000a0 44 10 ba bb 7e ba 70 3d 36 f1 29 bc 84 b1 6a 3c
       -0.0056782085 0.058771603 -0.010372451 0.01432455
0000b0 05 35 86 bd e4 ec 8d b9 56 97 49 bd 6d 78 96 3d
       -0.065530814 -0.00027070113 -0.04921659 0.07347188
0000c0 0a 46 4d 3b ce 6c a4 3c 42 f0 fe 3d 5d 49 2e 3d
       0.0031322264 0.020071413 0.12448169 0.042550433
0000d0 55 e6 8a 3d 38 ea 81 bc 35 d7 49 bd 82 33 5c bc
       0.067822136 -0.015858755 -0.049277503 -0.013440015
0000e0 30 c3 4e bd f1 f2 d8 3c 61 34 27 bd 90 4a 1b bd
       -0.050479114 0.026483031 -0.040821437 -0.037912905
0000f0 94 73 98 3c a9 5c a2 3c 66 54 37 3c 5b 66 3c bd
       0.0186098 0.019819574 0.011189556 -0.04599605
000100 8b 74 fe 3d ff 44 08 3d 9e a7 93 bd 61 01 98 3c
       0.124245726 0.033268925 -0.07209705 0.018555345
000110 39 9f ff 3c e6 9c f5 b9 06 86 4e bd 39 99 42 3d
       0.031203853 -0.0004684694 -0.050420783 0.047509406
000120 3c 72 0d 3d 33 ac c7 bc 88 0e be bd 27 47 c5 bb
       0.03453277 -0.024374103 -0.09280115 -0.006020445
000130 bc c8 82 3d e9 aa f8 bb 4a ed 60 3b c5 60 8b 3c
       0.06385943 -0.0075887335 0.0034321123 0.017013917
000140 16 ce 0d bd e4 53 39 3a 54 a5 11 3d bd ef 4e 3c
       -0.034620367 0.00070696906 0.03555806 0.0126304
000150 8e 2b bc bc 80 07 bd bc fa 0e 8e 3d e7 26 25 3d
       -0.022969987 -0.023074865 0.0693645 0.040320303
000160 65 bb bc bd 79 9a 1e 3c 4c 84 93 3b e9 4e a3 bd
       -0.0921543 0.009680384 0.004501855 -0.07974035
000170 74 76 81 bd c9 c0 4b 3d 1a 13 95 bb cc 1f 6d bc
       -0.06321421 0.0497444 -0.004549396 -0.014472913
000180 72 59 79 3d 16 e9 f5 ba e5 7a 74 bd e2 c7 70 3c
       0.060876317 -0.0018761482 -0.059687514 0.014696093
000190 f4 f3 3f bc f5 ac 6d 3d 55 a0 92 bc e4 27 67 3c
       -0.011715878 0.058026273 -0.017898718 0.014108632
0001a0 ff f9 bb 3c de d1 47 3d b8 0b f3 3c 39 b5 b2 bc
       0.022946356 0.04878413 0.029668674 -0.02181493
0001b0 2d db 4d bd 15 bd 4b bc 78 bf f1 bb cf 92 3e 3c
       -0.05025785 -0.012435217 -0.007377561 0.011631682
0001c0 f0 95 88 bd b8 00 0d 3d 5f 93 c8 bc a9 8d 84 3c
       -0.06669223 0.034424514 -0.024484335 0.01618083
0001d0 7e 56 24 bd 7f e5 8b bd 06 7f c1 bc 80 ed 3f bc
       -0.040121548 -0.06830882 -0.02362014 -0.011714339
0001e0 0e 4a 57 bd 93 28 41 bd 69 d8 3a 3d cc b8 98 bc
       -0.05256086 -0.047157835 0.04561654 -0.018642806
0001f0 48 3d 80 3c ec 8c b3 bd a8 ba 04 bd 16 e6 95 bd
       0.015654221 -0.08767113 -0.03240457 -0.07319276
000200 48 6c 23 3d 9b f3 1d 3d b3 15 f5 3c 64 53 1a 3d
       0.039898187 0.0385624 0.029917574 0.037677184
000210 6a d8 b7 3c 81 29 a1 bb c4 ce c1 bc 5b 50 71 3c
       0.022442061 -0.0049182777 -0.023658164 0.014728631
000220 2b 30 10 bd 64 f4 46 3a 30 1f af bd 56 9b 83 3c
       -0.035202187 0.00075895176 -0.085508704 0.01606528
000230 c0 ed 89 3d 32 fc 00 bd 6e d9 9a bd 6e bf a3 bd
       0.067348 -0.031490512 -0.07561003 -0.07995497
000240 ac 69 f1 b8 41 9a 86 bd a4 6c 83 bd 1c d0 2b 3d
       -0.000115114584 -0.0657239 -0.06417206 0.041946515
000250 0a 61 cf 3c dd 99 ed bb 53 19 d7 3d b0 53 9b bd
       0.025314827 -0.007251008 0.10502877 -0.075843215
000260 12 13 29 3c f3 df 4e 3d 2d 17 38 3d 4d 77 82 3d
       0.010319488 0.050506543 0.044943977 0.06370411
000270 9b 80 9b 3d 33 c9 56 bd e5 d8 b3 3b 2c 82 08 bc
       0.07592889 -0.052437972 0.0054885023 -0.008331817
000280 64 11 3c 3d 08 9e 37 bd 31 ee 89 3d f8 15 c3 bc
       0.045915022 -0.044828445 0.067348845 -0.023814186
000290 c9 6a c0 bb 35 c1 4a bd 71 ee ed 3c a2 34 39 bd
       -0.005872105 -0.049500663 0.029044362 -0.04521621
0002a0 7f c2 3a 3d a4 ba 4f 3b fe 83 85 3c fa 2a 93 3d
       0.045595642 0.003169694 0.01629829 0.071859315
0002b0 56 3b 08 bd 65 74 6c 3b a4 97 2d bd 1b 1c 74 bd
       -0.033259712 0.0036080119 -0.042380944 -0.059597116
0002c0 c0 45 da bc f1 9e 48 bc 1f d4 b8 3c 65 37 ad 3d
       -0.026644588 -0.012244926 0.022562085 0.08457831
0002d0 1d 5d 10 bd b6 79 32 3d 1b 99 42 bb 21 c5 26 bd
       -0.03524505 0.043573104 -0.0029693309 -0.04071534
0002e0 bc 32 4a bd a7 ff 56 bd 90 8f 4d bc 40 9e a5 bc
       -0.04936479 -0.052489903 -0.012546435 -0.020217061
0002f0 64 e9 79 3c ff 56 8e 3a 22 2b a6 bd 62 18 9d 3d
       0.015253399 0.0010859667 -0.08113696 0.07670666
000300 c7 bb cb bc f2 b4 50 bd eb cc aa bd a4 8b 48 3c
       -0.024869813 -0.050953813 -0.08339866 0.012240324
000310 d6 e0 1a 3d 6c 6b 72 3c 68 2c a0 3d 17 54 23 bc
       0.037812077 0.014796119 0.0782097 -0.009968779
000320 93 1c ce 3c db a9 e0 bc a9 d2 85 bc e0 61 a5 bc
       0.02516011 -0.027424743 -0.016335802 -0.020188272
000330 62 ed 27 bd dc eb f4 bc 2f be 9b bd 31 30 38 bd
       -0.04099787 -0.029897623 -0.07604634 -0.044967834
000340 c1 a9 da bc b3 ca 89 3d b4 e7 d5 3c c8 d4 a7 3d
       -0.026692273 0.06728115 0.026111461 0.08194882
000350 c9 3c dc 3d 88 50 60 bd a9 be 45 bc c8 cc 86 37
       0.10753781 -0.0547643 -0.012069383 1.6069404e-05
000360 c7 5a 32 3d b5 d4 33 3d 4a 9d 35 bd 38 e0 bd bd
       0.043543603 0.043904025 -0.044339456 -0.09271282
000370 f2 12 ff 3c 62 de a4 3d 45 a9 aa bc a6 ab 8d bb
       0.031136964 0.08050229 -0.020832667 -0.0043234406
000380 28 24 8c bd b1 80 69 3d ac 43 cd bc 39 8c b6 3c
       -0.06842834 0.057007495 -0.025056683 0.02228366
000390 c8 f7 a4 3c 46 49 4e bc 49 ef 25 bd 89 2f b3 3d
       0.020137683 -0.012590712 -0.040511403 0.08749301
0003a0 4f 3c 82 bd 38 b5 a6 bc 19 5d fb bd e2 11 25 3d
       -0.06359159 -0.020350084 -0.12273616 0.040300258
0003b0 d7 49 c2 bc 8c 98 a4 3c 29 b0 4e 3d 5d e4 6e 3c
       -0.02371685 0.020092271 0.05046097 0.014580813
0003c0 2f cb 26 be 6a a5 42 3d 04 a3 92 3d 9f 5e 70 3c
       -0.16288446 0.047521032 0.07159999 0.014670997
0003d0 74 8d 9f 3c c6 bd ee bb cc 15 79 3c c4 4e 08 bb
       0.01947663 -0.0072858064 0.015202951 -0.00207989
0003e0 e2 b3 e8 3c 31 02 33 bd 71 79 e6 bc e1 e5 25 bb
       0.028406087 -0.04370326 -0.02813408 -0.002531402
0003f0 43 e4 a1 bc 05 78 81 bd 57 b9 c8 3c 75 a4 6c 3c
       -0.019762164 -0.0632172 0.02450244 0.0144435065
