models/model_objs/nba_model_pregame_2epochs.pth (torch, 630221 bytes, 11 tensors)

weight f4 [256, 186]
00000000: 4733 a13d 5054 66bd 19bf 9a3d 1669 6b3c
00000010: 5d83 873d 2196 b73c 3cbc 493d 109e 29bc
00000020: 4712 803d de82 a63c ce3d 0dbd b56b ff3c
00000030: 5d60 02bd 22f8 f0bb ad2b c1bc 2970 803d
00000040: 31fb 32bd c72b c9bc 78b2 5fbc 52ca 2dbd
00000050: 7ef9 9a3c 6357 8bbd 148e 993d a2c2 4cbd
00000060: 9437 8e3d 5738 413c 9e39 60bc 1156 683d
00000070: abe8 143c e54f 973d a5c0 a23c 6090 1abc
00000080: 3b5e f63c a3d0 19bc c82b 023d 8991 933d
00000090: 5cd3 463d c5ed 01bd edd1 2e3d 471c 5c3c
000000a0: b57f 2a3d 5bb5 13bd de89 74bd b619 c3bc
000000b0: 8662 87bd 0837 983d b264 0f3d a165 363d
000000c0: 7bd7 e33c 032d b4ba e957 7f3d 0927 37bd
000000d0: 7835 4c3c a943 35bd e532 e53c 7fa3 aebc
000000e0: 62c5 0a3d e798 05bc 069f 8f3d ca0f 12bd
000000f0: d4f0 13bd f19f 16bd 14e9 913d 1924 fc3c
00000100: 4ff7 a23d 7703 64bd 0722 87bd 42d8 58bd
00000110: 9789 33bd 3c80 203d 6c11 f03c 07dd 833d
00000120: 4875 e9bc 68a8 2bbd 7d39 413d 93ea cabc
00000130: ce23 453d f27b 1bbc 1869 4a3d ccf2 26bd
00000140: b9c5 d9bc 8703 123d d151 ef3c 61bc b4bb
00000150: c91f 753d 509b 863d aec4 54bd 5647 0cbd
00000160: 3af5 923d 2846 8fbc 5b1c abbc 9f98 8ebd
00000170: f926 1abd b811 e63c b782 1f3b fc4b 1abd
00000180: da49 5d3c 208c 1bbd 40cd 7ebd 7677 d7bc
00000190: 65d1 54bd 6454 10bd 07fa ad3d 37e0 c03c
000001a0: 5a5b 053d b48d 5cbd 9ef8 32bd c3fc 8dbb
000001b0: 254b a83c eeae 57bd ded1 95bc 02b3 f9bc
000001c0: fd7c 3d3c 2c72 5cbc 5834 f63b 3a80 19bd
000001d0: 436e 24bd 65fa e3bc e4b1 2fbc c470 3cbd
000001e0: 402e 943d 56d9 3ebb 13ac 9a3d e98c 1d3d
000001f0: a6b1 49bd c244 803d c6ed dcbb e432 21bc
00000200: c308 34bd c71f 6ebd fd80 f83c 7c95 e83a
00000210: 04c0 043d 3640 4fbd f463 713d 19a3 51bd
00000220: d864 01bc 4dee ac3c 808d 363d 3f7f 903d
00000230: 3653 773d bf3e 53bd 7d72 b53c d964 fcbc
00000240: 90d8 9539 aab9 3dbd 64f9 973d 534b 34bd
00000250: 4711 453d 4237 083d fe41 fb3c 569a 03bd
00000260: 3927 923d c01d 863c 3676 993c 7a85 5bbd
00000270: 9c66 0c3d 5b7b b6bb 13be e4bc 3a6d 883d
00000280: 07df b23c 3731 16bd 01cf f2bc b43b 503c
00000290: 1b5f 523d 695e b2bb 1764 e6bc 2c77 43bc
000002a0: c8d7 2abd 92c0 0c3d 7356 8f3d 45d8 5cbd
000002b0: c8bd e13c bab1 4c3d e97a e93c 2775 17bc
000002c0: fc7c 5c3d 6a95 613d 5d4d 413d f57d 10bb
000002d0: a2b0 43bc d20f c53c ad0c 26bb a533 0cbc
000002e0: 6824 783d 210b 9c3d d97b 873b 3ba1 cabc
000002f0: 6ead 213c cd21 10bc 1fa4 ef3c d925 f93c
00000300: 9763 62bd 2cab ddbc be29 923d 8082 173d
00000310: 3fc6 b3bb b6b4 0dbd 7dc2 1abd e8e7 7bbd
00000320: 852f 5dbc 6817 143d add9 6e3d 5023 303d
00000330: cc2e 82bd d46e 3fbd 9341 4ebb 060d a63d
00000340: 87e1 9a3c 075f e6bb 88db 263d d3c9 05bd
00000350: 20c9 1bbd 4e21 813d 2024 3bbd 70be 32bb
00000360: 0cee 82bd 2a4f 783d a72a 833d ce1a 113d
00000370: 8194 33bd 0c27 7dbd 4f15 7abd 8ee5 7d3d
00000380: 782b 2e3d 6f5c 8d3d 4eb7 463d 5df8 ec3c
00000390: f1a0 233c 8115 4abd b31b 93bd 427b 69bd
000003a0: 1390 293d d409 c8bc 4328 20bc 908d 2ebd
000003b0: f2bc 0ebc d4c2 32bd 7f3c 29bd 39b8 da3c
000003c0: 571c a6bc 024c 2b3d 1d9e 44bc db53 4cbd
000003d0: a900 c4bb b0f4 e6bc 986f 99bc 399d 85bd
000003e0: 733e 283d ec6c 45bd 07e0 103d 8d62 0c3d
000003f0: dd9f 643d 3f0c 5dbd f53e 6f3d e288 d2bc
0.078711085 -0.05623275 0.0755598 0.014368316 0.066168524 0.022410454 0.04925178 -0.010352626
0.06253486 0.020326074 -0.03448277 0.031179288 -0.03183018 -0.0073537985 -0.023580397 0.06271393
-0.043696586 -0.024557007 -0.01365339 -0.042429276 0.018917795 -0.06803777 0.074978024 -0.049990304
0.069441944 0.011793218 -0.013685612 0.056722704 0.0090886755 0.073882855 0.01986725 -0.009433836
0.03007423 -0.009388122 0.031780034 0.07205493 0.04854141 -0.031720895 0.04268067 0.013434476
0.041625697 -0.036061626 -0.059701793 -0.02381597 -0.06610589 0.074323714 0.03500814 0.044530515
0.02781271 -0.0013746325 0.062339697 -0.04471496 0.01246392 -0.04425398 0.02797837 -0.021318195
0.033879645 -0.008154131 0.07012753 -0.03565959 -0.036118343 -0.036773626 0.07124534 0.030778931
0.079573266 -0.055667367 -0.06598287 -0.052940615 -0.043832388 0.039184794 0.029305182 0.06438642
-0.028498307 -0.04190865 0.047173966 -0.024770057 0.04812985 -0.00949 0.04941663 -0.040758893
-0.02658354 0.035647895 0.029213818 -0.0055156206 0.059844766 0.06572592 -0.05194538 -0.03424772
0.071756795 -0.017489508 -0.020887544 -0.06962704 -0.037634823 0.02808462 0.0024339387 -0.03767012
0.013506377 -0.03797543 -0.06220746 -0.02630208 -0.051957507 -0.03523673 0.084949546 0.023544414
0.032557823 -0.053846076 -0.04369413 -0.00433311 0.020543644 -0.05265706 -0.018288549 -0.030480865
0.011565444 -0.013454955 0.007513564 -0.037475802 -0.040144216 -0.027829358 -0.010723565 -0.04600598
0.07235384 -0.0029121242 0.07552352 0.03846446 -0.049241684 0.062631145 -0.006742212 -0.009838793
-0.04395367 -0.058135774 0.030334944 0.0017744745 0.032409683 -0.050598346 0.058933213 -0.051180933
-0.007897578 0.021109724 0.04456854 0.0705552 0.06038209 -0.05157351 0.022149319 -0.030809807
0.00028580846 -0.04631964 0.07420614 -0.044017147 0.04811218 0.033255823 0.030671116 -0.032129608
0.071363874 0.016371608 0.018733125 -0.05359409 0.034277543 -0.0055689043 -0.027922666 0.06661458
0.021834863 -0.03666803 -0.029639723 0.012709547 0.05136023 -0.0054433835 -0.028123898 -0.011930268
-0.04170969 0.034363337 0.06998911 -0.05391719 0.027556315 0.04997418 0.028500991 -0.00924424
0.053830132 0.055074133 0.04719292 -0.0022047732 -0.011943968 0.024055395 -0.0025337145 -0.008557235
0.060581595 0.0761931 0.004134637 -0.024735084 0.009868009 -0.008797121 0.029253064 0.030413555
-0.055270758 -0.02705916 0.07136868 0.03698969 -0.0054862793 -0.034596168 -0.037783135 -0.06150046
-0.013500099 0.036155134 0.05831306 0.043002427 -0.06356582 -0.046736553 -0.003147219 0.08107953
0.018906368 -0.007030371 0.040736705 -0.032663178 -0.038033605 0.063051805 -0.04568875 -0.0027274154
-0.0639306 0.06062237 0.0640462 0.035425954 -0.043842796 -0.061804816 -0.061055478 0.0619865
0.042521924 0.06902396 0.048514657 0.028927023 0.009987102 -0.049336914 -0.071830176 -0.057002313
0.041397166 -0.024418749 -0.009775224 -0.042615473 -0.00871204 -0.043642834 -0.04131746 0.026699172
-0.020277185 0.041820534 -0.012000588 -0.04988466 -0.005981524 -0.028192848 -0.01872997 -0.065241285
0.04107518 -0.04819958 0.0353699 0.034273673 0.05581652 -0.053966757 0.05840965 -0.025700036

bias f4 [256]
00000000: 9697 543d 6404 933d 9020 50bd b9ef 43bd
00000010: b79e 8fbb be9a a43d e8e6 95bc 377a 62bd
00000020: 533c 663d d4f0 2dbd 31cd 863d db27 4cbc
00000030: 5093 b63a c8e1 053d f20a cfbc b07d 0b3d
00000040: 3f26 913d 1b28 243d bad0 40bd 9647 22bd
00000050: 8bf3 19bd 606c bebc 4fa2 e4bc b6b5 15bd
00000060: 14d5 533d c57c 52bc 784d 2b3d 7ba6 04bc
00000070: cc88 06bd ae66 8d3b e4d5 ddbb 834b fbbc
00000080: fd4d 753c fbb1 b03c 4d54 303d fe03 2b3d
00000090: d56c 54bb f618 393c 9212 10bd dbaf 9ebc
000000a0: e365 b33d b8db 7e3d fbb9 873d 65a9 1d3d
000000b0: ac3e 8dbc 406f f53b 5396 a6bc 17fb 033d
000000c0: 8c70 bdbc 07ee 253d 3a84 83b9 c8f4 1ebd
000000d0: eb5d 27bc f841 e3bc 4c63 a73c 0cc3 013d
000000e0: c0aa 133a 0109 3a3c 0f57 723b 5002 193d
000000f0: 7cc8 76bd 6114 a8ba 8b01 75bd 8ef5 52bd
00000100: 78b5 afba 8850 943d afeb b63b 7db4 01bd
00000110: 5fb2 42bd 0333 613d c3d4 233d 5874 f43c
00000120: 5a53 763d c1cf 5cbd e835 7f3a 97ae fab9
00000130: c9b6 3e3d 942f db3c d598 9c3c 1595 09bd
00000140: 860a 82bd 19f1 5b3d a8a3 c03c 735e 25bd
00000150: 54f9 f73c f000 4c3d d5c7 d63c 2889 80bc
00000160: 7c8b 7fbd 47c4 75bc 774f 703d e580 74bd
00000170: 2ad7 ac3d dff3 77bd 0079 823c e6d2 7ebb
00000180: d62e b0bc 2edc 74bc fd80 173c 88f5 e53c
00000190: 7979 843d 07c6 e03c bf51 e73c 12b6 42bd
000001a0: e3d0 eb3b fcf5 f2bc 7193 f53c ca93 a03c
000001b0: e1d2 473c bebf 54bd 0799 1cbd dc0a 2fbd
000001c0: d6c7 19bc 3423 32bc b19d 6dbc f479 4b3c
000001d0: e2f3 95bd e7c1 933d 672e 4bbd 3d9c 04bc
000001e0: 16eb 8b3d 9b56 263d 8032 cbbc 4280 233d
000001f0: 7b37 8b3b bd39 d9bc feac ab3c 9db1 fcbc
00000200: ff22 b8bc 5dfc f5bb a404 533d 93f2 bc3c
00000210: c75c b53d 3256 bbbc eac0 7f3c f312 7c3d
00000220: ef13 57bd cd7e 66bd 7d42 8c3d 275d 69bb
00000230: 066e b73b 93d5 b53d 25a1 263c 12bd 1c3d
00000240: 5055 873c 83a1 36bc d9f7 8abc 14d2 02bd
00000250: bb43 893c 7252 2f3d beb3 8bbd c26a 6bbd
00000260: eaa0 c53b 9696 113d 52e4 d0bc 1309 28bd
00000270: 44f9 403d a3cf 90bb edea 67bc deb6 28bc
00000280: c5e6 28bd 0008 aa3d 7d6f 903d 660b ddbc
00000290: 31c9 0e3d 3436 fb3b ac55 7abc 3274 29bc
000002a0: a274 98bb f8b7 b13c adc2 eebc 9dd8 68bd
000002b0: 2e90 76bd 986e 1bbd 88ff 9c3d 67c7 9c3d
000002c0: 8d79 a63d 0781 143d 890b 993b 2ba7 723d
000002d0: 6d22 1fbd 022a 883c 88c5 d53c 622d aabc
000002e0: 62d3 fc3c 9ec3 b03d e1f6 a63d 837e c73c
000002f0: f645 033d 72c2 8d3d 5ba2 853d 5b73 9f3d
00000300: ce49 3fbd 20a9 b2bc 28f2 6d3d 7139 883d
00000310: 87e8 1f3d 07ab d8bb 9aac 833d c6cf b4bc
00000320: 3839 94bc 1536 1fbd 1e60 943c 83cd 48bd
00000330: df7d 323c 16e8 33bd 6b08 c1bc be01 e4bc
00000340: 7945 313b b05d 8abc 4b54 113d e3cf 13bd
00000350: 5bc9 0cbd f606 1e3d b19e e2bc 3911 013c
00000360: 4d22 143d df51 103d 10ef ddbb 7963 533c
00000370: 60ba dbbc 2336 82bd 6089 913d 61bd 943a
00000380: 5675 0abd 4754 9cbc 59f3 b03d 0f53 5b3d
00000390: 6923 873d c5e1 59bd e058 95bc a0e0 6abd
000003a0: a414 7d3c a168 383c 5b00 0abd eb7f e93b
000003b0: b75d 28bd cf94 b53d 99ca 4a3d 5179 5bbc
000003c0: a5d8 473d 3534 973d ad0d 65bd 5d7b 973d
000003d0: 9bde 4abd cb57 9a3b a17b a13d 0e04 da3b
000003e0: 6531 5f3d d650 a9bc dfdb 5a3d 56b1 14bd
000003f0: bb13 cfbc 458a 513b 2249 34bc f249 71bc
0.051902376 0.07178572 -0.050812304 -0.04783604 -0.004382934 0.08037327 -0.018298581 -0.055292334
0.056209873 -0.042466 0.06582106 -0.012460674 0.0013929401 0.032686025 -0.025273774 0.03405541
0.07087373 0.04007731 -0.047074057 -0.03961905 -0.037585776 -0.023245037 -0.027909426 -0.036550246
0.05171688 -0.01284713 0.041821927 -0.008096333 -0.032845303 0.004315219 -0.0067698825 -0.030675655
0.014972207 0.021569243 0.043049145 0.041751854 -0.0032413502 0.011297455 -0.03517396 -0.019370964
0.08759668 0.06222126 0.0662727 0.038491625 -0.017241798 0.0074900687 -0.020335352 0.03222188
-0.023124956 0.040510204 -0.00025084784 -0.03880766 -0.010215263 -0.027741417 0.02043309 0.03168015
0.0005633049 0.011354686 0.003697816 0.03735572 -0.06024979 -0.0012823456 -0.059815925 -0.05150371
-0.0013405522 0.072419226 0.005582295 -0.031666268 -0.04753339 0.05498029 0.039997827 0.029840633
0.060138084 -0.053909067 0.00097355107 -0.00047813795 0.046561036 0.026756085 0.019115845 -0.03358944
-0.063496634 0.053696726 0.023515537 -0.040373277 0.030270256 0.04980558 0.026218334 -0.015690401
-0.062388882 -0.015000409 0.058669534 -0.059693236 0.08439477 -0.060535308 0.015926838 -0.003888303
-0.021506708 -0.014945073 0.009247062 0.02807118 0.064684816 0.027438177 0.028237222 -0.047536917
0.007196532 -0.02965831 0.029977532 0.019601721 0.012196274 -0.051940672 -0.038231876 -0.042734966
-0.0093860235 -0.010872651 -0.014502929 0.012419213 -0.073219076 0.07214718 -0.0496048 -0.008093891
0.068319485 0.040609937 -0.024804354 0.039917238 0.004248557 -0.02651679 0.020956513 -0.030846411
-0.022477625 -0.0075068907 0.051518098 0.023064887 0.088555865 -0.02286825 0.015609959 0.06154151
-0.052509245 -0.05627327 0.06848619 -0.0035608502 0.0055978326 0.08878627 0.010170256 0.03826625
0.016520172 -0.011146906 -0.016963886 -0.031938627 0.01675593 0.042803235 -0.068213925 -0.05747486
0.0060311453 0.035544 -0.025499497 -0.04102428 0.04711272 -0.0044192835 -0.014155132 -0.010297505
-0.041235704 0.08302307 0.07052515 -0.026982974 0.03485984 0.0076663736 -0.015279215 -0.0103426445
-0.0046525756 0.021694168 -0.029145563 -0.056847204 -0.060196094 -0.037947267 0.07665926 0.076552205
0.08128653 0.036255863 0.0046705646 0.059241455 -0.03885119 0.016621593 0.026095167 -0.020773593
0.030862514 0.08631061 0.08152557 0.024352318 0.03204914 0.06921853 0.065251075 0.07785674
-0.046701245 -0.02180916 0.058092266 0.06651581 0.039040115 -0.006612185 0.064294055 -0.02207173
-0.01809369 -0.038869936 0.018112238 -0.049024116 0.010894268 -0.043922506 -0.023563584 -0.027832862
0.0027049466 -0.016890377 0.03548078 -0.036086928 -0.034371715 0.038580857 -0.02766356 0.007877641
0.036165524 0.03523433 -0.0067728832 0.012902134 -0.026822269 -0.06357982 0.0710628 0.0011347943
-0.033803307 -0.019083155 0.08640165 0.053546008 0.06598551 -0.053193826 -0.018230855 -0.057343125
0.015446816 0.011255414 -0.033691745 0.0071258447 -0.041105 0.088662736 0.04950962 -0.013395623
0.048790593 0.073830046 -0.055921245 0.073965766 -0.0495287 0.004710173 0.078849085 0.0066533154
0.054490466 -0.020668428 0.05343234 -0.036301933 -0.025277963 0.0031973284 -0.011003764 -0.014727103

weight f4 [256, 256]
00000000: 73b5 adbc 7c08 723d 3e6a 65bc 5584 afbc
00000010: 008c 2fbd c512 8c3d bfd7 3fbd 0ddc 2e3d
00000020: 23a5 b6bb 7b5c 07bd c309 27bc 0795 19bd
00000030: a246 10bc a1e3 743d 097d d03c 2cc7 8a3d
00000040: 982a ac3c b127 8f3d 63f7 87bc c45d 5fbd
00000050: 53e0 f93c 3e1a f6ba 8e4c f83c 0d3d 733d
00000060: 439e a13c 79a7 c2bb 16ea 673d fad8 8e3c
00000070: f966 343d 9ea4 0ebd adf0 7c3c e284 683c
00000080: dddb 24bd 4c7f e6bc aa22 8b3c 8711 873d
00000090: 1468 663d 0d89 863d d615 6f3d 1c0d 5cbc
000000a0: c924 443d e952 62bd a9fa 41bc 8f77 04bd
000000b0: 1172 d7bc 936b 57bd 4b7d 553d 397d aabc
000000c0: eaef 24bd ae24 3cbc ee55 7d3d 6091 a6ba
000000d0: 77df a53c f344 193d 8d36 a73b 18ee 06bd
000000e0: 8ac1 923d b8f4 7f3c 30c6 8b3d 06e4 263d
000000f0: ad24 e9bc 95d2 163d 81fd ab3c 3c09 a93b
00000100: 8e44 943d a1ec 003c acc9 05bc f8f1 083d
00000110: a09a f13b 0d4b 993d acec 963d 3c05 123d
00000120: 9953 3a3d 0fdd 163b c195 973d 78e5 793d
00000130: 3a0e 843d 6b45 073d c3fd dcbc b0ef 1e3c
00000140: 2db2 e03c c08a 273d 1557 0dbd 9572 46bd
00000150: 5c50 113d 5bd7 b6bb 4a5b 1d3d a377 223b
00000160: 701e 193d 3877 bbbc 0dd0 26bd 4419 cdbc
00000170: 7896 cc3b dfd5 52bd fdf5 56bd 1414 3e3d
00000180: b902 f2bc 879c 2bbd 7740 20bd 5591 a53c
00000190: df0c 33bd 3a2e 4dbd b87e 213d 3f72 4fbd
000001a0: c87c 46bd 8d2c a13a 2139 f53a a4bf 66bc
000001b0: 3a0e 253c 6517 ffbb d869 493d 1f4d b8bc
000001c0: 2876 113d 3543 82bb 0cbe ed3c 4546 f4bc
000001d0: 6213 09bd b0e3 2d3b 20e3 263d 8a28 0f3d
000001e0: d951 2a3c 9bbc 153d c299 0a3d cce1 043b
000001f0: 1d2c eebc e4fc 97bc 45d6 18bd 5c19 46bd
00000200: 9bdb 643d d485 f8bc 0737 09bc 74cb 853d
00000210: 7075 13bd 93a3 86bc afff 70bc 2a53 bebc
00000220: 528f b9bb 8301 91ba 64ba 4e3d d302 1b3c
00000230: 816a 373d e186 9b3c 1a39 573c 1b48 823d
00000240: 69eb b4bb ff40 3fbd c22b 4abd 8470 2dbd
00000250: 0121 983b 215f 103d 5374 0c3d b5f5 dbbc
00000260: 8cf5 6b3d 5e96 1dbd b644 0a3d d523 5c3d
00000270: e3f6 74bc f4e5 4b3b 1ed0 f3bc 8653 38bd
00000280: 660f 373d 1af5 173c c4f6 a03b bc9b 073c
00000290: ed38 363d 5963 ae3b 6008 3abc 9dfc 3cbd
000002a0: 6aea 853d 69ff 79bc fc20 4d3d ca72 683d
000002b0: ff92 c6bc 0928 ecbc b447 923d de3c 073d
000002c0: 490c d3bc 325a 6339 1819 61bc 599d 89bd
000002d0: f5da 2bbd 8076 b43c 9dfb 52bc 4b5f 4f3c
000002e0: a00c 03bd 15a9 26bc 0709 4b3d 156b 623c
000002f0: 4ee8 1f3d 68f0 993d 9f76 023d 5951 b93c
00000300: b599 4b3d 5467 613d a7da 643d 6a52 833c
00000310: 0006 cfbc 406d 1b3d d136 cebc 3c0d 1bbd
00000320: 0b2e 83bc 8206 e63c e268 afbc 666c fd3c
00000330: bb83 173c fb04 2dbd f2fc cbbc 78d9 81bc
00000340: a88c 36bd 497f 163c 6ec0 3f3d c3b9 6d3d
00000350: aabc 823d df30 3ebd 6e9b 14bd b0aa 8e3d
00000360: 722f b0bb 3c0d 6cbc c3d0 27bc bd69 443d
00000370: a944 5ebd 2056 bebc 47bf 0a3d 0259 b7bb
00000380: c313 d3bc e764 8d3c 5ca3 8c3d 5a48 473d
00000390: a600 8abc 72b6 3f3d 5b9e d93c 6f58 ba3c
000003a0: f317 873d 2562 2cbd db44 a2bc 1ba6 69bb
000003b0: 1078 9bbc 3c1f 17bb a760 1c3d 3bd3 59bc
000003c0: 6b83 00bd 378d 04bd 199a 903d 1505 41bd
000003d0: b5a1 033d a15f 043d 2776 f0ba 5d7b 8e3d
000003e0: 2591 663c 4cbb 8b3d 8879 5cbd daba 5f3d
000003f0: ecc6 913d faae c63c e405 5c3d 7368 dbbc
-0.021204686 0.059090123 -0.014002381 -0.021425406 -0.042858124 0.068395175 -0.04683661 0.042690326
-0.005573885 -0.03304718 -0.0101951985 -0.03749564 -0.008805903 0.059787396 0.025450246 0.0677627
0.021016404 0.069899924 -0.016597455 -0.05453278 0.030502474 -0.0018776131 0.030309942 0.059384394
0.019728785 -0.0059403745 0.056619726 0.017437447 0.044043515 -0.03482496 0.015438241 0.014191838
-0.04024874 -0.028136872 0.016984303 0.0659514 0.0562516 0.06569109 0.058370434 -0.01343086
0.047886644 -0.05525485 -0.011839547 -0.032340582 -0.026299508 -0.052592825 0.05212144 -0.020811664
-0.040267862 -0.0114833545 0.061849527 -0.001270812 0.020248158 0.03741927 0.0051029385 -0.032941908
0.07165821 0.01562231 0.06824911 0.040744804 -0.028459871 0.03682192 0.020994904 0.0051585715
0.07239638 0.007868917 -0.008165758 0.033433884 0.007373169 0.07485018 0.0736936 0.035649523
0.04548988 0.0023019945 0.0740161 0.061009854 0.06448026 0.033025187 -0.026976472 0.009700701
0.02742871 0.040903807 -0.034506876 -0.048449118 0.035477027 -0.0055798716 0.03841714 0.0024790547
0.037382543 -0.022883996 -0.040725756 -0.025036462 0.006243523 -0.051473495 -0.052480686 0.046405867
-0.029542314 -0.041897323 -0.03912398 0.020210901 -0.043713447 -0.050092913 0.03942749 -0.050646063
-0.048458844 0.0012296602 0.0018709042 -0.014083777 0.010074193 -0.0077847713 0.049173206 -0.022497712
0.035513073 -0.003975297 0.029021285 -0.029818663 -0.03346575 0.0026533417 0.040743947 0.03495077
0.010395491 0.03655682 0.03383804 0.0020276187 -0.02907377 -0.018553205 -0.03731372 -0.04836403
0.055873495 -0.030337252 -0.008374936 0.06532946 -0.03600067 -0.01643542 -0.014709397 -0.023233015
-0.005662837 -0.0011063073 0.050470725 0.009461123 0.044779304 0.018985214 0.013136173 0.06361409
-0.005521227 -0.046692844 -0.049358137 -0.04234363 0.0046426062 0.035246972 0.034290623 -0.02685056
0.05760722 -0.03847348 0.033756934 0.05374511 -0.0149514405 0.0031112405 -0.029762324 -0.04500153
0.04469242 0.009274745 0.0049122293 0.008276876 0.044487882 0.0053219018 -0.011354536 -0.04613935
0.065388516 -0.015258648 0.050080284 0.056750096 -0.024240015 -0.028827684 0.071425825 0.03301703
-0.025762694 0.00021682007 -0.013738893 -0.06719465 -0.04195686 0.022029161 -0.012877372 0.012656997
-0.031994462 -0.010172148 0.049569156 0.013819476 0.039039902 0.07516557 0.031851407 0.022621797
0.049707133 0.055030182 0.055872586 0.016030509 -0.025271416 0.037945986 -0.025172623 -0.03785442
-0.016013166 0.028079275 -0.021412317 0.030935477 0.009247716 -0.042241078 -0.024900887 -0.015850767
-0.044567734 0.009185621 0.046814375 0.058038484 0.06383641 -0.046433326 -0.03628104 0.0696615
-0.0053767497 -0.014407452 -0.010242644 0.047952402 -0.0542647 -0.023234427 0.033873823 -0.0055953274
-0.025766259 0.017260028 0.06867096 0.048652984 -0.016846012 0.046804853 0.026564768 0.022747247
0.06596365 -0.042085785 -0.019808223 -0.0035651985 -0.018978149 -0.0023059389 0.038178112 -0.01329499
-0.03137533 -0.032361235 0.07060642 -0.047123987 0.032136638 0.03231776 -0.0018345759 0.069571234
0.014072691 0.068228334 -0.05382684 0.054621555 0.071180195 0.024253357 0.053716555 -0.026783204

bias f4 [256]
00000000: b290 a83c 9f65 af3c 24b7 49bd dc42 0a3c
00000010: e5f4 fc3c c7ef c7bc 8de4 123c 7e85 99bc
00000020: ec02 163d 87d9 493d ced1 07bd 61d1 0a3d
00000030: 11b2 633c 976a e5bb 8a38 1d3d de85 c73c
00000040: 2371 303d 421f 1b3d f8ce cb3c 776a 04bc
00000050: b1c4 fbbc abfe b13c 29c2 fe3c 0524 683d
00000060: 6339 22bd fa79 4f3d e9c1 5dbb 6e20 5e3d
00000070: ea54 683d 2733 bb3c 444c acbc a302 903d
00000080: cf88 25bd 34cc 5bbc ee6c a2bc fa7f 6f3d
00000090: 1e5c 353d 3d38 603c cc48 afbb adc6 38bd
000000a0: f3d4 053d ed77 623d bbc7 733b 6d43 81bc
000000b0: bf47 6bbc 57d0 02bd 54ac 4d3d ed05 8d3d
000000c0: 2df8 023d 42ce ea3c b963 9abb 2802 e03c
000000d0: ab2e 39bb b126 893d c9ca 063d 961e 4cbd
000000e0: e480 6e3d 93c7 c5bc 5a58 563d 5713 24bd
000000f0: c783 20bc a775 893d d79d a5bc ec1b 3b3c
00000100: 4b49 973d aa7e b73c 4601 a43c 71cb 213c
00000110: 56e0 8c3c a3e0 29bd 5f6f a7bc 1f68 1a3d
00000120: 68a0 013d cde1 beba 6852 ba3c feac ae3c
00000130: a7f0 923d 516c 18bc 8f30 88bd 67ec d63b
00000140: 7d79 2c3d a389 3f3c 4b3b 89bd c1ba 243c
00000150: a5f5 e4bc f053 e5bc da1c f63c 23df da3c
00000160: 7b4e 25bd 1f2e 7d3d b0d1 553d 6439 e43c
00000170: 20bf 1ebd 8897 913d aa58 4f3d 7ac9 33bd
00000180: 54be 74bd 6a1c 5bbb 1e6c 133d c3c6 083d
00000190: 4996 2e3d d8ce 7a3b 0522 843d d933 853d
000001a0: 0357 673d 6731 743d 7f9e 093c 50d6 5bbd
000001b0: 477d a73c 73c6 d4bc db87 d63b 19b1 9d3c
000001c0: 21e2 5b3d e596 35bd 98cc e1bc b0f0 2b3c
000001d0: 56a4 923c b975 503c 1e3b bdbc 313d 203c
000001e0: 49d6 7bbd e76b 923d 4642 9a3d 7947 c03c
000001f0: 2d1e c6bc a04e c43b 6545 e4bc e189 c53c
00000200: 55da 0d3c 78d4 8d3d e172 423d 4cb1 c23c
00000210: 81cc 26bd b450 623d b703 083c f67a 27bd
00000220: 9478 02bd c9c5 15bd 2b66 6abd 59e6 ffbc
00000230: 661b d6bc 5a56 5f3d e7ed 4c3d 04f9 303d
00000240: c196 4e3d fe7f 31bd f983 493d 3d93 3c3d
00000250: 79ac db3c f7ab 2c3c 3710 98bc fb99 44bd
00000260: 5c29 3bbd 17ea 0e3d 18dd 583d e1cc 4ebd
00000270: 4e53 f93b bec6 253d a4e0 813d aa56 26bc
00000280: bd13 98bc e35d 86bd 87c1 efbb 9532 fb3c
00000290: 02d6 683d 3978 b839 d693 36bd 1ef9 033c
000002a0: 5e37 893d c39b 553b fd7e 713d 7070 30bd
000002b0: f110 8ebc 8937 51bd fe7b 863d 83af 55bd
000002c0: 696b 203d dabc 2abd 28ac 183d 95e9 f73c
000002d0: 03b6 ea3c 3fd3 76bc 4342 703d 16e1 7a3c
000002e0: 8362 9b3d 63b3 0a39 53e4 c5bc d667 0e3d
000002f0: ec14 13bd 4c91 1e3d bb2f 9abc 7c1c b93c
00000300: 848c 963d 02f0 d53b 8d66 c83b 6ca2 623d
00000310: 934f 8bbc cd2c 173c 54e3 c63b 34c8 27bd
00000320: 425d 46bd b451 e0bc faaa 27bd 3c51 1f3d
00000330: 4710 4fbd 3858 873d 6e86 f5bc f7c0 683d
00000340: 0d28 e2bc 4243 45bd b0dc 623d c04f 093d
00000350: 4cef 763d c09f be3a fe8a 0d3a fed8 883b
00000360: 8183 043d 852e c0bc 92b3 b0bc 39aa d4bc
00000370: 8166 aa3a 1b3e 1fbc 52c9 ae3c 5c4e 4c3d
00000380: 2770 59bb fc03 23bd 9257 98bc 5eb1 4c3d
00000390: 3c45 34bd 648f e13c 122c 0bbb bea0 293d
000003a0: 40c1 afbc d3ec aa3c d3fd 2f3d 2e51 21bd
000003b0: dc9c 55bb 6a50 a33a 4a8c 0f3c 33a0 dc3a
000003c0: f9e8 a7bc 2ce3 203d 6531 733d 5f39 09bd
000003d0: f874 f93c 8cad 7a3d eff1 19bd b22a 62bd
000003e0: 5a83 d93c d92c 363c 5595 dc3c fda8 d6bc
000003f0: 7292 f6bb 8ae1 63bc ac34 03bd 8569 39bd
0.020576809 0.021410761 -0.049246922 0.008438792 0.030878494 -0.024406327 0.008965624 -0.018740412
0.03662388 0.049279716 -0.03315907 0.033891086 0.013897435 -0.007001232 0.038383998 0.024355825
0.043076646 0.037871607 0.024878964 -0.008082024 -0.030733438 0.02172788 0.031098442 0.056674976
-0.03960551 0.050653435 -0.0033837503 0.054230146 0.056721605 0.02285154 -0.02103246 0.07031753
-0.040413674 -0.013415385 -0.019827332 0.058471657 0.044277303 0.013685283 -0.0053492542 -0.045111347
0.032673787 0.05529015 0.0037197906 -0.015779221 -0.014360367 -0.03193697 0.050213173 0.06885896
0.03197496 0.028662805 -0.004711595 0.027344778 -0.0028256576 0.06696833 0.032908235 -0.049833857
0.05822839 -0.024143016 0.052330352 -0.040057506 -0.009797043 0.067118935 -0.020216865 0.011420231
0.073870264 0.022399265 0.020020138 0.009875164 0.017196815 -0.041473996 -0.020438848 0.037696954
0.031647116 -0.0014563143 0.022744372 0.021322723 0.07174807 -0.009303168 -0.06649887 0.006558943
0.042108048 0.01169053 -0.06700762 0.010054291 -0.027949164 -0.027994126 0.030043054 0.026717728
-0.040358048 0.061811563 0.052201927 0.027859397 -0.03875649 0.071089804 0.050621666 -0.043893315
-0.059751824 -0.0033433684 0.03599178 0.03339268 0.04262379 0.003827026 0.06451801 0.0650403
0.056479465 0.059617426 0.008399605 -0.05367118 0.02044548 -0.025973534 0.006546957 0.019249486
0.05368245 -0.044333357 -0.027563378 0.010494396 0.017900627 0.01272338 -0.023099478 0.009780214
-0.061483655 0.07149487 0.07532172 0.02347158 -0.02418431 0.005990818 -0.027865121 0.024113597
0.008658011 0.06925291 0.04747284 0.023766182 -0.040722374 0.055252746 0.008301667 -0.04088875
-0.031853274 -0.036565576 -0.05722634 -0.031237768 -0.026136111 0.05452571 0.05003157 0.04320623
0.05043674 -0.043334953 0.049198125 0.046038855 0.02681564 0.0105390465 -0.01856242 -0.04799841
-0.04569374 0.034891214 0.052945226 -0.050488357 0.0076088076 0.04047274 0.06341675 -0.010152498
-0.0185641 -0.06560876 -0.0073167714 0.030663768 0.05684472 0.00035184788 -0.04457458 0.008055
0.067000136 0.0032594062 0.058958996 -0.04307598 -0.017342063 -0.051078353 0.065666184 -0.052169334
0.039164934 -0.04168401 0.037273556 0.030262748 0.028651243 -0.015065013 0.058656942 0.015312454
0.07587149 0.00013227532 -0.024156725 0.034766994 -0.035908625 0.038712785 -0.018821588 0.02259659
0.0735102 0.0065288553 0.0061157406 0.05533068 -0.017005717 0.00922699 0.00606958 -0.040962413
-0.04842878 -0.02738271 -0.04093454 0.03889583 -0.050552633 0.06608623 -0.029971328 0.05682465
-0.027606988 -0.048159845 0.055386245 0.03352332 0.060286805 0.0014543459 0.00053994346 0.004176258
0.032351974 -0.023459682 -0.02157 -0.025960075 0.0013000519 -0.009719397 0.021336231 0.049879417
-0.003317842 -0.03979872 -0.018596444 0.049973838 -0.04401134 0.027534194 -0.0021235985 0.04141306
-0.021454453 0.02086488 0.042966675 -0.03938406 -0.0032594716 0.0012459878 0.008761475 0.0016832411
-0.020496832 0.039279148 0.05937328 -0.03350198 0.030451283 0.061200663 -0.03758424 -0.0552165
0.026551891 0.011119091 0.026926676 -0.026203627 -0.007524782 -0.013908753 -0.032032654 -0.045266647

weight f4 [128, 256]
00000000: bb69 65bd 98b6 9f3c 5613 d8bc c38a 193d
00000010: 6843 fb39 f164 d8bb 6d6c 273c 7166 94bc
00000020: 4eea 7dbd fa0d ed3c ad63 153d 7de7 0cbd
00000030: 0649 04bd ea30 42bc d87d 7fbd aaf7 f83c
00000040: 2a59 043c de51 77bd 3626 f3ba 07b4 663d
00000050: e123 883c 2275 0c3b 4da7 01bd d561 1bbd
00000060: 8bda 11bd b54d c93b a14f 0dbd ab28 62bd
00000070: 687b 063d a07f 92ba e72b 63bc c5bf 0f3d
00000080: e1ef 65bc a92d b33c 861a b2bb 4637 59bd
00000090: 48b4 aabb 284f 2c3d 4595 f63a 383c cebc
000000a0: bbfe e9bc 0e53 193b e661 f4bb 5240 14bd
000000b0: b7fd 253c 50b6 11bd d7f7 e9bc 1429 1b3d
000000c0: 0a48 60bd 9de8 98bb 22a1 95bc 2bfa 913c
000000d0: f677 25bd 105a 2ebd bb05 283d b4b7 33bd
000000e0: 307e eb3c df63 37bd a23e 103d 1ac8 cbbc
000000f0: 753d 04bd b7e1 7fbd cd3e 443d e5a8 05bd
00000100: cd6a 72bd 131e cfbc f589 f3bc 6dfb 2ebc
00000110: 26ca 1cbd e2b9 483d 59b0 19bd d018 213d
00000120: 652b f8bc 19ab e23c 7ca8 38bd ae4c 4dbc
00000130: b26b 023d befc adbc 7366 733a f3e0 413d
00000140: 5fe9 00bd 987c 7fbd 4cc6 493d 66a8 27bd
00000150: cd52 2dbb a549 d0bb 48ce 5f3c 6422 6c3c
00000160: cd34 a13c 65ec 4e3d 3b39 04bd a3b8 21bd
00000170: 678d 0ebd 65e8 42bc e47d 5fbc 9356 4bbd
00000180: df2f 6d3d b03a f5bb 0faf 67bd 2e4f 513d
00000190: 9244 803c 73d8 44bb f8ac e7bc 2392 ffba
000001a0: da88 2ebd e3f5 eebb cec5 e23c 6e16 d43b
000001b0: 0d54 03bd 9db5 793c 8e63 643d f19a 78bc
000001c0: 0290 67bb 62ae b13c 9848 57bd 1b66 69bd
000001d0: 8444 0cbd 5b4a 33bd b9f8 6cbc 7f58 d3bc
000001e0: 5cce 623d f519 a23b 97c1 25bd ca4b 3abd
000001f0: 153f 993b 806b 6a3c 173d 1a3d d54e 8a3c
00000200: e85d b43c 4a01 443d 0221 1dbd 7ca2 81bd
00000210: 931f 81bd 9558 be3c c2a8 63bd 3b73 37bd
00000220: 50c3 4bbd 21d7 793c 8e70 863c 693d 4c3a
00000230: 64e2 17bc a537 913c ce23 2b3d 8df7 d63c
00000240: 12f5 823c 013b 4bbc 7be6 803a f066 823c
00000250: 0f15 153d 4e8a 5dbd afbe ceba d27b 66ba
00000260: d831 e8bc 7adc 05bc 8591 3d3d e2eb 69bb
00000270: f819 223b 3b89 33bc d0b5 00bc eb75 85bd
00000280: d670 fe3c db10 99ba f2b5 b2bc f3c5 033d
00000290: 9c49 72bd 428f 08bd 4bf4 5b3c 8137 48bd
000002a0: 835b 0fbd 4005 7ebd 0ace 623d 4b27 603d
000002b0: 6a2d 00bb f707 343c 5b2d aa3c bda8 bf3c
000002c0: d360 68bd 0811 18bd 90c2 103d bdca 1f3c
000002d0: 92e2 d4bb 2133 6a3d aca7 f7bc ffde 81bd
000002e0: 27fe cf3c 0174 563d d7b7 8e3b fe8d 423d
000002f0: 5d98 41bb 8a17 e03c 3d49 703d 7798 29bc
00000300: 6a82 383d 5058 27bd bbc3 e03b 6e62 7c3d
00000310: 8b9e 453c 64ba 00bd 571f 70bd 39e0 69bd
00000320: fc94 efbc d81c be3c efa4 0c3d 9bd2 6abc
00000330: bd73 fe3c 5bf7 653c dff4 53bc 3c67 403d
00000340: adf9 87bc 83dc 8d3c 0d40 833b 73f0 2dbd
00000350: e965 313d abfe df3c d8d1 b93c f360 44bd
00000360: 9a88 393d e736 1dbd 69b3 4ebd 77a9 cdbc
00000370: ec26 d6bb 2a30 ff3c efca e83b 0c28 443d
00000380: 1915 533c e18c 2d3b 1155 4dbd 4e8d 503d
00000390: 2161 03bd b7da 6dbd 5e16 063d 2572 4fbd
000003a0: 5a4a 493c e378 62bd dcf9 63bd c6ca dc3c
000003b0: 2897 033d afe9 89bc 1be0 83bc ec60 c63c
000003c0: a351 43bd 4abf 51bc 7e97 2f3c 456a 183d
000003d0: 4751 d9bc d71b a6bb 88c6 1cbd 26a8 9fbc
000003e0: b38f b2ba 2065 3f3d 3761 a23c 41db 073d
000003f0: a253 093d 8c32 5a3d ea42 413c 7300 093d
-0.056009036 0.019496247 -0.026376408 0.03748585 0.00047924672 -0.00660383 0.010218722 -0.018115254
-0.06199103 0.028937329 0.03647201 -0.034400452 -0.032296203 -0.011852482 -0.062375873 0.030391533
0.008077899 -0.06038081 -0.0018550816 0.05632403 0.01661867 0.0021432121 -0.03165369 -0.037935097
-0.03560881 0.0061432966 -0.03449977 -0.055214565 0.032832533 -0.0011176951 -0.013865448 0.035094995
-0.014034242 0.021872358 -0.0054352907 -0.05303123 -0.0052094795 0.042067677 0.0018812796 -0.025175199
-0.028563848 0.0023395452 -0.0074579595 -0.036194153 0.010131291 -0.035574257 -0.028560562 0.037880972
-0.0547562 -0.0046664015 -0.01826531 0.017819485 -0.040397607 -0.04256636 0.04102109 -0.043876365
0.028746694 -0.04477298 0.03521598 -0.02487569 -0.032285172 -0.062471118 0.047911454 -0.032631774
-0.059183884 -0.025282895 -0.029728869 -0.010680062 -0.03827872 0.049005397 -0.037521694 0.039330304
-0.03029413 0.027669476 -0.045082554 -0.012530489 0.031840988 -0.02123868 0.00092849805 0.04733367
-0.03147256 -0.06237468 0.049261376 -0.04093208 -0.0026447058 -0.0063564354 0.013660021 0.014412496
0.019678498 0.050518412 -0.03228114 -0.039482724 -0.03480282 -0.0118962275 -0.0136408545 -0.04964311
0.05790698 -0.0074838027 -0.056563433 0.051100902 0.015657697 -0.003003624 -0.02828072 -0.0019498508
-0.04261098 -0.0072924956 0.027682211 0.0064724004 -0.03206258 0.015241054 0.055759005 -0.01517366
-0.0035333638 0.021689598 -0.052559465 -0.05698214 -0.03424503 -0.043772083 -0.014463597 -0.025799034
0.05537258 0.004946942 -0.040467825 -0.045482434 0.0046767094 0.014307857 0.037655916 0.016883293
0.022017434 0.04785279 -0.038361557 -0.063298196 -0.063048504 0.023235599 -0.055580862 -0.044787627
-0.04974681 0.015249045 0.016411092 0.0007791133 -0.009270284 0.017726729 0.041782193 0.026241088
0.015986 -0.012404204 0.0009834314 0.015918225 0.036397036 -0.054086976 -0.0015773381 -0.00087922544
-0.02834408 -0.0081702415 0.046281356 -0.0035693576 0.0024734717 -0.010958011 -0.0078558475 -0.06516632
0.031059664 -0.0011677997 -0.021815274 0.0321712 -0.05915223 -0.033339746 0.013424943 -0.048881058
-0.03499938 -0.062016726 0.055372275 0.054724973 -0.001955832 0.010988227 0.02077358 0.02339589
-0.056732964 -0.037125617 0.0353418 0.009752926 -0.006496736 0.057177667 -0.03023132 -0.06341361
0.025389744 0.052356724 0.0043554115 0.047498696 -0.0029540278 0.027354974 0.058663595 -0.010351292
0.045046248 -0.040855706 0.0068592704 0.061617307 0.012061725 -0.031427756 -0.058623638 -0.0570986
-0.029245846 0.023207113 0.03433698 -0.014332439 0.031061048 0.014036025 -0.0129368 0.046973452
-0.016598547 0.017317062 0.004005438 -0.04246564 0.04331008 0.027343115 0.02268307 -0.04794402
0.04529629 -0.038382437 -0.050464068 -0.025105221 -0.0065354016 0.031150896 0.0071042697 0.047889754
0.012883448 0.0026481675 -0.050129954 0.05091601 -0.03207505 -0.05806991 0.032736175 -0.050645966
0.012285793 -0.055291068 -0.055658206 0.026952159 0.032126576 -0.016835062 -0.016098073 0.024216138
-0.047685277 -0.0128019545 0.010717271 0.03721072 -0.026528014 -0.0050692367 -0.03827527 -0.01948936
-0.0013623148 0.0467273 0.019821746 0.03316808 0.033527024 0.05327086 0.011795739 0.033447694

bias f4 [128]
00000000: 72fd 863c 7115 7c3d f11b e53b f213 cebc
00000010: ed13 43bc 26aa 96bc 3540 4c3d 4ac0 32bd
00000020: da6f a4bb 1cc0 48bd 6e69 b63a bb9d 863d
00000030: 15fa 15bd 3e80 ab3c 944e 06bd 8451 fb3b
00000040: de34 483d eafb c1bc 385c cabb 91b6 a43c
00000050: f296 1fbd 857e 38bc 76ea 143d 933f c8bb
00000060: 8027 06bc cd25 fdbc aac2 863c 3a20 61b8
00000070: 428e 563d 4eed 6d3d 4b99 bb3c f60f 1a3d
00000080: 0194 1c3d b18f ecbc e5d0 8b3c 2131 cd3c
00000090: 9611 043d bcda 173d 4897 acbc c3e1 59bb
000000a0: d1b6 2d3c a731 d8bb 5eb8 6bbd a390 2ebd
000000b0: ecac 80bd 2c53 d03c 94df b7bc 7b92 e8bc
000000c0: 5a16 b4bb fc74 7e3b 45d7 433d 06dc e83c
000000d0: f64e 4a3d 6e74 92bc 5f72 4c3d 9608 21bd
000000e0: 0ce3 773c 5402 893d 66ab 503d a0dd 673d
000000f0: 9cd4 81bc f7f7 6dbd 1710 1bbd 74a7 cfbb
00000100: 65f9 613d 33f8 52bc 4527 92bc 278a e33c
00000110: 99ca 0e3c 5f7d 7dbc cb2d 8f3d b081 8a3c
00000120: b28c d33c 9420 42bd deb8 4d3c 258e 363d
00000130: c11e d33c fe35 863d 20f2 4dbd d5c3 f2bc
00000140: 26ea a3bb 97f2 063d 8248 06bd 83d6 ae3c
00000150: 6e1f c73c b0b2 ddbc 22ec 50bc 8fb3 3d3d
00000160: 7208 b6bc 9ae4 893d 1792 93bc e135 eabb
00000170: 2667 32bd 89ff 9ebc 0e15 0dbc dc6f 2ebd
00000180: c569 113d 3f5c 0e3d ed89 d53a 4a99 a8bc
00000190: b2f6 d9bc bfaf 933d 2095 5cbd eac0 433d
000001a0: a039 3b3d 5a91 59bd 163d 0fbd b7fb f3bc
000001b0: 7270 12bc f95d 373d 293b 5dbd 3705 983d
000001c0: 1acd 57b9 4b94 363d 47ac bebb 150f 193d
000001d0: 0683 523d f779 62bd 95d6 82ba db78 5e3c
000001e0: a412 403d fca0 89bc 9028 57bd 4273 5ebd
000001f0: ef4e e1bc 0544 083d 4fe6 2d3c 5882 11bd
0.016478274 0.061543886 0.0069918563 -0.025155995 -0.011906606 -0.01839168 0.04986592 -0.043640412
-0.0050182166 -0.049011335 0.0013916919 0.065730534 -0.03661545 0.020935174 -0.03278978 0.0076696295
0.048878543 -0.023679692 -0.006175544 0.020106586 -0.038962312 -0.011260633 0.036356412 -0.0061110943
-0.0081881285 -0.030901814 0.016450245 -5.3674194e-05 0.05238176 0.05808764 0.022900244 0.037612878
0.038227085 -0.028877111 0.017067382 0.02504784 0.032243334 0.037073836 -0.02106823 -0.0033246137
0.010602669 -0.006597716 -0.057548873 -0.042618405 -0.06282982 0.025430284 -0.022445478 -0.02839016
-0.0054958286 0.0038827052 0.04781272 0.028425228 0.04939171 -0.017877784 0.04991376 -0.03931483
0.015129816 0.06689897 0.05094471 0.056607842 -0.01584845 -0.058097806 -0.03785714 -0.0063371006
0.05516948 -0.012876558 -0.01784099 0.027775837 0.008715295 -0.015471785 0.06991156 0.016907543
0.025823925 -0.04739435 0.012556283 0.044569153 0.0257715 0.06553267 -0.050279737 -0.029634396
-0.005002278 0.032946195 -0.032783993 0.021342522 0.024306979 -0.027062744 -0.012751611 0.04631382
-0.022220824 0.067330554 -0.018013997 -0.007147536 -0.0435554 -0.019408958 -0.008610977 -0.042587146
0.03550126 0.03475594 0.0016291715 -0.020580906 -0.026606891 0.07211255 -0.053853154 0.0477914
0.045709252 -0.053117134 -0.034970365 -0.029783113 -0.008937942 0.044767354 -0.054011498 0.0742287
-0.00020580404 0.044575017 -0.005818877 0.0373679 0.051394485 -0.055292096 -0.0009982163 0.013578619
0.046892777 -0.016800396 -0.052528918 -0.054309137 -0.027503459 0.033267993 0.010613992 -0.035524696

weight f4 [64, 128]
00000000: 364d 883c bd56 9a3d cc15 7abd ed4c 1cbd
00000010: 096d c93c 6bcc 8b3d c995 8f3d 884d 423d
00000020: 9fdb 323d 5bfc aebd 0743 8aba 7d1a ffbc
00000030: fdfd 6cbd 1a9a 6a3c 41cf 8abd d861 14bd
00000040: c379 49bc 247c 053d a123 2d3d ddae 8c3d
00000050: 306b e03d 8146 053c 314d 32bd 6cda 703d
00000060: f0ed 093d b3f2 a73d e2d2 90bc 7eaf 3a3d
00000070: d9e5 9cbd d2b9 b1bd a929 d7bc a043 93bd
00000080: 55e6 a63c 527c 223c 4911 943d f36d b13d
00000090: af6a 683d 79ba 80bd d4f1 e53c a64f 663d
000000a0: 91d7 f43c 0887 abbc 67f9 ac3d 3659 2f3d
000000b0: 3fd4 a63d fe5b 533d 3a92 0a3b 5e10 c23d
000000c0: d6ca a13d 1f10 b4bd 9451 d13d 59b0 48bd
000000d0: ebcf 153d 4a9d 4ebd bb70 e0bb 1820 cebc
000000e0: a9fc 9ebd 2d0d b03d 9bc4 c53d 6b0a cb3c
000000f0: 3ab4 82bd d19e 98bd eb36 bd3c 85f2 12bd
00000100: 744c a3bd 5a1b 863d 865f 27bd 02cd e9bb
00000110: ecf4 913d f037 5cbd a3eb 443d 97f9 49bd
00000120: bdbe 8ebd 5da6 f0bc f661 91bd c60e 11bb
00000130: 4bf2 86bd 4ef7 d13c 80aa 8f3d 8a9b a73d
00000140: da99 603c f900 65bd 89d4 37bd e9ff 83bc
00000150: b201 b6bd c5df 683d a24a aabd b22c 813d
00000160: 1aaa 3f3d 890d d43d d873 7b3d be79 a33d
00000170: bcec 9f3d 4d35 0d3c 9a95 253d cd62 873c
00000180: 6b4f 98bd 4161 aa3d 682e cbbc 2408 22bd
00000190: 1251 dcbb 5105 9d3d cc50 81bd 2ede 443c
000001a0: 9937 833c 14f7 9bbd 6ea0 03bd 53e8 9e3d
000001b0: 9477 18bc 3ed7 8bbb 47bf dd3a cf6e 623d
000001c0: ac09 b93d 2317 8cbd 7290 363d bb35 0f3b
000001d0: b7ff 9dbd d406 333d 33d6 913d 0fad 163d
000001e0: 2ed2 573b f29d 8fbd e25a acbb 1540 4abd
000001f0: b487 603d 17a3 f63c ec0a 963d ecfc 6fbd
00000200: 07a8 93bd c311 8cbc 95f3 06bd 7ae2 a2bd
00000210: aca0 1a3d f3a6 9d3c 7b16 24bc 9298 b33a
00000220: f796 7abd 3716 fb3c ddb7 083c bbdb 953a
00000230: 7f53 8cbb 31b5 843d 96d6 6cbd 1521 963d
00000240: 15eb a13d 6e55 6d3d 3365 83bd 192e 2a3d
00000250: 1aca fdbc 42e7 03bd 9ffa 72bd f366 0bbc
00000260: f1dd ecbc 15f8 61bd bd6c c1bd eccc 89bd
00000270: 5b2f 853d 5e3b 09bd d99f 57bc 0029 733d
00000280: a0fc a83d 6682 b4bc 57f7 7d3c e2cc 8dbd
00000290: 9898 5f3d 6c66 9dbd 7a79 3f3d 3468 9c3d
000002a0: e559 7b3b 358a 53bd 65c2 8a3d 4a23 4ebb
000002b0: 9b61 77bd 4cdd e53b b6d5 33bd 634b 113d
000002c0: f52f 9f3b eedd a3bd 0d81 3b3d 85de 263d
000002d0: 8b6b a13c dd58 503d ba46 80bd bb56 973d
000002e0: b466 e5bc e65b 3e3d f7dc 9a3d 2bc6 323d
000002f0: df9a 1f3c e7e9 91bd 958d 3dbd 37a3 c33d
00000300: d5a7 0a3d e26f 2a3b f5f4 fcbc 2eed f43c
00000310: fd45 763c 0603 0ebd 3675 65bd 1c0f 6bbc
00000320: e125 8bbb f6fc ecbc 9796 1c3d cec8 833d
00000330: 862e 41bb b99b 8a3d 0698 75bd 908a 3e3b
00000340: a2a3 ba3c 1fb3 b23d c0d5 bdbd 1d92 84bd
00000350: aec2 453d 5a31 f93b af12 a03c 8e07 a5bd
00000360: 61e4 283d dbd1 723d 6501 8c3d 1602 da3b
00000370: a966 2d3c c500 fcbc c222 c1bc 6eec eabc
00000380: d408 90bd 397e 9c3d 5576 bc3d 4788 ab3d
00000390: 893c d53c 62cb a3bd 9bf6 9d3d 3163 74bc
000003a0: 6e4c d63c 42ed 5a3d d0b2 6ebd af9b 9abc
000003b0: fbc2 55bd ddb0 b53d 4ba5 1b3d 97ca a33d
000003c0: b231 0fbc 03d5 dc3c 2af3 aa3d dc47 6d3d
000003d0: f9c1 75bd f717 03bd 8d8c 5cbd bbe4 45bd
000003e0: 04c0 4b3d 964e d2bc f6ba 263d 0770 bc3d
000003f0: 1885 28bc bfd2 1c3d 3989 a9bc f60a 87bd
0.01663838 0.07536075 -0.061055943 -0.0381593 0.024588125 0.06826099 0.07010991 0.04743722
0.04366648 -0.08544227 -0.001054854 -0.03114056 -0.05785941 0.014318967 -0.06777812 -0.036226124
-0.012297097 0.032589093 0.042270306 0.0686929 0.109579444 0.008134485 -0.043530647 0.058802053
0.03367418 0.08200588 -0.017678682 0.04557752 -0.076610275 -0.086780205 -0.026264982 -0.07190633
0.020373503 0.009917336 0.072298594 0.08663549 0.056742366 -0.06285567 0.028069414 0.056228302
0.029887946 -0.020938411 0.08446007 0.042809688 0.081459515 0.051601402 0.0021144287 0.09475778
0.07900016 -0.08792137 0.10220638 -0.048996303 0.03657524 -0.05044297 -0.006849376 -0.025161788
-0.07763035 0.08596263 0.0965664 0.024785241 -0.06382032 -0.07452167 0.023097476 -0.035875816
-0.07973567 0.06548186 -0.040862583 -0.0071350345 0.07126793 -0.053764284 0.048076283 -0.049310293
-0.06969974 -0.029376203 -0.07098763 -0.002213405 -0.065891825 0.02563062 0.07014942 0.081839636
0.013708556 -0.05590913 -0.044880424 -0.016113238 -0.08887042 0.05685403 -0.08315016 0.06307353
0.04679308 0.10354144 0.061389774 0.07982205 0.078088254 0.008618665 0.040425874 0.016526604
-0.07437023 0.08319331 -0.024802402 -0.039558545 -0.0067235315 0.0766703 -0.06314239 0.012015862
0.016017722 -0.07615486 -0.03213542 0.07759156 -0.009305853 -0.004267602 0.0016917967 0.055281457
0.09035048 -0.068403505 0.044571348 0.0021852094 -0.07714789 0.043707684 0.071209334 0.036786135
0.0032931673 -0.070125476 -0.0052598575 -0.04937752 0.054816917 0.030107064 0.07326302 -0.058590814
-0.07209783 -0.017098313 -0.03294714 -0.07953353 0.037750885 0.019244647 -0.010015125 0.0013702086
-0.061179128 0.030650241 0.008344618 0.0011433283 -0.0042824144 0.06479872 -0.057821833 0.07330529
0.079061665 0.0579428 -0.064157866 0.04154787 -0.030980159 -0.032202967 -0.059321042 -0.008508432
-0.028914424 -0.05516823 -0.09444568 -0.06728539 0.06503173 -0.033503883 -0.013160669 0.059365273
0.082513094 -0.022034835 0.015500865 -0.06923844 0.054588884 -0.07685551 0.04674671 0.07637063
0.0038353142 -0.051645476 0.06775359 -0.003145414 -0.06039582 0.007014906 -0.043904983 0.035472285
0.004858012 -0.08001314 0.04577737 0.040739555 0.0197046 0.050865997 -0.0626349 0.073895894
-0.028003074 0.04647436 0.07561677 0.04364602 0.009741514 -0.071246915 -0.0462776 0.09552615
0.033851463 0.0026006629 -0.030878523 0.029898252 0.015031335 -0.034670852 -0.056019984 -0.014346864
-0.004246459 -0.028929215 0.03822955 0.06434785 -0.0029477193 0.06767983 -0.059959434 0.002907429
0.022783104 0.08725571 -0.09269285 -0.064731814 0.048281364 0.00760476 0.019540159 -0.080580816
0.041233424 0.059282165 0.068362035 0.0066530807 0.010583558 -0.030762086 -0.023576144 -0.028677192
-0.07032934 0.076412626 0.092022575 0.08375602 0.026029842 -0.079977766 0.07713052 -0.014916227
0.026159491 0.053448923 -0.058275998 -0.018873064 -0.0521879 0.088716246 0.037999433 0.07997625
-0.008739876 0.02695704 0.08347161 0.05792986 -0.05999944 -0.032005277 -0.053844977 -0.048313837
0.049743667 -0.025672238 0.040705644 0.09201055 -0.010285638 0.03828692 -0.020695316 -0.065938875

bias f4 [64]
00000000: 1481 4a3d daf1 9b3d d5bd f5bb 516e b03d
00000010: fe7d 4d3d 1e98 3e3c 9bb4 853d 8653 8cbd
00000020: 6107 9c3c 2069 c83c 2cd0 933d 2485 a43d
00000030: 5358 6e3d 724a 93bd 0237 bd3c c339 a93d
00000040: 6ecb a9bc 1967 2ebd 617f 063d f4f6 93bc
00000050: 890e b43d 02fd 90bd 67d1 a43c cdf3 a73d
00000060: 79ff 8abd f4cc 4f3c 9bc9 993d d37f 683c
00000070: 26a9 7d3c 0612 80bd c774 63bd d336 8b3c
00000080: 04ff a23c a712 473d ca2a 333d e537 adbc
00000090: 9bab 563d 19a4 363d 35d0 cabc c62a 283d
000000a0: 5d1c 433d e876 9dbd fe09 30bd 4c01 7ebd
000000b0: 1b42 d4ba 7ac6 fa3c 35bb 9d3d 150c c73c
000000c0: 6d6a c93c fa93 91bb 53dd 953d a345 6fbc
000000d0: f4c8 083d 753d 3d3d 8177 6bbd 9fc9 e13c
000000e0: 4a73 09bc bc8f 923d c3e2 953a 43da 403d
000000f0: add2 a73d d8b9 ab3d 3861 7fbd edc3 773d
0.049439505 0.07614489 -0.0074994364 0.08614791 0.050168984 0.011632947 0.065285884 -0.06851868
0.019046487 0.02446419 0.0721744 0.08033207 0.0581897 -0.07191934 0.023097519 0.0826297
-0.020726886 -0.04257879 0.03283632 -0.018062092 0.08791835 -0.070795074 0.020119382 0.08200798
-0.06787009 0.012683142 0.07509156 0.014190632 0.015482223 -0.06253438 -0.05553129 0.016993916
0.019896992 0.048601773 0.04374198 -0.021144817 0.05240975 0.04459009 -0.024757484 0.041056417
0.04763447 -0.07688695 -0.04297828 -0.062012956 -0.0016194017 0.03061222 0.077017225 0.024297753
0.02458688 -0.004442689 0.07317605 -0.014604005 0.03339477 0.046201188 -0.057487015 0.02756196
-0.008389303 0.071563214 0.0011435378 0.04708315 0.0819448 0.08385056 -0.062348574 0.060489584

weight f4 [16, 64]
00000000: 5367 59bd 452e eb3d df01 b8bd d39e 36bc
00000010: 084a 253d b8e0 8ab7 a03f aa3d f6bd 2ebd
00000020: eb5a 57bd 9c5d c93c 7098 803c 811c 4a3d
00000030: 149e 5ebd b069 cbbd e6cd 58bd 155a 473d
00000040: e21f b2bd 8ced 933d 204a 8ebd 9f41 38bc
00000050: 4382 e93d c6c9 8abc b677 553d 97dd 3cbd
00000060: 4059 8a3d f627 b13d a1f5 fb3d 0760 df3d
00000070: 6e7f 283d aa7f f8bd 1180 92bd 20df b1bd
00000080: 9b60 5c3d f32c dc3c 547b 833d 0b84 063e
00000090: 7d51 633c 4277 c6bd 62ca 98bd 33fd 8c3d
000000a0: 9ebd d73d f245 65bd 6886 103e 6096 653d
000000b0: e764 a53c b715 88bd 25c5 f73d ebdf b03d
000000c0: 0e7c 70bd d535 f2bd b93a b73c b677 00bc
000000d0: b622 493d c0d9 cebd e0e0 a43d 6a4c 66bd
000000e0: ea43 153c cfda c6bd 02dd a2bd 1dec 96bc
000000f0: 49df fbba 09c6 e43d 32c3 243d 7d06 bdbd
00000100: c0c4 0ebb acdb 3ebd 8a76 bc3d a899 e5bd
00000110: f481 b8bd c4bf 743d c667 cb3d 4070 243c
00000120: 64fa 673d 509a 45bc 209d 39bc ac4e e23d
00000130: 7e93 c1bd 6490 19bd 7818 e2bc 287d c53d
00000140: 10a5 dfbd 20f8 c8bc 80a0 e33a 024e ad3d
00000150: bc4b 42bd 34e6 e0bd b45d a33d fcfa 4f3d
00000160: b40c 4b3d 40ac 623c c0a7 a8bc 986b 94bc
00000170: 7ac3 bbbd 806a e6bd 4eca c03d 2a75 843d
00000180: c81f 4cbd d0a8 ebbd f839 f53c c862 0e3d
00000190: f834 ac3c 4064 edbb e04a a2bb 5456 c1bd
000001a0: e0ba f7bd fa32 c23d beda cbbd 104f 4e3d
000001b0: 483f 5cbd aeda ffbd 46e5 c8bd 780e f3bc
000001c0: 129c d2bd 6003 8e3c a025 de3c ba17 883d
000001d0: e68f 9cbd c0be ee3c 8090 003b 508e 013c
000001e0: 2694 d63d 10a9 0cbd d49e e3bd 5868 613d
000001f0: d8e0 85bd aa08 b5bd 0eb0 8bbd f8b4 dcbd
00000200: 7544 883b 9927 813c 9a73 553d efee c9bc
00000210: 1895 6abd fb45 43bd 0ea4 df3d a1dc f4bd
00000220: 77bf 11bd fa74 d83d d097 e7bd 453f dabd
00000230: 694f 14bd d015 313d cff5 af3b 30f6 c1bd
00000240: 567e 7a3d 9fd4 c33d af46 b33d 3f94 a33d
00000250: 597d 383c 6592 c33d c261 05be 22f9 8b3d
00000260: b8e3 b4bc e80f 44bd 15bb 053d 2c85 8cbd
00000270: 8069 13bd 96b0 ea3d 082c 91bd 2471 fc3d
00000280: d503 db3d 9c3d cf3c f208 3d3d 7f33 393c
00000290: b978 003d 7e24 98bc 3486 d2bd f29c 923d
000002a0: 3f98 b3bc 6603 c7bd d029 973d 00a4 64bc
000002b0: aaec 0f3e 9663 80bd 8833 e13d 27ac 943d
000002c0: 9ec3 d53d 4a65 8fbd 728e 843c 6d67 b6bc
000002d0: 9b3f 1fbd b3eb 633d 3055 c7bd 1ac8 cfbd
000002e0: cd96 803d 3e6a e9bd 7d6a fd3b 017d bb3c
000002f0: ecb6 c7bb 18b2 95bc ec48 b03d cd4f 4e3d
00000300: e5a4 10be 9776 6ebd ace6 783d 70c4 083e
00000310: 4c28 50bd 9763 0e3d 7fd2 573d 4bb3 1f3d
00000320: 745f baba 004e 78bd 7800 07be 2991 93bd
00000330: 253e 093e 51fd dc3d 39a9 d6bc 1b8f d43c
00000340: 620b 05bd 1c8b 793d 25d2 83bd 8b03 adbc
00000350: 6ab1 003d 799d d33d 2d7d 64bd 1649 e7bd
00000360: 754f 76bd 1bbe ce3d 3379 33bc a37a 273d
00000370: 03bd 833d b8e0 0d3d 936c 4bbc ddd6 6bbc
00000380: a4d7 c3bd eb06 713d ccfa 8a3d d516 d83d
00000390: 9db3 6fbd 3e23 ecbd f186 533d 24a7 a0bb
000003a0: 04e7 d93d 989d e23c f292 eab9 de0c c6bd
000003b0: fec9 813d fcf6 da3c 0ff4 213b 9044 e53d
000003c0: 3eca 0b3d 32de 8b3d 2442 053e 5013 10bc
000003d0: c6ed f53d 6d5c ea3c c025 abbd 56a1 243d
000003e0: 2a90 bbbd c247 e6bd 4489 a73d 4e45 a9bd
000003f0: bab2 fa3a b08b 4c3d 1c42 fc3c 2cd5 b63d
-0.053077053 0.114834346 -0.08984732 -0.011146265 0.040353805 -1.6555525e-05 0.08312917 -0.04266163
-0.05257694 0.02458077 0.015697688 0.04934359 -0.054349974 -0.09932268 -0.052930735 0.048669893
-0.086974874 0.07223043 -0.06947732 -0.011246114 0.114017986 -0.016941916 0.05211612 -0.046109762
0.06755304 0.086502 0.12302709 0.10906988 0.04113715 -0.12133725 -0.07153333 -0.08685136
0.053803068 0.026876902 0.06420007 0.13136308 0.013874409 -0.096907154 -0.074604765 0.068842314
0.105342135 -0.05597491 0.14113772 0.056051612 0.020189716 -0.06644767 0.12098149 0.08636459
-0.058712058 -0.11826674 0.022366868 -0.007841041 0.04910537 -0.10100126 0.08050704 -0.056225218
0.00911043 -0.09709703 -0.0795231 -0.018423134 -0.0019216324 0.11170585 0.040225215 -0.09229753
-0.0021784753 -0.046596214 0.09202297 -0.11210948 -0.090091616 0.059753194 0.099319026 0.010036528
0.056635275 -0.012060717 -0.011328965 0.11050162 -0.0945196 -0.037491217 -0.027599558 0.09643012
-0.10920155 -0.024532378 0.0017366558 0.084621444 -0.047435507 -0.10981408 0.07976857 0.050776467
0.04957266 0.013835013 -0.020587802 -0.018117711 -0.091681436 -0.11250782 0.094135866 0.0646766
-0.049834996 -0.11506808 0.029934868 0.034762174 0.021021351 -0.0072446167 -0.0049527735 -0.09440294
-0.120961905 0.09482379 -0.09953831 0.05036837 -0.053771287 -0.12492882 -0.098093554 -0.029669985
-0.10283674 0.017335594 0.02711755 0.066451505 -0.07644634 0.029143691 0.0019617379 0.007907465
0.10477476 -0.034340918 -0.111142784 0.05503115 -0.06537026 -0.08839543 -0.06820689 -0.107767045
0.0041585513 0.015765952 0.0521122 -0.024650065 -0.057271093 -0.04767416 0.10919963 -0.11956144
-0.035582986 0.105691865 -0.11308253 -0.10656599 -0.036208544 0.043233693 0.005369879 -0.09470785
0.06115564 0.09562039 0.08753716 0.0798726 0.011260354 0.09549407 -0.13025573 0.06834628
-0.022081241 -0.047866732 0.03264912 -0.06861338 -0.035989285 0.11459462 -0.070884764 0.12326267
0.1069409 0.025297932 0.04615111 0.0113037815 0.03136513 -0.018572088 -0.102795035 0.07158841
-0.021923183 -0.09717445 0.07381022 -0.013955116 0.14055124 -0.062689945 0.10996157 0.07259398
0.10437702 -0.07001741 0.016181204 -0.022266114 -0.03887902 0.055644702 -0.09733045 -0.10145588
0.06278763 -0.11397217 0.0077336417 0.022886755 -0.006094804 -0.018273398 0.08607659 0.050369073
-0.14125402 -0.058218565 0.06076686 0.13356185 -0.05081968 0.034762945 0.05269098 0.038989346
-0.0014219121 -0.06062126 -0.13183773 -0.072054215 0.13402613 0.10790504 -0.026203739 0.025947144
-0.03248156 0.06092368 -0.06436566 -0.021119853 0.031419195 0.1033277 -0.05578344 -0.11293237
-0.06013437 0.100948535 -0.010954189 0.04088844 0.064325355 0.034638137 -0.012416023 -0.014394489
-0.095626146 0.058844488 0.06786117 0.1055123 -0.058520902 -0.115301594 0.051642362 -0.004902737
0.10639766 0.027663037 -0.0004474144 -0.09670423 0.06337355 0.0267291 0.002471212 0.11194718
0.03412842 0.0682949 0.13013512 -0.008793667 0.12008242 0.028608525 -0.083568096 0.040192924
-0.091583565 -0.112441555 0.08180478 -0.08265172 0.0019126751 0.049937904 0.030793242 0.08927378

bias f4 [16]
00000000: f653 8e3d 7624 c4bd 1c78 ac3d cadd 16bd
00000010: c975 6d3d 38fa cdbc 6a0c b3bc eee1 8e3d
00000020: 2910 5e3d 7e9a 953b 4564 973d 598d 533b
00000030: 9e69 e53d 8a0f bdbd 3505 46bd 4e2e a23d
0.06949608 -0.09577267 0.084213465 -0.03683261 0.057973657 -0.025143728 -0.021856505 0.069766864
0.05421463 0.004565536 0.07392172 0.0032280295 0.112017855 -0.092314795 -0.04834481 0.07918988

weight f4 [1, 16]
00000000: c978 77bd 8a0f 5bbe bda3 17be b71e 31be
00000010: ee0f 913d abd2 32be 734d 67bd 6c19 4cbd
00000020: 490d 7a3e 430c 633e 3a19 60be ad4a 783d
00000030: ca6c 5d3e e030 61bd 5c59 253e 4716 3ebe
-0.060417924 -0.21392646 -0.14808555 -0.17296873 0.070831165 -0.17463176 -0.056470346 -0.04982893
0.2441913 0.22172646 -0.21884623 0.06061809 0.21623531 -0.05497825 0.16147369 -0.18563186
