models/model_objs/nba_model_pregame.pth (torch, 889165 bytes, 11 tensors)

weight f4 [256, 186]
00000000: cc44 ec3c b1ff dc3c 179b c73c eebc 74bc
00000010: 2870 753d 4828 19bd 3b1f c43b aa2c 04a5
00000020: 5add eb3c bbea d1bc 37de 8c3c f4c5 21bc
00000030: 435a 8e3d 2c0e a8bc bcb1 18bd c4b3 2dbd
00000040: 2a8f 803d bd63 ff3c d31a 7e3d 7a46 56bd
00000050: 9df8 86bd 2ebc 4bbd e5dd 11bd 0280 083d
00000060: 4e4a 063d 929b 783d 1695 b5bc 9968 25bd
00000070: cdf7 f83c 843b dcbc fc8f 453d 8935 01bc
00000080: f34d 293d e125 40bd 1ac9 d9bc feb2 f63c
00000090: 95ce 443c 2ba1 1dbc bab2 443d 9fb5 5e3d
000000a0: c779 3bbd 885c f0bc dc4b 863d 20a1 89bb
000000b0: e152 7cbc d309 9abd 7bfb 3fbd 0469 273c
000000c0: db59 133c 2c33 adbb f6e2 bb3b d7df d5bc
000000d0: 0639 29bc ff6c 67bb aaa4 77ba 8cca 073c
000000e0: d8a8 313d 444a 843b 2ec2 7d3b ddeb 14bd
000000f0: 8ad1 223b bd2e 15bb f556 0c3c 2d58 66bc
00000100: 9b39 09bc c7ed bfbc a249 063b 4a77 c63b
00000110: e7f5 093c 0977 f0bc f2da 20bc 58f7 5e39
00000120: fc39 15bc 9e8a 90bb ed87 b33c 04bf 4ebb
00000130: 251a c03c 86b1 85bb 315f a9bc 5196 123d
00000140: 3b47 3bbc f9c0 2cbc 62ad 1fbd 4e5a 39bd
00000150: db45 b33c 28b4 a8bc ea3e b238 e43b 88bc
00000160: 54aa 38bc f296 2dba 13a6 65bc f564 74bb
00000170: 39f8 8f3c ca20 533d f230 663d 0a51 cebc
00000180: c064 5cbb fa65 85bb 4fd2 b436 778d 1bbd
00000190: fcf1 303d d6a3 a0bc 77db 153d 9a9a a73c
000001a0: 5572 123c ca02 18bd 4baf 1ebd 7926 ba3d
000001b0: 760d 863c c0b8 15bd 5fb2 9a3c 8f8c 41bc
000001c0: c3fd 83bc a461 1e3d 60f2 d73b 1a11 ecbc
000001d0: 9f88 04bd 4cea fe3b 624b 043d c1b2 e3bb
000001e0: 0714 7abc 9f90 0ebc 37fb 43bd 442e d43c
000001f0: f889 343d f324 37bd 4b7f cc3c 9ec4 8b3c
00000200: 7b72 193c 7498 aabc 2e39 943c 86fa cf3c
00000210: cfa7 b239 ba07 8bbb 0180 9fbb 8572 fd3b
00000220: dc97 723c c191 1c3c c26b 733b 2a35 0d3d
00000230: 15a3 e13b f76b a6bb b687 cb3b 37c2 923b
00000240: 38b9 2b3b b0cf 6a3b 8d4b f4bc 093e 0ebc
00000250: d30f 1d3d bc00 ae3b 258d 22bb 6400 29bc
00000260: 9b90 773b f50f 01bb d34a f0bb eb30 ca3c
00000270: 1972 6e3c 0ffe 9f3c 987f e9bb 45c7 dabb
00000280: 3f0b 1b3b ec0b 0e3c 8ade 1e3c 16bc 21bc
00000290: c41e d73c af90 2bbc b681 efbc aa29 e93c
000002a0: 90f6 8fbc df49 d1bb 7e95 70bd a177 243d
000002b0: 1f6a 2b3c 0c02 703c 4a2c 1bbd 61aa 76bd
000002c0: e33e 1bbd a3b1 063d f93a 6fbd b021 003e
000002d0: b264 ae3c 9d9e 703c ae47 4a3b a572 b2bc
000002e0: 5c82 25bd 8ef1 2ebd 70db f53c 8f2a bcbc
000002f0: 0824 31bc 987e 04bd ada1 b7bb 4f74 11bd
00000300: 5c22 14bd c044 1e24 657a f3bb 401c bb3c
00000310: 3cef c5bc 8866 13bd 0b92 9dba 9a12 b9bc
00000320: fa3a 2abc f0bb 87bd 620e 9c3c 4b44 3abd
00000330: c434 a73c c736 383c 2d22 463d ae9f 6dbd
00000340: 65ba 453d 42fa 1dbd 1f07 f13c 23a9 063d
00000350: c751 0fbb f742 da3b 8480 c8bc e64d 88bd
00000360: 7dd8 053d c4e1 68bd 3ea0 143d 5b65 5d3d
00000370: d6f5 8d3d 7d82 14bc d547 63bd c35f cd3c
00000380: f0b6 3a3d b9a2 50bd 6661 c1bc fe87 e9bc
00000390: 7c72 173b 3f45 cfbc f218 84bb 5125 4abd
000003a0: 4752 b3bd 555d ad3c d1c7 4dbb 8306 debb
000003b0: 74fe d4bb e245 e5bc aaeb 28bd 76a2 60bc
000003c0: 4677 aebb 0708 c5bc 9c3c 80bb f833 babb
000003d0: 91c9 04bc a7cb 76bc 797c 1bbc acd4 08bc
000003e0: 392d a1bb 1676 27bc 518a 4dba 7e94 a7bb
000003f0: bf86 9f3b c55e ccba ce7f 11bc 5c13 103c
0.028841399 0.026977392 0.024365945 -0.0149376225 0.059921414 -0.03739193 0.0059851683 -1.1464308e-16
0.028792072 -0.025624624 0.017195804 -0.009873856 0.0695081 -0.02051457 -0.037278876 -0.042407766
0.062773064 0.031175489 0.0620373 -0.052313305 -0.06590388 -0.04974001 -0.035612006 0.033325203
0.032785706 0.06069524 -0.022165816 -0.040382955 0.030391598 -0.026883848 0.048233017 -0.007886299
0.041334104 -0.046911124 -0.02658515 0.030114647 0.012012144 -0.009620945 0.04802201 0.054372426
-0.045770433 -0.029340997 0.06557438 -0.004200116 -0.015400619 -0.07521405 -0.04687069 0.010217909
0.008993591 -0.005285641 0.005733843 -0.026107712 -0.010328537 -0.003531277 -0.0009446839 0.008288037
0.043373913 0.0040371735 0.0038720476 -0.03635775 0.0024844133 -0.0022763454 0.008565654 -0.014059109
-0.008375551 -0.02342881 0.0020490666 0.006056701 0.008420444 -0.029353635 -0.009817826 0.00021263713
-0.009108063 -0.0044110557 0.0219154 -0.003154696 0.023449967 -0.0040800003 -0.020675274 0.035787884
-0.011430557 -0.010544055 -0.03898371 -0.045252137 0.021883896 -0.020593718 8.49942e-05 -0.01663012
-0.011271078 -0.0006621919 -0.014016646 -0.003729162 0.017574416 0.051544942 0.05619902 -0.025185127
-0.0033629388 -0.0040709944 5.388901e-06 -0.03797671 0.043199524 -0.019609373 0.03658625 0.020459462
0.008938392 -0.037112035 -0.03874139 0.09089369 0.01636384 -0.036553144 0.018883882 -0.011813297
-0.016112214 0.038667336 0.0065901726 -0.028816748 -0.032356855 0.007779395 0.032298453 -0.0069487994
-0.015263564 -0.008701473 -0.047847 0.025900967 0.04407689 -0.044712972 0.024963042 0.017061528
0.009365673 -0.020824648 0.018093672 0.025388014 0.00034075833 -0.0042428644 -0.004867554 0.007734599
0.014806714 0.009556235 0.0037143086 0.03447453 0.006885896 -0.0050787884 0.0062112464 0.0044787186
0.0026202928 0.0035829358 -0.029821182 -0.0086817825 0.03834517 0.005310146 -0.0024803367 -0.010315035
0.00377754 -0.001969335 -0.0073331385 0.024681529 0.01455357 0.019530324 -0.007125806 -0.006676587
0.0023657826 0.008669835 0.009696612 -0.009871503 0.026259787 -0.010471507 -0.029236656 0.02846225
-0.017573625 -0.00638698 -0.058736317 0.04015315 0.010462313 0.0146489255 -0.037884034 -0.06022108
-0.03790177 0.03288425 -0.05840585 0.12512851 0.02128825 0.014686254 0.0030865478 -0.021783182
-0.040407524 -0.042710833 0.030011863 -0.022969512 -0.010811813 -0.03234729 -0.00560399 -0.03551131
-0.03616558 3.4319022e-17 -0.007430362 0.02284062 -0.024161927 -0.035986453 -0.0012021674 -0.022591878
-0.010390038 -0.06627643 0.019049827 -0.045475286 0.020410903 0.011243529 0.048372436 -0.05801361
0.048273463 -0.038568743 0.02942234 0.032876145 -0.0021868811 0.006660815 -0.024475344 -0.06655483
0.032677162 -0.056855932 0.03628563 0.05405174 0.06931655 -0.009064314 -0.055488426 0.025070077
0.04558462 -0.050936434 -0.023606014 -0.028507229 0.002310901 -0.025301574 -0.004031294 -0.049351994
-0.087559275 0.021162668 -0.0031399617 -0.0067756786 -0.0065000597 -0.027987424 -0.04124037 -0.013710609
-0.005324277 -0.02405168 -0.003913475 -0.0056824647 -0.008104698 -0.015063203 -0.009490126 -0.008351486
-0.004918721 -0.010221025 -0.000784074 -0.005114137 0.004868358 -0.0015592208 -0.008880569 0.008793678

bias f4 [256]
00000000: d1f5 1abd b581 acbb b157 babc 65f5 a83d
00000010: aafa a13a 1d88 cabc 0127 193c ef7d 59bc
00000020: e35b 0b3d bd45 af3c abb3 e2bb a77c 963c
00000030: b114 143d 9d86 163d ffe3 2fbd 355a 643c
00000040: a020 1bbd 805f 47bd 098f ccb9 95ce b93d
00000050: 68c2 033c 44b3 c4bc f3df 7cbd 4919 293d
00000060: 397a a53d a0c3 9d3d cd67 b53d 7145 49bd
00000070: c4ef d33c 61f5 3c3c ecfe 033d 1d4e 933c
00000080: 4c15 31bb cdb3 bcbc 57e8 cbbc 967c 8c3d
00000090: 7395 773d 8611 c43a 749c 263d 192e 3d3d
000000a0: ccb3 013d 41bd 21bd 2b85 a0bd 0498 39bc
000000b0: 02bd 8f3d 30c2 5abd 65fb 573d f553 15bd
000000c0: 7336 fa3c 7a26 883b 427e 48bb e183 b3bc
000000d0: 8043 e23c 231d 723d 6e64 703d 2f88 823c
000000e0: f70a e43c 5f3b cdbc 7181 5cbb 1c8c 69bd
000000f0: 571d 063d 974f 7c3c 75f6 c73b b47c 32bd
00000100: a398 15bd ca85 42bd be8e 8bbb 6545 72bc
00000110: 47d8 88bc 5880 003c da7b f8bc 822a d73d
00000120: 7d53 3ebd c1c6 53bc 6dde af3d 376f 633d
00000130: ab88 86bc 0399 2a3d 796c d43a 3796 26bd
00000140: 9909 a23c 069d 49bb 8d3a fabc b6c0 6abc
00000150: 4936 a13d f9e5 873d 771f 873d 5b5e 85bc
00000160: e092 ac3c 817d 743d d5ee 67bd 5ab0 7cbd
00000170: 03d2 433d aa27 57bb becd 503c 4e90 f33d
00000180: df9c e1bb 9220 7a3d 2f94 1a3c 0d64 4a3d
00000190: d321 09bd ec58 e2bc 269f a23c 5e24 593d
000001a0: 40eb e2bc 2cca 52bd 5075 e93c 4430 133d
000001b0: 94b2 0f3c c700 64bd 87a6 a23d a5b5 233d
000001c0: acbc 103d 498c 50bc 9c9b 28bd c4ad be3d
000001d0: 6797 013e 21e0 97bc 4e6a 233d bae6 0b3b
000001e0: 122d 36bc d65b 213c ece4 c93b b3ce f13c
000001f0: 15fc 09bd bdea 4abd 5a02 d1bc 8f24 8bbc
00000200: 6879 a23d a3bf a93d d619 ad3d c981 243d
00000210: 1013 523d 403d 953d 4208 64bd ebaa 933c
00000220: 4c09 763d 391c dcba ca7b d93c 9ffe d53d
00000230: 3793 833d e1ec ab3c 63cb 083d fed7 123d
00000240: 309a a13d e991 023e 9584 2bbd 3bc9 b6bc
00000250: d0fe 863d 1f3f 683d ba13 0e3d 9dcc 08bd
00000260: 236b af3d ca7e febc 9ada f8bc 02ee edbc
00000270: 3397 e13c 8bc1 20bd a9ce 3c3d cce1 6fbd
00000280: fc04 a9bd d0a7 8bbc e68d 683c 56d3 073c
00000290: 25d4 3d3d 438e 00bd 226b 47bc 9de0 2a3d
000002a0: 2e17 d6bc 789b aebb 9eee f23c 2775 413d
000002b0: 22bd 44bc 3334 bf3b 0a9f febc 1675 58bd
000002c0: 91c1 a23d 4f75 a33a d3b6 eebc 292b ffbc
000002d0: 5140 b93d beb9 9c3d 09ee a53d 04c4 4bbd
000002e0: 16ae e4bc 64d3 34bd 9355 273b 0239 fb3b
000002f0: ce40 6dbb 5a02 173c b4f7 7abd 8bfe a13d
00000300: 0360 753d 391e 8ebc f59b 593c 6117 7e3d
00000310: e1d0 fbbc c641 b53d f673 36bd a4f5 32bb
00000320: aaa7 943d 81ef 873c bdb0 203d 98ca ccbc
00000330: ad87 513d 2934 36bd 4208 dbbc 7426 ba3c
00000340: de37 7bbc cc7a 2d3d 9644 83bc 1047 993d
00000350: 9aaa 453b b761 953c bdd5 37bd 0155 b33d
00000360: 7326 28bd 0b80 7e3c 930e 80ba b4ee 3dbd
00000370: 1138 ea3a 6572 26bd 5168 26bc ffd0 803d
00000380: 0d99 be3a d8af a63d 89a3 143b 6ea5 b43d
00000390: 63e6 67bc a5f5 48bd 6785 303d 1bf2 a9bc
000003a0: e69a 873d a967 a83d 1144 c43c cab8 cfbb
000003b0: 5d30 633d b616 193d b1dc 4c3d ce5e 73bc
000003c0: f0a3 1c3d f518 9b3c f100 23bd f79c ffbc
000003d0: a965 e83c 2df7 853d 7f97 cf3d 0efc 753d
000003e0: dc4e e23d b1b9 1bbc 2248 6a3d 2a08 82bd
000003f0: d115 3cbd da48 67bd e05a e2bc 7d35 39bd
-0.037832085 -0.0052644857 -0.022746893 0.0824993 0.0012358029 -0.024723107 0.009347678 -0.013274654
0.034023177 0.021395558 -0.0069183907 0.018369986 0.036152545 0.03674947 -0.042942043 0.013937523
-0.03787291 -0.04867506 -0.00039016482 0.090726055 0.0080419555 -0.024011262 -0.061737012 0.04128388
0.08079953 0.07703328 0.08857689 -0.04913849 0.025871165 0.011533112 0.032225534 0.017981583
-0.002702075 -0.023034954 -0.024891062 0.068597004 0.06044526 0.0014958836 0.04067655 0.04618654
0.03166561 -0.039487127 -0.078379 -0.011327747 0.07018472 -0.053407848 0.052729983 -0.03645702
0.030543542 0.0041549774 -0.0030592834 -0.02191347 0.027620077 0.05910982 0.058689527 0.015934078
0.02783726 -0.025052724 -0.003364649 -0.057018384 0.032742824 0.015399835 0.006102378 -0.043575957
-0.03652252 -0.047490872 -0.0042589596 -0.014787053 -0.016704692 0.0078431 -0.030332495 0.105061546
-0.04646634 -0.012925805 0.08587346 0.055525985 -0.01642259 0.04164983 0.0016206644 -0.0406706
0.019779967 -0.003076376 -0.030545497 -0.014328172 0.07871682 0.06635661 0.06597798 -0.016280344
0.02106613 0.059690002 -0.056624252 -0.06169162 0.047807705 -0.0032830038 0.012744365 0.11892758
-0.0068851556 0.061066218 0.009434744 0.049411822 -0.033479523 -0.027630292 0.019851279 0.053013198
-0.027700067 -0.051462337 0.028498322 0.0359347 0.008770604 -0.055664804 0.07941919 0.03996815
0.03533618 -0.012728759 -0.041164026 0.09310487 0.12655412 -0.01853949 0.039896302 0.002134724
-0.011119144 0.009848556 0.006161323 0.029517507 -0.03368767 -0.04954027 -0.025513817 -0.016985206
0.07933313 0.08288505 0.084521934 0.040162835 0.05128771 0.07287073 -0.055671938 0.018025836
0.06006746 -0.0016793079 0.026548285 0.10448956 0.064245634 0.020986976 0.03339709 0.035850517
0.07890737 0.12750973 -0.041874487 -0.022312751 0.065915704 0.056700822 0.03468678 -0.03339826
0.085653566 -0.031066317 -0.030377675 -0.029044155 0.027537918 -0.039247077 0.046095524 -0.058564946
-0.08252904 -0.017047793 0.0141939875 0.0082901325 0.046344895 -0.03138567 -0.012171539 0.041718114
-0.0261341 -0.005328592 0.029654797 0.047230866 -0.012007983 0.00583508 -0.031081695 -0.052846037
0.07947076 0.0012470874 -0.029139912 -0.03114851 0.090454705 0.07652615 0.08102042 -0.049747482
-0.027915042 -0.04414691 0.0025533184 0.007666708 -0.0036201957 0.009216869 -0.061271384 0.07909878
0.059906017 -0.017348396 0.013281812 0.062034015 -0.03073925 0.08850436 -0.044544183 -0.0027307058
0.07258542 0.016593697 0.03923105 -0.024998948 0.05115478 -0.044483338 -0.026737336 0.022723414
-0.015333144 0.042353436 -0.016023915 0.07484257 0.00301615 0.01823507 -0.04488157 0.087564476
-0.041052293 0.0155334575 -0.0009769968 -0.046370223 0.0017869492 -0.04063644 -0.010156707 0.06289863
0.0014541462 0.08139008 0.0022680482 0.08820616 -0.01415405 -0.04906239 0.043095972 -0.020745328
0.066213414 0.082228966 0.023958238 -0.0063391672 0.055466045 0.037375174 0.050015155 -0.014854146
0.03824228 0.018932799 -0.03979582 -0.031202776 0.028368788 0.06541286 0.101363175 0.06005483
0.110501975 -0.0095047215 0.057197697 -0.063492134 -0.045919243 -0.05646596 -0.027631223 -0.045217026

weight f4 [256, 256]
00000000: 8707 db3c c078 00bd 9459 54bd 762c 163b
00000010: 31ca ae3d 7a25 07bb dca6 3c3d 40db de3c
00000020: 6c99 e1bc 6aeb 30bd 81ab 2a3d 409c df39
00000030: 39ed 293d 6a14 d93c 1f13 a7bc f071 47bc
00000040: 597b c5bb 54d8 ee3c 06af 243d c1ed 183b
00000050: 8031 09bd 440d efbb 4215 213c b25f 553d
00000060: 36e0 773d 0c1b 243c 2367 393d 80aa 953b
00000070: a543 ad3d ebd1 563d 461c 313d 9ef5 723b
00000080: 4379 21bd 3fde c93c 5d78 393d 8a24 383d
00000090: 2847 b9bb c49c 74bd cbde 053d f89e 133d
000000a0: 7d6a 72bb c864 63bc 768e 9d3c 5aea 00bb
000000b0: 87cf 943c 3101 dabc fcf2 0a3d 4ed1 6cbd
000000c0: 2d07 55bd 3b64 223c 1d87 23bb 4f89 f4bc
000000d0: b680 4ebd 1128 793d c441 20bd 6ede 9abc
000000e0: fe50 f33a 63ff 21bd b8fc ffbc 82db e6bc
000000f0: 237b 203d 54a6 d8b9 ddde 693b 0f85 693c
00000100: cf17 a33c dd69 02bd d69d 413d d8c8 53bc
00000110: ae18 873c 6e73 59bd d8e2 3fbd 1d36 68bb
00000120: 4eb7 893d 4435 313c 6b8e 133d 204e 253b
00000130: 97b8 073d c10b 743c bdf2 3a3a 4d6b 98bc
00000140: fbc9 1cbd 0d01 80bd 3c14 0e3d 5bf3 54bd
00000150: 844b dfbc 1245 613d 0117 d7bc d36c e2ba
00000160: cace 893c 6d1e a9bb a81d 22bc c391 d5bc
00000170: 5c3d 153d 6e3a 833c c5ad 723d 3e55 5f3c
00000180: 40da 52ba 1f98 523c 09a3 b4bc 10d1 2abd
00000190: 4eee 60bd c301 1abd f0fc c1bc af10 563c
000001a0: 2c5c 5abc d182 e8bc e343 673d aad1 f1bb
000001b0: f227 0b3c b9ae 933c 0fba 5cbd fc0e 87bb
000001c0: 54cf 2bbd f475 21bd 11f7 423d b8c6 423c
000001d0: 834a 023d 500d 103c ee29 6e3c 05f0 b83c
000001e0: be98 e23c d5a9 67bd f395 733d 1598 30bd
000001f0: bdf4 6a3c ac66 5d3d a284 d3bc 11c2 813b
00000200: 7633 a83d 8640 b73b d808 87bd e9b7 d93c
00000210: e35d 623c e0d0 c8bd e71d 2cbd ef4c 183d
00000220: cfb5 cbbc 1887 a13c a820 35bd 298a fcbc
00000230: 2320 973d ebc5 d93c 9a9c 873d e443 6f3d
00000240: db8e 913c 4b62 613c 662b 6b3d 9933 153c
00000250: 4014 503d 2efd 4b3c b757 5abd 18b0 073c
00000260: b9fd 02bd 4e28 46bd 56d4 2f3c 07b2 bc3c
00000270: 0826 4bbd a6aa 103d 6fb1 7bbc b3c6 88bc
00000280: 3bfa 18bd c87b 48bd 6c91 28bd 10b2 ea3a
00000290: 1614 153d 1574 ac3d ba2b 113c e3aa 883b
000002a0: 1168 3abd 6ca9 fe3c 945e 963c c608 00bd
000002b0: a528 e0bc ddd7 d13c 39b4 29bd a7e2 1cbd
000002c0: afe6 f93b 300d f2bc 774e 95bb 8926 f03b
000002d0: 3500 d53c 5f71 a63d 6846 0b3d 55f3 df3c
000002e0: eda2 c33a a5a5 e1bc ac67 763d 041d 4ebd
000002f0: 995d e8bc 161d 55bc d280 85bc aff8 d7bc
00000300: e029 c73c 62e8 1ebc ee51 f0bc 45f6 4ebd
00000310: a9d8 b03c dbef a73b 8216 3b3d 1636 203c
00000320: 07f5 56bc 0d68 5a3d 88a6 2f3b 145f 913d
00000330: b7aa 84bd ac42 963c b5a3 e63c 68a0 233d
00000340: a01a b83c eec7 52bc b566 283c 2229 3f3d
00000350: 2124 92bc 1bf6 a2bd bf75 323d 0e1d b13a
00000360: 0c24 ac3c cb0d e5bb 7603 673c a29c dd3c
00000370: 6ee3 833d 558b 903b 9223 a5bc 4ced 9a3c
00000380: b5b1 0abd 89ce 3f3d ce49 d63c 4310 2e3b
00000390: 6cb1 113c de51 94bc aba8 963b c4d4 003d
000003a0: 48be 883c 9897 7bbc e0ac ba3c ac77 9fbc
000003b0: 2093 003d fd4a bd3c 1ba4 183c d230 153d
000003c0: ed52 0bbd 0a63 3a3c af72 583c 36b7 3f3d
000003d0: 252d bd3c 0808 bdba 80eb ecbc 2efd a5bb
000003e0: ec67 32bd 3820 6c3c 57ab 553c d7eb 593c
000003f0: 6a38 6b3c 6561 2cbd 1a62 25bd ad20 37bd
0.026736988 -0.031365156 -0.05184324 0.0022914684 0.08534659 -0.0020621703 0.046057567 0.027204156
-0.027538978 -0.04319326 0.041667465 0.0004265029 0.041486 0.026498992 -0.02039486 -0.012173161
-0.006026667 0.029155888 0.040205978 0.0023335072 -0.033494473 -0.0072952826 0.009831728 0.052093215
0.06051656 0.010016214 0.045264374 0.0045674443 0.08460168 0.052446287 0.043239854 0.0037072669
-0.039422285 0.024642108 0.045280803 0.04495672 -0.0056542344 -0.059719816 0.032683175 0.036040276
-0.0036989741 -0.013879009 0.01923297 -0.0019670934 0.018165363 -0.026611896 0.033923134 -0.057816796
-0.052008796 0.009911592 -0.002495236 -0.02985063 -0.050415717 0.060829226 -0.03912522 -0.01890489
0.0018563566 -0.039550196 -0.031248435 -0.028180841 0.039179932 -0.00041322655 0.0035685815 0.014252915
0.019908814 -0.03183924 0.047269665 -0.012926303 0.01649126 -0.053088598 -0.046847194 -0.0035432645
0.06724416 0.010815922 0.036024492 0.0025223568 0.033135023 0.0148953805 0.0007131508 -0.018605852
-0.03827856 -0.062502004 0.034687266 -0.051989894 -0.027257688 0.05499751 -0.026256086 -0.0017274864
0.016822238 -0.0051610977 -0.009894766 -0.026070481 0.03643547 0.016019072 0.05924775 0.013631163
-0.0008043386 0.012853651 -0.022050397 -0.041703284 -0.054914765 -0.037599336 -0.02368018 0.013065501
-0.01332764 -0.02838269 0.056461226 -0.00737973 0.00849341 0.01802765 -0.053888377 -0.0041216593
-0.04194577 -0.03941913 0.047598902 0.011888199 0.03180934 0.008792236 0.014536364 0.022575388
0.027660724 -0.05655845 0.059469175 -0.043113787 0.014340577 0.054052994 -0.02582008 0.003959902
0.082129404 0.0055924086 -0.06593484 0.026576953 0.01381633 -0.09805465 -0.042020705 0.037182745
-0.024866967 0.019717738 -0.044220597 -0.030827599 0.073791765 0.026583632 0.06621666 0.058414355
0.017768314 0.013756345 0.057414435 0.00910654 0.050800562 0.012450499 -0.053306308 0.00828173
-0.03198025 -0.04837828 0.010731777 0.023034109 -0.049596816 0.035318993 -0.015362128 -0.01669631
-0.037348013 -0.048946172 -0.04115431 0.001790585 0.03639611 0.084205784 0.008860523 0.004170762
-0.0455094 0.031086646 0.018355645 -0.031258367 -0.02736313 0.025615627 -0.04143164 -0.03830209
0.0076263766 -0.029547304 -0.004556473 0.0073288125 0.026001075 0.081270926 0.03400269 0.02733771
0.0014925875 -0.027544806 0.060157463 -0.05032064 -0.028364943 -0.013007423 -0.016296778 -0.026363699
0.02431196 -0.009698959 -0.029335942 -0.05052783 0.021587687 0.0051250285 0.045675762 0.00977852
-0.0131199425 0.053321887 0.0026802141 0.07098213 -0.06477874 0.018342339 0.028154233 0.039947897
0.022473633 -0.01286505 0.0102783935 0.046670087 -0.017839493 -0.07957097 0.043569323 0.0013512687
0.021013282 -0.0069901696 0.014099946 0.027052227 0.06439863 0.004411141 -0.020158563 0.01891198
-0.03386088 0.046827827 0.02615824 0.0026559986 0.008892398 -0.018105444 0.0045977435 0.03145291
0.016692296 -0.015355967 0.022787511 -0.019466244 0.03139031 0.023107046 0.00931647 0.03642351
-0.03401463 0.011376152 0.013210936 0.046805583 0.023092816 -0.0014421949 -0.028920889 -0.0050655818
-0.04355614 0.014411978 0.013041339 0.0133008575 0.014356712 -0.04208507 -0.04037676 -0.044708896

bias f4 [256]
00000000: fe36 3d3d e4d6 853d 1acc 923c 96df a73c
00000010: 2f18 483c 02de 9c3d dc77 923c 0ce7 643d
00000020: f7c3 153d e528 4fbd 1b25 3a3d cdf6 d8bb
00000030: cc78 7e3d 5729 a7bd 9580 ce3b 44dd a33d
00000040: 9e40 94bc b0a2 443c e5a4 c53c aa97 523d
00000050: e903 50bc 0130 393c 9bc9 733b b8e0 07bd
00000060: 4fbd f9bb c967 503d 2cea 4f3d 2003 243d
00000070: 55c6 253d 238f 973c a1cb cd3d c112 11bd
00000080: fa33 8fbd af2a 20bc 2068 a83c f9a7 1f3d
00000090: e4e1 33bc d2b1 683b 61f9 17bd 31ef cebc
000000a0: c864 e23c b049 b53c ac67 fabc d555 513d
000000b0: f1c2 8a3d 31d0 ac3d 9c74 d7bc 3aec 2c3d
000000c0: 70e1 153d 096c 3bbd 28ea 37bd 00ad 343c
000000d0: 1309 293d a43b 4e3d 7480 003d 573e 203d
000000e0: 33bd 8d3d b3d6 683d 16b5 333d 0e0a 943d
000000f0: 96a8 b13b e7bb 6cbd 5f11 8e3d b8ac 84bb
00000100: 2fd6 043c 28dc 893c e813 3d3d 007a 41bc
00000110: 2055 68bd 0b52 a23c 4ccf 553c 4509 0c3c
00000120: 4580 d1bb 5400 27bc 0ef6 36bd ca28 773d
00000130: 3bce d53d e8c2 e43c f4c9 4abc a217 ee3b
00000140: 43b4 f2bc 0ed0 093c 6ccb 9dba 10ce 463d
00000150: 4c75 1c3d 7572 f1ba a005 6fbc 4906 953d
00000160: f9c7 31bc d093 84bc 3332 0fbd 5510 69bd
00000170: ecd6 21bd d05b 23bd 658e 65bb 0f3d a43d
00000180: 15c4 173d 6383 333d 3c2c 123d b4a4 0abd
00000190: baa0 5e3d 52a1 653d 24cf f73c c70c c13b
000001a0: e366 d2bc 3114 34bc 1c74 febc b578 1d3d
000001b0: a090 8f3d f1f7 ddbc d5df 603d 68ce 533d
000001c0: d205 943d 3c25 83bc a01f 5abc 33aa 42bd
000001d0: 4356 2dbc fb93 e93c 68c8 993d 866d 663c
000001e0: ec23 3ebd 87a5 863c f2e0 b03d 55ab cc3c
000001f0: 9949 ac3d 412a cebc c472 93bc 36c6 3fbd
00000200: 54ae 373d c8c6 29bd b217 6f3d d9c9 bdbc
00000210: e97c 023d e8d2 293d f5d8 6c3c 0ea0 273a
00000220: 9fb6 d53d e9a5 8a3b 630b ad3d def8 ad3c
00000230: 149e d7bb 5ac4 ef3c 0f04 fcbc 8a38 223d
00000240: 1b26 43ba f5e4 173d 045d 953d 49dd bfbb
00000250: 9fdb 9f3c 7f99 4b3d 6ee9 9d3c 3025 863c
00000260: 3f7d 603d 52b5 14bd bdb2 b7bc f278 7bbc
00000270: 0b3a 31bc bab2 b63c 340b b3bc b75c 933d
00000280: dc48 403c 57ba aa3d 7855 37bd 2276 92bc
00000290: 26f5 403d 9d2c 2f3d 8863 793d 6606 ba3c
000002a0: 8024 2d3c 78f3 5c3b e783 7a3c 2f01 abbb
000002b0: 2027 dd3b afe3 debc 0069 ef3c 1dfd 163a
000002c0: 4d8a af3c e671 803d 884b 0abc c931 fbbc
000002d0: 313e c3bc 4528 9a3d 1f63 57bd a170 303d
000002e0: d9ec df3b dbf6 293d c0f4 ddbc 1cb9 983c
000002f0: f963 1c3d 37b7 24bc ad02 90bc d7ef 4d3d
00000300: e09c c43b 3e02 0639 73ab 8f3b ffff e63c
00000310: ee47 9c3d 0461 4abc ba1a 423d 3eec 4a3d
00000320: 1c0c 0e3b 970c 8dbc 9795 c83b 58fe 953c
00000330: 8247 8f3c 3965 d53b 43eb dd3c 38b4 843c
00000340: 9a58 57b8 3b6f 46bd da2f 26bd 3577 5a3d
00000350: c812 10bc 68ff 923d fe0d e53b 7898 4e3d
00000360: 13db 233d a9d5 e43c e40d 19bd 4a2b 9d3c
00000370: 3db4 a83d 481d 4fbc fa76 42bb a720 89ba
00000380: fad9 cdbc 6fc1 503d fb30 6d3d 66e4 3dbd
00000390: 3f58 bb3c 2f4f 983d 0cf7 d43b b13f 9e3c
000003a0: a61e 68bc a44b 593b 9643 b0bc 584d 413d
000003b0: e086 2b3a 35cc c2bc 00a4 9d3d df66 553d
000003c0: 5a01 5d3c 5774 403d f392 333b 4ba5 08bb
000003d0: 8e16 53bc 9b09 41bc a263 be3b 6435 293d
000003e0: 7e53 673c 8609 c7bc 57ed 7abb 498f 1f3d
000003f0: 7eb6 ce3c 1341 e9bc 5cd8 8fbc ed8b 9cbc
0.046195023 0.06535128 0.017919589 0.020492356 0.012212797 0.07659532 0.017879419 0.055884406
0.03656384 -0.05057611 0.045445543 -0.006621218 0.06212692 -0.08162182 0.0063019493 0.080011874
-0.018097218 0.012001678 0.02412648 0.05141417 -0.012696245 0.011302949 0.0037199024 -0.033173293
-0.0076214443 0.050880227 0.050760433 0.040042043 0.040472347 0.01850087 0.10048605 -0.035418276
-0.069923356 -0.009775802 0.020557463 0.03897855 -0.0109791495 0.003550638 -0.03710306 -0.02526054
0.027635947 0.022129864 -0.030567013 0.051107246 0.06775463 0.08438147 -0.02630072 0.04221747
0.036591947 -0.045757327 -0.044901043 0.011027575 0.04126842 0.050349846 0.031372502 0.039121952
0.069208525 0.056845378 0.04387387 0.0722848 0.0054217083 -0.057796385 0.06936907 -0.00404891
0.008107706 0.016828611 0.046161562 -0.011808872 -0.056721807 0.019814512 0.013049912 0.008547132
-0.0063934647 -0.010192949 -0.04466825 0.060341634 0.10439726 0.02792497 -0.012377251 0.007266001
-0.029626971 0.0084114205 -0.0012038774 0.04853636 0.0381978 -0.0018420952 -0.014588743 0.072765894
-0.0108509 -0.016183764 -0.034959983 -0.05690034 -0.039511606 -0.03988248 -0.00350275 0.080194585
0.037052233 0.043826472 0.035686716 -0.03384848 0.0543525 0.05606205 0.03025014 0.0058914158
-0.025683826 -0.010991142 -0.031061225 0.038445193 0.07010007 -0.027095767 0.054900963 0.051710516
0.07227673 -0.016008966 -0.013313204 -0.047525596 -0.010579648 0.028512945 0.075089276 0.014064198
-0.046420977 0.016436351 0.08636655 0.024984041 0.08412475 -0.025166633 -0.01799906 -0.046819888
0.044843987 -0.04144934 0.058372207 -0.023167538 0.031857405 0.0414609 0.014456023 0.00063943944
0.10435223 0.004231204 0.084494375 0.021236833 -0.0065801237 0.029268432 -0.030763654 0.0396047
-0.0007444338 0.037083585 0.07293132 -0.0058552367 0.019513903 0.049706932 0.019276347 0.016375154
0.054806944 -0.036305733 -0.022424096 -0.01534866 -0.010817061 0.02230202 -0.021855928 0.07195418
0.011736121 0.08336323 -0.044759244 -0.017878596 0.04710879 0.042767156 0.060885936 0.02270813
0.010567784 0.0033714455 0.015290237 -0.005218647 0.006749049 -0.027208177 0.029224873 0.0005759763
0.021428252 0.062717244 -0.00844086 -0.030663388 -0.023833366 0.07527212 -0.052584764 0.04307616
0.0068336544 0.041495185 -0.027094245 0.018642955 0.03818128 -0.010053447 -0.0175794 0.050277557
0.0060001463 0.00012780071 0.004384452 0.02819824 0.07630907 -0.012352232 0.04738877 0.049541704
0.0021674698 -0.017217917 0.006121348 0.018309757 0.017490152 0.006512311 0.02708972 0.016199216
-5.134251e-05 -0.04844592 -0.04057298 0.05333634 -0.00879354 0.07177621 0.0069901934 0.050438374
0.040003847 0.027933912 -0.037366763 0.01918568 0.08237503 -0.012641259 -0.0029672966 -0.0010462002
-0.025128353 0.050965723 0.05790804 -0.046360396 0.022869227 0.07436978 0.006499177 0.01931748
-0.014167463 0.0033156658 -0.021516602 0.0471929 0.000654323 -0.023779014 0.07697296 0.05210006
0.013489092 0.04698595 0.002740082 -0.0020850475 -0.012883795 -0.011782075 0.005810217 0.041310683
0.014119027 -0.024296533 -0.0038288438 0.038955007 0.025233503 -0.028473413 -0.017559223 -0.01910969

weight f4 [256, 256]
00000000: 1d9c debb 13b8 5e3c 715a 78bb e37d a1bb
00000010: 4c40 8bba 56cc 1a3d c5d8 db3b 5c52 b1bb
00000020: 33f8 4e3c 6bf8 92bb ff7b 003c 5399 eabb
00000030: b078 e73c 9ae8 42bc 45c6 c43b e925 43bc
00000040: ba62 1f3c 7f25 58bb d08f 76bc 0a5e 6036
00000050: 9172 96bc e876 15bb 2576 2fbc e735 b93c
00000060: 7c16 473b 771c 9d3c f761 03bc 4abf e13c
00000070: 4243 99bc cde9 e3bb 025d fd3c 122f 26bb
00000080: 8170 35bb e04c c03b 86af 1fbb 2f52 39ba
00000090: 0f94 c43c 607c f8bb ace5 2abb a32d 193b
000000a0: 7844 a03b 1812 e03b 45e1 4e39 5527 d23b
000000b0: 9e3d a6bb 5c2d 8c3c 7379 2bbc d193 46bb
000000c0: 2ac3 d6bb f850 88bc 69a6 273c 5d3f 7b3b
000000d0: 4c40 2abc 1f8f 953c 11d4 9c3b 5377 813c
000000e0: 1ad9 89bb f79c 933a 22fd 1cbb 8863 3e3c
000000f0: 66d5 253c 163a 7ebb 508d 9f3c 8c23 1a3c
00000100: be09 f93c 31f0 abbb 8c4f 503b 7f3e a73c
00000110: 11e1 f7b9 b0d4 45bc 1496 79bb dbb2 3ebc
00000120: 2e68 b83b d3c4 cabb e4d3 0b3c 3114 233b
00000130: 87cf 3c3c 3824 14bc 487c 6d3b ea41 f93b
00000140: a997 1f3c aa98 0d3b bb3a 043b cd66 b23b
00000150: f8ef c5bb 3c92 e0ba 8aec 57bc 5be8 b63c
00000160: 2283 fbbb 13a5 e83a b1e0 c9bb 5c6c abbb
00000170: cba0 5a3b 1ac4 64bb 8857 0a3a 3321 923c
00000180: 599a 6e3a 28e5 383c ce32 7d3a 7108 1bba
00000190: 40bd 243b 2159 1e3c be17 773c f81c 46bc
000001a0: 8a2e b43a 5b89 093c 1fc6 f4bb ef3b 3dbb
000001b0: eb0d 283d 6b73 943b d361 f03c e066 023c
000001c0: 8218 b23a acb9 30bc 07b9 af3c 1fea c7bb
000001d0: 7ed2 94bb 87d0 a63c 7ab7 13bc f560 47bb
000001e0: d404 fc3b 1b6b 25ba 20cc e73b 9145 8ab9
000001f0: 0654 1a3d 2171 2a3b 7661 ff39 591d 7bbb
00000200: 756a 1abb 6ade c5ba db8c b3ba dbf0 27bb
00000210: ac46 4c3b e771 3a3c 1d70 c8ba 235d ae3c
00000220: 021e cc3c 2885 56bc 9315 9f3c 9f39 0c3d
00000230: bad3 1b3a e9c6 133c 1734 e63a 13fe 123c
00000240: 7ed3 2a3c 815a 0bbb 373e b23c fe59 5bbc
00000250: 5409 383c 55bf 383c d346 a83c 8717 44bb
00000260: 0625 8b3b d974 27bc 22d9 ce3a f68e 43bb
00000270: 0e8e 233c fde1 edbb 51f7 983c aa39 413c
00000280: 9934 463c 4435 5a3c 6b32 1a3b 1f5b 823b
00000290: aa8a 4ab9 aeb9 833b 7d50 a53c 5170 a53c
000002a0: 1aae 5d3c 0636 24bb 2c92 cf3b bad1 03bc
000002b0: 9ee1 93ba 5b1b fbbb 7dca 413c 20c3 933c
000002c0: 03d5 d63b 6ad3 08ba 716a 1a3b 222f 88bb
000002d0: 8b57 67bc edb9 ea3c f9c1 d4bb e0a0 26bc
000002e0: 1f5f 903c cc40 c5bc 1a4b 84bb 5049 62ba
000002f0: 40af 1bbc ae15 783c d50e 3b3b 453c bf3c
00000300: 52f9 4dbb 4a8b d4ba 7bc1 4cba 6bfd 06bb
00000310: 28ba 283b e8c3 2c3c adc8 253b edd2 453a
00000320: 9b6f 15bb 16b0 6c3b e587 9bba 8215 0c3c
00000330: 3acd 95ba bca8 463c 346e 0b3d 1d8b e33c
00000340: 45b6 f43b fad4 883c 5f66 8cbc 9d47 98bc
00000350: f750 8bbc 157f 9a3c d41c 25bc 4b54 e23c
00000360: c1fa 293c 6e7a 9b3c 3533 e7bb 8651 a0ba
00000370: cc4d 323d 7e92 f73a b912 113b e26f 713b
00000380: c141 813c 32c4 143c 6080 913c 59b6 a2ba
00000390: 2c48 f53c 87f4 91bc 809d 4a3b 6273 1ebb
000003a0: 65b9 b43b f958 aabb 5c56 afbb 13e4 0d3d
000003b0: 3655 8bba 61f4 053b 9452 423c 7950 ce3c
000003c0: 917a 063a d065 7eba 2e82 6abc a9f4 90bb
000003d0: 726e 16bc ad18 8b3c 2a99 0fbb 1c68 48bb
000003e0: 735e 8e3b 6df7 92bb 5b7b 943b 123c 8c3c
000003f0: 9c98 bd3b e2d1 f639 2bf1 5cba e979 df3b
-0.0067935125 0.013593691 -0.0037895704 -0.004928337 -0.001062402 0.037792526 0.0067091906 -0.0054114293
0.0126324175 -0.00448518 0.007842063 -0.007159391 0.02825579 -0.011896277 0.006005081 -0.011910894
0.009728128 -0.0032981334 -0.015048936 3.343334e-06 -0.018365176 -0.002280647 -0.01070932 0.02260871
0.0030378392 0.019178612 -0.008018962 0.027557034 -0.018708829 -0.0069553615 0.030928139 -0.0025357646
-0.0027685466 0.005868539 -0.0024366095 -0.0007069436 0.023996381 -0.007583186 -0.0026076837 0.002337315
0.0048909746 0.0068380944 0.0001972961 0.00641338 -0.0050732633 0.017111473 -0.0104659675 -0.0030300508
-0.006554027 -0.016640171 0.010232546 0.0038337328 -0.010391306 0.018256722 0.0047860225 0.015803969
-0.0042067887 0.0011261989 -0.002395459 0.01162041 0.010121679 -0.0038791946 0.019476563 0.009407889
0.030400153 -0.005247139 0.0031785695 0.020415543 -0.000472792 -0.012074634 -0.0038083838 -0.011639322
0.0056276536 -0.006188014 0.008534405 0.0024883861 0.011524088 -0.009041838 0.0036237407 0.0076067345
0.009740748 0.0021605887 0.0020176608 0.0054443837 -0.0060405694 -0.0017133425 -0.013178954 0.022327593
-0.0076755444 0.0017749391 -0.0061608185 -0.0052314233 0.003336 -0.0034906925 0.00052773254 0.017838096
0.0009101979 0.011285104 0.00096587546 -0.00059140386 0.0025137216 0.009664805 0.015081344 -0.012091868
0.001374678 0.0083945645 -0.007469907 -0.0028874835 0.0410289 0.0045303605 0.029343521 0.007959098
0.0013587626 -0.010786455 0.021450533 -0.0061009075 -0.004541694 0.020363105 -0.009015912 -0.003042278
0.0076910052 -0.00063102104 0.007073894 -0.00026373242 0.037677787 0.0026007371 0.00048710004 -0.0038317053
-0.0023561988 -0.0015096192 -0.0013698594 -0.0025625739 0.0031170053 0.0113796955 -0.0015292201 0.021284645
0.024916653 -0.01309327 0.019419467 0.03423464 0.00059443305 0.009019592 0.0017563131 0.008971709
0.0104264 -0.0021263661 0.021758182 -0.013388155 0.011232693 0.011276086 0.020541584 -0.002992125
0.004246357 -0.01022073 0.0015781263 -0.002983985 0.009982599 -0.007259606 0.018672617 0.011793533
0.012097501 0.013318364 0.0023528587 0.0039781476 -0.00019315878 0.0040199375 0.020179981 0.020195158
0.013530279 -0.0025056615 0.0063345637 -0.008045608 -0.0011282449 -0.007663173 0.011828062 0.018037379
0.0065561547 -0.00052194914 0.002356198 -0.0041560093 -0.014119993 0.02865311 -0.00649285 -0.0101701915
0.017623482 -0.02407875 -0.004037273 -0.000863214 -0.009502232 0.015141888 0.0028542776 0.023344168
-0.0031429124 -0.0016215828 -0.0007810813 -0.0020597826 0.0025745723 0.010544755 0.0025296614 0.0007546384
-0.0022802118 0.0036115698 -0.0011866061 0.00855005 -0.001142896 0.01212519 0.034040645 0.027776295
0.0074680173 0.016703118 -0.017138658 -0.018588835 -0.01700638 0.018859426 -0.010077674 0.027628085
0.010374726 0.018979277 -0.007055665 -0.0012231327 0.043531224 0.0018888263 0.0022136404 0.003684037
0.015778424 0.00907998 0.01776141 -0.0012413963 0.02994164 -0.017816795 0.0030916631 -0.002417766
0.005515265 -0.0051985946 -0.005350871 0.034641337 -0.0010630253 0.002043985 0.0118605085 0.025184857
0.0005129958 -0.00097045023 -0.014313264 -0.004423697 -0.009181606 0.01697954 -0.0021911361 -0.0030579632
0.0043447553 -0.004485062 0.0045313067 0.017118488 0.0057860147 0.0004707715 -0.0008428271 0.0068199527

bias f4 [256]
00000000: 1c89 b13c 9c7c adbc f8f5 f23c 1d34 793d
00000010: a6df a83b 958d 12bd bdf4 09bc a75e c6bb
00000020: a27b 053d e1b6 013d 1dd3 a83c ff5b 903c
00000030: ca9a 783c f48c 9d3c 1ea9 583c eaee 1ebc
00000040: f78e 633c c197 cd3b a91d 803c c407 033d
00000050: a1ef db3c a1ea a83c 1cfd 373b f619 d7bc
00000060: 9622 1abd 6e01 f0bb 096b 593c fdaa 963c
00000070: bf6c 813d 640e a1bc 452d 323d 9cdd ccbc
00000080: 1a57 56ba 0c03 303d 4b45 8f3b 49e4 f83c
00000090: 4ce1 0e3c 35a6 c63b 0656 c9bb 71e6 57bc
000000a0: 7b8a 6d3c 12a3 ca3c 5525 393c 9612 503c
000000b0: ccfc 2d3d 2751 95bc c3d9 05bc 428b a4bb
000000c0: 908f db3c 639c 033d 6165 8abc a6a5 253b
000000d0: b4b1 623d c0f2 86bb 61f3 f9bc 4942 9a3c
000000e0: 2353 0c3d 1fe6 653c 9692 2d3c 48f6 d7bc
000000f0: 389d a4bb bf35 d7bc e6f3 9bbc e0c1 e23b
00000100: d522 82bc 954f 043d daaf ca3b 5b54 31bd
00000110: c8df d43c c6c3 143c deb0 be3c f469 37bd
00000120: 707f 45bb 678f 95bc 78a1 8fbb f9fd 043d
00000130: 2841 2fbd 1daf 863b ad05 863a f0ac d239
00000140: b378 133d 75ca 4e3c 9149 ae3c 2fd5 34bc
00000150: 13bc 4cbd 63fb 17bd aea8 d03d 0272 4f3d
00000160: 074a 35bc 1ef4 883a 6df0 24bd 7862 163c
00000170: 3122 1fbd 4939 603d 0cd1 033d d994 01bd
00000180: 6e89 4d3d 7691 dcbc 173c 3fbc 950e 1e3c
00000190: 42c3 493d 4549 32bb f883 24ba b6ac 94bc
000001a0: c179 8fba 5050 aa3d cb75 013d 80a2 2d3d
000001b0: 42dc 7e3c d2d8 b8bb b573 603c 2ef9 083c
000001c0: 4af6 833c 685a 0f3d 3574 483d f678 5cbc
000001d0: 937b b5bb 74f4 203d 5ffe b73c 8bd0 c53c
000001e0: d731 33bd 53ae 25bd 0288 303c bb05 ceba
000001f0: f96c e93c 975f 6f3d 6e04 4c3d 3c28 cf3c
00000200: 31f8 a6ba df1d 11bc 67ee 823c 48cf 563c
00000210: 43d1 bcba ee9b e9bc af12 aa3b 2c4f e8bc
00000220: c594 eb3c 7568 97ba 7722 023d 101d 303a
00000230: bed8 2ebd 0c92 9e3c 8b39 7d3d e681 73bc
00000240: 3afc 213d 0767 0f3d cc44 1b3c 99c3 0c3d
00000250: c6fa 7d3c 2edf cf3c 8437 14bd e062 873d
00000260: 8ec0 4f3c 9dec 59bd e98f b23c e2c8 7d3c
00000270: 1a6e 4b3d f631 0a3c 4554 343d f8db bf3c
00000280: 6423 b6bc 7fbd d0bb f5ee 343d b3dd 193d
00000290: c955 313d b638 1a3d aa5f 043d 7828 353c
000002a0: becf 0a3d 1615 9b3a c82e c639 06ad 25bb
000002b0: eac6 143c ccdf 663c 0c90 f0bc 7e69 72bb
000002c0: 9c30 c7bc 98ca 633c 405a ab3c 9e36 073c
000002d0: cd5e 163c d2b0 853d aad4 ab3c 38f1 0cbd
000002e0: f95f 88bc 8eea bc3c 0d60 d7ba 42df 81bd
000002f0: 6d8d 88bb ceb7 49bc 1457 9a3c 514b fb3b
00000300: 1b34 203d 8b37 56bc 2310 c93b 7121 d8bc
00000310: f437 c43c 35ee bc3c 7c38 cfbc fe56 0a3d
00000320: 3e1a f4bb 0fec e03b d9f3 a53d 9ef1 5abc
00000330: f504 31bc 6630 abbc d22c f9bc 0459 cd3c
00000340: 3d2e 183d 4d1b fbbc 86ba fd3c 57b4 fe3c
00000350: 0e0a 923c bba6 133d 4041 923c 1bb9 1d3c
00000360: ac7f b73b bb90 053d 0b5a a53d a26f cb3b
00000370: bb2c 513c c585 fa39 c173 823d 4418 153d
00000380: 069d 60bd d035 3fbc 4f79 6ebc 6238 04bd
00000390: dd8e 433d 13e0 a3bb b43d ee3c dcb9 7b3d
000003a0: 5ac6 2e3c cdca 6e3c b462 963d c9f4 5e3c
000003b0: 1347 1abc 70dc 903c aab3 e03b 32d1 1abd
000003c0: 7ba3 f03c 37b0 ac3c 1559 01bc d3a9 fd3c
000003d0: b35b 93bc b4d9 8d3c e37d d63c 12b9 25bd
000003e0: 1ee1 573c 7d3d 3b3c 333a 8c3c 1eab 163a
000003f0: 5a58 1a3c d9d7 b23c 5a57 86bd f9ca 2e3b
0.021671824 -0.021177582 0.029658303 0.060840715 0.005153614 -0.035779554 -0.008420167 -0.006053764
0.03258861 0.031668548 0.02060848 0.017621992 0.015173623 0.01923225 0.013223914 -0.009700516
0.013889066 0.006274194 0.015639143 0.031989828 0.026847662 0.020619692 0.002807445 -0.026257496
-0.03763064 -0.007324389 0.013270148 0.01839208 0.0631957 -0.019660182 0.043500204 -0.025008015
-0.00081764313 0.042971656 0.004372274 0.030382292 0.008720707 0.006062294 -0.006144288 -0.0131775
0.014498348 0.024735961 0.011300405 0.012699744 0.042477414 -0.018227173 -0.008169594 -0.0050214836
0.026801854 0.032131564 -0.016894044 0.0025275736 0.055345252 -0.0041182935 -0.03051156 0.018830435
0.034258973 0.014031916 0.010594031 -0.026362553 -0.0050236247 -0.026270745 -0.019037198 0.0069200844
-0.01588575 0.032302458 0.006185514 -0.04329334 0.025985613 0.009079879 0.023277696 -0.04477878
-0.0030135773 -0.018256856 -0.0043832622 0.03246877 -0.042786747 0.0041102306 0.001022508 0.0004018317
0.03600378 0.012621512 0.021275314 -0.011037155 -0.04998405 -0.037104975 0.10188423 0.050645836
-0.011065013 0.0010448729 -0.04026835 0.00917875 -0.038850967 0.05474213 0.032181785 -0.031636093
0.05017989 -0.02692483 -0.011672041 0.009647031 0.049258478 -0.0027204317 -0.00062757684 -0.018148761
-0.001094632 0.083161 0.031606477 0.0423913 0.015555443 -0.0056410814 0.013699462 0.00836019
0.01610865 0.034998327 0.04893895 -0.013456574 -0.005538413 0.03929563 0.02246016 0.024147293
-0.043748703 -0.04044945 0.010774614 -0.001571826 0.028494345 0.05844077 0.049808912 0.02528774
-0.0012738762 -0.0088572195 0.01598282 0.013110943 -0.0014405627 -0.028516736 0.0051902155 -0.028358065
0.028757462 -0.0011551516 0.03177115 0.0006718198 -0.04268717 0.01935675 0.061822455 -0.014862513
0.039547183 0.035010364 0.009476852 0.034366224 0.015501684 0.025374975 -0.036185756 0.06610656
0.012680186 -0.053204168 0.021797137 0.015489789 0.049665548 0.008434763 0.04402568 0.023420319
-0.022233672 -0.006370246 0.0441732 0.037564944 0.0432947 0.03765174 0.032317795 0.011057012
0.033889525 0.0011831846 0.00037800358 -0.0025280132 0.009080628 0.014091443 -0.029365562 -0.0036989148
-0.024315171 0.013903283 0.020917058 0.008252768 0.009177876 0.065278664 0.02097543 -0.03440973
-0.016647326 0.023061063 -0.0016431824 -0.06341411 -0.00416725 -0.012311889 0.01884035 0.0076688905
0.03911219 -0.013074766 0.006135957 -0.026383134 0.023952462 0.023062805 -0.025295489 0.03377437
-0.0074494174 0.006864078 0.08103151 -0.01336327 -0.0108044045 -0.020897102 -0.03041688 0.02506686
0.03715347 -0.030652666 0.03097273 0.031091852 0.01782706 0.03604768 0.01785338 0.009626652
0.0055999365 0.03260873 0.08073815 0.006208376 0.012767012 0.00047783382 0.063697346 0.036400095
-0.05483725 -0.011670545 -0.014555289 -0.032280333 0.047743667 -0.005001077 0.029082157 0.061456546
0.010667408 0.014574719 0.07343045 0.013608166 -0.0094163595 0.017683238 0.006857355 -0.03779716
0.029374829 0.02108012 -0.007894774 0.030964768 -0.017988062 0.017315723 0.026183074 -0.0404597
0.013176231 0.011428234 0.017117595 0.00057475443 0.009420479 0.02183144 -0.0655963 0.0026671274

weight f4 [128, 256]
00000000: 74a2 e03c 3b25 21bc 41e4 cf3c d1aa df3c
00000010: f3ad 503c bc75 4cbc 557a f83b 8d31 8dbc
00000020: 4d3c 8abd 22d5 ae3c 8d9d 5e3c 277b 56bc
00000030: 895b 96bb 4827 b53b 29dc c83c 9cca f0ba
00000040: 3a2e 803a a2c3 74bb b1e8 8639 e98a ac3c
00000050: c133 953c 085a 2b3c 9c16 273c 8869 32bc
00000060: 1c0c d33b b2ce 2abc 0dce 0ebb 3a66 35bc
00000070: 66d8 de3b bd96 f5bb f489 573c 09a2 d7bc
00000080: befc 23bd 45a5 dbbc a663 6cbd 5967 e9bc
00000090: aa01 6c3c a63a 29bb b71d f93a 45e3 b3bb
000000a0: 6b49 313c af0c c13a 8cc2 2bbc 16a7 6c3b
000000b0: d9f5 fdba 56d0 94bb 5c65 693b 1c33 c2bc
000000c0: 2aea 44ba 29e3 953c 5eaa b0bc bf1f 083d
000000d0: bf56 4bbc 53fa 023b 5bce debc 0e9e 993c
000000e0: 92d9 c93b f7b0 973b 5b5a b23b a451 433b
000000f0: e0c3 4fbc fa2f c6bc d163 8abb f5f8 c7bc
00000100: 8732 413c 410e b33b e48c d83c 2480 6abb
00000110: 39b8 3fbc f6ed a03b 4b59 cabb 4181 46bc
00000120: 4408 cf3b 3b1f 7f3c 5759 8c3b 5c7e a73c
00000130: 654f 6fbc d2b6 05bb c45e 113c ce7d 8f3b
00000140: 7293 3f3c 609e f6bb c527 48bc 01f5 b23a
00000150: 1274 d5bb 596e 58bc 23b1 d83c 627c dcbb
00000160: 1df3 36bc 7319 37bb 583e 423b bb21 e2bb
00000170: 5e4b 86bb eca7 b3bc 2ad0 1f3c 0c6c 89bc
00000180: 7dc0 603c baf0 a6ba b645 b6bc 4e3d 663c
00000190: ac5b 3ebc 66d9 56bc 9ec6 143b 633d b43b
000001a0: dc85 723a 189d 1e3c 700a 503a f2d1 a03c
000001b0: eae2 0b3d 15e4 cc3a 1b1b 8bbc 29eb ff3b
000001c0: f521 b03b 36a4 81bd b50d ab3c 3be7 91bc
000001d0: 0813 41bc afab 38bd 19bc 723c 9844 1dbd
000001e0: 8dae 9abc b332 68ba 10d3 9cbc a3b5 9bbb
000001f0: 232b 383c eb6a 2cbc 01ae 67bc 64b0 92bc
00000200: b10d 63bc 6d24 6abc 5280 f6ba 722b 043c
00000210: ffab 00bb 08ff 2a3c 512e 133a fcfa 5a3b
00000220: 54db e63b 827a 303b 4f11 c53b 96de 4d3c
00000230: 0fb7 79bc c064 af3c 1640 b23b b2ae 433c
00000240: ccd0 663c 0629 7e3b 09f8 e13c 66d9 303c
00000250: 6bb1 be3c 1d77 13bc f82b 8f3b e073 3b3c
00000260: d920 933c 5598 143c ccb6 ff3c 6964 b739
00000270: 5abb d43c 8401 893c 7de5 c43c b657 0e3c
00000280: 785d 473b f1f7 d9bc 890f 383a 8629 833b
00000290: a631 ba3c e9c6 cabb 9868 fb3c 87a1 32bb
000002a0: a5e2 8b3c a4fe 7cba 9bff f03b e9f3 95bb
000002b0: bdc1 efbb e38f f4bb 3820 aebc 6719 da39
000002c0: 23c0 813c a979 963c 1850 ed3c 414f 18bc
000002d0: 7d94 303c 8302 893c c28d 56bc d1d3 a8bc
000002e0: b36a cb3b a0bb 073c ed26 ca3b f406 97bc
000002f0: 705b 6fbd 48ec 583a 3b26 0a3d dad2 63bc
00000300: 9e60 5f3c 3d38 1bbc d743 693c c518 e93a
00000310: 11e3 283c 2102 f53c 3ab8 35bc 0b16 34bb
00000320: 8889 ea38 89f7 26bc 2c08 cb3c dc31 a6bc
00000330: acfb 653c 52ba cb3b 3111 5ebc da9b d1ba
00000340: 81ee 25bc fa38 edbc c992 a53c 1932 8fbb
00000350: 66dd 0538 0b99 993c f0fe 70bb 308e 23bc
00000360: 3bcf 033c 598a 8a3c e3bc a23c 05d7 9a3c
00000370: 7ee2 13bc 5f00 433c 0e37 493b e022 a8bb
00000380: f7e9 0cbd 327d 1e3c 3792 ea3b e9bc 903c
00000390: 25b7 5b3c e1a6 823c 96c6 f93b b11b 3a3c
000003a0: c809 3e3c b504 9c3b 6bf9 1d3d cf3b c2bb
000003b0: f724 143c 4266 1abc a134 3dbc 9336 dfbc
000003c0: 5375 503c f500 e0bc 916c 9a3c 41b9 af3b
000003d0: 0f18 fa3b 836d fe3b be53 c33c 7634 c9bc
000003e0: 02f5 0f3b dac4 d43c ad4c 94bb 7ab6 5c3b
000003f0: 5e12 703c 8371 753c 16bf c3bc 9e74 c4bc
0.027421214 -0.009835537 0.025377395 0.027303131 0.012736785 -0.012479242 0.0075829425 -0.017235542
-0.06749783 0.021341864 0.013587368 -0.013090885 -0.0045885486 0.0055283643 0.024519043 -0.0018370929
0.0009779402 -0.0037348052 0.0002573184 0.021062331 0.018213155 0.010458477 0.010198262 -0.010889418
0.0064406525 -0.010425257 -0.0021790296 -0.011071736 0.006800699 -0.007494776 0.013155449 -0.026322382
-0.040035956 -0.026812205 -0.05771222 -0.028491663 0.014404694 -0.002582231 0.0019006048 -0.005489739
0.010820727 0.0014728511 -0.010483395 0.0036110333 -0.0019375636 -0.004541437 0.0035613393 -0.023706011
-0.00075117 0.018296795 -0.021565612 0.0332334 -0.012410819 0.001998563 -0.027198007 0.018752124
0.0061599696 0.00462925 0.0054429 0.00298033 -0.012680978 -0.024192799 -0.004223325 -0.024410704
0.011791832 0.0054643457 0.02643437 -0.0035781944 -0.011701637 0.0049111797 -0.0061751953 -0.0121157775
0.006318124 0.015571411 0.004283111 0.020445995 -0.0146063315 -0.002040316 0.008872692 0.0043790108
0.011692869 -0.007526204 -0.012216513 0.0013653339 -0.006514081 -0.013209903 0.026451653 -0.006728695
-0.011166361 -0.0027938753 0.002963921 -0.0069009936 -0.00409834 -0.021930657 0.00975422 -0.016775154
0.013717768 -0.0012736537 -0.022250038 0.014052702 -0.011618536 -0.013113355 0.0022701393 0.005500482
0.0009251514 0.009681009 0.00079361256 0.01963136 0.03415195 0.0015631939 -0.016980698 0.0078100157
0.0053751417 -0.06330149 0.02088056 -0.017810455 -0.011784323 -0.045085605 0.014815354 -0.038395494
-0.01888206 -0.00088576524 -0.019143611 -0.0047518774 0.011240753 -0.010523538 -0.014140607 -0.017906375
-0.013858245 -0.014290911 -0.0018806553 0.008066999 -0.0019633768 0.010436781 0.00056145067 0.0033413759
0.007045189 0.002692849 0.0060140262 0.012565276 -0.0152413985 0.021410346 0.0054397685 0.011943506
0.014087867 0.0038781776 0.027584093 0.010794019 0.023277959 -0.009000567 0.004369255 0.011441201
0.017959999 0.009069522 0.031215094 0.0003497929 0.025968242 0.016724356 0.02403521 0.008687904
0.0030420702 -0.026607485 0.0007021358 0.0040027527 0.022728752 -0.0061882627 0.030689523 -0.0027256922
0.017075846 -0.00096509815 0.0073546893 -0.0045761955 -0.0073167966 -0.0074634417 -0.021255597 0.00041599126
0.015838688 0.018368559 0.028968856 -0.009296239 0.01077759 0.01672483 -0.013095321 -0.020608814
0.006207788 0.008284479 0.006169191 -0.018435933 -0.05843681 0.0008274955 0.033727866 -0.013905251
0.013633875 -0.0094738575 0.014237366 0.0017783871 0.010308043 0.029908242 -0.011091286 -0.002747896
0.00011183607 -0.010190853 0.02478417 -0.020287447 0.014037054 0.0062172795 -0.013553903 -0.0015991882
-0.010127665 -0.028957833 0.020211594 -0.004369986 3.1915864e-05 0.018749734 -0.0036773048 -0.009982631
0.008045013 0.016911672 0.019865459 0.018901357 -0.009026168 0.011901944 0.0030702981 -0.0051311105
-0.034402814 0.009673404 0.0071585434 0.017668204 0.013410364 0.015948715 0.0076225502 0.011359141
0.011599012 0.0047613033 0.03856794 -0.00592754 0.009042016 -0.009423794 -0.011548192 -0.027247703
0.012723285 -0.027344206 0.018850597 0.00536266 0.0076322625 0.0077645197 0.023843642 -0.024561148
0.0021966104 0.025972772 -0.004525742 0.00336781 0.014652817 0.014980677 -0.023894828 -0.023981389

bias f4 [128]
00000000: d230 433d 099a 4fbc 2703 b8bc b9c0 5a3d
00000010: 8db5 cd3b 3e06 3c3c 649a 5e3c 2193 d43c
00000020: 614c 683b 762c d43c 79f8 893c b489 47bd
00000030: 393e 843d c4f6 31ba 454d ec3c 5e59 863c
00000040: 4f38 d33c c7bd 143d 943a c2bc c32d 3f3b
00000050: d260 19bc a8f0 483d 9b20 acbc 035c 013c
00000060: 3029 053c 57c5 653d 789c 443d 3b02 bdbc
00000070: 13ae 933c 534e 7a3d 0107 7e3c 0ee0 283b
00000080: 05cc 313c e57f 5f3c a937 213d e1ec 673d
00000090: 9fba 47bc ad88 08bd 72d6 d93b 1c67 0f3d
000000a0: ae32 a23c 719a 2dbc 4626 933d e054 eabb
000000b0: f350 023d 8774 2b3b 62d3 8b3d b1fb e1bc
000000c0: f1bc bc3d 6f6d 373c 7d1d 173d bc26 653d
000000d0: 7f84 8a3c 2d2f af3b 568f d63c ca47 17bd
000000e0: dfc2 bd3c 448f 343c 9c85 833d 0d96 4d3d
000000f0: 5551 2f3c 7df8 b33d 6745 ef3c 7612 04bb
00000100: 9b82 733d 2cfa 003d 6f06 09bc a2d7 d13a
00000110: d21f 1a3d c013 a2bc 8b7c 123c 20d7 a7bb
00000120: 628d 043c ed4a 9a3c b942 9f3d 85f4 ed3b
00000130: ffb4 c03c 18e5 e93c beb5 923c 7169 603c
00000140: 2a2d 4ebd e1a9 b73c 2537 07bc 3bbc 0b3c
00000150: 278b b93c 64ee a83d d68a 4dbc 92b4 9f3c
00000160: 4191 1fb9 b305 66bb 89ae d73c fefb fe3c
00000170: dca1 fc3b 5706 bf3c 0f7b 79bb 6927 413c
00000180: 30a8 773d edab ec3c 9c7b 9cbc 6a54 c93c
00000190: f2ff 5ebb df93 563c 8bdd 21bd e211 0cbd
000001a0: 488f 283c 068f 9e3c 78be febc d7ad ac3c
000001b0: b7b6 6e3d 9679 313d a8d2 bbbc a7c4 223c
000001c0: dfe4 693d a680 70bb 8840 9c3d 4b84 06bd
000001d0: 4c57 b83c 0f09 863d 4f9a 4dbd 7857 0e3b
000001e0: 49b9 28bb 2ac4 14bc a4a5 573d deb7 f4ba
000001f0: 4948 7d3b b29d 31bd a5ed ee3b 9fe7 a3bc
0.04765398 -0.012671002 -0.02246244 0.05340645 0.006277746 0.011476098 0.013586614 0.025949063
0.0035445916 0.025900107 0.016842114 -0.04871531 0.064571805 -0.0006788785 0.028845439 0.016400035
0.025783686 0.0363138 -0.023709573 0.0029171563 -0.009361463 0.049057633 -0.021011641 0.007895472
0.008127496 0.0560964 0.048000783 -0.023072353 0.018027341 0.061109852 0.0155046 0.0025768313
0.010851865 0.013641332 0.039359722 0.05662239 -0.01219049 -0.03333347 0.0066478783 0.035010442
0.019799557 -0.010595904 0.071850345 -0.007151231 0.03181548 0.0026161985 0.068274274 -0.027585836
0.09215725 0.011195525 0.036893357 0.055945143 0.016908882 0.0053462 0.026191395 -0.036933698
0.02316421 0.011020485 0.06421968 0.050191928 0.010700543 0.0878763 0.029207898 -0.0020152605
0.059450727 0.031488582 -0.00836335 0.0016009698 0.037628002 -0.019784808 0.008940826 -0.0051220804
0.008090349 0.018834556 0.07776398 0.007261815 0.023523806 0.028551623 0.017908927 0.013697014
-0.05033604 0.022419872 -0.008252894 0.008528764 0.02264936 0.082485944 -0.012545308 0.019495282
-0.00015217533 -0.0035098612 0.026328342 0.031126019 0.007709725 0.023318453 -0.0038067733 0.011789181
0.06046313 0.028890574 -0.01910191 0.024576385 -0.0034027067 0.013096779 -0.03951792 -0.034196742
0.010288067 0.019355308 -0.031096682 0.021078987 0.05827972 0.043328844 -0.022927597 0.009934581
0.057103034 -0.0036697774 0.07629496 -0.03284101 0.022502564 0.065446965 -0.05019599 0.0021719616
-0.0025745204 -0.009079972 0.0526482 -0.0018670519 0.0038647822 -0.04336328 0.007291513 -0.020007906
