models/model_objs/nba_model_pregame.pth (torch, 889165 bytes, 11 tensors)

weight f4 [256, 186]
0	0x3cb9e28b	0.022691032
1	0x3d010787	0.03150132
2	0xbd7daf78	-0.06193492
3	0x3d4bb5f1	0.04973406
4	0xbd8b2a5a	-0.06795187
5	0x3ceeb6a0	0.029139817
6	0xbd3bcb3c	-0.045848116
7	0x2a2fa0b3	1.5598876e-13
8	0xbd7d91ae	-0.06190651
9	0x3bbb852b	0.005722662
10	0xbd3c9490	-0.046040118
11	0x3d4f9019	0.05067453
12	0xbba50782	-0.0050362954
13	0xbcddcbec	-0.027074777
14	0xbb3424d0	-0.0027487762
15	0xbd195584	-0.03743507
16	0x3c542838	0.012949042
17	0xbc32e778	-0.010919444
18	0x3af55758	0.0018718047
19	0xbcbf8941	-0.023380877
20	0xbd7e4822	-0.06208051
21	0x3d50bb50	0.050959885
22	0x3d877328	0.06613761
23	0xbd20c37a	-0.03924892
24	0x3d8ddd27	0.06926947
25	0x3c265894	0.010152955
26	0xbb54a2ff	-0.0032445786
27	0x3d8a57bf	0.067550175
28	0x3cd4ea09	0.025990503
29	0xbcfa5331	-0.030557247
30	0xbd5217a4	-0.051292077
31	0xbd73a649	-0.059484754
32	0xbc2fb69f	-0.010724693
33	0x3c8fddd3	0.017561829
34	0x3d7e3800	0.062065125
35	0x3d12d23c	0.035845026
36	0xbcfcc446	-0.03085531
37	0x3d9870e7	0.074434094
38	0xbd295d43	-0.041348707
39	0x3d3f75bf	0.04674315
40	0x3d68ab0a	0.05680374
41	0x3c360043	0.011108461
42	0x3d97a040	0.07403612
43	0x3d3dcd46	0.046338342
44	0xbd4a1fe1	-0.04934681
45	0xbc10b363	-0.008831832
46	0xbd18d06a	-0.037308134
47	0xbd8b8353	-0.068121575
48	0x3d3ffeba	0.046873786
49	0xbb972f68	-0.0046138056
50	0x3d0ff7fc	0.035148606
51	0x3b90b30e	0.004415876
52	0x3b69922f	0.003564011
53	0x3a53fef9	0.0008087005
54	0xbb37db5e	-0.0028054337
55	0x3c9382ae	0.018006649
56	0x3d52e79a	0.051490404
57	0x3b88279f	0.004155114
58	0x3cc9c040	0.024627805
59	0x3d31d1af	0.04341286
60	0x3ca6331f	0.020288048
61	0x3cb59b9c	0.022168927
62	0x3cb3eb09	0.02196266
63	0xbb782372	-0.0037862924
64	0x3c0cd903	0.0085966615
65	0x3cd4c6d1	0.02597371
66	0xbae61592	-0.0017554036
67	0x3d755df2	0.059904046
68	0x3c27637e	0.010216592
69	0x3c4d7aaa	0.012541452
70	0x3cc496e2	0.023997728
71	0x3cd13a96	0.025540631
72	0x3ca5cc80	0.020239115
73	0x3d078c73	0.033092927
74	0x3d31ffc1	0.043456797
75	0x3bdfd13e	0.0068303635
76	0x3d7516b1	0.059836093
77	0x3c55db08	0.013052709
78	0x3d569468	0.052387625
79	0x3da77741	0.08177043
80	0x3d6bb668	0.057547003
81	0x3c44624f	0.011986329
82	0x3d93ffe5	0.072265424
83	0x3c270afa	0.010195488
84	0x3d5f218b	0.05447535
85	0x3cbf50fb	0.023354044
86	0x3c3e0f75	0.011600365
87	0x3c20af7b	0.009807463
88	0x3d25ac4a	0.04044751
89	0x3c9a233f	0.018815635
90	0x3d47aafe	0.048747055
91	0x3cd69fae	0.026199188
92	0x3ce40597	0.027834697
93	0xbd0a5d39	-0.03378031
94	0x3d7e41b1	0.062074367
95	0x3cbac1c5	0.022797475
96	0x3d0b02da	0.033938266
97	0x3c8a4ae0	0.016881406
98	0x39a58387	0.00031569248
99	0xbcf9484e	-0.030429985
100	0x3d5b47a7	0.05353513
101	0xbbcf8ae0	-0.006333694
102	0xbc80cf43	-0.01572383
103	0x3da8df34	0.082456976
104	0x3d9e941a	0.07743092
105	0x3cd02482	0.025408033
106	0x3d8956a8	0.067059815
107	0x3c9cc0a3	0.019134825
108	0xbc2f7197	-0.010708234
109	0xbcacd3e0	-0.021097124
110	0x3c91c383	0.017793423
111	0x3d5c122e	0.053728275
112	0x3d9a9b00	0.07549095
113	0x3ccc1cfe	0.024916168
114	0x3c964404	0.01834298
115	0x3d174c0c	0.03693776
116	0x3ad0f325	0.0015941603
117	0x3d1927d1	0.037391488
118	0x3d83690b	0.0641652
119	0xbb27147c	-0.0025494387
120	0x3c51b8bc	0.012800392
121	0x3bfeb2e7	0.0077727917
122	0xbb2259c9	-0.0024772754
123	0x3c878ac7	0.016545666
124	0xbbb8c092	-0.0056381905
125	0x3cde8c90	0.027166635
126	0xbca75191	-0.020424636
127	0x3b662e58	0.0035122838
128	0x3d4d4002	0.05010987
129	0x3c28a2bd	0.010292706
130	0x3daab50f	0.083353154
131	0x3d983b9a	0.07433243
132	0x3d144e29	0.03620735
133	0x3d04a038	0.03237936
134	0x3cb4dcec	0.022078
135	0x3b2c76f1	0.0026316012
136	0x3c98d1da	0.018654753
137	0x3d057e20	0.032590985
138	0xbbab8dd9	-0.0052354154
139	0x3ccae52e	0.024767485
140	0x3d0d030c	0.034426734
141	0x3d23cad4	0.039988354
142	0xbc31c56e	-0.010850294
143	0x3cf0083b	0.0293008
144	0x3d0163dc	0.031589374
145	0xbb8b9087	-0.0042591724
146	0x3cadad65	0.021200845
147	0x3bcfdae5	0.006343233
148	0xbd18a46f	-0.03726619
149	0x3cdc1e8d	0.026870036
150	0x3d1979df	0.03746974
151	0x3b22a279	0.002481608
152	0x3b2eff04	0.0026702294
153	0xbbff94d2	-0.007799723
154	0x3bb6203f	0.0055580433
155	0x3d0a01ba	0.033693053
156	0x3d268e46	0.040663026
157	0x3cd43994	0.025906362
158	0x3c91293f	0.017719863
159	0x3d2e542e	0.04256075
160	0x3c7392ab	0.014866511
161	0x3d28e255	0.041231472
162	0x3d5ce298	0.053927034
163	0x3c7dca84	0.015490178
164	0x3cd48679	0.025943028
165	0xbb285dfe	-0.002569079
166	0xbb2590df	-0.0025263352
167	0xbbe05248	-0.006845746
168	0x3d8e7090	0.06955063
169	0xbd0ac975	-0.03388353
170	0xbc0de7ad	-0.008661193
171	0x3d595de5	0.05306806
172	0xbc434fe2	-0.011920901
173	0x3d22a05a	0.039703704
174	0xbd099dea	-0.033597864
175	0x3b8486e2	0.0040443996
176	0x3ac97fcd	0.0015373171
177	0x3d9515b3	0.072795294
178	0x3ced7864	0.02898807
179	0x3dabd8d0	0.08390963
180	0xbc9255e2	-0.017863218
181	0x3cb356ac	0.021891914
182	0x3d7294ab	0.059223812
183	0x3d04365e	0.03227841
184	0x3c9660a2	0.018356625
185	0x3c85b342	0.016320828
186	0xbc8d4e92	-0.01724938
187	0x3cc374e4	0.023859449
188	0xbd470e07	-0.048597362
189	0x3bb5fd3b	0.005553869
190	0xbd58a9a8	-0.05289617
191	0x3add7496	0.0016895707
192	0x3d85d8ef	0.065355174
193	0xa9f5893a	-1.09039907e-13
194	0x3d1ad617	0.03780183
195	0x3cc7af23	0.024375504
196	0x3d8891ba	0.0666842
197	0x3c0f291d	0.0087378295
198	0x3d6132b6	0.054980002
199	0xbca2e320	-0.019883692
200	0xbd5587ff	-0.05213165
201	0xbd8ac236	-0.06775324
202	0x3d871e2d	0.065975524
203	0x3d9df11e	0.07712005
204	0xbd471dea	-0.048612513
205	0x3d99c088	0.075074255
206	0xbd922f7c	-0.07137963
207	0x3d13b777	0.036063638
208	0xbd3f4275	-0.046694238
209	0xbc9c0ff5	-0.019050578
210	0x3d87c5c4	0.06629518
211	0xbd52b8ff	-0.051445957
212	0x3cecbe83	0.028899437
213	0x3b0ecc77	0.002178935
214	0x3d70cc00	0.0587883
215	0xbb8bbdf7	-0.004264589
216	0x3d627063	0.05528296
217	0xbd2e5907	-0.04256537
218	0x3ca5a97d	0.02022242
219	0x3d482f26	0.04887309
220	0x3d3f07ed	0.046638418
221	0xbd819562	-0.06327321
222	0xbc0e283b	-0.008676584
223	0x3d2a8078	0.041626424
224	0xbd22e525	-0.03976931
225	0x3afba2e9	0.0019198331
226	0x3cc347be	0.02383792
227	0x3c9ca977	0.019123776
228	0xbcdd70e4	-0.02703137
229	0x3d5e3ed5	0.05425914
230	0x3b176d5b	0.0023105952
231	0x3c76a85c	0.015054788
232	0xbd925e5e	-0.07146905
233	0x3d84cbf6	0.06484215
234	0xbd89a7cd	-0.067214586
235	0x3d1ec8cc	0.038765714
236	0x3d86ac08	0.06575781
237	0xbd314f1d	-0.04328834
238	0x3d0edc69	0.03487817
239	0xbc9fbb64	-0.019498535
240	0x3d30ae0f	0.043134745
241	0x3cf18769	0.029483514
242	0x3db8dbba	0.090262845
243	0x3d076401	0.033054356
244	0xbd136548	-0.03598526
245	0xbd2bc379	-0.041934464
246	0xbcd0e006	-0.025497448
247	0x3bda7a38	0.0066674016
248	0x3c33de7b	0.010978336
249	0xbd5207b0	-0.051276863
250	0xbb058443	-0.0020373024
251	0xb9dfd781	-0.00042694437
252	0xbc6e5f32	-0.0145490635
253	0xbd44e769	-0.048072252
254	0x3ccff9e3	0.02538771
255	0xbcf9439f	-0.030427752

bias f4 [256]
0	0x3a6060cd	0.00085593463
1	0xbca1d5e9	-0.01975532
2	0x3d9dffc1	0.07714797
3	0x3c63a033	0.013893175
4	0xbd0336da	-0.032034732
5	0xbd19ffa5	-0.037597317
6	0x3c305ea9	0.010764756
7	0xbc2265d7	-0.009911976
8	0xbc91f4fb	-0.017817011
9	0xbcb530cd	-0.022117997
10	0xbd324c0d	-0.04352956
11	0x3de63110	0.11239827
12	0x3d5391b0	0.05165261
13	0x3cf6f7ea	0.030147512
14	0xbd5fd736	-0.0546486
15	0x3aad099d	0.0013201718
16	0xbd1f9ff6	-0.03897091
17	0x3d626e8a	0.0552812
18	0x3b9330da	0.0044919075
19	0x3d61512c	0.055009052
20	0xbb9322c2	-0.0044902274
21	0x3d766b04	0.06016065
22	0x3d95570e	0.07291995
23	0xbca215f2	-0.019785855
24	0xbcf8502d	-0.030311668
25	0xbc808a7b	-0.015691033
26	0xbc938d0a	-0.018011589
27	0x3cdad5b6	0.026713233
28	0x3c052f0d	0.008128894
29	0xbc807b29	-0.015683727
30	0xbcc2c5c6	-0.023775946
31	0x3cae31aa	0.021263916
32	0xbcd94e62	-0.026526634
33	0x3c6cfb85	0.014464264
34	0x3d917bfd	0.07103727
35	0x3d8c5dac	0.06853804
36	0x3da23837	0.079208784
37	0xbc20754c	-0.009793591
38	0xbbcb7986	-0.006209555
39	0xbcdcd220	-0.026955664
40	0xbd88cc5d	-0.06679604
41	0xbce41cc7	-0.027845753
42	0xbc0a2b81	-0.008433224
43	0x3ab6e12c	0.0013952604
44	0xbd4dfe7e	-0.05029153
45	0x3da7f491	0.08200944
46	0xbd2d8b89	-0.0423694
47	0x3d5c79ec	0.05382721
48	0xbc1efa93	-0.009703296
49	0x3d7cb143	0.061692487
50	0xbd304420	-0.04303372
51	0xbcb38144	-0.021912225
52	0x3c53c979	0.012926453
53	0xbca271c6	-0.019829642
54	0xbbe510be	-0.006990521
55	0x3d8eb4ce	0.069680795
56	0xbc02ac14	-0.007975597
57	0xbd1e80ad	-0.038696934
58	0x3c37757d	0.011197445
59	0x3e105277	0.14093958
60	0xbc22473b	-0.009904678
61	0xbc9cd821	-0.019146027
62	0xbd89c19c	-0.06726381
63	0xbca56f24	-0.020194598
64	0x3d0d803f	0.034546133
65	0xbcc37674	-0.023860194
66	0x3d2231c3	0.039598238
67	0xbbde501f	-0.0067844535
68	0x3c69b60a	0.014264593
69	0x3c6a277b	0.014291639
70	0xbcbf1e21	-0.023329796
71	0x3d59f99c	0.05321656
72	0x3d8890aa	0.066682175
73	0x3d3af8ff	0.045647617
74	0x3dbdf45f	0.09275126
75	0x3b09a2ab	0.0021001499
76	0x3db4fa70	0.0883683
77	0x3c84e9e2	0.016224805
78	0x3cb5d148	0.02219452
79	0x3d9dbe7d	0.077023484
80	0xbd244d5c	-0.04011284
81	0x3cc9a9ac	0.024617039
82	0x3c3480bd	0.011017022
83	0x3d3707b0	0.044685066
84	0xbd63734f	-0.05552989
85	0xbd09497e	-0.033517353
86	0x3d749afb	0.059718113
87	0x3d1fccd0	0.039013684
88	0x3d9e6f05	0.07736019
89	0x3d9f1b48	0.07768875
90	0xbd2da5d9	-0.042394493
91	0x3d7c2d5e	0.061566703
92	0xbd7286aa	-0.059210457
93	0x3b562947	0.0032678412
94	0x3d4d6de4	0.050153628
95	0xbcbe00fc	-0.023193829
96	0xbc8f1467	-0.017465783
97	0xbcca401f	-0.024688778
98	0xba6ba32b	-0.00089888525
99	0x3d0d77ad	0.03453796
100	0x3b519915	0.0031982113
101	0xbb354982	-0.0027662222
102	0xbd3e3e3c	-0.04644607
103	0x3ad73ca4	0.001642127
104	0x3c159886	0.009130603
105	0x3d9d2ece	0.07674943
106	0x3d6e622a	0.058199085
107	0xbc81b8ae	-0.015835132
108	0x3c276e9c	0.010219242
109	0xbd2d739d	-0.042346586
110	0x3db74b4e	0.0894991
111	0xbd209f2e	-0.039214306
112	0x3c3de329	0.011589804
113	0x3c8c849c	0.017153077
114	0xbd9eecc6	-0.07760005
115	0x3cd8ff9c	0.026489072
116	0x3d254348	0.040347368
117	0xbc2739a2	-0.010206612
118	0xbbfad656	-0.0076549454
119	0x3db91b8a	0.09038456
120	0xbb906637	-0.004406716
121	0x398d8d20	0.00026998762
122	0xbc4d569a	-0.012532854
123	0xbbcdb01c	-0.0062770974
124	0xbcf1e330	-0.029527277
125	0xbd100901	-0.035164837
126	0x3d5dd5b1	0.05415887
127	0xbd38c34e	-0.045108132
128	0xbd1b1957	-0.037865963
129	0x3d8fc8bd	0.0702071
130	0x3d34f174	0.04417558
131	0x3d59672d	0.05307691
132	0xbc147a23	-0.009062323
133	0xbd4118ed	-0.04714291
134	0x3cdf8502	0.027285103
135	0x3cedd567	0.029032422
136	0x3d5f733a	0.054553248
137	0xbbee3688	-0.007269684
138	0x3d6cb48a	0.057789363
139	0xbcc4a133	-0.024002647
140	0x3d058087	0.032593276
141	0xbcc6f404	-0.024286278
142	0x3d745aca	0.059656896
143	0x3d993863	0.07481458
144	0x3d83ed96	0.064418
145	0x3d967b1f	0.07347702
146	0xbd90af7a	-0.070647195
147	0xbcbd8ef8	-0.023139462
148	0x3d3daa16	0.046304785
149	0x3c9056d8	0.017619535
150	0x3d08fe92	0.033445902
151	0xbc5ba495	-0.013405939
152	0x3d3a8f9f	0.045547124
153	0xbd022f7c	-0.031783566
154	0x3daf73ff	0.085670464
155	0xbc8a9777	-0.016917927
156	0x3cf20705	0.029544363
157	0x3c9c1c37	0.019056423
158	0x3ce777eb	0.028255424
159	0x3cba1798	0.022716329
160	0x3d69665e	0.05698239
161	0xbd49b7df	-0.04924762
162	0xbd1b3269	-0.03788987
163	0x3c49c0d0	0.0123140365
164	0xbd157b9b	-0.036494832
165	0xbd36f96f	-0.044671472
166	0xbce05376	-0.027383547
167	0xbc3984b2	-0.011323141
168	0x3bd79f99	0.006580305
169	0xbc53aea8	-0.012920059
170	0xbd805f71	-0.06268204
171	0xbd0f8b45	-0.035044927
172	0xbb9d8869	-0.004807521
173	0x3c329ac7	0.01090116
174	0x3d6560bc	0.056000456
175	0x3c857de6	0.016295385
176	0xbd5faf6e	-0.054610662
177	0x3c76c3c7	0.015061325
178	0xbabc90d1	-0.001438642
179	0xbd11d687	-0.03560498
180	0xb9a26939	-0.00030977445
181	0x3d9b5e99	0.075864024
182	0x3dacdafa	0.08440204
183	0x3c284010	0.01026918
184	0x3d15010d	0.036377955
185	0xbc580bcc	-0.013186406
186	0xbd1a7a7d	-0.03771447
187	0xbbab137e	-0.0052208295
188	0x3d476ed2	0.04868967
189	0x3dcbe384	0.099555045
190	0xbd34f3ab	-0.044177692
191	0xbd0d5dbc	-0.03451322
192	0xbcb45808	-0.022014633
193	0x3c91fc91	0.017820628
194	0xbd8eccc1	-0.069726475
195	0xbd5d8b05	-0.054087657
196	0x3c54eb89	0.012995609
197	0x3b0eb386	0.0021774485
198	0x3da46a45	0.08028082
199	0x3d44a468	0.048008353
200	0xbc0b06c1	-0.008485497
201	0x3c580d5b	0.013186778
202	0x3de75d91	0.11297143
203	0xbcc103b3	-0.023561334
204	0x3bfeb3ac	0.0077728834
205	0x3d2e01c5	0.042482156
206	0x3d6eb2ed	0.058276106
207	0xbcc138cc	-0.023586653
208	0xbc572efa	-0.013133759
209	0x3da9516f	0.08267485
210	0x3ca7d244	0.020486005
211	0xbd1567e8	-0.036476046
212	0x3d2e3f93	0.042541098
213	0xbcaa2176	-0.020767909
214	0xbd14eec5	-0.03636052
215	0x3c72f7b3	0.014829564
216	0x3d01e14c	0.031709
217	0x3cee58ef	0.029095141
218	0x3d6b0795	0.057380278
219	0xbccf0490	-0.02527073
220	0x3d62abfa	0.05533979
221	0xbca3a49f	-0.019975958
222	0x3d8a2762	0.06745793
223	0x3da13f6e	0.078734264
224	0xbd9f28b5	-0.07771436
225	0xbc02fdb6	-0.00799506
226	0xbd80474e	-0.062636
227	0x37a06d16	1.9124283e-05
228	0x3cd3aeb1	0.025840135
229	0x3ce94bb4	0.02847848
230	0xbd26d049	-0.04072598
231	0xbd9bc6c5	-0.07606272
232	0xbc95a79f	-0.018268405
233	0x3d07dbd5	0.033168633
234	0x3d4da795	0.050208647
235	0x3daf7573	0.085673235
236	0x3d4a933b	0.049456816
237	0x3c93c002	0.018035892
238	0xbc8a72b2	-0.016900394
239	0x3d1dbab3	0.03850813
240	0x3dad84e2	0.08472611
241	0xbd140843	-0.03614069
242	0x3d6dbd7e	0.058042042
243	0xbce1aef1	-0.027549239
244	0x3d9cc6c9	0.07655103
245	0xbd59bcd9	-0.053158615
246	0xbd16896c	-0.03675215
247	0x3d79ad32	0.060956188
248	0x3c77a06a	0.015113929
249	0xbd04f2a4	-0.032457963
250	0x3db4a49b	0.088204585
251	0xbd06f622	-0.032949574
252	0x3ce30213	0.02771095
253	0x3d63410a	0.055481948
254	0xbd18a566	-0.03726711
255	0x3d6d5514	0.057942465

weight f4 [256, 256]
0	0xbbc93cdc	-0.006141288
1	0xbd492cb7	-0.04911491
2	0x3c1cc7da	0.009569133
3	0xbc87ee22	-0.016593043
4	0xbd50b14c	-0.050950333
5	0x3d5d8b74	0.05408807
6	0xbd22e590	-0.03976971
7	0xbb9719d6	-0.004611234
8	0xbdbc15ab	-0.0918382
9	0x3d3269f9	0.043558095
10	0xbd25c011	-0.040466372
11	0xbbb29b6b	-0.005450656
12	0xbbb8e8ee	-0.0056430018
13	0xbbcdbb44	-0.0062784273
14	0x3d3d7a5b	0.046259265
15	0xbd3dc5f3	-0.046331357
16	0xbc7c8b0c	-0.015414011
17	0x3d67bc3c	0.056576
18	0xbe2f4bfb	-0.17118828
19	0x3d966d17	0.07345026
20	0xbce12a04	-0.027485855
21	0x3c36e913	0.011163968
22	0xbd8be314	-0.06830421
23	0x3c7374bb	0.014859374
24	0xb7a0311f	-1.909636e-05
25	0xbda43989	-0.080187865
26	0xba893577	-0.0010468204
27	0xbd75d276	-0.060015164
28	0xbd8642d6	-0.06555717
29	0xbb5709f2	-0.0032812324
30	0x3d022235	0.031770904
31	0x3c896f03	0.016776567
32	0xbd372dcf	-0.04472142
33	0xbc0d08a7	-0.00860802
34	0x3c911f52	0.01771513
35	0x3b9eac4c	0.0048423167
36	0xbd23d3b3	-0.039996814
37	0xbdb45f27	-0.08807211
38	0x3d90a591	0.07062829
39	0xbddb7dbc	-0.10717341
40	0xbcaccd04	-0.021093853
41	0x3d7a5d77	0.06112429
42	0xbce0b2b5	-0.027428964
43	0xbd40a89c	-0.0470358
44	0x3d8246a7	0.06361132
45	0xbcb8e728	-0.022571161
46	0xbc1f9ea0	-0.009742409
47	0xbcd6460d	-0.02615645
48	0x3d66ab03	0.056315433
49	0xbd6a3ff8	-0.05718991
50	0xbd4faaff	-0.050700184
51	0x3d1d5ab3	0.038416576
52	0xbddf6925	-0.109087266
53	0x3ca57886	0.020199072
54	0xbcd5d43b	-0.026102176
55	0xbdd59167	-0.10428124
56	0xbc956e6b	-0.018241128
57	0x3bb133bb	0.005407778
58	0xbd0280e8	-0.031861216
59	0x3c43fe62	0.011962505
60	0x3ca3ca5e	0.019993957
61	0x3d139138	0.036027163
62	0x3d90f2f2	0.07077588
63	0xbd54a51e	-0.05191528
64	0xbd44f0b1	-0.048081104
65	0x3c9880ec	0.018616162
66	0xbda4527b	-0.080235444
67	0x3d0fc209	0.035097156
68	0xbcbaf331	-0.02282104
69	0xbc1bcc50	-0.009509161
70	0xbd8cf8c0	-0.06883383
71	0x3cd4368d	0.025904918
72	0xbd835717	-0.064130954
73	0xbdb9e43a	-0.09076734
74	0xbd8f6098	-0.07000846
75	0x3d3b2a82	0.045694835
76	0xbc091f89	-0.008369335
77	0x3da560f3	0.08075132
78	0xbcb10b10	-0.02161172
79	0xbdb1e956	-0.086870834
80	0x3d3a2b41	0.045451406
81	0x3dceb640	0.10093355
82	0x3d2a5a2e	0.04158991
83	0xbce5fed1	-0.028075607
84	0xbcb6d4e0	-0.022318304
85	0xbc5c4a1f	-0.013445406
86	0xbd0af921	-0.033928994
87	0xbc005747	-0.007833309
88	0xbd394be4	-0.04523839
89	0x3c13b614	0.009015579
90	0x3d02d1ae	0.031938247
91	0xbd93b45b	-0.072121345
92	0x3ca2c85f	0.019870935
93	0xbcbd06ff	-0.023074625
94	0x3c08eb75	0.008356919
95	0xbcc09805	-0.023509989
96	0x3bfcebf7	0.007718559
97	0x3da1d8fa	0.07902713
98	0x3d8ebe0d	0.06969843
99	0xbd4cae6b	-0.049971025
100	0xbd074143	-0.033021223
101	0x3d358cd3	0.044323754
102	0xbc651ece	-0.013984395
103	0x3d0cec83	0.034405243
104	0xbb36a6c8	-0.0027870405
105	0x3d56d461	0.052448634
106	0xbdb73fd5	-0.08947722
107	0x3d236623	0.039892327
108	0x3baa731b	0.00520171
109	0x3cf311bf	0.029671548
110	0x3d8f079d	0.06983874
111	0xbd2c0bec	-0.042003557
112	0xbd8cb6e1	-0.06870819
113	0xbd1d17be	-0.03835272
114	0x3d4443ec	0.047916338
115	0xbd18700e	-0.03721624
116	0xbd18e663	-0.03732909
117	0xbd188a18	-0.03724107
118	0x3cc6cdd1	0.024268063
119	0x3b04aca4	0.0020244503
120	0x3c892193	0.016739642
121	0x3d297e8e	0.041380458
122	0xbd097f6e	-0.033568792
123	0x3cc43869	0.02395268
124	0xbd441a3a	-0.047876574
125	0x3c801d53	0.015638983
126	0xbe06684c	-0.13125724
127	0x3d600352	0.054690666
128	0xbd98b6ec	-0.074567646
129	0xbd70b96d	-0.058770586
130	0x3d2cd81a	0.042198278
131	0xbc9395ad	-0.018015707
132	0x3bcdf037	0.0062847394
133	0x3db57e42	0.088619724
134	0xbd7b587c	-0.061363682
135	0x3d118e39	0.035536025
136	0x3cf90f2f	0.030402748
137	0xbddbcac2	-0.10732032
138	0xbc59306b	-0.013256173
139	0x3b80cd3d	0.0039307163
140	0xbbfc9995	-0.007708738
141	0x3d7fe543	0.0624745
142	0xbd9f8e5a	-0.07790823
143	0xbda99a43	-0.08281376
144	0x3cdc4e33	0.026892757
145	0x3d2d123f	0.04225373
146	0x3c69e01a	0.014274621
147	0xbc49de71	-0.012321101
148	0x3ce7d44d	0.028299475
149	0x3ca7822a	0.02044781
150	0xbd811f12	-0.06304754
151	0xbd19c577	-0.037541833
152	0x3d430d5e	0.04762017
153	0x3d88282c	0.06648287
154	0xbdea80fe	-0.114503846
155	0x3bf1bf22	0.007377521
156	0xbdf41376	-0.119177744
157	0x3d722052	0.059112854
158	0xbd2a1337	-0.04152223
159	0xbde9f3d5	-0.114234604
160	0xbca21706	-0.019786369
161	0x3c310285	0.010803823
162	0xba77c7a5	-0.00094520516
163	0xbc7e1743	-0.015508476
164	0xbceadb3d	-0.028668994
165	0xbc0c2529	-0.008553782
166	0xbd67adb6	-0.056562148
167	0x3ba27ec3	0.004958959
168	0x3c837766	0.016048145
169	0x3c70a0eb	0.014686803
170	0xbc0684e8	-0.008210398
171	0xbcd33ca6	-0.025785755
172	0xbd7f0198	-0.06225738
173	0xbd312f54	-0.043258026
174	0x3a079d1d	0.0005173253
175	0xbc8c460f	-0.01712325
176	0x3b253f37	0.002521468
177	0xbd527b94	-0.051387385
178	0x3cc7f5e5	0.024409244
179	0x3cc3f362	0.023919765
180	0x3c9b2317	0.01893763
181	0xbd2c2ee4	-0.042036906
182	0xbcd32f2a	-0.025779326
183	0xbdaa7f98	-0.08325118
184	0x3d051603	0.032491695
185	0x3cfcef0c	0.030875705
186	0xbd9636b1	-0.0733465
187	0xbd405ce5	-0.04696359
188	0xbd87b5fd	-0.066265084
189	0xbc8ea89b	-0.017414382
190	0xbb5be186	-0.003355117
191	0x3bfcd177	0.0077154
192	0x3d2a06d3	0.041510414
193	0x3cf7d230	0.030251592
194	0x3ce07358	0.02739875
195	0x3ca31e46	0.019911896
196	0xbcbd21e0	-0.023087442
197	0xbc8b8405	-0.017030725
198	0x3d53b514	0.05168636
199	0x3c3fa162	0.0116961915
200	0x3d55cfba	0.052200057
201	0xbbb4e336	-0.0055202497
202	0x3c929651	0.017893942
203	0xbab32d39	-0.0013670094
204	0xbc8a8359	-0.016908335
205	0xbdc8ca84	-0.09804252
206	0x3d8bc289	0.06824214
207	0xbcb15bfd	-0.021650309
208	0x3a88013f	0.0010376348
209	0xbda01b1a	-0.07817669
210	0x3d4c0eb7	0.04981872
211	0xbd343546	-0.043996118
212	0xbe00a9a2	-0.1256471
213	0x3d3cb827	0.04607406
214	0x3d2cc2be	0.042177908
215	0x3d570921	0.05249894
216	0x3d1dbf5b	0.03851257
217	0x3c1318ae	0.008978052
218	0x3d90fc5f	0.07079386
219	0x3d78fca5	0.060787816
220	0x3d80ebfc	0.062950104
221	0x3df425ac	0.11921248
222	0xbcd2de22	-0.025740687
223	0xbc5b13f9	-0.013371461
224	0x3c7c4893	0.015398162
225	0xbd87063f	-0.06592988
226	0xbc7a41ed	-0.015274507
227	0x3d6f6cb1	0.058453266
228	0xbd77722b	-0.060411613
229	0xbc722c35	-0.014781048
230	0xbd0a34d0	-0.033741772
231	0x3bfbb75e	0.007681771
232	0x3d783ffe	0.060607903
233	0xbd74e27f	-0.059786316
234	0x3dc0fac8	0.09422833
235	0x3d4bbe45	0.049742002
236	0xbcf9e60b	-0.0305052
237	0xbbe3f028	-0.006956119
238	0x3c5a40dc	0.013321128
239	0xbd15920d	-0.036516238
240	0xbd4ce139	-0.050019477
241	0xbcf5ece6	-0.030020189
242	0xbcd44151	-0.025910052
243	0x3b6f0c56	0.0036475859
244	0x3ddf77e7	0.109115414
245	0xbbcf2d8f	-0.0063225697
246	0x3b055d8e	0.0020349952
247	0x3de74aa6	0.11293535
248	0xbdd1f181	-0.10251141
249	0xbd7c7fdc	-0.061645374
250	0xbd5f6bf6	-0.05454632
251	0x3d367b7b	0.044551354
252	0xbcbd629c	-0.02311831
253	0xbca930e2	-0.020653192
254	0xbcaafe95	-0.020873347
255	0x3bc815f1	0.0061061312

bias f4 [256]
0	0x3d59def2	0.053191133
1	0xbcaf937f	-0.021432636
2	0x3bcbdc4d	0.0062213303
3	0xbcd0bb3c	-0.025479905
4	0xbcfc7b05	-0.030820379
5	0xbc73ce76	-0.014880767
6	0x3d0b90b7	0.034073558
7	0x3c831005	0.01599885
8	0xbd0b1d00	-0.033963203
9	0xbd4d3ce1	-0.050106887
10	0x3cea0d2a	0.02857073
11	0xbcb1d132	-0.021706197
12	0x3cc071fc	0.023491852
13	0xbc992459	-0.01869409
14	0x3d230e35	0.03980847
15	0xbcecd805	-0.0289116
16	0x3d614d5d	0.05500542
17	0x3cecdcba	0.028913844
18	0xbd0308fc	-0.03199099
19	0xbc97a54e	-0.01851144
20	0x3d1dbd10	0.038510382
21	0x3d3894a2	0.045063622
22	0x3d6a9f19	0.057280634
23	0x3d405671	0.046957437
24	0x3c71d252	0.014759617
25	0xbbd4a4f3	-0.00648939
26	0x3d1dd685	0.03853466
27	0xbb3cec40	-0.002882734
28	0x3ba9a962	0.0051776627
29	0xbd228abd	-0.039683092
30	0x3cedf9aa	0.029049713
31	0x3c0f34d4	0.008740623
32	0x3c93687b	0.017994156
33	0xbcb95dd9	-0.022627758
34	0x3ccf0c41	0.025274398
35	0x3ce88855	0.02838532
36	0x3d4f437e	0.050601475
37	0x3d0b700f	0.034042414
38	0x3d9e6a32	0.07735099
39	0xbc592f1c	-0.013255861
40	0x3d89e188	0.0673247
41	0x3dadf653	0.08494248
42	0xbd1806b7	-0.03711578
43	0x3c9ff970	0.01952812
44	0xbccab733	-0.02474556
45	0x3b6c427f	0.0036050377
46	0x3b973a31	0.0046150913
47	0xbc4bbf8d	-0.012435806
48	0x3d945712	0.0724317
49	0x3ca55fa7	0.020187212
50	0x3db8479d	0.08998034
51	0xbc525bb9	-0.012839251
52	0x3bba8791	0.0056924303
53	0x3d256752	0.040381737
54	0xbb941692	-0.004519292
55	0xbca4571d	-0.02006107
56	0xbc01fab1	-0.007933305
57	0x3d11e14d	0.035615254
58	0x3c9e5a82	0.019330267
59	0x3cccfed0	0.025023848
60	0x3d17dd23	0.037076127
61	0x3cd0a53f	0.02546942
62	0xbc8e73f4	-0.017389275
63	0x3cde60a4	0.027145691
64	0xbc6dc065	-0.014511202
65	0x3b92ed55	0.0044838586
66	0x3d686e02	0.056745537
67	0xbd035dc9	-0.032071862
68	0x3cbaa9f0	0.02278611
69	0xbccde008	-0.02513124
70	0x3be98978	0.0071269833
71	0x3cbe0410	0.023195297
72	0x3b6ceae9	0.003615076
73	0xbd26087e	-0.040535443
74	0xbbbd5be1	-0.005778775
75	0xbc5009ca	-0.012697646
76	0x3d3c9c85	0.046047706
77	0x3da13c23	0.07872798
78	0xbbd4b178	-0.0064908825
79	0x3d25c7fd	0.040473927
80	0xbc335483	-0.010945442
81	0x3b83a9cd	0.0040180446
82	0x3d37fcdf	0.04491889
83	0x3d0429ab	0.0322663
84	0xbcfe455a	-0.031038929
85	0x3d5bf23f	0.05369782
86	0x3cfe23fc	0.031023018
87	0x3c5221f3	0.012825477
88	0x3d6a6e1f	0.057233926
89	0x3d81024e	0.06299268
90	0x3c2d6f00	0.0105855465
91	0x3d814527	0.06312018
92	0x3d0096e4	0.0313939
93	0x3d086fca	0.033309735
94	0x3d7ac2bc	0.06122087
95	0xbc8eaed0	-0.017417341
96	0x3d55cc9b	0.05219708
97	0x3b80a9d8	0.003926497
98	0x3c611121	0.013736994
99	0x3d84a736	0.064772055
100	0x3ce1f7bb	0.027583947
101	0x3d60bde6	0.0548686
102	0xbcf0c39a	-0.029390145
103	0xbc2b01a2	-0.010437401
104	0x3c764c5e	0.015032856
105	0x3d5d9935	0.054101188
106	0xbc0dbdc8	-0.008651204
107	0xbb31e300	-0.002714336
108	0x3d93acb1	0.07210673
109	0xbd08db76	-0.03341242
110	0x3bef9eda	0.0073126378
111	0xbc72f707	-0.014829404
112	0x3c86a948	0.016438141
113	0x3b5abb41	0.0033375772
114	0xbc1d731a	-0.009609962
115	0xbc603ff4	-0.013687123
116	0x3dc5bcfb	0.09655186
117	0x3d1cc96a	0.03827802
118	0x3ca061d7	0.019577904
119	0x3c5f1c9e	0.013617663
120	0x3d43d590	0.04781109
121	0x3cfc4636	0.030795198
122	0x3bf0d18e	0.0073491996
123	0x3c808478	0.015688166
124	0xbcfb536a	-0.030679423
125	0x3d1f92ac	0.038958237
126	0x3cb65fa7	0.022262407
127	0x3d7b129f	0.061297055
128	0xbcfbc05c	-0.030731373
129	0xbc3b8ead	-0.011447591
130	0x3d6a16ed	0.05715077
131	0x3d4b4341	0.049624685
132	0x3c8dfc59	0.017332243
133	0xbc263f9e	-0.010147003
134	0x3cf8ebe2	0.030385915
135	0xbd3dff6f	-0.04638618
136	0xbc3c7740	-0.011503041
137	0xbc961b0a	-0.01832344
138	0xbce6014e	-0.028076794
139	0xbd05bec8	-0.032652646
140	0xbb75bf81	-0.0037498178
141	0x3cc018ec	0.023449384
142	0xbcfca5e7	-0.030840827
143	0x3db0b42f	0.08628117
144	0x3d75fc51	0.06005508
145	0xbc4a412f	-0.012344643
146	0xbdb0c32f	-0.08630978
147	0x3d9dc15f	0.07702898
148	0xbd309250	-0.043108284
149	0x3ce8934c	0.02839055
150	0xbc15abc6	-0.009135192
151	0xbce0802b	-0.027404865
152	0x3ccf5ae4	0.025311895
153	0x3bcc90be	0.0062428406
154	0xbd4ae56d	-0.049535204
155	0x3d0166f9	0.031592343
156	0x3d382942	0.04496122
157	0xbcce8f25	-0.025214741
158	0x3cfddd2b	0.03098925
159	0x3b99c541	0.004692704
160	0x3d8016e9	0.0625437
161	0x3c66eb9e	0.014094261
162	0x3cfb5d56	0.030684154
163	0x3ca00247	0.019532336
164	0xbc1b2423	-0.009469065
165	0xbd547ecc	-0.051878735
166	0xba87f751	-0.0010373389
167	0xbca85bf5	-0.020551661
168	0x3db3c975	0.08778659
169	0xbd01efc3	-0.031722795
170	0x3d076be8	0.03306189
171	0xbd088409	-0.033329044
172	0xbd2236f9	-0.039603207
173	0x3d68121e	0.056657903
174	0xbd24b881	-0.04021502
175	0x3c4d49da	0.012529815
176	0x3ce03251	0.027367743
177	0xbca66d1b	-0.020315697
178	0x3d20b66a	0.039236464
179	0x3c926e95	0.017874995
180	0x3d073b57	0.033015575
181	0x39f46468	0.00046614115
182	0xbc40da24	-0.011770759
183	0x3d208ef9	0.03919885
184	0x3cf2d671	0.02964327
185	0x3d1eb691	0.038748328
186	0x3dc706d1	0.09718097
187	0x3d2edccb	0.042691033
188	0xbd26f0cd	-0.04075699
189	0xbc1c576d	-0.009542328
190	0xbcb53f01	-0.02212477
191	0xbd26e635	-0.040746886
192	0x3d58877d	0.052863587
193	0x3cf07770	0.029353827
194	0x3cef06c8	0.029178038
195	0x3d2a8e17	0.041639414
196	0xbd9332a0	-0.0718739
197	0xbc9c1ecf	-0.01905766
198	0xbb8f7204	-0.0043776054
199	0xbc9aa3b5	-0.01887689
200	0xbd21540b	-0.03938679
201	0xbb3ffb28	-0.0029293988
202	0xbcb1f267	-0.021722032
203	0xbd4835bc	-0.04887937
204	0xbd12aa75	-0.03580709
205	0xbb7db17b	-0.0038710523
206	0x3cc24923	0.023716515
207	0xbd5c8ab3	-0.05384321
208	0xbbd67b45	-0.0065454566
209	0xbc89023a	-0.016724695
210	0x3d6507d3	0.055915665
211	0xbd0fdd8f	-0.035123404
212	0x3a1b6919	0.00059284415
213	0x3bb9566c	0.0056560542
214	0x3c63e11c	0.013908651
215	0xbac0be2c	-0.0014705113
216	0x3c56c5b7	0.013108662
217	0x3d849f55	0.06475703
218	0x3c99ec90	0.01878956
219	0x3db708db	0.08937236
220	0x3d2c8130	0.04211539
221	0x3b9d7f10	0.004806407
222	0x3b89729d	0.004194571
223	0x3cd7d66d	0.026347363
224	0x3d417da2	0.047238953
225	0x3d6ff811	0.058586184
226	0x3ce005e0	0.027346551
227	0xbcf8d245	-0.030373702
228	0xbd59f3a8	-0.053210884
229	0x3bb77619	0.005598795
230	0x3b92045c	0.004456086
231	0xbcfeab14	-0.031087436
232	0x3c9e4b6c	0.019323073
233	0xbccb4820	-0.024814665
234	0xbcbbb5b7	-0.022913797
235	0x3d2081f0	0.039186418
236	0x3d4da5f1	0.050207082
237	0x3b8d5975	0.0043136426
238	0x3b8282e7	0.00398289
239	0x3ce2347f	0.027612923
240	0x3d9dfce9	0.077142544
241	0x3cf9cfa1	0.030494513
242	0xbb3c6db0	-0.0028751902
243	0xbd057839	-0.032585356
244	0xbd24f9e4	-0.040277377
245	0xbc2f6d6f	-0.010707243
246	0x3cc687be	0.024234649
247	0x3d9f6d09	0.07784469
248	0x3da5a3e6	0.08087902
249	0xbd45e197	-0.048310842
250	0x3ce2f841	0.027706267
251	0x3d61bb56	0.055110298
252	0x3b8395d1	0.0040156622
253	0x3d9be103	0.07611277
254	0xbb7a175e	-0.00381609
255	0xbd534f53	-0.05158932

weight f4 [256, 256]
0	0xbd61812d	-0.055054832
1	0xbb1c0e4a	-0.0023812228
2	0xbcf1fcd8	-0.02953951
3	0xbd03ca2c	-0.032175228
4	0x3ce67741	0.028133037
5	0x3c691a12	0.014227407
6	0x3cf15f13	0.02946428
7	0xbcb81599	-0.022471236
8	0xbc8d98a6	-0.017284703
9	0xbc73b8b9	-0.014875584
10	0x3c1e7000	0.009670258
11	0xbd0e44ff	-0.03473377
12	0x3d706871	0.058693353
13	0xbc1f19f8	-0.009710781
14	0x3ce744ba	0.028231014
15	0xbb1f20fd	-0.0024281137
16	0x3ca8a5a6	0.0205868
17	0x3caeaff0	0.021324128
18	0x3c723082	0.014782073
19	0xbcb0d968	-0.021588042
20	0xbae99b3b	-0.0017822752
21	0x3c893b1b	0.016751816
22	0xbc8f9802	-0.017528538
23	0x3cf018c5	0.029308686
24	0xbc1e88e7	-0.009676195
25	0xbd2f55be	-0.04280638
26	0x39c5e015	0.00037741722
27	0xb9913163	-0.0002769335
28	0x3d1718dd	0.036888946
29	0xbc4331ce	-0.01191373
30	0x3c970b0e	0.018437888
31	0xbc723f5f	-0.014785617
32	0xbc76e638	-0.015069537
33	0x3b7de7b2	0.0038742837
34	0xbcbe98c1	-0.023266198
35	0xbbecd9e6	-0.007228124
36	0x3cb10301	0.021607878
37	0x3c1acdb4	0.0094484575
38	0x3d592363	0.053012263
39	0xbc6b0dad	-0.014346522
40	0x3cffabcc	0.031209849
41	0x3d3a05d5	0.045415718
42	0x3c835d13	0.016035592
43	0xbc240da8	-0.0100130215
44	0x3b3d8ae1	0.002892189
45	0xbc582afb	-0.013193841
46	0xbd0d61ef	-0.034517225
47	0x3c8b2736	0.01698647
48	0x3d1d8c4e	0.038463883
49	0x3c56a101	0.01309991
50	0x3d3ba41a	0.045810796
51	0x3d293cf5	0.0413179
52	0xbbe7321f	-0.0070555354
53	0xbc12fc78	-0.008971326
54	0x3ccd1d6d	0.025038445
55	0x3c130cba	0.008975202
56	0x3c0d9558	0.008641563
57	0xbb9d41c2	-0.0047990987
58	0x3cc22990	0.02370146
59	0xbce9ccab	-0.028539976
60	0xbc024615	-0.007951279
61	0xbc89012f	-0.016724197
62	0xbca8733d	-0.020562762
63	0x3c4f183a	0.012640053
64	0xbcac333b	-0.021020522
65	0xbb1aeea1	-0.002364077
66	0x3cd1761f	0.02556902
67	0x3c9bb264	0.019005962
68	0xb809fd6b	-3.289936e-05
69	0xbaedf398	-0.0018154262
70	0x3b717ce4	0.0036848122
71	0xbd14e3fd	-0.03635024
72	0xbb2f9389	-0.0026790819
73	0x3cea3e89	0.028594272
74	0xbca3954b	-0.01996865
75	0xbbf14005	-0.007362368
76	0x3cb9a79b	0.022662928
77	0x3c958f34	0.018256761
78	0x3c6cb95d	0.014448491
79	0x3cad2d99	0.021139907
80	0xbcebce49	-0.028784888
81	0xbd077007	-0.033065822
82	0xbc1def9f	-0.00963965
83	0x3a07c888	0.0005179723
84	0xbba65dc2	-0.005077095
85	0xbcc19411	-0.023630174
86	0x3b2e7701	0.0026621225
87	0xbc998114	-0.018738307
88	0x3b78f9f0	0.0037990771
89	0x3ca2dd7f	0.019881008
90	0x3d03537e	0.032062046
91	0xbc322fc8	-0.01087565
92	0x3d55da60	0.05221021
93	0xbcb72e0f	-0.02236083
94	0xbd171b7c	-0.036891446
95	0xbc24511a	-0.010029102
96	0x3d047a36	0.032343112
97	0xbd1a27c1	-0.03763557
98	0xbc0b5794	-0.008504767
99	0x3d3ead2d	0.046551872
100	0xbc9c87e2	-0.019107763
101	0x3d1de1bf	0.038545366
102	0x3c5ab123	0.013347897
103	0xbb8d9c2a	-0.0043215947
104	0x3bb49d17	0.0055118906
105	0xbcb84057	-0.022491617
106	0x3bd26ef6	0.006421919
107	0xbc4af61f	-0.012387781
108	0x3c6fed5a	0.014643991
109	0xbc2036a5	-0.009778653
110	0x3d4b9f28	0.04971233
111	0xbc4ac9b5	-0.012377192
112	0xbc750e46	-0.014957016
113	0xbca4d599	-0.020121383
114	0xbc156b36	-0.009119799
115	0x3cea1bb6	0.028577667
116	0x3c63f65e	0.013913719
117	0x3cbf2c7d	0.023336643
118	0x3d3e1c7b	0.04641388
119	0x3cf8c5ce	0.030367758
120	0x3c4dc30e	0.012558712
121	0x3ced0958	0.02893512
122	0xbc4a1790	-0.012334719
123	0xbbf5e205	-0.0075037503
124	0xbdad3486	-0.08457284
125	0xbcb6f9ea	-0.022335965
126	0x3bea7b1e	0.00715579
127	0x3d46baaa	0.04851786
128	0xbce9c56e	-0.028536525
129	0x3d0c5fe6	0.034271143
130	0xbb0f545e	-0.0021870355
131	0xbbfb6f7f	-0.0076732035
132	0x3c9e575d	0.019328767
133	0x3c89db0e	0.016828086
134	0x3d6360bb	0.05551217
135	0xbcdf4365	-0.027253816
136	0xbcff2ee3	-0.031150287
137	0x3bf9814f	0.0076142917
138	0xbcd15825	-0.025554726
139	0x3bf3b792	0.007437655
140	0x3b0b835c	0.0021288013
141	0xbc4ac342	-0.012375655
142	0x3cf60367	0.03003092
143	0x3cf8f744	0.030391343
144	0x3c47354f	0.012158706
145	0x3d720290	0.059084475
146	0xbbf3bb14	-0.007438073
147	0xbca4fb12	-0.02013925
148	0xbc259eda	-0.010108674
149	0xb9b8a576	-0.00035218493
150	0x3d12accf	0.035809334
151	0xb8d3406a	-0.00010073262
152	0xbc8c2101	-0.017105581
153	0x3c80a1cf	0.015702156
154	0x3c121cb5	0.008917977
155	0xb99d3769	-0.00029986657
156	0xbc2346ed	-0.0099656405
157	0x3cbfa999	0.0233963
158	0xbb8c6a2f	-0.004285119
159	0x3c08bf39	0.008346372
160	0x3c988a51	0.018620642
161	0x3cfa26ce	0.030536082
162	0x3c54528c	0.012959134
163	0x3ca739b0	0.02041325
164	0xbb0615b2	-0.0020459709
165	0x3c50983f	0.012731611
166	0xbc3c682e	-0.011499448
167	0xbcd67c66	-0.026182365
168	0x3caf8f35	0.021430591
169	0x3b7e1917	0.003877228
170	0xbc745de2	-0.0149149615
171	0xbb275df3	-0.0025538176
172	0x3c25b624	0.0101142265
173	0x3cb52cb5	0.022116045
174	0xbcb313e6	-0.021860074
175	0x3b0ef5c9	0.002181398
176	0xbc3f0142	-0.011658015
177	0xbc5708a6	-0.013124621
178	0xbc517ab1	-0.0127856
179	0xbb86c875	-0.004113252
180	0xba3197d8	-0.00067746406
181	0x3c427f46	0.011871165
182	0x3d6a2a29	0.057169113
183	0xbc1573d5	-0.009121855
184	0xbbd5575d	-0.0065106587
185	0x3b4d2383	0.0031301684
186	0xbc19eeec	-0.009395342
187	0xbc73f485	-0.014889841
188	0xbd32caf4	-0.043650582
189	0x3c4a03e5	0.01233003
190	0x3aa6b491	0.0012718608
191	0xbc4e52f5	-0.012593021
192	0xbcd14210	-0.025544196
193	0xbcb77f52	-0.022399578
194	0x39d21c7a	0.00040075538
195	0xbd1cab0e	-0.038249068
196	0xbd17c30a	-0.037051238
197	0xbcbda405	-0.0231495
198	0x3c679da3	0.014136705
199	0x3ccd0b78	0.025029883
200	0xbd0f9c80	-0.03506136
201	0xbb8b3c27	-0.004249114
202	0xbc68f12e	-0.014217658
203	0x3c53ac74	0.012919534
204	0x3d0279fb	0.03185461
205	0x3d0e8e2d	0.03480356
206	0x3d0c7a95	0.03429659
207	0xbd0e7181	-0.034776215
208	0x3c18d2bf	0.0093275895
209	0xbcb08d3e	-0.021551725
210	0x3cc3cf6e	0.023902621
211	0x3b104d4f	0.0022018736
212	0x3c3f4b5a	0.01167568
213	0x3c9c6dd3	0.019095337
214	0x3b5e731f	0.003394313
215	0xbcea41f5	-0.028595904
216	0xbd058fa9	-0.032607708
217	0x3cc055d9	0.023478435
218	0x39953cf4	0.00028464908
219	0x3daf8e65	0.085720815
220	0x3c6025f8	0.013680927
221	0x3d1b4d7d	0.037915695
222	0x3d10f723	0.035391938
223	0x3d3a7d79	0.045529816
224	0xbc8f86ab	-0.01752027
225	0xbab3d465	-0.0013719915
226	0xbc94df71	-0.018172951
227	0xbcba2f1e	-0.022727545
228	0xbd1192e2	-0.03554047
229	0xbd173bfb	-0.036922436
230	0xbc97f224	-0.018548079
231	0x3d166e40	0.036726236
232	0xbce868f7	-0.028370364
233	0x3cf63a85	0.030057201
234	0xbcbc4021	-0.022979798
235	0xbca359ae	-0.019940224
236	0x3cbbd10e	0.022926833
237	0xbc9e19b0	-0.019299358
238	0xbc251909	-0.01007677
239	0x3b9e654f	0.0048338543
240	0x3b2f96d1	0.0026792774
241	0x3d456ba6	0.048198365
242	0x3afae59a	0.0019141913
243	0xbb7162c6	-0.0036832555
244	0x3cbaf5ee	0.022822347
245	0x3c0b3b4f	0.008498027
246	0x3ca42d99	0.020041274
247	0x3c7912a4	0.015202198
248	0x3d7633fc	0.06010817
249	0x3b746da0	0.0037296787
250	0xbcd733e8	-0.026269868
251	0xbc9489c0	-0.01813209
252	0xbc80530e	-0.015664604
253	0xbc09e5a1	-0.008416564
254	0xbcdddd79	-0.027083145
255	0xbccf9b0e	-0.02534249

bias f4 [256]
0	0x3c17c91c	0.009264257
1	0xbc86591b	-0.01639991
2	0xbd4eb856	-0.050468765
3	0xbd3b8403	-0.045780193
4	0xbba98270	-0.00517302
5	0x3a2dba10	0.0006627152
6	0xbc5f1a47	-0.013617105
7	0xbd6a06ef	-0.05713552
8	0x3d454a20	0.048166394
9	0xbcc1ad62	-0.023642246
10	0x3d0625a7	0.03275075
11	0x3c3452dc	0.011006083
12	0x3dd26403	0.10272982
13	0xbb3a3e88	-0.002841862
14	0xbca23303	-0.019799715
15	0x3d8f92ce	0.07010423
16	0xbd006a61	-0.03135145
17	0x3d5594f1	0.052143995
18	0x3d868a53	0.06569352
19	0xbcada289	-0.021195667
20	0xbd255405	-0.04036333
21	0xbcecdc93	-0.028913772
22	0xbb815be1	-0.0039477204
23	0x3d0dfd30	0.034665287
24	0x3b8831ea	0.004156341
25	0x3cf82b4d	0.030294085
26	0x3d913879	0.070908494
27	0xbc9f4c91	-0.01944569
28	0x3d72f609	0.05931667
29	0xbcab8e79	-0.02094196
30	0xbcad73b7	-0.021173341
31	0x3ba0d7a9	0.004908521
32	0x3cd4a6d8	0.025958464
33	0xbd816557	-0.06318157
34	0x3d1bf388	0.038074046
35	0x3b244646	0.00250663
36	0xbcda9992	-0.026684556
37	0xbbd86231	-0.006603502
38	0xbcb3a124	-0.021927424
39	0x3bf76b63	0.0075506433
40	0x3d30385c	0.0430225
41	0x3cf09ad9	0.029370712
42	0x3d3759d6	0.04476341
43	0x3cb933dc	0.022607736
44	0x3be60d69	0.0070206416
45	0xbbc98e03	-0.0061509623
46	0xbd796d11	-0.06089503
47	0xbc9d8f52	-0.01923338
48	0x3d3a51aa	0.045488037
49	0xbcf8cdaf	-0.030371515
50	0x3d174e67	0.036940005
51	0x3d90b6b5	0.070660986
52	0x3b403766	0.0029329895
53	0xbc91c0a8	-0.017792061
54	0x3d0bb24e	0.03410559
55	0x3cc0e31f	0.0235458
56	0xbd155dd9	-0.036466453
57	0x3d025a94	0.031824663
58	0x3c149014	0.009067554
59	0x3c916a4b	0.01775088
60	0x3ae4bfb0	0.0017452147
61	0xbc414de6	-0.011798358
62	0x3d500e58	0.05079493
63	0x3cac4740	0.021030068
64	0x3d897f48	0.0671373
65	0x3d4e2c2c	0.050335094
66	0xbb2e3097	-0.0026579255
67	0x3cbd8d74	0.02313874
68	0x3d286dcc	0.041120335
69	0xbcc7567e	-0.024333235
70	0x3c0bb1e8	0.008526303
71	0x3d2a4a13	0.04157455
72	0x3c88f247	0.01671709
73	0xbd13c3d5	-0.03607543
74	0x3bf3dfa1	0.00744243
75	0xbcdd3ffb	-0.027008047
76	0xbd1f41aa	-0.03888098
77	0x3ddb9795	0.10722271
78	0x3d1c671a	0.038184263
79	0xbcd34906	-0.025791656
80	0x3c0d8312	0.008637207
81	0xbc102ee9	-0.008800247
82	0x3e02f996	0.12790522
83	0xbcbb7898	-0.022884652
84	0xbd1be416	-0.038059317
85	0x3cce58ff	0.025188921
86	0xbc59b803	-0.013288501
87	0x3d84522f	0.06460988
88	0xbcb36b72	-0.02190182
89	0xbb9fb811	-0.0048742373
90	0xbd81974b	-0.06327685
91	0x3d2776c1	0.040884737
92	0x3d4935d8	0.049123615
93	0x3c28d5c4	0.010304872
94	0x3aab588b	0.0013072653
95	0xbcb59fff	-0.022171019
96	0x3cc73a06	0.02431966
97	0x3b2ff1ed	0.002684708
98	0xbb431836	-0.002976907
99	0x3c9a4874	0.018833376
100	0x3d883673	0.0665101
101	0x3d8801de	0.06640981
102	0x3d2683f4	0.040653184
103	0x3be8cae4	0.0071042646
104	0xbd8df10c	-0.06930742
105	0xbd270b6f	-0.04078239
106	0x3d121ed7	0.035673942
107	0xbaad455b	-0.0013219522
108	0xbbc5aefb	-0.006032822
109	0x3d12111b	0.035660844
110	0x3c5c4442	0.013444008
111	0x3ce7602f	0.028244106
112	0xbd199d4d	-0.03750353
113	0xbc9fabef	-0.019491164
114	0x3cec70c9	0.028862374
115	0xbcf5301a	-0.029930163
116	0x3c1e64cd	0.0096675875
117	0x3d5b2e64	0.05351104
118	0xbd2239b8	-0.039605826
119	0x3c7853ea	0.015156725
120	0x3c29c8e8	0.010362841
121	0xba97dd0f	-0.0011586266
122	0x3cba2825	0.02272422
123	0x3bb628b1	0.00555905
124	0x3d59e6b3	0.053198528
125	0x3d5dd535	0.05415841
126	0x3993a234	0.00028158876
127	0x3b84e3c0	0.00405547
128	0xbd0d9499	-0.034565542
129	0xbcbe9a34	-0.02326689
130	0x3d818736	0.063246176
131	0x3bbcc982	0.0057613263
132	0xbcb222a7	-0.02174504
133	0x3d1c3c6d	0.038143564
134	0x3c8bce78	0.017066225
135	0x3c92b2fd	0.017907614
136	0xbbb90ade	-0.0056470474
137	0x3d9e5e42	0.07732822
138	0xbc092114	-0.008369703
139	0x3cacc710	0.021091014
140	0x3b04115e	0.0020151953
141	0xbc8762cb	-0.0165266
142	0xbc90d600	-0.017680168
143	0xbc766bb8	-0.015040331
144	0xbc319bf7	-0.010840408
145	0xbd4b2764	-0.049598113
146	0xbd1fef64	-0.03904666
147	0xbc0c7375	-0.008572449
148	0x3c69fbf8	0.014281265
149	0x3d1cc6e3	0.03827561
150	0x39be3bd0	0.00036284188
151	0x3d46a666	0.048498534
152	0xbcc83dc5	-0.024443517
153	0x3d32f79a	0.043693163
154	0x3beef58f	0.0072924565
155	0x3d169951	0.036767308
156	0x3d81fd3d	0.063471295
157	0xbcd7dc2d	-0.026350105
158	0xbc94285d	-0.018085653
159	0xbcad9d66	-0.021193217
160	0x3d5c3c15	0.053768236
161	0xbca01baf	-0.01954445
162	0xbc1c370d	-0.0095346095
163	0x3d820f41	0.06350566
164	0x3c9a2cef	0.018820254
165	0x3c890905	0.016727934
166	0x3d4ad666	0.049520873
167	0x3c8e3309	0.01735832
168	0xbd058899	-0.032600973
169	0xbd3f2653	-0.04666741
170	0xbd7bb4dc	-0.061451778
171	0x3caf9bba	0.02143656
172	0xbc6be2c2	-0.014397325
173	0xba5e1d37	-0.0008472981
174	0xbc295607	-0.010335452
175	0x3d459a80	0.048243046
176	0x3c9825fa	0.018572796
177	0x3c0fb340	0.008770764
178	0x3d4e96d0	0.050436795
179	0xbc8427b3	-0.016132211
180	0xbc3216d0	-0.010869697
181	0x3cb21a5c	0.021741085
182	0xbd4c8ca9	-0.04993883
183	0x3c2547fb	0.010087962
184	0xbcde8732	-0.027164076
185	0x3ca8e05e	0.0206148
186	0xbc9133eb	-0.017724952
187	0xbbb550a4	-0.0055332948
188	0x3cbf8b43	0.023381835
189	0x3d4e013e	0.050294153
190	0x3bccd93c	0.0062514823
191	0x3c866c71	0.01640913
192	0x3b82673d	0.003979592
193	0xbd67728d	-0.05650573
194	0xbce7fc6d	-0.028318608
195	0x3d4059f3	0.046960782
196	0x3d00ec4d	0.031475354
197	0xbcfbf2a1	-0.030755343
198	0x3d09fc06	0.033687614
199	0xbc24b12b	-0.010052006
200	0x3d10de82	0.03536845
201	0xbd3889e3	-0.045053374
202	0xbcdceb4b	-0.026967665
203	0x3c99fa5c	0.018796138
204	0x3ccb0afa	0.024785507
205	0xbc67724a	-0.01412637
206	0xbd1c5e6b	-0.03817598
207	0x3c8ba1af	0.01704487
208	0x3ca84260	0.020539463
209	0x3ccd8da6	0.025091957
210	0x3d0ed16b	0.034867685
211	0x3cc18adb	0.023625782
212	0xbaec6c86	-0.0018037714
213	0xbc2aa7f1	-0.010416017
214	0x3d4767c4	0.048682943
215	0x3ca1f461	0.01976985
216	0x3bad0c42	0.0052810023
217	0x3d4068f7	0.046975102
218	0xbc8d0c64	-0.017217822
219	0xbd070d56	-0.032971703
220	0x3c0be1f8	0.008537762
221	0x3c3faf6e	0.011699541
222	0x3d148c79	0.036266778
223	0xbc67f52c	-0.014157575
224	0x3cc62a12	0.024189983
225	0xbcf5dc0a	-0.03001215
226	0x3d031209	0.03199962
227	0xbc153eb6	-0.00910919
228	0x3c253f4b	0.010085891
229	0x3d5adce1	0.053433303
230	0x3cd727c7	0.026264085
231	0xbd0fd635	-0.035116393
232	0xbcc85b68	-0.024457648
233	0xbd065e6d	-0.032804895
234	0xbd71e22a	-0.059053577
235	0x3ca6587f	0.02030587
236	0xbad0fae0	-0.0015943907
237	0xbb3c33c6	-0.0028717383
238	0x3ce730fd	0.028221602
239	0x3b8f2c15	0.0043692687
240	0x3c80c209	0.015717523
241	0xbc1c51e3	-0.009541008
242	0x3ca2d45f	0.019876657
243	0x3cb38071	0.021911832
244	0x3d088b3d	0.033335913
245	0x3d955693	0.07291903
246	0x3b82a2c2	0.0039866874
247	0xbcec4a5c	-0.028844051
248	0x3d2cd75c	0.04219757
249	0xbd11247a	-0.035435177
250	0x3bef9f12	0.007312664
251	0xbcc77afd	-0.024350638
252	0xbc839ede	-0.016066965
253	0xbd14537e	-0.036212437
254	0xbc90a069	-0.017654615
255	0x3d34be0b	0.04412655

weight f4 [128, 256]
0	0x3c87afab	0.016563257
1	0x3cf7e2b6	0.030259471
2	0xbc359dfe	-0.011085032
3	0xbd0c4fbb	-0.034255724
4	0x3c36ee56	0.011165222
5	0xbd2a3df5	-0.041562993
6	0x3c978a97	0.018498702
7	0xbc45e569	-0.012078621
8	0xbdae93ad	-0.08524261
9	0xbd1495a2	-0.036275513
10	0xbbb08cd3	-0.0053878813
11	0xbc118761	-0.0088823745
12	0x3d026181	0.03183127
13	0x3c0757d1	0.008260683
14	0xbd251f74	-0.0403132
15	0xbd9f6da1	-0.07784582
16	0xbb4994bf	-0.0030758826
17	0xbc35f940	-0.011106789
18	0x3d61bb64	0.05511035
19	0xbcfbe970	-0.03075096
20	0xbc88da95	-0.01670579
21	0xbd292404	-0.041294113
22	0xbcae7aaf	-0.021298734
23	0x3d6e3ab0	0.058161438
24	0x3c879b14	0.01655344
25	0x3b71d3da	0.0036899955
26	0x3d53d967	0.051721003
27	0xbca1d936	-0.019756895
28	0x3ca0c6bb	0.019626012
29	0x3c3eac29	0.011637726
30	0xbd39a2ec	-0.04532139
31	0x3c751a39	0.014959865
32	0x3ca23ae8	0.01980348
33	0xbcb956fc	-0.022624485
34	0x3ceaf7fa	0.028682698
35	0xbc910655	-0.017703215
36	0xb88ea806	-6.8023845e-05
37	0x39c3c8b5	0.00037342837
38	0x3d02a597	0.0318962
39	0x3cc619ca	0.024182219
40	0xbd4e5c84	-0.0503812
41	0x3c69b17d	0.014263508
42	0x3cf0c1b1	0.029389234
43	0x3cd68daf	0.026190607
44	0x3d3a2d05	0.04545309
45	0xbb68cb64	-0.003552162
46	0xbcaf3933	-0.02138958
47	0x3b453e59	0.0030096977
48	0x3cde4392	0.02713183
49	0x3be9da4a	0.007136618
50	0x3cb2f757	0.021846456
51	0xbc8c627c	-0.017136805
52	0x3b9c0239	0.004761007
53	0xbcda6859	-0.026661085
54	0x3afa6928	0.0019104825
55	0x3ca2a1a8	0.019852474
56	0xbb8e94c3	-0.00435123
57	0x3bfed6cf	0.007777072
58	0xbce5409a	-0.027984906
59	0xbd0991c4	-0.03358628
60	0x3cbedcee	0.023298707
61	0xbcc370ba	-0.023857463
62	0xbbbc54e1	-0.005747423
63	0xbc230e07	-0.009952075
64	0x3caf3105	0.021385679
65	0xbd9da079	-0.07696623
66	0x3c0d54c9	0.008626171
67	0x3d2c7371	0.04210228
68	0xbcbfad72	-0.023398135
69	0x3d3fd1f3	0.046831083
70	0xbd0d4ff0	-0.034500062
71	0xbc62d71e	-0.013845233
72	0xbdb2e836	-0.08735697
73	0xbd63809a	-0.055542566
74	0x3cad2b2a	0.021138746
75	0xbca2bb3b	-0.01986467
76	0x3c30b85a	0.01078614
77	0x3d86313d	0.0655236
78	0xbd2e717d	-0.0425887
79	0xbd53df2b	-0.0517265
80	0xbcf2484d	-0.029575491
81	0xbc803d04	-0.015654095
82	0x3dc36423	0.09540584
83	0xbd903407	-0.070411734
84	0x3b95aaec	0.0045674946
85	0xbbdea424	-0.0067944694
86	0x3d0bca4f	0.034128483
87	0xbc35a2ca	-0.011086175
88	0xbb2c856c	-0.0026324643
89	0x3cccd756	0.025005024
90	0xbc83332d	-0.016015613
91	0x3c0c8758	0.00857719
92	0x3d793cb3	0.060848903
93	0xbb372c16	-0.0027949861
94	0x3c0788d9	0.008272373
95	0xbc6d7d6c	-0.014495235
96	0xbd2ba5c0	-0.04190612
97	0x3cfe7e59	0.031066107
98	0xbc8140ac	-0.015777908
99	0x3c61edf2	0.013789641
100	0x3c7e711a	0.015529895
101	0x3d92fc1a	0.07176991
102	0x3cda0e29	0.02661808
103	0xbcc84936	-0.024448972
104	0xbd519bac	-0.05117385
105	0xbc820f52	-0.015876446
106	0xbc4a8061	-0.0123597095
107	0xbcdb122f	-0.026742069
108	0x3cf17239	0.02947341
109	0x3d577c77	0.052608933
110	0x3c8a7913	0.016903436
111	0x3cbc481c	0.022983603
112	0xb95541c1	-0.00020337758
113	0x3c8259af	0.015911905
114	0x3da27c38	0.07933849
115	0x3b4c1b87	0.0031144337
116	0x3ca25c29	0.019819336
117	0x3ca3b316	0.019982856
118	0xbd6e7045	-0.058212537
119	0x3c7dc386	0.015488511
120	0xbd78a34d	-0.06070261
121	0xbd0ccf5e	-0.03437745
122	0x3cc5beb9	0.024138795
123	0x3a3c5216	0.00071838626
124	0x3cd6885a	0.026188064
125	0x3d802101	0.06256295
126	0xbd1536a2	-0.036429055
127	0x3a0b37dc	0.0005310753
128	0xbcdef861	-0.027218046
129	0x3b481cdc	0.003053478
130	0x3d00baf7	0.031428304
131	0x3d4e4642	0.05035997
132	0xbcb02150	-0.02150026
133	0x3c176544	0.009240452
134	0x3d0f0617	0.034917917
135	0x3c9553ef	0.0182285
136	0xbd7dfcdc	-0.062008724
137	0x3b81a236	0.0039561046
138	0x3c80f8c4	0.01574362
139	0x3d07a1cd	0.03311329
140	0x3cb7b98e	0.022427347
141	0x3c8c2b1b	0.017110398
142	0xbce62a6a	-0.028096396
143	0xbc3649ff	-0.0111260405
144	0x3d19608a	0.037445582
145	0x3b2b803c	0.0026168963
146	0x3cd5fe94	0.026122369
147	0xbbe18354	-0.0068821106
148	0x3cec6a05	0.028859148
149	0x3c0b2d9b	0.00849476
150	0xbcfd174b	-0.030894896
151	0xbcf977c3	-0.030452615
152	0x3af90cb0	0.0019000974
153	0x3d5d3ad8	0.054011196
154	0xbc90333e	-0.01760256
155	0x3cbd6b5f	0.023122488
156	0x3c9563e8	0.018236116
157	0xbbd7d953	-0.0065871864
158	0xbad3ccfb	-0.0016159111
159	0xbcb5b6ee	-0.022181954
160	0x3d17d6b2	0.037069984
161	0x3d1a3c18	0.037654966
162	0xbbbe125f	-0.00580053
163	0x3c9e650d	0.019335294
164	0xbb63303d	-0.0034666203
165	0xbd8f9a71	-0.07011879
166	0x3cb90fd0	0.022590548
167	0xbb80b8da	-0.003928286
168	0xbc15b66a	-0.009137729
169	0x3b95dd62	0.00457351
170	0xbd1c0b84	-0.03809692
171	0xbc566aa8	-0.013086952
172	0xbaf789f9	-0.0018885724
173	0x3c979056	0.018501442
174	0xbca0f1a9	-0.019646483
175	0x3c31955d	0.010838834
176	0xbd3a3d83	-0.04546882
177	0x3d0db823	0.034599435
178	0xbc1f29c2	-0.009714546
179	0xbcdac60e	-0.026705768
180	0xbcb08a5f	-0.021550355
181	0xbd1196c1	-0.03554416
182	0x3c210087	0.009826786
183	0x3b426d36	0.0029667146
184	0xbc5477d9	-0.012968027
185	0xbce6731d	-0.028131062
186	0xbcb4b26b	-0.022057733
187	0xbcdf3bf2	-0.027250264
188	0xbd429c97	-0.047512617
189	0xbba1371e	-0.0049199006
190	0xbcbdf9ae	-0.023190346
191	0xbd2f9ab8	-0.04287216
192	0x3b23f533	0.0025017976
193	0xbd5688a3	-0.0523764
194	0x3b8ec86e	0.004357389
195	0x3cd70cf2	0.02625129
196	0xbc5cc628	-0.0134749785
197	0xbca97685	-0.020686397
198	0x3d4a06ed	0.04932301
199	0xbd56f4bf	-0.0524795
200	0xbcf30500	-0.02966547
201	0x3cea2251	0.028580816
202	0xbcea3270	-0.028588504
203	0x3c8d5a17	0.017254872
204	0x3bd368f6	0.0064517213
205	0x3a5b3ecd	0.0008363545
206	0x3c637262	0.013882251
207	0x3a828d78	0.0009960374
208	0x3cd450c7	0.025917424
209	0x3d584c92	0.0528074
210	0x3d2ed7f8	0.042686433
211	0x3d06f644	0.0329497
212	0xbd127388	-0.03575471
213	0xbd200644	-0.039068475
214	0xbd535b8a	-0.05160097
215	0xbddbb68c	-0.107281774
216	0xbc2f8326	-0.010712421
217	0xba8b1b5c	-0.0010613012
218	0xbd4ce229	-0.05002037
219	0x3b1fad42	0.0024364744
220	0x3c255526	0.010091102
221	0x3c6c9431	0.014439628
222	0xbcd7ffe9	-0.026367145
223	0x3d7cdf84	0.0617366
224	0xbb2054cf	-0.0024464612
225	0x3ae00913	0.0017092548
226	0x3caae6ff	0.0208621
227	0x3ca33c22	0.019926134
228	0xbcf03636	-0.029322725
229	0xbc36bff2	-0.011154162
230	0xbb93a16b	-0.0045053265
231	0x3cb569d6	0.022145193
232	0xb91d28f2	-0.0001498794
233	0xba625f0e	-0.000863538
234	0xbd03f178	-0.032212704
235	0x3cd96017	0.026535077
236	0xbbf6db5a	-0.007533473
237	0x3d4b2583	0.04959632
238	0x3c4cefe4	0.012508366
239	0x3c853981	0.016262772
240	0x3cc41a24	0.023938246
241	0x3c3efa03	0.011656287
242	0x3c795ff7	0.015220634
243	0x3d33e197	0.04391631
244	0x3d50e922	0.051003583
245	0x3ceffff4	0.029296853
246	0x3c3082e2	0.010773392
247	0xbad62cd1	-0.0016340261
248	0x3d363b0a	0.044489898
249	0x3b604d29	0.0034225679
250	0xbd027cb7	-0.03185722
251	0x3d05d9e1	0.03267849
252	0xbcadcbe5	-0.021215389
253	0xbc1a52ba	-0.009419138
254	0xbd14607b	-0.036224823
255	0x3d12f0ff	0.035874363
