models/model_objs/nba_model_1.pth (torch, 621689 bytes, 11 tensors)

weight f4 [256, 178]
000000 1e cb f8 3b a1 cb 86 b2 06 99 10 3d 43 20 56 38
       0.007592573 -1.5692253e-08 0.035302185 5.1051622e-05
000010 1a 31 80 bd 4f da 61 bd 32 ca 54 3d 37 19 26 b4
       -0.062593654 -0.055139836 0.05195064 -1.5469128e-07
000020 be 7a 22 bd a5 39 c0 bd 39 9a 5c b7 3e 5c 50 3c
       -0.039667837 -0.09385995 -1.314893e-05 0.012717305
000030 37 81 93 bc 1f 19 8d bd 7e ba 17 bc 4b f4 72 bd
       -0.01800595 -0.06889557 -0.009260772 -0.059315007
000040 d2 3b 90 bd 27 f4 49 bd 06 b2 77 bd a8 fa 4d bd
       -0.0704266 -0.049305107 -0.06047251 -0.050287873
000050 af 71 6d 3d 9d e0 c7 3b 7f 2d ff 3b 53 a6 ae bd
       0.057969745 0.006099774 0.007787406 -0.085278176
000060 1a 59 6c bd fa a0 38 bd f8 9e a0 3b ad 73 af bd
       -0.05770216 -0.045075394 0.004901763 -0.08566985
000070 a0 65 a4 b5 5a 78 4e bd 7d 85 81 bb 96 4c 10 bd
       -1.2248529e-06 -0.050407745 -0.0039526806 -0.035229288
000080 1e 16 ec bc 0e b5 74 bd f4 22 87 bd 8a 26 53 bd
       -0.02881914 -0.05974298 -0.06598464 -0.051550426
000090 2a 2f 3b bd e9 85 89 bd 9a 91 60 3d d7 ef bc bc
       -0.045699276 -0.067149945 0.054826356 -0.023063583
0000a0 e4 37 66 3d 31 6c 04 3c a7 36 90 bd c5 43 0b 3d
       0.056205645 0.0080824355 -0.07041674 0.034000177
0000b0 37 82 13 bc 70 9e 16 bd 48 a5 8f bd fa 7c 3f ba
       -0.009003214 -0.03677219 -0.07013947 -0.0007304695
0000c0 ca d8 c5 3c 18 62 ee 3b 9f fb 05 3d d3 1e 8a bd
       0.024151225 0.0072748773 0.032710668 -0.067441605
0000d0 0d e4 0d 3d b8 a0 22 bd fe 9d 5a bc d2 f7 d5 3c
       0.034641314 -0.039704055 -0.013343332 0.026119146
0000e0 00 7b 55 3d ef 2c 67 3d 74 1d 84 3d 81 75 53 bd
       0.052119255 0.056439336 0.0645093 -0.051625732
0000f0 f7 56 06 3d 5d 49 24 bc 00 04 82 3c cd f0 2f bd
       0.03279778 -0.010027257 0.015871048 -0.042954255
000100 cd a4 94 3d 2b 41 fa bc 4e c8 7a 3d 0b 0f 03 3d
       0.07257996 -0.030548653 0.06122618 0.031996768
000110 70 94 82 3c 4b 28 94 bc af 4d bd 3d 97 c4 97 3c
       0.015939921 -0.01808562 0.092433326 0.018526359
000120 92 fd 6b 3c 35 9e 4d bd bb 47 b9 3c 69 c7 2d bc
       0.014403718 -0.050199706 0.022617212 -0.010606625
000130 eb d2 26 bd 81 c7 85 3d 0a 45 1e 3d 61 48 0d bd
       -0.04072849 0.06532193 0.03864006 -0.034492854
000140 f3 af c9 bc 59 70 64 3c b7 97 63 3d 96 50 39 b9
       -0.024620032 0.013942801 0.05556461 -0.00017672995
000150 86 89 c1 bc cc 31 82 b9 10 00 76 bd fc 5a ff 3c
       -0.023625147 -0.00024832634 -0.060058653 0.031171314
000160 db 28 34 3d 3b 03 68 bd 4a 4b 99 3c ac 84 b7 3c
       0.043984275 -0.056643706 0.018712658 0.02240213
000170 f7 75 0a 3d dd eb 96 3b b7 04 1d 3d ba 44 83 3d
       0.033803906 0.004605754 0.038334575 0.06409593
000180 5e c7 4f 3d dd 5c 54 3c 9c c6 fe ba 12 ee bc 3c
       0.05072724 0.012961593 -0.0019437852 0.02306274
000190 fe 97 ac bc e6 5a e7 bb e3 d0 4e 3d 04 f4 be 3d
       -0.02106857 -0.0070603965 0.05049218 0.09323886
0001a0 8b 20 1c 3c 28 47 1a ba 05 d5 99 3c 71 cc ef 3b
       0.009529243 -0.0005885237 0.018778333 0.0073180725
0001b0 04 a7 1c 3d ec 34 d9 3c 4e 28 7d bd 65 e9 a0 3a
       0.038245216 0.026514493 -0.061806016 0.0012276588
0001c0 b4 29 99 3d d6 a0 1a 3d 0b 4e 90 3c c6 e0 ba bc
       0.07478657 0.03775104 0.017615339 -0.022812258
0001d0 23 0e 16 bd 0e a1 41 bd 67 16 c6 bb ca 22 ba 3c
       -0.036634576 -0.047272734 -0.006045151 0.022721667
0001e0 43 a9 88 3d 4b 66 37 3d a9 75 64 bd fd 28 8c bc
       0.06672909 0.04477529 -0.055776272 -0.017109388
0001f0 14 d3 7a 3b 39 91 cd 3d 35 d5 20 3d ac 37 bf 3a
       0.0038272785 0.10037465 0.03926583 0.0014588735
000200 49 b7 f3 3c 00 33 0a 3a e6 b0 5d bd 19 9d 21 3d
       0.029750483 0.0005271882 -0.05412378 0.03945646
000210 f0 59 15 bd e2 74 25 3c ba fc 5d bd 03 99 86 3d
       -0.036462724 0.010098668 -0.054196097 0.065721534
000220 c4 c2 86 3d f3 30 4d 3d fa f4 22 bd f0 19 99 bd
       0.06580117 0.05009551 -0.03978441 -0.0747565
000230 83 0b 26 bd 06 45 3b 3d 53 18 69 3d a4 98 6c 3d
       -0.040538322 0.045720123 0.056907963 0.057762757
000240 2b c1 6e 3d a4 cf 58 3c 0d 4a 51 bc bd 8f 88 bd
       0.058289688 0.013233099 -0.012774003 -0.06668041
000250 65 12 78 bd 2c 77 4e bd 6d 1f ea 3c a8 b4 4b bd
       -0.060564417 -0.05040662 0.028579438 -0.049732834
000260 f0 48 d5 bc 3b 0e 13 bd 7f 8f 84 3c 04 6d 49 bd
       -0.026035756 -0.035902243 0.016181706 -0.04917623
000270 00 60 b4 bc c5 32 1f 3d 29 1d 4f bb d9 43 6d 3d
       -0.022018433 0.038866777 -0.0031603074 0.057926033
000280 30 cc fc ba 66 57 44 bd 6b 5a 12 b6 17 2e 99 bc
       -0.0019286927 -0.047934912 -2.1808326e-06 -0.018698735
000290 88 0a 12 bc 54 b7 55 bd 9a 2a 30 3d 82 a6 1e bd
       -0.008913644 -0.05217679 0.043009378 -0.038733013
0002a0 3d 52 77 3d 21 13 3a 3d da 22 66 3d 4d 74 10 bd
       0.060381163 0.0454284 0.05618558 -0.035267163
0002b0 9d 27 9b 3d 0c 8a 3b bc 58 84 4c 3d db 14 c4 3d
       0.07575915 -0.011446487 0.0499309 0.0957429
0002c0 02 ed 91 3c a6 b9 48 3c 82 03 1e bc ae 99 71 b9
       0.01781321 0.012251293 -0.009644391 -0.00023040801
0002d0 27 e4 32 3d 89 c1 3d ba 61 80 68 3d 37 69 64 3d
       0.043674614 -0.0007238617 0.056763057 0.055764403
0002e0 d5 c9 84 3d 7e 2b 13 b2 81 04 85 bd 89 fd 76 3c
       0.06483809 -8.566415e-09 -0.06495 0.015075096
0002f0 fd 7a 24 37 b5 a8 89 bd 1d ce 8e bb 66 e3 20 bd
       9.803797e-06 -0.067216314 -0.0043580667 -0.039279364
000300 f0 f4 08 bb e9 26 da bc 97 63 96 bc b8 67 3a bc
       -0.0020897947 -0.026629882 -0.018358035 -0.011377268
000310 40 96 8b bd 8c 88 37 3d 1d 5f 74 3d 9e 1e 85 bb
       -0.06815767 0.044807956 0.05966102 -0.0040624877
000320 41 c5 14 bc 28 b2 04 bd b2 46 82 bd bb b1 d4 bd
       -0.009080232 -0.032396466 -0.0636114 -0.10385462
000330 94 3b 24 3d cd 3c 24 bd fe d7 0a b8 08 77 b3 3b
       0.04009588 -0.040097047 -3.3102922e-05 0.005476836
000340 12 84 2f bc 58 6b 76 bc 9c 83 6c 3a a3 57 30 bc
       -0.01071264 -0.015040241 0.0009022297 -0.010763082
000350 1e 4c d7 bc ed 79 ea bc ab 17 bd bd 0b ba 8f 3d
       -0.026281413 -0.028622592 -0.0923303 0.07017907
000360 f8 e9 b1 bc 61 16 e2 3c 9f cc 96 bc 76 7e ec 3b
       -0.02171801 0.027598562 -0.018408118 0.0072172238
000370 81 73 a8 3d b3 5d e5 3c b2 f4 33 bd 91 d7 20 3d
       0.082251556 0.02799878 -0.04393453 0.03926808
000380 54 54 a4 3d 82 cc ac 32 8f d4 12 3d 76 e2 b0 3d
       0.08023897 2.0116435e-08 0.035847243 0.08636944
000390 ac 4d 33 bc 57 b1 00 3d 23 c8 30 bd 91 22 71 3c
       -0.010943811 0.031419124 -0.043159615 0.014717714
0003a0 7b b6 9f 3d 42 1f 8e 3d 2b 3c 2e bd 88 bd ec bc
       0.07798477 0.06939556 -0.04253785 -0.02889897
0003b0 e9 d3 00 bd ab d6 59 bd 35 fd 0f bd 19 2c b8 bc
       -0.031452093 -0.05318324 -0.035153586 -0.022481965
0003c0 be 0d 92 3d 20 d6 b1 3c 02 7d f2 bc ce 17 8a bd
       0.07131527 0.021708548 -0.029600624 -0.06742822
0003d0 fc 6e 8b 3d b0 a3 4c bd 19 3c 93 bc 78 a9 4f 3c
       0.06808278 -0.049960792 -0.017972993 0.012674682
0003e0 75 ff ca bc 38 b6 d0 ba bb fd 7f 3c ba a9 76 bc
       -0.024780015 -0.0015923446 0.015624459 -0.015055114
0003f0 4d 9d e8 bc 5d f2 7a bd f0 ce 1f bd 99 f6 b2 bc
       -0.02839532 -0.061266292 -0.03901571 -0.021846103

bias f4 [256]
000000 bf c5 74 bb 92 19 63 3d e0 24 89 3d fd bd 44 bb
       -0.0037349311 0.055444308 0.066964865 -0.0030020468
000010 5e 18 90 3d 1a c4 e4 3b 58 e6 c6 bb 3d 79 9c 3c
       0.07035898 0.006981385 -0.0060699396 0.01910078
000020 ce 09 a2 bc b8 f3 3d 3d 05 f9 83 3d 7e 84 88 3d
       -0.019780066 0.046375006 0.06443981 0.06665896
000030 b3 8f d7 bb bf fc ce 3c 7b b6 9b 3d 06 36 08 3c
       -0.0065784096 0.025267003 0.07603165 0.008313661
000040 8c 1a 7f 3d 14 7f d0 3d b5 0a 92 bd e9 d7 8d 3b
       0.062281176 0.10180488 -0.071309485 0.004328717
000050 e5 63 cb bc 40 a0 3a 3d 17 08 0c 3d bb 10 4e bd
       -0.024827907 0.045562983 0.034187403 -0.050308924
000060 6c 94 21 bb da f1 aa 3d 09 e5 a2 3c db 69 66 3d
       -0.0024655117 0.08346911 0.019884603 0.056253295
000070 21 3c 61 3d 4a 50 08 bd 34 5a 25 3c 86 d4 86 bc
       0.054988984 -0.033279695 0.010092307 -0.016458761
000080 fe 85 3e bc 2c 9e 02 bd 55 69 ca bb f7 13 7a 3d
       -0.011628626 -0.031889126 -0.0061771073 0.061054196
000090 6a 16 b4 3d ae c0 5d 3b 81 4b 4a 3d 27 45 88 3c
       0.08793338 0.003383677 0.049388412 0.016634537
0000a0 e7 da d0 3d 0e 88 5b bd c2 34 83 3d d5 50 77 3c
       0.10198002 -0.05359655 0.06406547 0.015094955
0000b0 b6 ea 58 3d d5 14 99 bd f2 e8 c9 bb 98 50 f0 3c
       0.052958213 -0.074746765 -0.0061618024 0.029335305
0000c0 45 34 94 3d c0 3b b0 bb 29 01 b3 bb 81 58 f4 3c
       0.07236532 -0.0053782165 -0.005462785 0.029827358
0000d0 97 a1 3c bc a9 a3 92 bd 91 6c 3d 3d dc aa 4d bd
       -0.011513135 -0.07160122 0.046246115 -0.050211772
0000e0 1a 05 6c bd 75 76 61 bd 00 2f 0f bb 1b 6f 5f bd
       -0.057622053 -0.05504461 -0.0021848083 -0.054549318
0000f0 92 f2 eb bc 3a 20 a0 3d 12 32 c4 bc 72 fd 21 3c
       -0.02880219 0.07818647 -0.023949657 0.009887086
000100 be 33 34 bd 09 c4 44 3d 3e 72 0c 3d d3 fc 3d 3d
       -0.043994658 0.048038516 0.034288637 0.04638369
000110 e7 94 d6 3c 25 12 77 3c ea 02 d0 3c b2 8e 64 3d
       0.026194049 0.01508001 0.025392015 0.055800147
000120 9e 61 8f bd e6 5f 79 bd d7 db 62 bb 68 1a 11 bc
       -0.07001041 -0.06088247 -0.0034615898 -0.008856393
000130 64 cf aa bc 11 83 8d 3c 59 e3 80 3c 4b 17 9b 3d
       -0.020850845 0.017274411 0.015733408 0.07572802
000140 2d 61 7c 3d dd db b0 bc 43 76 55 3b 58 8e 51 3d
       0.06161611 -0.021589214 0.003257171 0.05116114
000150 28 1a 4f bd 4f ca ce bc 39 f7 8c bd fd 10 dd bb
       -0.050562054 -0.025242953 -0.068830915 -0.00674641
000160 80 27 17 bc b1 32 a8 3d de f7 fe 3c 71 f0 aa bc
       -0.009225726 0.082127936 0.031124052 -0.020866605
000170 a2 8a 95 3d 07 b5 9b bc be ef 6b bd b3 ff a2 3d
       0.07301833 -0.019007219 -0.057601683 0.07958927
000180 17 0d c9 3d 49 3f 43 bd ba 00 16 3d 06 c1 31 bc
       0.0981695 -0.047667775 0.036621787 -0.010849243
000190 65 6b 3a bb 91 25 10 3d 8c fa 0c 3c 3e 6d ba bc
       -0.002844536 0.035192076 0.008604657 -0.022757169
0001a0 b7 f4 7a 3d aa 7f 87 bc 29 e4 56 3d 85 95 40 bd
       0.061268535 -0.016540367 0.052463684 -0.047017593
0001b0 a8 04 86 3a 7a 9e 49 3c 15 fe 24 bd 9c 86 7a bd
       0.0010224776 0.01230585 -0.040281374 -0.06116353
0001c0 8d f4 8c 3c e9 d6 81 3d fc 50 90 3d b0 2f 22 bc
       0.017206455 0.06339819 0.070466965 -0.009899065
0001d0 4f d7 6a bd 8c 6c 36 3b 13 1a 7c bd 83 35 55 bd
       -0.05733424 0.0027835695 -0.061548304 -0.052052986
0001e0 57 f3 92 bc 1c f9 3f bd 84 84 f1 3c 3d 4a a2 bc
       -0.0179383 -0.04686843 0.029482134 -0.01981079
0001f0 6d 92 c3 3d ec 84 1e 3d 4a 30 33 bc 40 f2 99 3d
       0.09549413 0.038700983 -0.010936806 0.07516909
000200 e3 bb 22 3d 90 0a 87 bc a8 c3 33 3d 88 3d 18 bd
       0.039729964 -0.016484529 0.043887764 -0.037168056
000210 6e 61 68 3c b0 93 4b bd 9a d1 98 bd d3 ca 9c 3d
       0.014183385 -0.049701393 -0.07461853 0.07655873
000220 c6 f6 5b 3c a6 a9 24 3d e9 cc 10 bd 7b c4 92 bd
       0.013425535 0.04020085 -0.035351668 -0.07166382
000230 c1 c2 9e bc c7 9a bf 3c 0f 42 c8 3d 0e eb 1e bb
       -0.019379975 0.023389233 0.09778225 -0.002424899
000240 ba 0f 4c 3d 94 0a 9b bc 54 b2 cc 3d 07 c1 1b 3c
       0.049819686 -0.018925942 0.09994951 0.0095064705
000250 4a e2 34 bd 09 23 58 3d 16 af c3 3c 6c 58 30 3c
       -0.04416112 0.052767787 0.023887198 0.010763269
000260 43 b0 19 bd 51 02 b3 3b 40 cb 37 3d e6 41 47 bc
       -0.037521612 0.0054629226 0.04487157 -0.0121617075
000270 7e f6 3e 3c 09 97 df bc e5 69 5b 3d 7e 5e 1e 3d
       0.011655448 -0.027293699 0.053567786 0.038664334
000280 4c 54 85 3d a1 5d 34 3d 2a f4 be bc d4 07 b9 3c
       0.06510219 0.044034604 -0.023309786 0.02258674
000290 1c 6d 48 bc 1f b8 88 3c bb 55 86 bd 7d 09 de 3c
       -0.012233045 0.016689358 -0.065593205 0.027104134
0002a0 65 d3 0f bd 9c eb 8e bc 11 de 05 bd c8 9b 4f bd
       -0.03511371 -0.017446332 -0.032682482 -0.050685674
0002b0 87 c9 0a bd 98 05 8b 3d 7e c6 1c 3d 34 7d 84 3d
       -0.033883598 0.06788176 0.038275234 0.06469193
0002c0 2c 63 59 bd d5 e1 0b bd 62 68 f1 3b ec 28 38 3c
       -0.053073093 -0.034150917 0.0073671797 0.011240225
0002d0 d1 94 1b bc 1e 28 34 3d 82 da d1 bc e4 ca 95 3d
       -0.00949593 0.04398357 -0.025616888 0.07314089
0002e0 65 71 5c bd 81 b5 7b 3c dc b1 2a 3d f5 7c 5c 3a
       -0.05381908 0.015363098 0.041673526 0.0008410954
0002f0 83 11 bc bc 51 45 04 3d 89 0b ca 3d c9 f6 09 3c
       -0.022957569 0.032292668 0.098654814 0.008420655
000300 13 be 05 bd bf c1 81 3d 18 f2 fb ba 89 59 1e 3c
       -0.032651972 0.06335782 -0.001922193 0.0096649015
000310 51 63 93 bd 32 8f 26 3d f5 85 46 3d ea 1f c3 3d
       -0.071966775 0.040663905 0.048467595 0.095275715
000320 b8 0b c3 bc cf 93 95 bc cb 9a 41 bc 4f 71 3f b9
       -0.023809299 -0.018258957 -0.011816691 -0.0001825739
000330 9d 58 88 bd 45 a3 87 bd 8e 7f f4 bb e0 c1 25 bd
       -0.06657527 -0.06622938 -0.0074614948 -0.040468097
000340 cc 88 5c 3c 3b 8f 8b bd e3 a1 94 3a 23 11 0f bc
       0.013460349 -0.068144284 0.001133975 -0.008732113
000350 b6 6b 4f 3d 84 6a 23 bd e8 f8 24 3d 5e a2 3a 3c
       0.05063983 -0.039896503 0.040276438 0.01139125
000360 7b 1f 42 bd 7a 40 f2 3c 2c 09 24 3c d0 a5 b2 3c
       -0.047393303 0.02957176 0.010011952 0.021807581
000370 3b eb b7 bb f6 12 5a 3d 00 65 7c 3d 98 89 86 bd
       -0.0056127585 0.05324074 0.06161976 -0.06569213
000380 2a 07 76 3d 96 56 9b bd f7 81 3c bd 6b 25 97 3d
       0.060065426 -0.07584874 -0.04602238 0.07380184
000390 fa dc 3f bd cd cb f4 3c ec 73 69 bd ff 68 9e 3d
       -0.0468416 0.029882336 -0.056995317 0.0773487
0003a0 dd e2 a7 bc c8 a0 a4 3d 7e 91 c3 bc 58 84 53 3d
       -0.020493919 0.08038479 -0.023873087 0.051639885
0003b0 e4 77 89 bc 04 4c 5a bd 1c 24 68 bd 58 44 04 3d
       -0.016780801 -0.05329515 -0.05667506 0.03229174
0003c0 ab 5f cd 3d 19 b9 22 bb 18 20 8c 3d ce 93 61 bd
       0.10028013 -0.0024829565 0.06842059 -0.0550726
0003d0 fc 01 3c bd 55 24 93 3d a5 85 01 bd 35 88 e0 bc
       -0.04590033 0.07184664 -0.031621594 -0.027408699
0003e0 43 85 5b bd cc eb 16 3d 07 f2 5f bc 49 7c 9f 3c
       -0.053593885 0.036845967 -0.013668544 0.019468443
0003f0 67 8a 9a 3c 87 01 5b 3d 6f 99 22 bd 1a 6d 47 bc
       0.018864824 0.053468253 -0.039697107 -0.012172008

weight f4 [256, 256]
000000 91 b7 15 3d f3 cb 9d 3d f4 ed eb 3c c2 c8 66 3c
       0.036552016 0.07704916 0.028799988 0.01408595
000010 21 8c 51 3d 73 36 4a bd 3c 22 18 bd 9f b5 11 bb
       0.051159028 -0.049368333 -0.037142023 -0.0022233499
000020 e8 b5 88 bd c3 cd 39 3c 19 bc d4 3d 71 45 79 bd
       -0.06675321 0.011340561 0.10387439 -0.06085724
000030 fa 04 54 3c 5b 2e 0a 3d 6f 2f a0 bb d1 53 c7 3b
       0.01294064 0.033735614 -0.004888467 0.0060829897
000040 68 c8 96 bc f1 06 9b 3d 6e 6b 80 3b 5c 62 e6 bb
       -0.018406108 0.07569683 0.0039190566 -0.0070307683
000050 e3 55 d6 3c 03 76 6f 3c 68 e0 cd 3b 47 5c 9b bc
       0.026164 0.0146155385 0.006282855 -0.0189649
000060 de 4d bf 3c 85 f2 8c 3d 69 4d 73 3d 05 05 47 bc
       0.02335256 0.068821944 0.059399996 -0.012147193
000070 64 87 79 3d 60 e0 81 3d 6c 0f ed 3b 39 ab 8d 3d
       0.060920134 0.06341624 0.0072345044 0.06917424
000080 09 7c 10 3b db 53 5c bd 89 1f 67 bb ad 3a f9 bc
       0.0022046587 -0.05379091 -0.00352666 -0.030423487
000090 09 8e 25 bc 68 62 b4 bd fe cb 06 3c ec d1 6c 3c
       -0.010104665 -0.08807832 0.008227346 0.014454346
0000a0 59 76 fc 3c cd 8a 36 bd 79 da ad 3c 3d 3d 4c bd
       0.030818151 -0.044565964 0.02122234 -0.04986309
0000b0 c8 1f ee bc 74 94 78 bd d7 9f ad 3c 6c 91 2f bd
       -0.029067889 -0.06068845 0.021194382 -0.042863294
0000c0 7c 80 81 3d 54 76 4c 3d 58 9a 36 bd 56 97 4e bd
       0.063233346 0.049917534 -0.044580787 -0.050437294
0000d0 4e 2d 8f bd a0 f1 a8 bd fa 6c c7 3c fa 52 fb ba
       -0.06991063 -0.08249211 0.024343956 -0.0019174509
0000e0 34 88 82 3d 18 62 0e bd cf e2 ca 3c 35 cf bc bc
       0.06373635 -0.03476152 0.024766354 -0.023048023
0000f0 89 88 98 3d da ff 7c 3d e4 1f 05 3c c5 4c 42 bd
       0.07447917 0.061767437 0.008125279 -0.047436494
000100 d0 78 1f 3d 9a 6e fd bb 69 54 a1 3b 1c a9 0c 3d
       0.038933575 -0.007734132 0.0049233926 0.034340963
000110 8a 78 d8 3b 35 d8 c1 3d ea 2b 83 3c a3 52 82 bc
       0.0066061663 0.09465066 0.01601215 -0.015908545
000120 02 84 87 bd fd b4 a3 bc d4 78 51 3d f5 eb a2 3d
       -0.06616975 -0.019983763 0.05114062 0.079551615
000130 8d a1 47 3c 98 2a 8b 3d 80 4e 75 bb c4 22 06 bd
       0.012184513 0.067952335 -0.0037430823 -0.032748
000140 42 0d f2 bc 72 6f e9 3c 1f 42 12 bd 0c 6e 4f bd
       -0.029547337 0.028495524 -0.03570759 -0.05064206
000150 5e f7 b3 bd ab e5 2e 3c 0a 1b b4 3b c2 aa 87 bd
       -0.08787416 0.010674874 0.0054963874 -0.06624366
000160 28 af 11 bd 35 b2 35 bc 7c 84 6a bd 1d 04 b4 bd
       -0.035567433 -0.011089851 -0.057255253 -0.08789847
000170 4f 53 2c bd e0 45 95 3c 37 2b 85 bd 5f b4 7f 3c
       -0.042071637 0.018221796 -0.06502383 0.015606969
000180 bc 63 fe bc 5c b1 28 3c 36 2c 87 3d ab 2b 9e bd
       -0.031053416 0.010296192 0.066002294 -0.07723173
000190 ac 3b 15 bc 45 3e 14 bd 61 31 b3 3d 1b e3 f1 3b
       -0.009108465 -0.036192197 0.08749653 0.0073818094
0001a0 85 28 c0 bc 31 11 0b bd 72 99 bb 3c e2 c5 d4 3c
       -0.023456821 -0.033951942 0.022900317 0.025973264
0001b0 3f bb 41 3d 73 f4 99 bd d2 0d 2d bc 78 f4 e1 bb
       0.047297712 -0.07517328 -0.010562377 -0.006895598
0001c0 c8 02 3a 3d 5c 07 4d bd 8c 53 1f 3d b6 66 b2 3c
       0.04541281 -0.050055847 0.038898036 0.021777492
0001d0 8c 38 d8 bc 46 ed 49 3d 4d 82 2f 3d 7d 86 1b 3d
       -0.026394151 0.049298547 0.042848874 0.037970055
0001e0 cd 19 b1 bd 7b ef 4f bd fd 74 8c 3c 39 51 ce bd
       -0.08647499 -0.050765496 0.017145628 -0.10074086
0001f0 86 a8 ff 3c 5f 4b de bc 40 02 9d bc 2b ff 3e bd
       0.031208288 -0.02713555 -0.019166112 -0.046630066
000200 bf b3 30 bd ee b0 5b 3d f4 fe 9f 3d 0c 35 22 3d
       -0.04314017 0.05363553 0.078123 0.03960137
000210 61 86 0d 3d d0 19 dc 3b 6e 18 a0 bd 73 b3 15 bd
       0.03455198 0.0067169443 -0.078171596 -0.03654809
000220 83 19 a5 3a 36 89 76 bc 52 17 da 3c 8c 63 c3 bc
       0.0012596104 -0.015047362 0.026622448 -0.023851179
000230 b2 22 74 3c 53 5c 6f bd ee f4 cb 3c ad 9b 65 3b
       0.01490085 -0.058437657 0.024897065 0.0035035417
000240 49 c6 39 bc dc 18 e5 3a d0 b1 c6 bc c3 d1 2a bc
       -0.011338779 0.0017478722 -0.02425471 -0.010425988
000250 19 4e d7 3c 06 11 ed 3c bd d7 14 3c 45 d4 20 bd
       0.026282357 0.028938781 0.009084639 -0.039264936
000260 a0 2b 98 bd 4d 07 25 3d 15 09 bb bc 12 a5 5c bc
       -0.07430196 0.040290166 -0.02283148 -0.01346709
000270 1b 17 28 bd d9 93 be 3d a9 8c d5 3c db 98 2d 3a
       -0.04103766 0.093055435 0.026068049 0.00066222035
000280 67 70 a2 bd f6 66 10 bd 15 f0 84 3d 5c 8a e1 3c
       -0.07931595 -0.03525444 0.064911045 0.027531795
000290 69 13 02 3c 3f 9a 71 bd c7 ce 51 bd e9 05 05 bd
       0.007939198 -0.05898499 -0.05122259 -0.03247634
0002a0 a8 22 c9 3d 59 50 a4 3d 8a 4a 88 bc d4 36 42 bc
       0.09821063 0.080231376 -0.016637105 -0.011853892
0002b0 23 44 97 bc d1 49 5d 3d f1 20 3f bd 91 46 1c bd
       -0.018465107 0.054025475 -0.046662275 -0.038153235
0002c0 e4 9b 9e 3b de 99 1b bb 80 b2 ff 3c 05 a7 40 3d
       0.004840361 -0.0023742835 0.031213045 0.047034282
0002d0 8d ed a6 bc dc 3e b1 bd 03 3c 60 3b a5 38 83 3d
       -0.020376945 -0.086545676 0.0034215457 0.064072885
0002e0 41 02 a9 bd 87 7d 09 3d d8 90 23 3b 10 d7 0f bc
       -0.08252383 0.033566978 0.002495816 -0.008779302
0002f0 2f 52 5b 3c ff 0b f4 3c 88 a0 a7 3d cc fd 41 3d
       0.013386293 0.029790876 0.08184916 0.04736118
000300 47 b2 eb bc 6f b5 15 3d 17 5b a9 3d 44 c7 01 bd
       -0.028771533 0.03654998 0.08269327 -0.031684175
000310 21 4a 87 3d 02 58 3c bc 2e 5b 7a 3c e2 e5 21 3b
       0.06605936 -0.011495592 0.015280528 0.0024703671
000320 c6 22 78 bd a4 95 eb bb fe e2 45 bd e5 e6 5d bd
       -0.060580038 -0.0071894694 -0.04831218 -0.054175276
000330 3e 8d 20 bd fb 69 9f 3d 96 31 0a 3d 04 dc c7 bd
       -0.0391972 0.07783886 0.033738695 -0.097587615
000340 02 87 0a bd 74 a4 12 ba a4 4d 9f 3c 5b 24 42 bd
       -0.03382016 -0.00055939634 0.019446202 -0.047397953
000350 5e 71 04 bc 06 8d 44 39 0e 35 53 3d b3 56 03 bd
       -0.0080836695 0.00018744552 0.05156427 -0.032065105
000360 87 61 9b bd b2 50 e2 bc 38 fd 7b 3d 99 fd 3a bd
       -0.07586961 -0.02762637 0.061520785 -0.045652006
000370 ae 41 e5 3b 9b a1 71 3c 55 45 4c 3d 4d 8c 84 bd
       0.006996355 0.014748002 0.049870808 -0.06472073
000380 33 e1 86 bd 8d 74 dc 3c ed 1f 1b bd eb 3c e5 bb
       -0.06585922 0.026911044 -0.037872244 -0.0069957874
000390 d2 30 74 bc 1f 82 3e 3d 80 64 fe 3b 9c a7 2f bd
       -0.014904218 0.046510812 0.0077634454 -0.042884454
0003a0 07 ee 05 3d 9e 94 19 3c 0f 95 87 3d 38 16 82 3d
       0.032697704 0.009373812 0.066202275 0.06351894
0003b0 5d f1 2e 3d 05 e8 8a bd f0 04 44 bc 28 bf dc 3b
       0.04271065 -0.067825355 -0.011964068 0.006736655
0003c0 ca 0a 2e 3d 08 7f 67 3d 54 f2 90 3c 15 2f 37 bd
       0.042490758 0.05651763 0.017693676 -0.044722635
0003d0 5e 14 04 3d 68 4d 10 bc 8e 89 96 3c 58 f2 0b 3d
       0.032245986 -0.008807518 0.018376138 0.034166664
0003e0 02 44 e1 bd 5f 18 45 bc e4 20 88 3d b0 aa 60 bd
       -0.109992996 -0.012029736 0.066468984 -0.05485028
0003f0 03 2f de ba e3 59 1a bd 62 49 17 3d 0c 3c 14 3d
       -0.0016951266 -0.03768338 0.036935218 0.036190078

bias f4 [256]
000000 2b 87 42 3c 33 17 fd bc 3e 27 a6 bc 0b 40 08 bd
       0.011873047 -0.030894851 -0.020282384 -0.0332642
000010 ec c2 83 3c 35 db 50 3d 6b e4 a5 3d 95 d3 28 bd
       0.016084157 0.050990302 0.08100208 -0.041217405
000020 3e 74 f3 bc 50 7a 6d bd e9 30 8e 3d ab 72 6a 3c
       -0.029718515 -0.057977974 0.069429226 0.014309566
000030 b0 04 93 3d 2e 80 45 3d 41 8d 07 bd db d1 f7 3c
       0.071786284 0.048217945 -0.033093695 0.030251434
000040 8e 37 26 bd eb b6 af 3b 4a 97 00 3d 6f e3 f7 bc
       -0.040580325 0.0053623817 0.03139428 -0.030259816
000050 8b 51 c2 b8 82 74 a1 3d 5a cb 5e 3d 2a 80 7f 3c
       -9.2658294e-05 0.0788355 0.05439315 0.015594522
000060 c9 6f c8 bc 8d 54 a4 3c 02 ed 73 ba ba 0e 10 bd
       -0.024467366 0.020059848 -0.0009305031 -0.035170294
000070 49 8c 82 bd 48 57 37 3d cc 2a ce 3c 75 06 1b 3d
       -0.063744135 0.044760972 0.025166892 0.037847955
000080 85 03 af bc a6 22 6f bd 13 33 b0 bc 6e d0 47 bd
       -0.021363983 -0.058382653 -0.02150873 -0.04878276
000090 13 91 c3 3c 53 5c 9d 3c 86 f4 6d bc dc 58 07 bd
       0.023872888 0.019209063 -0.014523631 -0.033043727
0000a0 f7 2c 94 3d e0 78 9c 3c 18 90 df bc 42 74 32 3b
       0.07235139 0.019100606 -0.027290389 0.002722994
0000b0 2b 5d d6 bc e8 1b 7a bd 7d 69 1e bd 61 58 6c 3d
       -0.026167473 -0.06106177 -0.03867482 0.057701472
0000c0 40 f2 94 3d e3 ee 04 3c d6 cd 53 bd 97 a3 34 3d
       0.07272768 0.008113596 -0.051709972 0.044101324
0000d0 d2 3c 94 3d a9 0b ce bb 2a 6d 62 bd 58 b9 34 3b
       0.07238163 -0.006288011 -0.05527989 0.0027576294
0000e0 ff d4 0a bc a8 bc 13 3d 98 58 c5 3c 54 f1 bb 3d
       -0.008473634 0.03606859 0.024090096 0.09176889
0000f0 5c b7 d3 bc 71 63 0a 3d 2c 23 db bb 26 d0 d3 bc
       -0.025844269 0.03378624 -0.0066875424 -0.025856089
000100 19 d5 08 3d e0 45 80 3c d9 4c 85 bd a8 59 70 bd
       0.03340635 0.015658319 -0.06508798 -0.058679253
000110 a1 e5 39 3d 7f 1b 72 3d 30 b7 5b 3d 6b 3a 3e bd
       0.045385007 0.059108254 0.053641498 -0.04644243
000120 97 a9 9f bc ec c7 17 3d 11 d1 11 bd 89 81 5e 3d
       -0.019490046 0.037055895 -0.035599772 0.054322753
000130 51 6a 25 3c 0a 84 39 bc 95 b4 0c 3d d3 e8 21 3d
       0.010096149 -0.0113229845 0.034351904 0.03952868
000140 a2 de ce bc bb 9a 73 3c 2a 13 66 3c fc 0f c1 3c
       -0.025252644 0.014868434 0.014042655 0.023567192
000150 42 15 0d 3a c9 70 16 bd 81 fe 2e 3d b2 b7 08 3d
       0.0005381891 -0.036728654 0.042723183 0.03337831
000160 8e 05 02 3d e4 64 39 3d c2 3d 30 3d ca 68 77 3d
       0.03174358 0.045262232 0.043027647 0.06040267
000170 5d 03 5e 3d cf f6 ad bc 38 61 b3 bc df e3 8f 3d
       0.054202426 -0.021235852 -0.021896943 0.07025885
000180 ac a3 a2 bc f2 81 0b 3d e5 3c f6 3c eb 20 92 bc
       -0.019853435 0.034059472 0.030058334 -0.017837962
000190 3e be 1e bd 42 c8 81 3d 86 76 84 3d 8a d2 9f bc
       -0.038755648 0.06337024 0.06467919 -0.019509573
0001a0 df 4d 7d 3c f6 f4 9e 3c 2c 86 16 bd 75 30 94 3c
       0.01546046 0.019403916 -0.03674905 0.018089512
0001b0 fd 65 71 bd 3d 96 a3 3d 39 23 a8 3d dc 8a 7c 3d
       -0.058935154 0.0798764 0.08209843 0.061655864
0001c0 10 5f b0 3a 64 b4 3e bd 93 df b5 b8 b6 e6 52 3c
       0.0013456065 -0.046558753 -8.6723965e-05 0.012872389
0001d0 46 b2 29 3d 53 9e 8c 3d 0f 72 27 3d ea 58 85 3d
       0.04142978 0.068661354 0.04088026 0.065111
0001e0 28 c8 d2 bc 6a 6f 36 3b 66 2f 4f 3c a9 50 85 3d
       -0.025730208 0.0027837404 0.012645578 0.06509525
0001f0 88 6c 16 bd 4d 0d 60 3d 0e ed 4e bc 30 00 80 3d
       -0.036724597 0.054700185 -0.01262976 0.06250036
000200 f8 75 72 3c 12 a5 02 3d 88 31 c4 ba c4 c2 99 3d
       0.014798634 0.031895705 -0.0014968375 0.07507852
000210 96 23 94 3d fd ec 81 3d e7 80 18 3d d7 35 1a bd
       0.0723335 0.0634403 0.037232306 -0.037649002
000220 f4 76 87 3d e0 7e 4b 3d 8f 00 78 3c 4c 72 f4 bc
       0.066144854 0.049681544 0.015136852 -0.029839657
000230 ef b7 a6 3d 6c a1 45 bc ff 80 7f 3d d1 21 88 3c
       0.08140551 -0.012062412 0.06237888 0.016617687
000240 2c a9 b1 bc c3 36 e2 bc 4e 9a 53 bc a2 11 2d bd
       -0.021687113 -0.027614003 -0.012915207 -0.042253144
000250 68 54 05 3d 01 23 18 bd d9 fd c1 bc 37 e7 69 3d
       0.0325512 -0.037142757 -0.023680614 0.05710527
000260 27 3c cf 3c 54 9e 2f 3d 1d 99 53 3d 9c 31 97 3c
       0.025297238 0.042875603 0.051659692 0.018456273
000270 3e 5f 2f 3d 24 46 01 bd 04 40 d1 3c 3f 55 ac bc
       0.04281544 -0.031561032 0.02554322 -0.021036742
000280 ca d4 13 bd 71 75 ac 3d a2 b1 78 bd 08 d2 85 3c
       -0.036091603 0.08420838 -0.06071628 0.016335502
000290 37 51 81 3d a1 8c 70 3d 60 44 7b 3d a5 fb 5f 3d
       0.063143186 0.058727864 0.061344504 0.054683346
0002a0 d8 99 f1 3c a5 81 3e 3d a7 8b 02 3c 74 11 37 bc
       0.029492304 0.046510357 0.007967866 -0.011173595
0002b0 0c 26 43 3d 5c f9 20 3d 9e 93 a1 3c 4d 38 81 3d
       0.047643706 0.039300308 0.01972371 0.06309567
0002c0 91 57 82 3b 33 bb fb 3c bb f8 c2 bb 57 c8 aa 3d
       0.003977724 0.030728912 -0.005950061 0.08338993
0002d0 ad ad 08 bd 2c 2b 7b 3d d3 bc 62 bd d8 6c 07 3d
       -0.033368755 0.06132047 -0.055355858 0.033062786
0002e0 96 f7 5a 3c 98 29 35 bd 26 6c 61 3d 56 25 3d bd
       0.013364693 -0.04422912 0.05503478 -0.046178184
0002f0 7c d9 c3 bc 32 ac 63 3d e5 f2 b6 3d 0a 90 89 bc
       -0.023907416 0.05558414 0.08933047 -0.016792316
000300 ad 83 d9 bc d1 bb 63 bc f0 e5 96 bc 53 4b 24 bd
       -0.026552046 -0.013899759 -0.01842019 -0.040110897
000310 c4 ec 8f 3d a7 f5 63 3d ce 04 0a bd 4c ff f5 3c
       0.07027581 0.055654194 -0.03369599 0.030028962
000320 ca ca bc bc 8b 63 8d 3b 7c 9c 68 bb 9c 4c 52 3d
       -0.023045916 0.004314845 -0.0035493663 0.05134259
000330 e5 4e 46 3c 0b 52 98 3d 55 89 2e 3d 41 d0 0e 3d
       0.012103771 0.074375235 0.04261144 0.034866575
000340 a7 5c 59 3d 35 a2 52 3b ac 21 3e bd b6 18 97 3d
       0.053066876 0.003214014 -0.04641883 0.0737776
000350 f1 2a 36 3d 2e 93 59 bd 83 e1 7a 3d 19 c0 d3 3c
       0.044474546 -0.053118877 0.06125022 0.025848435
000360 35 d0 8d 3b fc ae ef 3b fc 71 be bc c6 73 95 3c
       0.0043277987 0.007314561 -0.023247711 0.018243682
000370 ec 06 6a 3d 41 27 d8 bb ea b8 ce bb f9 5a 0a bc
       0.057135507 -0.0065964763 -0.0063086646 -0.008444541
000380 07 ee 22 3d ca 04 e4 ba 63 b2 1d 3d f4 18 2d bd
       0.03977778 -0.0017396447 0.0385002 -0.042260125
000390 06 16 67 3d 85 a4 bd bb 13 84 66 bc 87 ba 3e 3d
       0.056417488 -0.0057874345 -0.014069575 0.046564605
0003a0 c8 64 7b 3d fe b3 f8 bb 2b 29 83 3d 74 56 62 bc
       0.06137541 -0.007589816 0.064043365 -0.013814557
0003b0 74 5e 2c bc 8b 49 be bc 74 b8 49 3c 52 a4 c8 3d
       -0.010520566 -0.023228427 0.012312043 0.097969666
0003c0 1c f9 38 bd 7a b2 c7 3c 83 de 17 3d 4f 89 af bc
       -0.045159444 0.024377096 0.037077438 -0.021427779
0003d0 63 67 e9 bc bb 88 32 bd 3b b6 76 3a c5 c1 b6 ba
       -0.028491681 -0.043587428 0.000941131 -0.0013943246
0003e0 3f 7f e9 bc 27 3b b4 3d c2 6b 6b 3d d5 e3 8e 3d
       -0.028503058 0.08800345 0.057475813 0.06977049
0003f0 74 06 9c bc 80 9e 6c bd e3 83 10 3d d8 aa 2e bd
       -0.019046046 -0.057768345 0.035282027 -0.042643398

weight f4 [128, 256]
000000 55 21 0f bd 69 1d a7 bd ed 0d 1e 3d 03 06 91 3c
       -0.034943897 -0.081599064 0.0385875 0.017703062
000010 7a 81 ea bc cf b9 27 3c 72 b1 9e bd 73 b3 93 bd
       -0.028626192 0.010237171 -0.07748689 -0.072119616
000020 13 c3 ec 3d d7 3b ac 3d b5 a9 49 3d f9 e0 50 3c
       0.11560645 0.08409851 0.04923411 0.01274895
000030 f2 f1 20 bd bc 28 38 39 b8 3b a8 3d fb 9f d2 3d
       -0.039293237 0.00017562782 0.082145154 0.1028442
000040 fc 1a ca 3c 7a ee c5 3c 44 d5 3a 3d d8 24 c2 bc
       0.02467107 0.024161566 0.045613542 -0.02369921
000050 a0 3f 97 b5 83 df 04 bd bf e2 ef 3c 1a db 81 3c
       -1.1268894e-06 -0.03243972 0.029282926 0.015851546
000060 9c cd 15 bc d7 60 d6 b9 64 ba d0 bc d0 89 72 3c
       -0.009143259 -0.00040889412 -0.025479503 0.014803365
000070 48 11 6e 3a b5 0f 25 bc e0 54 7d bc 08 84 65 3b
       0.00090815546 -0.010074546 -0.01546213 0.0035021324
000080 a3 9d f9 3b 01 f6 73 3c cb 5e 0f 3d 72 5e f6 3c
       0.0076176687 0.014890195 0.03500251 0.030074332
000090 b1 25 37 bd d9 e2 84 bd 33 78 10 bd 2f 83 53 bc
       -0.04471368 -0.0648858 -0.03527088 -0.012909695
0000a0 fc 8b 7d 3c 21 91 0a 3d 4f 21 b3 39 94 32 89 3c
       0.015475269 0.033829812 0.00034166357 0.01674775
0000b0 51 5d f2 bc f4 a0 0f 3c ab e8 27 bd 3a 14 38 3d
       -0.029585512 0.008766402 -0.040993374 0.044941165
0000c0 11 05 c9 3c cd 5e 8e bd 1a 83 cb bb d1 db aa 3d
       0.024538549 -0.069516756 -0.006210697 0.08342708
0000d0 e2 fa 74 bd 2e 81 88 3c ce 08 61 bc b7 7f 5d 3d
       -0.059809573 0.01666316 -0.013735009 0.054076876
0000e0 c0 f3 c5 bb d4 bc 49 bd 6f 03 fc ba 02 8c 1a 3d
       -0.00604102 -0.049252346 -0.0019227098 0.037731178
0000f0 c7 cc 93 3d fd ac 63 3a 6d d6 17 bd 49 ae 80 bd
       0.072167926 0.000868514 -0.037069727 -0.06283242
000100 7a 10 04 3d 5f 38 84 3d 3e 95 b3 3c a4 87 be bc
       0.032242276 0.064560644 0.02192175 -0.023258038
000110 d6 72 58 3c bd 1d 9b 3c 89 94 97 3d e3 98 44 bd
       0.013210973 0.018935079 0.07401378 -0.047997367
000120 ea 5e 69 bd 9b 51 8a 3d 3c bc c2 3d c0 9f 98 3c
       -0.056975283 0.06753846 0.09508559 0.018630862
000130 48 89 0c 3d b2 4e 87 3b af 75 7d bc 4d 8c 76 3d
       0.03431061 0.0041292543 -0.0154699525 0.060192395
000140 12 45 15 bc 4c 10 96 3d f9 09 75 bd f8 7c 61 bc
       -0.009110706 0.07327327 -0.059823964 -0.013762705
000150 1a a9 99 3d 91 df e9 3c f4 66 84 3c 8f 13 b9 3d
       0.07502957 0.028548988 0.016162373 0.09036934
000160 1b ef 7f 3c b3 23 b2 3c 82 65 51 3c 07 41 7a 3d
       0.015620972 0.021745538 0.012780549 0.06109717
000170 3b 9f f4 3c 91 d8 6a 3c 41 11 dc 3c b6 42 54 3c
       0.029861083 0.01433386 0.026863696 0.012955358
000180 aa 77 b2 bd 36 4e 71 3d 24 c9 3d bd 91 58 ce 3d
       -0.0871423 0.05891248 -0.0463344 0.100754865
000190 95 6d 41 3b b1 ef ed bc 50 4e 37 bc f9 95 34 bc
       0.002951478 -0.029044958 -0.011188105 -0.011022084
0001a0 7a ce 17 3d 84 fc 04 3b f0 ee 1e 3c 72 8e 2b bd
       0.037062146 0.0020292113 0.009700522 -0.041883893
0001b0 ed 4f 88 3d 95 21 85 bc 5d c9 17 3c 68 19 7e 3d
       0.0665587 -0.016251365 0.009264317 0.062035948
0001c0 b4 56 dd 3c 13 0d 89 3d c3 ba 92 bc 62 dc a3 3c
       0.027018882 0.06691947 -0.01791132 0.020002548
0001d0 94 81 e9 3b 57 1a 39 bd 04 ab ba bb 34 92 88 3c
       0.0071260426 -0.045191135 -0.005696656 0.016671278
0001e0 bc 47 a9 bc 92 d4 52 bd 36 f3 cb 3d ce 35 90 3d
       -0.020664088 -0.051472254 0.09958498 0.070415124
0001f0 68 3f ea 3d 13 d6 79 3d b8 ce b3 3c bf 1e 83 3d
       0.11437875 0.060995173 0.021949157 0.06402349
000200 42 7d 02 bd de fb 42 bd 0c 93 29 bd 5a 0f 4a bd
       -0.031857736 -0.04760348 -0.0414 -0.049331047
000210 21 22 2e bd f6 2e 43 bc 1a bf 6f 3d d6 14 55 3b
       -0.042513017 -0.011913052 0.058531858 0.003251364
000220 93 74 ac 3c 47 60 19 bd 12 8f c9 3d 6c 2d 70 3d
       0.02105168 -0.037445333 0.098417416 0.058637068
000230 68 df 2a bd c1 fa 6e 3d 76 8b 54 bd f2 6b 94 bc
       -0.041716963 0.058344606 -0.051890813 -0.018117879
000240 2d 9c ad 3d 14 29 d2 3d 5d 55 43 bd 19 a6 cd bc
       0.08477054 0.10261741 -0.04768883 -0.025103616
000250 55 0f 0f 3b 81 c0 0d 3a c9 ad b9 bc 20 41 05 3d
       0.0021829207 0.00054074085 -0.022665875 0.03253281
000260 cb 15 4d bb 35 97 8b bc 9a f1 e3 3c 29 85 e1 bc
       -0.0031293507 -0.017039875 0.027825166 -0.027529316
000270 7a be 2b bd b0 63 51 3c a0 f6 44 3d 46 ee 8e 39
       -0.0419297 0.012780115 0.048086762 0.00027261878
000280 72 6f 27 bd 1f e7 02 3d e9 e9 ac 3d 79 2f 93 bc
       -0.040877767 0.031958696 0.08443052 -0.017966973
000290 5d 4e c6 bb 77 88 c7 3a 77 9f 0d 3d 11 c4 bb bd
       -0.006051822 0.0015223165 0.034575906 -0.09168256
0002a0 63 6e 6f 3d e7 fb 2f 3d 73 31 ab 3d ce df 85 bb
       0.058454882 0.042964842 0.08359041 -0.0040855175
0002b0 cc 7f 6d bd ba 52 98 3d 71 67 b2 3c a3 1d 23 3d
       -0.057983205 0.07437654 0.02177784 0.039823186
0002c0 09 20 8f 3c 3f 51 7e bd c4 53 04 3a 35 95 93 3c
       0.01747133 -0.0620892 0.00050478824 0.018015483
0002d0 e6 51 84 bd b2 30 6e 3d af c4 da bc 67 82 97 bd
       -0.064609334 0.05815191 -0.026705114 -0.07397919
0002e0 3d bf 3f 3d 14 78 99 3a 1e f9 92 bd 1a 0b 91 3d
       0.04681324 0.001170876 -0.071764216 0.070821956
0002f0 c0 96 9b bd 08 19 6a bd 71 55 f9 3b 46 60 b5 3d
       -0.07597113 -0.057152778 0.0076090624 0.08856253
000300 6a 54 f3 bc 9c d3 35 bd d3 c2 1d bd de ce 04 bd
       -0.029703338 -0.04439126 -0.038515877 -0.032423846
000310 83 f3 14 3d 6d 40 57 3d 28 60 2a bd 14 a2 81 3d
       0.036365043 0.052551676 -0.041595608 0.06329742
000320 30 a3 82 3d 8b f8 a1 3c 9c 91 a0 bd c9 e7 08 bd
       0.06378782 0.019771835 -0.07840273 -0.033424173
000330 be 1e 34 bd 07 8f 14 bd 31 2c 86 3c cd c7 cd 3c
       -0.04397463 -0.036269214 0.016378494 0.025119686
000340 fc a0 7b 3d 6d 36 3c bd 6d e8 87 3b e1 fe 57 3d
       0.061432824 -0.045950342 0.0041475804 0.052733306
000350 fb 79 90 3c 14 85 b6 3d a9 ca 04 bd 0d 79 2d bd
       0.01763629 0.089121014 -0.032419834 -0.04235177
000360 12 24 a7 bd ff 4e 67 bd 27 7a 8c 3d 14 12 b6 3c
       -0.08161177 -0.05647182 0.06859236 0.022225417
000370 2c 54 2d 3d 1a f5 6a bd fb 7d b7 3d fb 71 d8 3d
       0.0423166 -0.057362653 0.08959576 0.10568615
000380 36 fa d5 3c 98 46 10 bd bb ff 9d bd b7 6b ca bc
       0.026120286 -0.035223573 -0.07714792 -0.024709566
000390 44 21 c5 3b 65 ef a5 bc d3 6b 0e 3b 19 56 1c bd
       0.0060159285 -0.020255754 0.0021731749 -0.038168047
0003a0 18 2d 08 bb 3d 0b a2 3c 75 a5 2f 3d 97 ed a6 3c
       -0.002077883 0.01978075 0.0428824 0.020376964
0003b0 16 78 48 bc 05 ad d5 bc e2 95 93 3d 34 99 5d 3c
       -0.012235662 -0.026083479 0.07206322 0.013525296
0003c0 8c d8 6a bd 88 39 b0 bb 3c ed 8d bc 26 3d c1 3c
       -0.05733542 -0.005377952 -0.017325036 0.023588728
0003d0 c0 07 47 bc 10 2e fe ba c1 73 d0 3d dc 15 b3 bd
       -0.012147844 -0.001939239 0.10178328 -0.08744404
0003e0 f5 22 04 3d 02 4e d2 bc f2 d0 f2 bc 49 d3 05 3d
       0.0322599 -0.025671963 -0.029640649 0.0326722
0003f0 1c 13 29 3d 1f 66 35 3d 47 19 59 3d bd 9f b9 bb
       0.04127799 0.044286843 0.053002622 -0.0056647942

bias f4 [128]
000000 82 4e c5 3c 8b 3d 7a 3c 14 4d e8 bc 30 10 21 bd
       0.024085287 0.015273462 -0.028357066 -0.03932208
000010 86 71 4a bd 2a f4 23 bd 6a aa 24 3d a5 b2 94 3d
       -0.04942467 -0.040027775 0.040201582 0.07260636
000020 f1 52 b2 3b 7b 30 4b 3d d2 ff 2d bd 6f 6c 79 bc
       0.0054420163 0.04960678 -0.042480297 -0.0152236065
000030 92 56 52 3d b7 2c 2a bd 41 91 36 3d 49 13 93 3c
       0.05135209 -0.04154655 0.04457212 0.017953532
000040 31 03 07 3d 0b e5 b6 3d 9f 6b aa 3d 45 d6 83 bc
       0.032962028 0.08930405 0.08321308 -0.016093383
000050 88 78 27 3d e7 09 5c 3d 90 35 e4 3c b6 b2 03 bd
       0.040886432 0.05372038 0.027857572 -0.032152854
000060 5e 9c ab 3b 2b de 20 3d e9 c1 2a bc 28 34 fe bc
       0.0052371463 0.039274376 -0.010422208 -0.03103073
000070 90 b6 64 3d 31 3d f5 3b a1 71 ca bc 1d 9d 1e 3d
       0.055838168 0.007484101 -0.024712386 0.038724054
000080 04 0e 09 3c 1b 20 d3 bc fe e0 05 3c 7c db 61 3d
       0.008365158 -0.025772145 0.008171318 0.055140957
000090 8f 94 e4 3a 1b 39 af bc 8b a0 e4 bc ee 2d 0d bd
       0.0017439293 -0.021389535 -0.027908584 -0.03446763
0000a0 cb cf d4 bc 7c e5 e6 bb 16 63 de 3b e4 0a 9f 3d
       -0.02597799 -0.0070463996 0.0067867143 0.07765749
0000b0 46 83 43 3b ea d7 9f 3c f7 e3 80 3d 69 97 cc 3c
       0.0029832884 0.019512136 0.06293481 0.024974542
0000c0 7c a9 c8 bc a3 ab bb ba 39 f4 2a bc ef 5e 07 bd
       -0.024494879 -0.001431812 -0.010434204 -0.03304952
0000d0 41 95 07 bd a6 f0 a3 bc 5f 17 92 3d cb db 31 3d
       -0.033101324 -0.020012211 0.07133364 0.0434225
0000e0 a0 99 a2 3d d2 7c 0d 3d ae 94 99 bc 61 80 2b 3d
       0.07939458 0.034542866 -0.018747654 0.04187048
0000f0 73 c3 60 3d e5 43 1d bc 9a a8 05 bc 34 77 aa 3d
       0.054873895 -0.009598707 -0.0081578735 0.083235174
000100 75 23 03 3d 81 59 60 bd 0c 6a 6d bd 20 00 01 bd
       0.032016236 -0.054772858 -0.057962462 -0.03149426
000110 3e 0c 5c bc 98 d2 b5 bc e8 a1 2d bd 8b cb 81 3c
       -0.013430653 -0.022195145 -0.042390734 0.015844127
000120 7c 88 b7 3b 3d 18 23 3c 47 81 9f bc 36 4f 4a 3d
       0.005600987 0.009954509 -0.019470824 0.049391948
000130 ae 3c 07 3d 91 59 15 3d 65 48 44 3d a1 4f 50 3d
       0.033016853 0.03646237 0.047920603 0.05085719
000140 45 bb 4b 3c 52 96 1a bd e4 18 0e 3d 50 f3 e9 bc
       0.012434785 -0.037741013 0.034691706 -0.028558403
000150 e8 f7 c4 3b c4 ab 7c 3b 42 52 43 3d fd 63 60 3c
       0.006010998 0.0038554529 0.04768587 0.013695714
000160 91 70 55 bd 94 2b 4c bd 49 d5 01 3c b0 19 13 bd
       -0.052109305 -0.049846247 0.007924386 -0.03591317
000170 db 97 63 bd 79 9c 51 3d a3 78 20 bd 19 0c 0a 3c
       -0.055564743 0.051174615 -0.03917755 0.008425736
000180 33 5c 3b 3d 63 d1 98 3b fa 8f 8b 3d 15 48 16 bb
       0.045742225 0.0046636327 0.06814571 -0.0022931148
000190 6b 0a 5e bc d0 6d 32 3d d6 26 dd bc a7 8c c0 3c
       -0.0135522885 0.043561757 -0.026996057 0.023504568
0001a0 19 02 20 bd ef d8 d5 bc d5 85 7b 3c 8d 5c 87 3d
       -0.0390645 -0.026104419 0.015351732 0.066094495
0001b0 bd 2a 84 bd ac dd 65 3c 07 7f dd 3b d8 e0 6d 3d
       -0.06453464 0.0140299015 0.0067595276 0.058075756
0001c0 95 e9 25 3c da 91 48 bd b1 92 03 3d dc 93 89 bb
       0.010126491 -0.04896722 0.032122318 -0.0041985344
0001d0 69 52 6f bc 6a 5f 90 3d bf 27 91 bc c2 f2 a0 3c
       -0.01460705 0.07049449 -0.017719148 0.019647006
0001e0 9f 09 7b 3d 67 b0 61 bd 76 3c 71 bb f0 78 01 bd
       0.061288472 -0.05509987 -0.003680972 -0.031609476
0001f0 56 d9 3b 3d 9a 46 01 bd 23 71 0c 3d 1c 7a ee 3c
       0.045861565 -0.03156147 0.034287583 0.02911096

weight f4 [64, 128]
000000 91 e8 d7 3c 1b 90 f0 3d a6 4a d4 3d 65 43 91 3d
       0.026356013 0.11746236 0.103658006 0.070929326
000010 b7 ed 89 3c 57 0e 20 3b c8 73 04 3e 82 4c a0 bd
       0.016836984 0.002442261 0.12934792 -0.07827093
000020 3c e3 ca bd 56 48 c6 bd 9a 12 f8 bb c0 30 6c 3d
       -0.09906623 -0.09681766 -0.007570577 0.05766368
000030 61 13 70 3d 96 89 35 3d 9b 69 03 3e f7 f7 7a 3d
       0.05861223 0.044320665 0.12833254 0.061271634
000040 50 02 8e bd 40 21 8e bd 28 2b 43 bd 49 25 52 3d
       -0.06934035 -0.06939936 -0.04764858 0.05130509
000050 43 36 29 bd 86 71 52 3d fd 1d ac bd c2 35 b6 bc
       -0.041311514 0.051377796 -0.08404157 -0.02224243
000060 23 8f 44 3d fb 1d 92 3b 4c 7d e4 3d 77 b0 0d bc
       0.04798807 0.0044591404 0.11156711 -0.0086480295
000070 d1 a5 96 bc e8 37 84 bc 3b 9e f2 3d 64 eb e0 3d
       -0.018389614 -0.01613994 0.11846586 0.10982397
000080 2c ac 8b 3d c7 45 30 3c f0 8c 8e bb 58 c8 97 3b
       0.068199486 0.010758824 -0.004350297 0.004632037
000090 cb 09 a3 b9 7f c7 c2 bd 4d ae 76 3c 9b 51 9f 3c
       -0.0003109708 -0.09510707 0.015056205 0.019448092
0000a0 c8 aa f4 3d 16 70 89 3d aa 78 80 b9 c1 90 84 bd
       0.119466364 0.06710832 -0.00024503964 -0.06472922
0000b0 a6 59 ed 3b 1d 14 a0 3d 65 58 ab 3d c8 4d 52 3c
       0.007243353 0.07816336 0.08366469 0.012835927
0000c0 df 2d e2 3b da bb 42 3c bd c4 30 b0 05 d2 12 bc
       0.006902441 0.011885608 -6.430801e-10 -0.008961205
0000d0 51 f7 08 3e 85 f4 db bd 76 cd b6 bc 14 80 3b 3d
       0.13375594 -0.10739998 -0.022314768 0.04577644
0000e0 f8 4d b1 3d 83 30 a6 bd 26 0d ed bd 32 bf 94 bd
       0.086574495 -0.081147216 -0.115747735 -0.0726303
0000f0 66 74 e8 3b dc 97 8f 3d b6 fb 58 3d 2f 53 ba 3c
       0.007093954 0.07011387 0.052974425 0.022744743
000100 04 a6 cc 3d 49 d0 93 3d 18 a6 d6 bb 52 38 d7 bd
       0.099926025 0.072174616 -0.0065505616 -0.10508789
000110 44 5d e0 bd 27 0a 5d 3c 6d a8 c1 3d 25 32 8e 3d
       -0.10955289 0.01349119 0.09455953 0.06943158
000120 d9 f7 eb 3d ce 4c 98 3c 74 5e 1b 3c 57 68 6e 3d
       0.115218826 0.01859131 0.009482969 0.058204975
000130 16 66 8b bd 5d fc f6 3d 66 04 a7 bd 53 b5 4e bc
       -0.06806581 0.12059853 -0.08155136 -0.012616473
000140 82 de c9 39 13 54 d2 3c 6e db 9e 3b 45 96 5f bb
       0.0003850349 0.025674855 0.0048479354 -0.0034116667
000150 e4 b1 8f bd bb 06 c2 b6 e7 f1 96 3b c2 20 69 3d
       -0.07016352 -5.782434e-06 0.0046064737 0.056916006
000160 e6 2c 7e 3c eb c3 b2 b9 74 f2 89 ba b8 dc 4d bd
       0.015513634 -0.00034096776 -0.0010524527 -0.050259322
000170 03 d5 f4 3d cf fd 98 bb 31 1b e6 3c d8 e5 1a 3b
       0.11954691 -0.004668928 0.028089138 0.0023635533
000180 14 40 81 bc 44 37 72 3d 60 cc 1b bd 4f 0d 97 3c
       -0.015777625 0.059134737 -0.038036704 0.018438963
000190 e2 f4 cf 3c 1e 1f 9b bc 8e 46 b1 3d 81 64 5f b6
       0.025385324 -0.018935736 0.08656035 -3.328809e-06
0001a0 f0 b3 85 3c 67 49 c6 bc d4 4d f4 3c 62 87 1b bd
       0.016321152 -0.024204923 0.029822268 -0.037970908
0001b0 bb 8b 90 bc 50 21 4d bb 85 9e d8 bb ec 73 62 bc
       -0.017644754 -0.0031300373 -0.006610694 -0.013821583
0001c0 c3 44 08 3e bd 40 a8 3d 37 3e 46 3d 69 ad c6 bc
       0.1330748 0.08215473 0.048399176 -0.02425261
0001d0 91 6f 1b 3d 65 61 fd 3c 3b 09 48 3d 38 e7 0a b9
       0.037948195 0.03093023 0.048836928 -0.00013246841
0001e0 75 4d 06 3c 6e 3c 2d bc fa e1 85 ba e0 06 2c 3c
       0.008197178 -0.01057349 -0.0010214441 0.010499686
0001f0 9e 2c 82 3d c5 1f 03 3b 0e 62 e7 bd 29 5e e1 bd
       0.06356166 0.002000795 -0.11297999 -0.11004288
000200 7f e5 74 3b 65 a0 7a 3c 12 67 72 3d 08 9b f1 bb
       0.0037368236 0.01529703 0.059180327 -0.0073732175
000210 2f c4 d3 bb b2 54 f7 bc b6 b4 6e 3b 6b ce 87 bc
       -0.006462596 -0.030191753 0.003642363 -0.01657792
000220 36 c7 aa 3b 77 33 f8 bc 61 03 bf ba df 36 94 ba
       0.005211736 -0.030297978 -0.001457315 -0.0011307857
000230 37 30 7c 3d 10 9f 17 b8 79 b6 27 3b 64 10 59 3d
       0.06156942 -3.6149344e-05 0.002559094 0.052994147
000240 73 3d 3a 3d 1f 2a 1e bd 8e 45 97 bd cb dd f3 3b
       0.04546876 -0.03861439 -0.073863134 0.0074422113
000250 03 a7 57 b8 3f ab 8e ba c2 9b 65 bc c1 95 d3 3c
       -5.1415536e-05 -0.0010884776 -0.014014186 0.025828244
000260 fe 58 9a bc 70 6c 18 bd 32 39 61 3d 9e d2 6a 3b
       -0.018841263 -0.03721279 0.054986186 0.0035831104
000270 c9 c0 b3 3c 3a 05 0e bd 00 60 98 bd 93 af 27 3c
       0.021942513 -0.034672953 -0.074401855 0.010234731
000280 75 7a 1d bc 5b da 91 bd 1c 21 6c bb 9d 5b 3f bd
       -0.009611716 -0.07121726 -0.0036030477 -0.04671823
000290 79 ad f9 bc 59 3d 95 bc d9 67 1b 33 11 11 0f bd
       -0.030478226 -0.01821773 3.61832e-08 -0.034928385
0002a0 7f ca b5 bc 05 a3 e1 bb ef bb 1d 3b 2d be 84 bc
       -0.022191284 -0.0068858885 0.0024068316 -0.016203964
0002b0 1d de 7d bc 10 8c 15 bb b2 33 88 bc 67 24 6d bb
       -0.01549485 -0.002281908 -0.016626213 -0.0036185028
0002c0 de 25 83 3c 42 b7 c3 ae 81 56 8f b9 90 b9 20 3d
       0.016009267 -8.9001265e-11 -0.00027339536 0.039239466
0002d0 ee 6b d5 bc 80 de 4b 3d 73 52 71 3b 06 d9 43 3b
       -0.026052441 0.04977274 0.0036822825 0.0029883995
0002e0 df 29 08 3d 7e 03 ae bb d6 d9 33 3d 3d 80 27 bc
       0.033243056 -0.005310475 0.043908916 -0.0102234455
0002f0 1a f3 5f 3c 6e 96 c9 3c ad 11 a7 3c dd c1 c2 bc
       0.0136688 0.024607863 0.02039417 -0.023774082
000300 fd 67 75 3b 32 c9 8b 3a 6a 38 d4 ba 52 45 52 3b
       0.0037446015 0.0010664819 -0.0016191129 0.0032084775
000310 1a 24 ae 3a 7f 13 1d 33 e6 f7 38 3d b4 76 8c 3b
       0.0013285906 3.6572143e-08 0.04515829 0.0042866115
000320 4c 84 2b bd aa f6 e6 3c 0e 53 33 bd 73 5b 00 bc
       -0.041874215 0.02819379 -0.04378038 -0.007834303
000330 4f ee bb bb 15 fd 1a 3d fb 1a 36 bc 16 1d 2b bd
       -0.0057351957 0.037839014 -0.011114831 -0.041775785
000340 50 71 8c 3a 72 09 11 3b cd e5 43 3d ab 82 43 bc
       0.0010714922 0.0022130874 0.047826577 -0.011933009
000350 9c d1 ee 3b e4 99 5e b0 ab a1 b5 3a 50 cb cc ba
       0.007288171 -8.098182e-10 0.0013857385 -0.0015624557
000360 81 0d 4d 3d 6b 49 14 b8 6c 95 96 3b 33 d0 92 ba
       0.050061706 -3.5354326e-05 0.004595449 -0.0011200964
000370 67 9f 7a bd 00 c7 27 3d e9 f5 08 b5 ef bf 93 3c
       -0.061187174 0.040961266 -5.1021794e-07 0.018035857
000380 24 6b 18 3c 8c 05 9c 3b e0 c6 45 3a 44 3a de 3a
       0.009302888 0.0047614034 0.00075445883 0.001695462
000390 0d 32 7b b9 d9 2c e3 3b c5 f5 44 3c f0 95 13 39
       -0.0002395587 0.0069328365 0.012021487 0.00014074869
0003a0 aa 4a 43 3d 75 e2 8d bc 88 52 68 3d 66 fd 60 bd
       0.047678627 -0.017319897 0.056719333 -0.05492916
0003b0 e2 a1 30 3d 00 32 86 3b ce 8d 3b bc dc d8 8c bc
       0.043123133 0.004095316 -0.011447383 -0.01719325
0003c0 a5 26 ed 3c 08 0d 0a bd cc 95 06 bd f5 bf 27 bd
       0.028949091 -0.033703834 -0.0328577 -0.04095455
0003d0 16 0d ad 3c f6 cf 87 bd 97 4f 82 3b a3 e2 3c bc
       0.021124404 -0.06631462 0.003976773 -0.011528644
0003e0 9f 6b d1 3c 0c a6 44 b8 92 91 35 3c f1 f7 98 bd
       0.025564013 -4.6884685e-05 0.01108207 -0.07469166
0003f0 08 3a 96 bd b8 15 85 3d 62 d7 3a bc f0 bd c9 b9
       -0.07335287 0.06498283 -0.01140389 -0.00038479222

bias f4 [64]
000000 17 96 07 3d 0e 13 67 bc ca ed 06 b9 6f ba 52 bd
       0.03310212 -0.014103664 -0.00012867819 -0.05144733
000010 8f c4 6c 3d f8 23 35 3d 4d 22 6e 3d 32 9f 4a 3d
       0.05780464 0.044223756 0.05813818 0.049468227
000020 b3 08 92 bd 72 10 f7 bc 8a cd f5 bc 34 64 99 3b
       -0.071305655 -0.030159209 -0.030005235 0.0046811346
000030 7a 33 9b 3d 6b 83 34 bd 57 3e 55 bd da a3 9a 3b
       0.07578178 -0.044070642 -0.052061405 0.0047192397
000040 7f c8 4f bd e8 4e e5 3c c8 d7 72 3d e3 06 13 3d
       -0.050728317 0.027991727 0.059287816 0.03589524
000050 1f d7 18 bd f2 0d 79 3c 83 ac 28 bc 92 a4 7c 3c
       -0.03731453 0.015201079 -0.010295036 0.015420096
000060 c8 99 f5 3c 1e ad a5 3d 2e 19 3f bd 69 06 9b 3d
       0.029980555 0.0808966 -0.046654873 0.07569582
000070 a0 5e 95 b8 04 3a 20 3d 34 0c ed 3c c4 9d c2 3d
       -7.122499e-05 0.039117828 0.028936483 0.09502748
000080 3a db 3a 3c 35 2a 78 bd 4a 8c 0c bd 7e 45 3f bc
       0.011404807 -0.060587127 -0.034313478 -0.011674283
000090 a5 d3 36 3c 89 c3 d9 bc b7 ad 2a 3d d4 b3 c3 3d
       0.011158858 -0.026582496 0.041669574 0.09555784
0000a0 6c fe 0d 3d d6 f1 4d 3b ff 93 af 3d 62 b8 17 bd
       0.034666464 0.0031424663 0.0857315 -0.037041076
0000b0 3c 8f 7a bd 9e e6 e1 3d e2 0a 64 bc 5c d7 9d bc
       -0.061171755 0.11030315 -0.01391861 -0.01926773
0000c0 53 7e 63 3d f3 98 83 3d 10 01 33 3d 55 95 91 3d
       0.055540394 0.06425657 0.043702185 0.07108561
0000d0 1a 8b db bb e9 8d c3 bc 49 d3 95 3d 18 80 85 bd
       -0.006699932 -0.023871379 0.0731569 -0.065185726
0000e0 31 f7 22 bd 44 40 7a bd fc 54 a8 bd d2 ef c6 3c
       -0.03978652 -0.061096445 -0.082193345 0.024284277
0000f0 63 b0 75 3d ad 31 9f 3d a8 e6 55 bd 25 89 5d 3d
       0.05998267 0.07773147 -0.052221924 0.05408587
