models/model_objs/nba_model_pregame.pth (torch, 889165 bytes, 11 tensors)

weight f4 [256, 186]
00000000: 989a d93c 2674 0d3d 5ce1 f93c 9bb8 a8bb
00000010: 4562 7f3d cef1 20bd f651 4e3c c0e2 51a7
00000020: b385 043d 2082 00bd 691b b13c 7a56 d4bb
00000030: e973 5b3d 63fa 02bd b5fa 18bd 3ce7 19bd
00000040: 6c6e 8b3d 7079 ef3c 1890 963d 071a 69bd
00000050: e514 89bd 4571 5fbd fa14 15bd dcf7 243d
00000060: 7c6f 153d 4495 813d 5fd8 d3bc ef34 24bd
00000070: 13de 093d 0f3c ddbc 062b 513d bfcd 81ba
00000080: 5908 3d3d 4d0e 4abd 05d4 00bd 1a85 c63c
00000090: 0f08 c53c 8d3c 9fbc 8ffa 223d d865 3b3d
000000a0: 26f9 4dbd 5f09 07bd eb38 8e3d 35a3 a5bc
000000b0: 6359 a6bc 38b4 99bd ece5 3bbd 6574 603c
000000c0: 2363 36b9 f83b 14bd 73ec 223b 4413 e7bc
000000d0: c635 25bd 022c 9abc 0b3f ecbc f2aa 9cbc
000000e0: e453 3d3d 955f e53b bf0c 2b3a d53b 8abd
000000f0: a8e1 c8bc 3ec2 97bc bb6e a03a 96cf 3abd
00000100: d82d 81bc a9c4 84bc 77b4 02bc ebf8 94bc
00000110: 59f1 02bc e3c5 d6bc 9b2f d7bc 20d9 5dbc
00000120: 691e f3bc 2955 b8bc b5ee b33c aeaa 02bd
00000130: 3103 5a3c c3f7 4ebc bc9d 4cbd 6224 c23c
00000140: 77c4 e2bc debe ffbc d500 5abd 087d a4bd
00000150: dc75 24bb 947d 03bd 05c9 5cba 2d2d 2cbd
00000160: 7157 12bb 7e9b 1ebd da73 eebb d453 1cbc
00000170: c0f9 503c 1309 793d 7332 463d 9c4c 76bd
00000180: 8127 81bb 4dec d5bc 5801 2238 3eed 80bd
00000190: 769f 253d d411 3cbd 0b50 8e3c ea0e 123c
000001a0: 9b09 093c e159 22bd 53fc 28bd 733d 8a3d
000001b0: 1f0a b43a a5e2 62bd 643f e33c 9303 ffbc
000001c0: 6c37 1fbd c73a 223d d08f 44ba 51a7 6abd
000001d0: abfe 4dbd f94f 04bc 7a1c 8e3c 5485 b2bc
000001e0: bfee 2abd bd5c 0ebd 4ec8 90bd f549 893c
000001f0: 42f7 173d 5a28 83bd 0eea 823b 4c4b 1a3c
00000200: 7dd2 5abc 1df7 0dbd c832 7a3c 410b 753c
00000210: 4194 063c cede c7bc de2d a2bb 99e6 2fbb
00000220: 087f d6bb 0c69 9abc ad8f a53c 21df 3a3c
00000230: b326 12bc f046 e2bb 5438 563b 6fda 77bc
00000240: c9ba 923b 9167 3a3b 8a5c 91bd 3994 febc
00000250: 7c50 383d 77b6 393c 6a09 c7bb afa7 02bd
00000260: 8536 bebc 0aeb d6bc 4e67 11bd 402f dd3a
00000270: ee52 48bc dbbd 913c bcde 32bd c4c6 26bd
00000280: 2e7e f4bc ec5e 193d 7af2 83b8 324a 13bd
00000290: c3a0 9e3c 24b9 febc be56 33bd c752 113d
000002a0: 8924 13bd 365a 9bbc f246 99bd 4fa0 d63c
000002b0: cff5 083d 68a3 353c 57b2 8ebd 28b9 a6bd
000002c0: 40fd 89bd ec91 c83c be02 5abd 36dd dd3d
000002d0: 8cc6 9b3c b234 80bb 47a2 1cbc 37d5 4ebd
000002e0: 6ea7 5fbd 474f 9cbd 4ce0 c13c d58a 0cbd
000002f0: 4fd0 3abb 30f2 50bd 4b09 413b 51b4 fbbc
00000300: 36ca febc 5e52 7b26 a3bc a3bc 163f 553c
00000310: 18c4 febc 1db8 dabc accb 783b ff6f d6bc
00000320: c30b 01bc c75e 83bd 9062 cb3c 1925 0ebd
00000330: fc8b 063d f5b9 973c ffbc 6b3d fe42 55bd
00000340: 6114 753d af62 abbc de50 1b3d 7b1c 7c3d
00000350: aa97 833b c441 243c d5dc d6bc 8c72 84bd
00000360: b8b4 283d a89d 5cbd de47 313d 7f14 843d
00000370: baef 783d ade4 3bbb 4470 60bd 48c5 8a3c
00000380: e882 163d b308 69bd 807b 8cbc 9492 a7bc
00000390: 0f13 043c 4de5 b5bc bbb7 8bbc 647c 4cbd
000003a0: e063 b9bd 1cec c43c 5dec 2f3c c6c1 0fbd
000003b0: 152c e0bc 78f8 cebc 8f3b 21bd 9a67 0abd
000003c0: ef9f 8fbb 65a3 fbbc 2e9d 0abd 72a3 b4bc
000003d0: d9f4 47bc f026 a7bc d68a dfb8 80fe 16bd
000003e0: 1283 99bc 95eb 53bc 1485 fdbc c1c7 973b
000003f0: b268 fdbc d3db f03b 0d2a a7bc c5ee 68bc
0.026562974 0.034534596 0.030502968 -0.00514896 0.062349577 -0.039293103 0.012592783 -2.9127498e-15
0.032354068 -0.031374097 0.021619515 -0.0064800354 0.053577337 -0.03197707 -0.037348468 -0.037574038
0.06808171 0.02923271 0.073517025 -0.056909587 -0.066934384 -0.05455138 -0.036396958 0.04027544
0.036483273 0.06327298 -0.02586001 -0.040089544 0.033659052 -0.027006177 0.05106642 -0.0009903236
0.04615054 -0.049330045 -0.031452198 0.02423339 0.024051694 -0.019438053 0.039789733 0.045751423
-0.050286435 -0.03296792 0.0694445 -0.020219425 -0.020306295 -0.07505077 -0.045873567 0.013699626
-0.00017393804 -0.036190003 0.0024860173 -0.028207429 -0.040334485 -0.018819813 -0.028838655 -0.019124482
0.046222582 0.0069999197 0.00065250316 -0.06749693 -0.024521664 -0.01852524 0.0012240032 -0.045608126
-0.01576893 -0.016207056 -0.0079775965 -0.0181851 -0.007992112 -0.026217407 -0.026267817 -0.013540536
-0.029677587 -0.022501545 0.02196441 -0.031901054 0.013306425 -0.012632313 -0.049955115 0.02369899
-0.027681572 -0.031218942 -0.05322345 -0.0803166 -0.0025094664 -0.032102183 -0.0008422288 -0.04203527
-0.0022329951 -0.038722508 -0.007276994 -0.009541471 0.012754858 0.06079967 0.048387956 -0.060131654
-0.003941477 -0.026113654 3.862506e-05 -0.0629525 0.040435277 -0.04591544 0.017372152 0.008914689
0.0083641065 -0.039636496 -0.04125626 0.06750002 0.0013735926 -0.055391926 0.027740188 -0.031129634
-0.038871214 0.039606836 -0.00074982364 -0.05728847 -0.0502917 -0.008075708 0.017347563 -0.021792091
-0.041731592 -0.03475641 -0.07069455 0.016758898 0.037101038 -0.06404181 0.0039951866 0.009417366
-0.013355848 -0.034659494 0.015270896 0.014956296 0.008214057 -0.024398234 -0.0049493155 -0.0026840328
-0.006545905 -0.018848918 0.020210112 0.011405737 -0.008920359 -0.006905429 0.0032687383 -0.015127762
0.004477833 0.0028443078 -0.070977286 -0.031076537 0.04499863 0.011335007 -0.0060741203 -0.031898197
-0.023219356 -0.026235122 -0.03549891 0.0016875044 -0.012226803 0.017790725 -0.043669447 -0.0407169
-0.029845323 0.03744404 -6.2917316e-05 -0.03595943 0.019363767 -0.031094141 -0.043783896 0.035479333
-0.035923515 -0.018963914 -0.07484235 0.026199488 0.033437546 0.011086322 -0.069676094 -0.081407845
-0.06737757 0.024483643 -0.05322527 0.10833208 0.019015573 -0.003912532 -0.009560174 -0.050496306
-0.054603033 -0.076323085 0.023666523 -0.034312088 -0.002850551 -0.051012218 0.0029455002 -0.03072563
-0.031102281 8.7194747e-16 -0.01998741 0.013015529 -0.031099364 -0.02669912 0.0037963195 -0.02617645
-0.007876339 -0.06414562 0.024827272 -0.034703348 0.032848343 0.018521288 0.057553288 -0.05206584
0.059833888 -0.02092108 0.037918918 0.0615506 0.0040158825 0.010025445 -0.026228348 -0.064671606
0.04118797 -0.05386129 0.04328143 0.06449222 0.060775496 -0.0028670237 -0.054794565 0.016939774
0.036745936 -0.05689306 -0.017148733 -0.020455636 0.008061185 -0.022204066 -0.017055383 -0.049923316
-0.09052253 0.024038367 0.010737506 -0.035096906 -0.02736477 -0.025264964 -0.03936344 -0.03379021
-0.0043830792 -0.030717561 -0.033841304 -0.022050593 -0.012204372 -0.020404309 -0.00010659329 -0.036863804
-0.018739257 -0.012934585 -0.030947246 0.004631967 -0.030933712 0.007350424 -0.020405794 -0.014217083

bias f4 [256]
00000000: 22ca 78bd 1010 d73b 95df bfbc be1f 5d3d
00000010: 3573 41bb 5898 32bd 9543 713c 7c48 0cbd
00000020: 1335 ef3c 3719 8ebb 3d48 0ebd 0d84 823c
00000030: 327e d13c ded1 263d fea7 34bd bd38 e73b
00000040: 6034 49bd c415 36bd 039d 6a3b 055a 993d
00000050: 0291 383c 9f46 08bd 447d 42bd ab6d 313d
00000060: 7c7d b63d 8916 423d 77a6 c53d 185e 7ebd
00000070: 8d93 703b 039e 9dbb ddcd 273d bf72 ee3c
00000080: 0a5b 113c 3a87 1fbd b638 22bd 514f 753d
00000090: b3ea 683d 1457 36bc 6acb 763d f75f 363d
000000a0: 5f19 a53c af5f 2dbd c731 a8bd 70b2 90bc
000000b0: 866d 663d b96c 58bd 164b 873d 7e6b 34bd
000000c0: e497 ea3c 65b3 17bc f27b 0fbc fb41 093b
000000d0: 5084 a63c 2077 453d 2463 5d3d 29ef 9b3c
000000e0: 7ec4 963c e4d1 a9bc 376a 5fbb e240 2bbd
000000f0: 2e38 d13c c2e3 7a3c 2b38 ba3c 1e34 4cbd
00000100: 2479 33bd 6701 45bd 4c0d 2fbb b0c0 bebc
00000110: 6eea 9cbc 4284 183c c86c 06bd cee9 963d
00000120: 3415 58bd d6bc 68bc 382f b53d 52df 123d
00000130: 95bc 8dbc b99e 3e3d 57c7 ffbb 2d21 4abd
00000140: 96f6 9f3c f6c4 32bc 83c6 1bbd 6ca0 9bbc
00000150: c787 a63d 09d6 5b3d c8dd aa3d b37e eabc
00000160: d308 3e3d 5df6 6c3d 7e72 9cbd 0897 63bd
00000170: 4e02 4e3d 8f6b e4bb 84eb 2c3c 12ab bd3d
00000180: 31ad 8fbc 00dc 6c3d c33d 0e3c c64b 683c
00000190: 688f eabc 8b22 efbc 98aa 9c3c 9838 1d3d
000001a0: ce8e 59bd 992f 5cbd 48b0 ab3c 856a 053d
000001b0: 4e0b 823b 8aa2 42bd 7859 8b3d 56e1 c53c
000001c0: c03e ab3b c0c5 babc d9b4 1cbd b798 c83d
000001d0: 9f6d f13d b483 bfbc f6ff 1b3d a3d2 a2bb
000001e0: 962d 37bb 3e56 65ba 89a7 f33a 7bfa d93c
000001f0: e9d0 37bd 94c7 5bbd 8b55 27bd b130 b2bb
00000200: abf3 963d 7217 9a3d 81e6 b63d b54a 033d
00000210: 577e f83c 8a62 8b3d 85e0 4dbd c4c1 a23c
00000220: 7650 723d 329f 873c 2ae9 1d3d 0a41 a63d
00000230: 00ad 8d3d 0ab3 c23c 4c7f e53c af10 033d
00000240: d14f a13d 9225 dc3d 4df0 31bd 3cea b7bc
00000250: 8156 ac3d 3fcc 693d 82f9 223d f2fd c0bc
00000260: 9b66 923d 02d3 0cbd 2c9c ddbc eebc 19bd
00000270: da9e 043d a843 c5bc 8aff b73c 6e3b 86bd
00000280: f450 98bc d651 adbc 68c6 8e3b f516 7bbb
00000290: edf0 bf3c 93da 9abc 7490 cebc 58ec 273d
000002a0: a566 f7bc 792c 1d3c 14ef 123d 9c9d 3b3d
000002b0: 879c bcbc 2a59 00bb a3a7 93bc 3478 66bd
000002c0: 3efa 9d3d 4e3d 993a d10e 12bd 836c bbbc
000002d0: 1093 c53d 0ff5 9a3d b9da c93d 3120 7fbd
000002e0: 9c1c fdbc fa83 1bbd f425 383c 9c32 9e3c
000002f0: 72fa 8cbc 21fa 693b d7a8 54bd de70 a33d
00000300: 2098 653d 1fea 98bc 162f 9c3c 5481 803d
00000310: 564b 18bd 0934 b93d 0966 61bd d33b 81bb
00000320: 95bd af3d 6f14 063c efb8 453d 2294 afbc
00000330: 6394 553d 45cb 2ebd 5ee6 07bd 6b2b 9c3c
00000340: 4fd3 87bc 6384 f63c d94d a8bc f67f 9d3d
00000350: 162f c5bc 8c0e 343c fbc4 2bbd b147 a43d
00000360: 2c69 66bd acb1 453d d723 9dba 925a 42bd
00000370: c4e3 56ba 8a14 23bd 60ea 50bc 5a64 703d
00000380: 8b8a bbbb 9d23 943d 87c1 1bb9 a80b b23d
00000390: 927f 5abc bd2d 8abd 6704 203d 5896 87bc
000003a0: fd48 723d 1dfb b13d 02a6 cf3c 84d7 2cbc
000003b0: 700c 943d fc82 383d e3e8 773d e819 38bc
000003c0: 9dfe 123d d655 0c3d c7b8 3bbd d46d 09bd
000003d0: cdad c13c 3e1f af3d f776 bc3d f620 8b3d
000003e0: fdc7 bd3d 9bb6 96bc 77f0 493d 5d75 65bd
000003f0: 16d6 37bd ddab 49bd cd01 f7bc 28b6 7fbd
-0.060739644 0.006563194 -0.023422042 0.05398535 -0.0029518132 -0.043602318 0.0147255855 -0.034248814
0.029200112 -0.004336502 -0.03473686 0.015932107 0.02557287 0.04072749 -0.044105522 0.0070563243
-0.049122214 -0.04445435 0.0035799153 0.07487873 0.011265041 -0.033270475 -0.047482744 0.04331748
0.08910653 0.047384772 0.09650891 -0.062101454 0.003670904 -0.004810096 0.04096781 0.02910745
0.008871803 -0.03894732 -0.039604865 0.059890095 0.05686445 -0.0111291595 0.060252585 0.044525113
0.0201537 -0.04232758 -0.08212619 -0.01766321 0.056256793 -0.05283806 0.066061184 -0.044047825
0.02863688 -0.00925908 -0.008757578 0.0020943868 0.020326763 0.04820931 0.054049626 0.019034939
0.018404242 -0.020729966 -0.0034090409 -0.041809924 0.025539484 0.015313091 0.022731861 -0.04985439
-0.0438167 -0.04809704 -0.0026710806 -0.02328524 -0.019154754 0.0093088765 -0.032818586 0.073688135
-0.052754596 -0.014205178 0.08846897 0.035857506 -0.017301837 0.04653809 -0.0078057456 -0.049348045
0.019526761 -0.010911217 -0.038031112 -0.018997394 0.08131366 0.053670917 0.08343083 -0.028624868
0.046395134 0.057852138 -0.07639025 -0.055563956 0.050295167 -0.00697083 0.010554198 0.09261145
-0.017538639 0.057826996 0.008681717 0.014178222 -0.028632835 -0.029191276 0.019124314 0.03838405
-0.053114705 -0.05375633 0.02095808 0.032572288 0.003968633 -0.04751829 0.06804174 0.0241553
0.0052259862 -0.022799373 -0.038258407 0.09794753 0.11788487 -0.02337823 0.0380859 -0.0049689575
-0.0027950755 -0.0008748508 0.0018589358 0.026608696 -0.044876967 -0.05365713 -0.040853065 -0.0054379334
0.07370695 0.07524003 0.08930684 0.032053668 0.030333681 0.06805904 -0.050262947 0.019867785
0.059158765 0.016555402 0.03855244 0.08117874 0.06917763 0.023767013 0.028014801 0.031998333
0.07876552 0.107493535 -0.04344206 -0.022450559 0.08414937 0.05707955 0.03978873 -0.02355859
0.07148477 -0.03438092 -0.027052008 -0.037533693 0.032378055 -0.024080113 0.022460718 -0.06554304
-0.018593289 -0.021157186 0.004357148 -0.0038313244 0.023430312 -0.018903052 -0.025215365 0.04099688
-0.030200312 0.009593123 0.035872534 0.045804605 -0.023023857 -0.0019584396 -0.018024271 -0.05626698
0.077137455 0.0011691244 -0.03565866 -0.02287889 0.096471906 0.075662725 0.09856171 -0.06228656
-0.030897431 -0.03796766 0.0112395175 0.019311242 -0.017209265 0.0035702067 -0.05191883 0.07980512
0.05605328 -0.018666325 0.019065421 0.062746674 -0.03718122 0.09043128 -0.05502895 -0.003943899
0.08581082 0.008183583 0.04827207 -0.02143294 0.052143466 -0.04267432 -0.03317868 0.019063672
-0.016580252 0.030092424 -0.020544933 0.07690422 -0.024070304 0.010989796 -0.041935902 0.080214866
-0.056252643 0.048265144 -0.001198883 -0.047449656 -0.0008197392 -0.03981451 -0.012751192 0.058689453
-0.0057233027 0.07233355 -0.00014854046 0.086936295 -0.013336079 -0.06747005 0.0390667 -0.016551182
0.05915164 0.08690474 0.025347713 -0.01054943 0.07228935 0.04504679 0.060524832 -0.011236645
0.03588735 0.034261547 -0.045830514 -0.033552006 0.023642445 0.08550881 0.09202378 0.06793396
0.0926666 -0.01839762 0.04930159 -0.05602013 -0.044881903 -0.049236167 -0.030152226 -0.062429577

weight f4 [256, 256]
00000000: ab01 293d 326d 10bd 4f3d 5cbd 9ecd fb3b
00000010: d602 ba3d 358c e237 300d 283b afda 063d
00000020: 9178 c5bc 9193 30bd 54cf 813d e575 1a3b
00000030: cfdf 213d 807a 163d 9331 02bd ab2f dcbb
00000040: fb9a 51bb 72e7 1f3d b524 6c3d abfe 053c
00000050: 8709 2bbd 3eaa 27bb 7fd4 833c 9085 9a3d
00000060: 4566 983d 7450 f63b 6eda 1a3d f505 12bc
00000070: 488c bf3d 801a 763d 4994 2f3d a1e4 453c
00000080: 6a52 35bd 1d2a 103d bcb5 3d3d a33f 1e3d
00000090: a007 62bc c1a9 9abd f5ab 263d 1d19 e83c
000000a0: 7242 68ba 85d9 35bc 13ac 933c 649a 00bc
000000b0: 454a 863c 35ec d7bc 4b03 223d 236d 91bd
000000c0: fddc 6cbd 5df6 ae3c 90ca 59bc 8ab4 6bbd
000000d0: 1ea0 72bd 020b 903d 055f 41bd ebe7 bbbc
000000e0: 6980 cd3b a071 3cbd 6291 32bd 9222 ffbc
000000f0: c016 003d 1a6a 5abc 2397 f03b 0718 943c
00000100: ac9f 873c 22fa e6bc 6d28 683d 8900 82bc
00000110: 776b 2c3c 61dc 57bd be0e 60bd f1a9 7ebc
00000120: 6651 853d 6c63 213c 2b7a cb3c 7caf 1c3c
00000130: b2f2 213d 6ce2 903c 0092 3a3b 008d dabc
00000140: b493 3cbd 0c68 93bd 4552 2f3d b955 66bd
00000150: b7b7 c6bc 9be8 5f3d b7da 59bd 7e2d dabb
00000160: e36d 223c db50 51bc facd 8bbc b390 01bd
00000170: 57bf 1f3d 8fd0 c6bb fe10 8c3d 5091 b33c
00000180: e2c1 cfb9 a718 aa3c 9136 debc c825 39bd
00000190: e2d6 4cbd 34ea 5abd 6406 d4bc 01a2 403c
000001a0: 21f6 33bb ad06 07bd 4eaf 7d3d 0525 0dbc
000001b0: 58c8 453c e805 d73c d7f7 87bd 5753 0abc
000001c0: 3bbb 2fbd da2b 30bd 5d44 403d 3b20 4a3b
000001d0: a384 003b 1088 a23c 94aa c1bb c65c c03c
000001e0: 9b18 9e3c e927 6dbd b8ea 6e3d d48a 38bd
000001f0: a1b7 343c 0bdd 9d3d f73e 10bd 11cc 2a3c
00000200: 7013 b63d a604 c63b 0752 7cbd 9348 0f3d
00000210: eb69 803b 906c b5bd 7016 13bd 63ee 4e3d
00000220: 28d0 d8bc 172c 8b3c d47b 02bd c7ed 3bbd
00000230: 2de7 c83d 05b4 ec3c 71ce 693d 51bb 793d
00000240: 1169 8c3c efdd 2b3a 2585 893d be44 a63b
00000250: 33e3 873d 8a1d 433c 13e3 64bd 6c38 683c
00000260: 2ecf 3cbd d1fc 5abd ed2e 82bb 47b9 063d
00000270: fba8 69bd 5bef 243c 40f0 e1bc bb01 84bc
00000280: 1488 80bd 9166 54bd fccb 77bd a2e6 57ba
00000290: d8ae f63c c417 993d 2648 913c 1ffc 36bb
000002a0: 010b 54bd 903c 353d f530 e83c b0e9 2bbd
000002b0: 0594 f0bc cfa4 c83c b917 41bd d653 32bd
000002c0: d8ba 2f3c a0eb ebbc b5a1 a5bb 0fb5 723c
000002d0: 4414 143d 510a c53d 600e bb3c 48ab 213d
000002e0: 6cf0 ef39 18fb e3bc 8aa1 1b3d 4a3a 43bd
000002f0: 6eeb 31bd aea4 2fbc 34af bdbc 270f e7bc
00000300: fca7 ea3c ba08 b3ba 7636 16bd c331 68bd
00000310: ca9a 033d a1ac 0d3c 0c00 4a3d a87a 4d3c
00000320: eace 68bc 69ca 773d 1e40 033c 296d 843d
00000330: eea2 88bd a01b cf3c 7a74 b13d dec1 5b3d
00000340: e01c f93c 25d1 d2bc 8173 913a 31c4 603d
00000350: b26e cc3c 8b2b e6bd e43c 313d 5f98 063a
00000360: 7118 f13c ebd3 18bc 0536 8f3c a0bb 0e3d
00000370: dc95 9d3d c2ce 823b 896b b0bc d54f b73c
00000380: 493d f5bc 939c 573d b87a 073d 8c50 fb3c
00000390: babe b53a 940a 023b 9626 263c 1a6c 093d
000003a0: 1db5 f63c 2c64 3bbc 6257 043d f33f aebc
000003b0: 0159 e13c 7580 c53c 0fe4 a9bc dec3 2e3d
000003c0: 2bad 41bd b48b 3ebb b61b 303c ce38 7e3d
000003d0: a4e6 383c a84d 3c3b a4e1 1fbd 2f0d 2bbc
000003e0: 51bf 37bd 9bc2 6b3c 1421 c63c 1617 843b
000003f0: 13b5 363c 08ec 55bd ce1c 4dbd 9157 48bd
0.041261356 -0.035260387 -0.053769406 0.0076844236 0.09082572 2.7006588e-05 0.0025642626 0.032923397
-0.024105342 -0.04310948 0.06338373 0.0023568806 0.03952008 0.03673792 -0.03178556 -0.0067195497
-0.0031983245 0.039039083 0.057652194 0.008178393 -0.041757133 -0.002558365 0.016092537 0.07545006
0.07441381 0.007516915 0.037805967 -0.008912553 0.093529284 0.060083866 0.042866025 0.012078435
-0.04426805 0.035196412 0.046315894 0.038634907 -0.013795763 -0.07551909 0.040691335 0.028332287
-0.0008859999 -0.011099224 0.018026387 -0.00784931 0.016392836 -0.02635775 0.03955392 -0.07100894
-0.05782794 0.02135771 -0.013292924 -0.057545222 -0.05923473 0.070333496 -0.04720976 -0.022937736
0.006271411 -0.0460068 -0.04359568 -0.031144414 0.031271696 -0.013330961 0.0073422357 0.018077863
0.01655563 -0.028195444 0.056679178 -0.015869396 0.0105236685 -0.052700404 -0.05470156 -0.015543447
0.06509666 0.009850364 0.024838528 0.009563323 0.039538093 0.017686091 0.002846837 -0.026678562
-0.0460393 -0.0719758 0.042803068 -0.056234095 -0.024257524 0.05466519 -0.0531871 -0.006658255
0.009913894 -0.012775625 -0.01706599 -0.031632137 0.039000835 -0.0060673426 0.068391785 0.021919876
-0.0003962657 0.020763708 -0.027125629 -0.045202047 -0.050009616 -0.05344601 -0.025881954 0.011757375
-0.0027459937 -0.03296535 0.06193476 -0.008614783 0.012071691 0.026247934 -0.066390686 -0.008442721
-0.042903166 -0.04301057 0.046940196 0.0030841965 0.0019610308 0.01984027 -0.005910227 0.023481738
0.019298842 -0.05789939 0.058329314 -0.04505427 0.011030109 0.07708176 -0.035216298 0.01042463
0.08890426 0.0060430346 -0.061601665 0.03498132 0.0039188764 -0.08858597 -0.03591007 0.050520312
-0.026466444 0.016988797 -0.031856373 -0.04588106 0.09809718 0.028894434 0.057081643 0.060969654
0.017139943 0.0006556203 0.067148484 0.0050741127 0.06635132 0.011908898 -0.055880617 0.014173608
-0.04609602 -0.05346376 -0.003972879 0.032891538 -0.057045918 0.010066832 -0.02758038 -0.016114106
-0.06275955 -0.051855627 -0.06049727 -0.0008235966 0.030112669 0.07475236 0.017734598 -0.0027921272
-0.051768307 0.04424721 0.028343657 -0.04197091 -0.029367456 0.02449265 -0.047141764 -0.043536983
0.010725699 -0.028798878 -0.0050546774 0.014813676 0.03615214 0.09621108 0.022834003 0.039469987
0.0004576476 -0.027829692 0.037995853 -0.04766301 -0.043437414 -0.010720415 -0.023154832 -0.028205467
0.028644554 -0.0013659217 -0.03667303 -0.05668808 0.03213004 0.008647115 0.04931645 0.012541451
-0.014209488 0.060495768 0.008010892 0.06466133 -0.06671701 0.025281727 0.08664794 0.053651683
0.030409276 -0.025734494 0.0011097045 0.054874603 0.024955127 -0.11238774 0.04327096 0.00051343994
0.0294306 -0.009327869 0.017481813 0.034846902 0.07694599 0.0039919326 -0.021535652 0.022376934
-0.02993645 0.052639555 0.033076018 0.030678056 0.0013866045 0.001984273 0.010141036 0.03355036
0.030115658 -0.011437457 0.032309897 -0.021270728 0.02750826 0.024109105 -0.02073863 0.042667262
-0.047284286 -0.0029074969 0.010748794 0.062065892 0.011285458 0.002873281 -0.039033547 -0.010440155
-0.044860188 0.014389659 0.024185695 0.0040310724 0.01115157 -0.05222705 -0.0500763 -0.048911635

bias f4 [256]
00000000: da59 2b3d 12de 8b3d 2a88 b83c 9849 b53c
00000010: 1f87 c03b 4113 4a3d 24ab d73b 81e6 923d
00000020: ce11 1f3d 93c5 65bd 9db4 4d3d c81b 59bc
00000030: 166a 993d 5c6c 9dbb c755 4bbb be19 913d
00000040: e9ba 14bd 2897 073c a352 473d c084 423d
00000050: 991d baba 6285 a03c 128a 143b b0e4 2fbd
00000060: fe54 31bc 34ca 223d 4f9f 433d 1192 9e3c
00000070: d6c8 163d 203a 6b3d a8d1 a23d d8c7 38bd
00000080: 8e8f 86bd 5e14 39bb 836d cf3c f483 be3c
00000090: 6df3 17bd ed39 a83b 8d73 0dbd 2d80 c2bc
000000a0: 70e7 bc3c 203f a23c 6355 06bb 6990 763d
000000b0: 0053 793d b737 953d 45ec 03bd 80e6 6d3d
000000c0: 32f9 233d a2f4 b3bc f114 4cbd 10a1 f13b
000000d0: e1c8 323d e794 373d f54f 413d 9004 403d
000000e0: e17a 933d 2958 7b3d beb1 3e3d e926 903d
000000f0: f755 d73b b1d8 9fbc e949 5b3d 7449 b5bc
00000100: 27d2 b3bb f475 573d 43d1 5f3d 8484 31bd
00000110: b94a 4dbd f54e c73c eb76 ac3b 6edd 413c
00000120: 0e2c 67bc 63a5 adbb bba8 3dbd 33c8 853d
00000130: f1d0 c73d 5b03 d93c 70da 18bd fe07 4d3c
00000140: 00d5 f3bc 9841 583c 8e5a 2c3a 1bcc 723d
00000150: e1a7 373d b687 453b b5a2 efbc e13d 903d
00000160: 69b6 28bc d479 adbc 2fab 29bd 881d 3dbd
00000170: ba2d 2abd 50ec 2abd 28b3 aabc 2d6a a93d
00000180: 9311 683d 5a99 423d c6cd 113d 33b7 28bd
00000190: a627 583d 10d1 963d ec82 093d f9c0 f53b
000001a0: b6b1 243c 3ce6 98bb e0bc 06bd e01d 3e3d
000001b0: a402 833d d068 21bd d7b9 d73c a841 3e3d
000001c0: c268 933d 6da3 4fbc f7ea 92bc 4892 69bd
000001d0: 066b 14bb 397c fe3c 2fb6 8f3d 5aa5 673c
000001e0: f2c5 93bd 94a7 743c c3dc b13d 9cbb a23c
000001f0: be16 833d ca2c 09bd 56e0 c6bc 7c0b 48bd
00000200: 3689 483d 7dce 44bd d746 593d e1d5 d8bb
00000210: ac9b 1e3d 8117 223d b26b 9f3c ca53 5fbc
00000220: a616 b13d c89c 033c 163c 9e3d a0c8 b33c
00000230: 9925 cdbb 29c5 de3c 80ae 07bd 77ce 343d
00000240: 2941 21bd 4dc2 143d d4ab 873d 41a4 a53b
00000250: a95c 383c b9c6 573d 8546 d33b a5cf 853c
00000260: bc6e 3b3d 7b18 1dbd a912 0bbd dbe8 afbb
00000270: ef1a 0cbc fd93 ad3c dba2 d9bc df7f ae3d
00000280: d0f9 b7bc 9bfb 453d c37f 9bbb f972 fabc
00000290: 3fbe 843d c902 e63c 657d 873d 0372 b7ba
000002a0: 6a12 2e39 1010 873b 369e d13c 79af b8bc
000002b0: d0fe d2ba 2a75 e1bc d356 813c ce16 203a
000002c0: e97f da3c eef1 643d 1841 733c 2d3b 01bd
000002d0: e84e 52bd d75e 8a3d bb09 49bd 2751 0e3d
000002e0: 6281 b1bb 25a7 633d 0ce2 fdbc e127 783c
000002f0: f01c 4e3d 8e28 c2bc 282a 8abc dffa 123d
00000300: 8e37 2e3b f081 823b 1944 b239 ff8e 0e3d
00000310: c017 6c3d a8d8 9bbc 1be8 323d 2619 543d
00000320: 479c 1dbd ff49 e0bc 1a91 393c e652 eb3c
00000330: 8a42 d03c c86f fb3b 0261 8a3c be2c 6cba
00000340: d37a 523b 764c 1cbd 21d1 26bd ed9a 3c3d
00000350: 916a 69bc a1fc 8c3d c384 b13b 88d4 9f3c
00000360: de1a fb3c 9912 08bd 49d7 33bd 8080 033d
00000370: 7038 8d3d acde 6fbd c603 c4bc 2d6a 7ebb
00000380: 5077 1abd cac3 503d f8d8 1f3d 26ed a1bc
00000390: 386c 9f3c 4794 903d 510b 1b3d 4834 af3c
000003a0: 76d9 01bd cc0e 02bc 7a39 ecbc e439 133d
000003b0: 8bbc bbbc 2e54 4fbd e6e8 a43d 2f4e ae3c
000003c0: a2d0 563c 181c 1e3d 4191 bf3b ce64 293c
000003d0: 2f27 0d3c 0221 bbbc be5b d3b9 06b9 3a3d
000003e0: a1dd bd3b 8d9d d9bc 400c 16bc 7c2a 083d
000003f0: eaa8 7b3c 0e5e ecbc da53 5cbc cc84 143c
0.041833736 0.06829466 0.022525866 0.022129819 0.0058754827 0.04933477 0.006581681 0.071728714
0.03883534 -0.056096625 0.050221074 -0.0132512525 0.074909374 -0.004804177 -0.003102647 0.07084988
-0.036311064 0.008275785 0.048662793 0.04748988 -0.0014199495 0.019594852 0.0022665304 -0.042942703
-0.010823486 0.039743617 0.04775935 0.01935676 0.036812626 0.05742848 0.07950145 -0.04511246
-0.0657035 -0.00282409 0.025320774 0.02325628 -0.037097383 0.0051338584 -0.034534026 -0.02374276
0.023059577 0.019805491 -0.0020497672 0.060196314 0.06087017 0.072860174 -0.032207746 0.05808115
0.040032573 -0.021967236 -0.04982466 0.0073739365 0.043648604 0.04481974 0.047195394 0.04687935
0.07201172 0.061363373 0.046556227 0.070386715 0.006571527 -0.019512506 0.053537283 -0.022129752
-0.0054876986 0.052602723 0.054642927 -0.043339267 -0.05012009 0.024329642 0.0052631996 0.011832578
-0.014109625 -0.0052992566 -0.046303492 0.065323256 0.09756649 0.026490858 -0.037317693 0.0125141125
-0.029764652 0.0131992325 0.0006574773 0.05927668 0.044837836 0.0030140704 -0.02925239 0.070430525
-0.010297396 -0.021176256 -0.04142302 -0.04617074 -0.041547514 -0.04172927 -0.020837381 0.082722045
0.056657385 0.04750953 0.03559663 -0.041190337 0.052772187 0.07364094 0.033572122 0.007499811
0.010052135 -0.004666118 -0.03289497 0.04641521 0.06396988 -0.039406598 0.026333733 0.046449333
0.07197715 -0.012673241 -0.017934306 -0.05702427 -0.0022646799 0.031065093 0.07017171 0.014138544
-0.072154894 0.014932532 0.08684685 0.01986485 0.06400822 -0.03348998 -0.024276894 -0.048839077
0.04895898 -0.048048485 0.053046074 -0.006617293 0.03872268 0.039573196 0.019460533 -0.013630817
0.08646898 0.008032985 0.07726304 0.021946251 -0.0062605855 0.027193623 -0.0331254 0.044142213
-0.039368782 0.036318112 0.066245705 0.005054981 0.011252561 0.05267975 0.0064476156 0.016334364
0.0457599 -0.038353425 -0.033953343 -0.0053683347 -0.008551343 0.02118873 -0.026566913 0.08520483
-0.022457987 0.048335653 -0.004745455 -0.030572401 0.06481599 0.0280775 0.06615714 -0.001399577
0.00016600793 0.004121788 0.025588136 -0.02254461 -0.0016097669 -0.027521688 0.015788471 0.0006106914
0.02667232 0.055894785 0.0148470625 -0.031550575 -0.051344782 0.067563705 -0.049081545 0.03474536
-0.005417035 0.055579323 -0.030991577 0.015146227 0.050320566 -0.023700979 -0.016865805 0.03588378
0.0026583406 0.003982775 0.00034001542 0.03480434 0.057639837 -0.019024208 0.043678384 0.051781796
-0.038479116 -0.027379034 0.011326099 0.028726052 0.025422353 0.0076732375 0.01689196 -0.00090093527
0.0032116666 -0.038158856 -0.040726785 0.046046186 -0.014246599 0.06884123 0.0054174378 0.019510522
0.03065246 -0.03322086 -0.043906484 0.03210497 0.0689553 -0.058561966 -0.02392758 -0.003882061
-0.03771144 0.05096797 0.039025277 -0.019766401 0.019460782 0.07059532 0.03785259 0.021387234
-0.031701528 -0.007938098 -0.028836 0.03594388 -0.022917053 -0.05061739 0.08052234 0.021277515
0.013111265 0.03860101 0.005846173 0.010338975 0.008615299 -0.022842888 -0.0004031341 0.04558661
0.0057942425 -0.026564384 -0.009158194 0.03324364 0.0153600965 -0.028853443 -0.013447726 0.009064864

weight f4 [256, 256]
00000000: 4507 87bc 5dd0 253d 2128 a7bc 399b 0dbc
00000010: 19fe 04bc b67b 0a3d 6d50 9ebb 6cc0 a7bc
00000020: 50f8 103d 1e78 77bc 84df 9d3c 499a a6bc
00000030: 3686 533d 1cf9 063c e16f 09bc 484a 29bd
00000040: c56a 053d f34b 37bc c16d 08bd 9002 dbbb
00000050: fbab 1dbd 229b dc3a e2ea c8bc 839e 3b3d
00000060: 8ace 52bc f175 2c3d 6fab 7cbc 1ae4 013d
00000070: bb39 a5bc 1ae3 983b 3c56 f73c 9770 b1bc
00000080: 9243 04bc 9e1b b33c a04e 6dbc c2d9 fabc
00000090: 5741 483d fd83 7dbc ee5b 1f3b dd67 953a
000000a0: 0f12 953c 05a6 153c a7fc 973c 48d2 ba3c
000000b0: 0e47 42bc 7907 15bc 4399 cbbc 13c9 403a
000000c0: bd0a 60bc 8ff9 c7bc aa83 c43c 12a6 133c
000000d0: 835d cabc b142 383d 221c bd3c 804d f83c
000000e0: 0ff0 2cbc 09d1 8a3b b41c b7bc 0882 413c
000000f0: 75f7 e13c 043e 9bbc 1e2b 2abd 4f0c 953c
00000100: 57df a83c d14b cb3c 5042 3739 d382 b63c
00000110: 282e d8bc 5a61 d9bc 306b adbc 06e2 ecbc
00000120: 2257 093b 11bf 4bbc 1c2f d53c e839 fe3b
00000130: b3a3 9dbc 1ac6 05bd 011b 243c 0401 a93c
00000140: f015 063d 328f 1b3c 1256 2a3c b9e4 123d
00000150: 0edc 80bc 4c8c 11bd af72 0fbd 2c54 da3c
00000160: ce1a 0bbd 3648 38bb cd31 e4bc 41c5 45bc
00000170: 5a5f 723c f027 e7bb 0921 a1ba 7dfd 103d
00000180: 083a 2d3d 037c e33c 18b2 533c 9ce3 173b
00000190: 80e3 b53b 4e06 0b3d cc7f 0c3d 6a16 ddbc
000001a0: 830a c5bb ec35 8e3c 7036 62bc 99ff 693c
000001b0: eea0 713d cadc 0b3c dfa1 953c e2ee 8c3b
000001c0: 4a9b a93b b45f eebc 135d 253d fb40 54bc
000001d0: 952b a9bb 397e 253d 92f5 d7bc a068 6bbc
000001e0: 9467 4a3c 319d 5abc 1f2a 643b 1fcb bdbc
000001f0: f691 4a3d e4e2 f03c 349d 263a 7f70 7d3b
00000200: 0912 573b 5175 203b 4eef f1bc 96e8 cfbc
00000210: e812 8f3c e4d5 a93c 6089 c5bb 8d6f 4e3d
00000220: 3314 df3b e13d 12bd 6554 073d a3bd 343d
00000230: 8f32 233c 030c 1d3d 3706 60bb a2eb b33c
00000240: a5ca a83c f905 953b 957e 353d d295 b0bc
00000250: 45c4 573c 0e5f 603d cba7 b53c a229 08bc
00000260: 2cf0 81bc 6116 f9bc a970 56bb e999 bbbb
00000270: a7c1 da3c 483b 87bc de58 313d 1985 033d
00000280: 15aa 0bbc 0029 463c 1aec 5c3c b67a 193c
00000290: 0227 df3b 1fbb 80bc a5d5 e83c acf9 f63c
000002a0: ea9b ae3c f216 f7bc 222d bd3c ccc0 bdbc
000002b0: f109 56bc 9820 04bc 03f5 573c 6f0b 013d
000002c0: 0d37 8e3c d6a5 953c b3e6 d63c 28e2 bfbb
000002d0: e402 15bd 8c54 4a3d cebc 98bc 9e5f e5bc
000002e0: 14db 0a3d 25ad a5bd 4c5d 7fbb bc4b adbc
000002f0: 66f8 07bd f502 073d f212 373c f4f6 a23c
00000300: 1609 08bc 859c 9c3b 6ed1 4ebc 25bc 16bc
00000310: ee88 a6bc 3e25 b73c 5d76 76bb 87a4 99b9
00000320: e7a1 95bc 1419 8a3b f56d b3bb 8b22 283d
00000330: fc2a ad3c 929e d03c ed14 3b3d 1c60 393d
00000340: 746b 783c c920 f13c c43c 16bd e9a9 e8bc
00000350: 0ad4 11bd 04f5 a73c a9c1 ccbc b845 e93c
00000360: b715 b4ba e89c 1fbc a0e0 4dbc a89b dfbb
00000370: 67c2 593d acf5 05bd 7240 a8bb fc6f a53c
00000380: ac9e a53c 4ede 8c3c e6e9 6c3a 88ee 7e3a
00000390: 9086 493d b9da 2fbd faf1 4b3d 5454 37bb
000003a0: 7d28 703c 4422 c2bc e6c2 36bc 0820 503d
000003b0: 6f80 7cbc 5bd6 e43c ede5 ed3c 8c22 f73c
000003c0: e30d f23a 2a0c d6bc 1d08 19bd 49a0 7abc
000003d0: 30ea 0bbd c8e9 d33c 3cac 2f3b ff9a 69bc
000003e0: ab7b 023c 49db 93bc 21d1 253b 6b30 b23c
000003f0: f620 87ba 6d97 0f3c e7c8 9a3b 3202 1a3d
-0.016482959 0.040481914 -0.020404877 -0.008642965 -0.008117222 0.033809386 -0.004831365 -0.020477496
0.03539306 -0.015104322 0.01927162 -0.02033724 0.051641665 0.008238103 -0.00838849 -0.041330606
0.032572526 -0.011187541 -0.033307794 -0.006683655 -0.03849409 0.0016830901 -0.024526063 0.045805465
-0.012866626 0.042104665 -0.015421732 0.031711675 -0.02016913 0.0046657445 0.030192487 -0.021660132
-0.008072751 0.021863755 -0.014484078 -0.030621413 0.048890438 -0.015473363 0.002431627 0.0011398752
0.018197088 0.00913382 0.018553091 0.022805348 -0.011857761 -0.00909602 -0.024853354 0.0007354181
-0.013674435 -0.024410991 0.023988564 0.009011762 -0.024702793 0.044985477 0.023084704 0.030310392
-0.010555281 0.0042363447 -0.022352554 0.011810787 0.027583817 -0.01895047 -0.041545026 0.018194346
0.02061431 0.024816426 0.00017476943 0.022279179 -0.026389197 -0.026535679 -0.021169275 -0.02891637
0.0020956476 -0.0124356905 0.02602344 0.007758368 -0.019243097 -0.032659627 0.010016204 0.020630367
0.032735765 0.00949459 0.010396497 0.03586266 -0.01572993 -0.03553419 -0.03502148 0.026651464
-0.03396111 -0.0028119213 -0.027855778 -0.012070955 0.014793241 -0.0070543215 -0.001229317 0.035397995
0.04229167 0.027769094 0.012920879 0.0023176437 0.0055508018 0.03394156 0.034301564 -0.026988227
-0.006013216 0.017359696 -0.013806924 0.014282131 0.058991365 0.008536527 0.018265663 0.004300938
0.0051759826 -0.02909837 0.040371966 -0.012954946 -0.005162666 0.04040358 -0.026362214 -0.014368206
0.0123537965 -0.013343141 0.0034815145 -0.023168145 0.049455605 0.029405065 0.00063558226 0.003867179
0.0032817146 0.0024483989 -0.029533055 -0.02537946 0.01746507 0.020731874 -0.0060283393 0.050399352
0.006807828 -0.035703544 0.03303947 0.044126164 0.009960785 0.038341533 -0.0034183392 0.021962944
0.020604441 0.004547831 0.04431017 -0.021555815 0.013169353 0.05477815 0.022174736 -0.008310707
-0.015861593 -0.030406179 -0.003272096 -0.0057251346 0.026703669 -0.01650776 0.04329764 0.032109354
-0.008524437 0.012094736 0.013484025 0.0093676355 0.00681007 -0.015714226 0.028422186 0.03014835
0.02131458 -0.030162308 0.02309281 -0.023163222 -0.013063894 -0.008064412 0.013180974 0.031505045
0.017360235 0.018267553 0.026233053 -0.0058558173 -0.03637971 0.049397036 -0.018644717 -0.027999695
0.033900335 -0.08089665 -0.0038965521 -0.021154277 -0.033195876 0.032961804 0.0111739505 0.019893147
-0.0083029475 0.004779401 -0.012623174 -0.009200131 -0.020328965 0.022356626 -0.003760717 -0.00029305017
-0.018265678 0.0042144153 -0.0054757544 0.041048568 0.02113866 0.025466237 0.045674253 0.045257673
0.015162338 0.029434578 -0.036679044 -0.028401332 -0.035602607 0.020502575 -0.024994688 0.028475627
-0.0013739382 -0.009741999 -0.012565762 -0.0068239756 0.053163912 -0.032704994 -0.0051346356 0.020195
0.020217262 0.017195847 0.0009037539 0.0009724875 0.049200594 -0.0429332 0.049791314 -0.0027973847
0.014658091 -0.02369798 -0.011154866 0.050811797 -0.01541148 0.027934244 0.029040301 0.03016784
0.0018467273 -0.026128847 -0.037361253 -0.015297004 -0.034158885 0.025868312 0.002680554 -0.014258145
0.007964055 -0.0180489 0.0025301652 0.021751603 -0.0010309506 0.00876413 0.0047236565 0.03759975

bias f4 [256]
00000000: d625 553c db68 0abd 4db8 d63c ea9b 813d
00000010: c0fd 6abb 1e38 3ebd 9ccd 7e39 d454 20bb
00000020: 70ca 293d 3680 073d b12d f03c 9bca 643a
00000030: a2df 133d 1f68 333d d8dc 31bb a564 1bbc
00000040: 112c 1d3c f1bb 89bc 6125 d13c 2aca af3c
00000050: 71cb e63c 980c eb3b 3350 adbc 5df9 18bd
00000060: bbb3 52bd 0f4f 94bc 511f 193d 1145 193d
00000070: 33a8 783d cce4 44bc 2852 343d 9242 1c3b
00000080: 83c6 6c3b f200 493d 6b6e 29bc 63a5 313d
00000090: 4c02 863c 1bac 933b 040a 22bc dc1c 56bc
000000a0: b365 10bd ff46 063c 4093 793c 0a51 b13c
000000b0: 5811 0c3d 8014 02bd d13a 70bc 86f4 d4bb
000000c0: d461 2d3d 1024 c23c 4275 7abc 534d 3cbc
000000d0: 66e5 8f3d 6219 60bb 9c5e b3bb 40e3 103d
000000e0: 538f 943c 3f90 013d 3df2 573c 7612 dabc
000000f0: 4758 ea3c dc93 78bc 2e39 f0bc f004 e93b
00000100: bcef a1bc 8961 373d 544c e6b9 f36f 8abd
00000110: 7243 1d3d 4e18 8d3c 4c5f 223d 7294 77bd
00000120: 0226 4d3c 41bf d4bc 1efe 82bc 0364 c23c
00000130: 74e1 5abd 9e15 4b3b 0c4f af3b ffc8 063b
00000140: 0927 5c3d e84b aa3c b5eb 213d 5f96 a33a
00000150: 963e 15bd bb11 59bd b864 da3d 4efd 833c
00000160: d1a1 06bc 312b 47bc b429 3fbd 5a48 bd3c
00000170: b11d 5fbd bcad 863c aac6 323d d262 1cbd
00000180: b6fd 213d be9c dcbc af63 f6bc 1ad0 7e3c
00000190: f81a 7a3d f5c7 edb9 701e 7bbc 2978 593c
000001a0: f0a1 ae3a 2cc0 9f3d cd82 c33c 72ef f73c
000001b0: b69d fc3b e39f b9bb 981a 3f3d 7d03 9f3c
000001c0: 9c88 62ba cb90 663d a886 1d3d b40e e2bc
000001d0: 0f0a 2abc e93c 3d3d f7dc 3d3c 993c d53c
000001e0: 39e5 f1bc d780 caba f580 943c 80db a2bb
000001f0: 32b8 3d3d 3e6a 6a3d 747a 203d cd10 2a3d
00000200: 150e 303b 008c 03bc 99c9 f03c d544 513b
00000210: 7d1d 4f3b d159 65bc 5671 223c 1b7f 13bd
00000220: ac6d ad3c 4ebd dd3b 1e4e 583d 5da2 80bb
00000230: 8943 f5bc 4592 923c 6c16 a13a e982 a6bc
00000240: aa0e 273d 4ede 0e3d 1098 e03b 0efe 4d3d
00000250: 0595 0a3c 6d59 303d 9a4b d9bc 21e5 b23d
00000260: 4746 1e3b 7a3a 91bd 530a 8cbc 3e4c e63c
00000270: c7c1 2b3d 70e9 3bbc ee31 5f3d dd3a 2a3d
00000280: dd52 1bbd 7a7a adbb df9d 9abb c36c f53c
00000290: ea51 223d e055 583d 2486 8c3c 83e7 ee3c
000002a0: a307 333d 5c00 28bb f37e a4bb e7c6 9ebc
000002b0: 983a 573d 68e3 293d 676b f2bc a86c 63b9
000002c0: 09e0 17bd 44b4 a53c bc3e abbb f0cd 3d3d
000002d0: 8af9 2b3c 0069 933d 301b dd3c e174 05bd
000002e0: 1dee c3bc d3c2 2b3d 1075 3dbc bc39 90bd
000002f0: a86b 9fbc d474 e6bc 39ee c7bc 8351 9dbb
00000300: eb39 123d de65 a8bc 3134 eb3b f2aa 41bd
00000310: 99d0 f93c b2d8 343c d054 d6bc 096b 69bc
00000320: ea67 b93c 4986 4c3b cbe9 a43d 2869 a0bc
00000330: 6848 06bd 8135 0abc 5889 25bd c02f 183d
00000340: a901 183d a34c 15bd fcd0 3f3d 594e 5e3d
00000350: 69e4 1aba 2198 f73c 182a 4fbc f631 883c
00000360: e486 cabb c539 143d 2333 9d3d 531d 28bc
00000370: 7c6c ec3b 1b65 47bc 4017 883d ef56 8cb9
00000380: 1431 51bd d1c9 13bd 4477 b6bc 3407 44bd
00000390: 3785 7a3d 062c d7bc d1cf 403d 08c1 093d
000003a0: 26e5 87ba 25e1 dcba 8df0 a53d a647 a73c
000003b0: 8246 ce3b d644 2e3d ef1b 07bc e6c6 5abd
000003c0: 1748 263d 600f b73c 2117 9ebb 0f31 2f3d
000003d0: 54d6 81bc d6dd f63c 854a 003b 3709 79bb
000003e0: 8a86 043c bc27 543d 47ab fb3c 3681 45bc
000003f0: c257 bc3c 87c9 d13c 9c4e 05bd ffa5 da3c
0.013009509 -0.033791404 0.026210928 0.06328566 -0.0035856813 -0.046440236 0.00024299923 -0.0024464624
0.041452825 0.033081256 0.029318662 0.00087277003 0.036101945 0.04380047 -0.002713969 -0.009484445
0.009593026 -0.01681325 0.025530519 0.021458704 0.02817318 0.007173132 -0.021156406 -0.037347186
-0.051440936 -0.018104104 0.03738338 0.037419382 0.060707282 -0.01201744 0.044023663 0.002384339
0.0036129064 0.049073167 -0.010341267 0.043370616 0.016358517 0.0045066006 -0.009890083 -0.013068404
-0.035253238 0.008195638 0.015232861 0.021645088 0.034196228 -0.03175783 -0.01466246 -0.006498876
0.042329624 0.023698837 -0.0152867455 -0.011493045 0.07026176 -0.0034194817 -0.005473925 0.035372972
0.018134749 0.031631704 0.013180313 -0.026620131 0.028606547 -0.015171971 -0.02932414 0.0071111843
-0.019767635 0.04477075 -0.00043925887 -0.06759634 0.0383944 0.017223503 0.039641663 -0.060444303
0.012521269 -0.025970103 -0.015990313 0.02372933 -0.053437665 0.0030988227 0.0053499993 0.002056658
0.053748164 0.020788148 0.03953143 0.0012480727 -0.03643664 -0.052995425 0.10663742 0.016111996
-0.008217291 -0.012156294 -0.04667063 0.023105789 -0.054471675 0.016440265 0.043646492 -0.03818018
0.0395486 -0.02693021 -0.03007683 0.015552545 0.061060876 -0.00045353142 -0.015327081 0.013273277
0.0013323408 0.07800326 0.023866082 0.030265544 0.0077092303 -0.005664812 0.04665622 0.019410843
-0.0008641572 0.05629043 0.038458496 -0.027594902 -0.010378375 0.046200667 0.011588327 0.026029872
-0.029528247 -0.0015449774 0.018127898 -0.004970014 0.04631824 0.057230227 0.03917928 0.04151993
0.0026863862 -0.008028984 0.029393004 0.0031931896 0.003160327 -0.013998465 0.009914717 -0.03600989
0.02117046 0.0067669516 0.052808873 -0.003925605 -0.02993943 0.017892012 0.0012290007 -0.020326095
0.04078547 0.034879975 0.0068540648 0.050291114 0.008458381 0.043054033 -0.026525307 0.08735109
0.0024150775 -0.07091232 -0.017094767 0.028112527 0.041932847 -0.01146923 0.054490976 0.041560043
-0.03792082 -0.0052941414 -0.0047185267 0.029959088 0.0396289 0.05281627 0.017153807 0.029163128
0.043708455 -0.002563498 -0.0050200163 -0.019381953 0.052546114 0.041476637 -0.029592229 -0.00021688885
-0.03707889 0.020227559 -0.0052259844 0.046338975 0.0104965065 0.071977615 0.026990503 -0.032582168
-0.023917252 0.041933846 -0.011563554 -0.07042262 -0.019460514 -0.02813188 -0.024405586 -0.0048009767
0.035699766 -0.020556387 0.0071778526 -0.047282167 0.030494975 0.011037992 -0.026163489 -0.014246711
0.022632558 0.003120797 0.08052405 -0.019581392 -0.032783896 -0.008435608 -0.040414184 0.037154913
0.03711096 -0.03645004 0.046830162 0.054273937 -0.00059086696 0.030223908 -0.012644313 0.016625386
-0.006180631 0.036187906 0.07675769 -0.010260898 0.007215081 -0.0121701015 0.066450596 -0.0002676765
-0.051072195 -0.03608114 -0.022273667 -0.047858432 0.0611622 -0.02626611 0.04707319 0.033631355
-0.0010367974 -0.0016851766 0.08102522 0.020419907 0.0062950263 0.042546116 -0.008246406 -0.05341234
0.040596094 0.022346199 -0.0048245345 0.042771395 -0.01584927 0.030135076 0.0019575667 -0.0037999877
0.008088717 0.051795706 0.03072132 -0.012054732 0.022991065 0.025608791 -0.03254567 0.026690481

weight f4 [128, 256]
00000000: ed99 243d 58ed 4fbc d28b 183d 7ecc 233d
00000010: dfe5 1e3d b1c5 07bd c43a 983c b3bc ffbc
00000020: 2276 d0bb 7ead 3a3d 5302 c03c 80a7 fabc
00000030: 31b4 babc 4eb1 f73b 8527 2c3d 9efb b03b
00000040: 5bbf ee3b dd90 2bbc 8f7f 093b e249 d63c
00000050: 9e96 e73c 4876 883c c202 433b bad5 87bd
00000060: a513 0b3c 745f 85bc 6842 00bc 836a e2bc
00000070: 27dc ce3b 7be7 5bbc 29a2 023d 9a9e ca3c
00000080: dd7f 42bd 9a1a 66bd 5335 f2bc 2f47 75bd
00000090: 981e 103d b97a c338 8783 90bb bccb 2cbc
000000a0: e99b 88bc 47e1 e33a 7827 e6bc 4dd4 a23b
000000b0: 16c1 adbb 66ac 26bc 83f7 9d3b f92d bebc
000000c0: 10d9 ddbb 0990 e03c 0a56 21bd d46b 603d
000000d0: cbe0 a0bc df7d ad3b 71e0 b0bc 1241 3b3d
000000e0: 53b0 0d3b 7a3e b93b 2951 f93b 4e73 093c
000000f0: 1f84 8bbc 8771 08bd 9770 a5bb f5c5 46bd
00000100: 6724 263d f456 0a3c f12e 253d 4fa4 40bb
00000110: def9 a3bc d6fb 103c 2b36 36bc 9b36 dabc
00000120: 37fb 133c 58e3 ca3c 76bc 6f3b f18b c03c
00000130: 0e04 07bd 7e6a 3fbc 7cb7 6f3c 1ae5 633c
00000140: 12cb c83c cced 8fbc 9ede f4bc b868 b3bc
00000150: 0045 abbd 4375 23bd fa2b d53c a7b6 71bd
00000160: 312b a9bc 8fc2 90bb a904 f93b 89a8 83bc
00000170: f063 18bc 1c68 0bbd bd88 713c 9576 f3bc
00000180: e14c 573c 5306 863b 3097 04bd 7d97 8d3c
00000190: 0ccf 60bc dcf9 e8bc 9218 4bbb f128 8a3c
000001a0: 4450 7dba 828f ef3a 3d41 1dbb c88f 4d3c
000001b0: 7890 523d 2a6a 3f3a 3d10 c8bb 6738 4c3c
000001c0: 9092 9bba eda7 ac3a 7a04 f23c fc28 f6bc
000001d0: 7a6c 35bd 58d6 cc3b 661a b33c 4888 153d
000001e0: 9840 84bc e0cd 343c 02f8 3abd ae0b 98bc
000001f0: 09b7 e43c d7a0 a8bc 1d5a dabc 774e 19bd
00000200: 0af1 d4bc c492 f9bc 1f3b 5fbc dca9 803c
00000210: 8ed0 1bbb 25ca b93c a80a 35bb 6230 bb3b
00000220: 704a 283c f95d 4fbb cb25 153c 43af 983c
00000230: cac1 42bd 0600 133d 8141 4fbc 873d 9e3c
00000240: 938e 6e3c aa28 e93a 392e fc3c 89d7 f63c
00000250: f968 273d fab3 acbc 0294 943c 2de6 903c
00000260: 11c0 e13c bc54 bf3c 3548 ff3c 5170 b0bb
00000270: cd0e 283d 5d91 053d cf1c 613d 3447 893c
00000280: 362e 20bb a934 fcbb ff1b c5bc 67b6 2a3a
00000290: e82d c63c 6c72 40bc 0f55 fc3c 25f7 663b
000002a0: 0424 b13c 26db 173b f227 a53c 1469 f2bb
000002b0: 02f1 073a d2f3 e1bc 1a9f 22bd f50d 903a
000002c0: f749 853c 85fe 0f3d d2d8 2e3d 48cd b5b9
000002d0: e367 9c3c 8828 d93c 1fa6 d2bc 40e6 09bd
000002e0: 96e3 4f3c 995d 8d3c 1a0d 453c 5a80 29bd
000002f0: 1371 e5bc 7c3d 45ba e066 2c3d 0f7d e0bc
00000300: cb04 b33c 138f 89bc 0e30 0d3d 3e94 5cbc
00000310: 683d 583c 999c 373d 13ff c3bc 23b0 97bd
00000320: 1526 843b b5da 81bc c60c 053d 0b96 2ebd
00000330: 62a5 363c 4500 f93c b1c1 ddbc 9ead 58bb
00000340: 83d9 83bc 89ef 76bd 17ab 3f3d b04d b5bc
00000350: 0c07 75bb 3308 e33c 2ab7 68bc e497 e1bc
00000360: 010c 713c 0033 e03c 4b45 cb3c 45e5 ba3c
00000370: f740 8fbc e625 913c c326 7eba ad36 b6bc
00000380: d6f8 42bd ea2a 8f3c 395e 4e3c 5b47 bc3c
00000390: d6d7 bd3c 836f d03c f7ce 943c 7738 cbbb
000003a0: 27ec 323c 6def 713b 58f4 523d b85e 82bc
000003b0: 2e10 513c e57d 66bc c83b cbbc ff78 67bd
000003c0: ae79 b43c b74f 51bd 011b 6b3d 23fc 0d3c
000003d0: 609d 873c 852a 543c db64 c13c cfba 423d
000003e0: ea56 5fba 53e0 823d 332e aebc 4100 bd3b
000003f0: fd0c 073d e25f cf3c 4f65 cebd 5d80 aebc
0.040185858 -0.0126908645 0.037242718 0.03998994 0.03879344 -0.033147518 0.01858271 -0.031217908
-0.006361739 0.04557561 0.023438608 -0.030597448 -0.022791 0.007558978 0.042029876 0.005401089
0.007285995 -0.01047155 0.0020980572 0.026158277 0.028270062 0.016657963 0.0029756282 -0.06632562
0.00848857 -0.016280867 -0.0078283325 -0.02763868 0.0063128653 -0.013421888 0.03189293 0.02473383
-0.04748522 -0.056177713 -0.029566443 -0.05988234 0.035185426 9.3211835e-05 -0.0044102105 -0.010546621
-0.016675906 0.0017385863 -0.028094992 0.004969156 -0.0053025587 -0.010172939 0.0048207655 -0.02321528
-0.0067702606 0.027412431 -0.039388694 0.054790333 -0.01963844 0.005294546 -0.021591397 0.045716353
0.002161999 0.0056531997 0.007608552 0.008389307 -0.017030774 -0.033311393 -0.005048822 -0.04852863
0.04056206 0.008443583 0.04032797 -0.002939481 -0.020016607 0.008849105 -0.011121313 -0.026637366
0.009032062 0.02476661 0.0036580837 0.02350423 -0.03296285 -0.011683105 0.014631148 0.013909603
0.024510894 -0.017569445 -0.029891308 -0.02190052 -0.0836277 -0.03990675 0.026021946 -0.05901208
-0.020650478 -0.0044177244 0.0075994325 -0.016071575 -0.009301171 -0.034034833 0.014742074 -0.02971963
0.013140888 0.0040901094 -0.032370746 0.01728415 -0.013721239 -0.028439455 -0.0030989987 0.016865226
-0.00096631446 0.0018277022 -0.0023995184 0.012546487 0.051407307 0.00073018915 -0.0061054514 0.012464619
-0.001186924 0.0013172604 0.02954315 -0.03004884 -0.044292904 0.0062511377 0.021863174 0.03650692
-0.016144082 0.011035413 -0.045646675 -0.018560257 0.02791931 -0.020584507 -0.026654297 -0.037428346
-0.025993843 -0.030465491 -0.013624935 0.015705995 -0.0023775431 0.022679398 -0.002762476 0.005712555
0.0102716535 -0.0031641705 0.009103249 0.018638259 -0.047548093 0.035888694 -0.012649895 0.019316448
0.0145603595 0.0017788608 0.03078376 0.030132072 0.040871594 -0.021081913 0.018136982 0.017687881
0.027557405 0.023355834 0.03116236 -0.005384483 0.04102974 0.032609332 0.054959115 0.016757585
-0.0024441606 -0.0076967073 -0.024061201 0.00065121654 0.024191812 -0.01174603 0.030802278 0.0035242524
0.021623619 0.0023171394 0.020160649 -0.00739778 0.0005185754 -0.027582083 -0.039702512 0.0010990488
0.01627062 0.035154838 0.042687245 -0.00034675957 0.019092506 0.026508585 -0.025713978 -0.03366685
0.012688538 0.017256545 0.012027049 -0.04138217 -0.02800802 -0.00075241155 0.042090297 -0.027403383
0.021852871 -0.016791856 0.034469657 -0.013463078 0.013198234 0.044827078 -0.02392534 -0.07406642
0.00403286 -0.015851358 0.032482885 -0.04262356 0.011147829 0.030395636 -0.027069898 -0.0033062468
-0.016094929 -0.060287032 0.046794023 -0.02213177 -0.0037388233 0.02771387 -0.014203826 -0.027538247
0.014712335 0.027368069 0.024813315 0.022814402 -0.017487032 0.017718267 -0.0009695107 -0.022242868
-0.04760059 0.017476518 0.012595707 0.022983244 0.023174208 0.025443798 0.018165095 -0.0062017995
0.010920561 0.003691639 0.051502556 -0.015914306 0.012760205 -0.0140681015 -0.02480878 -0.056511875
0.022030678 -0.051101413 0.0573988 0.008666071 0.016554534 0.012949591 0.023607662 0.047541436
-0.0008519726 0.06390443 -0.021262264 0.0057678525 0.03297137 0.025314275 -0.10077917 -0.021301443

bias f4 [128]
00000000: 56a4 543d 995c 5abc 0203 b9bc d542 553d
00000010: 7e22 09bc 0bf7 e6bb 821f f63c 887c 143d
00000020: 69fd 0cbc 2558 783c b44c f53b 5e86 7abd
00000030: 2ea6 823d f3a8 6bbc 20d1 653d 2488 8f3b
00000040: 8038 713c f2eb d93c c035 32bd d6fc 0d3c
00000050: 1890 d2bc 2f8a 3b3d d578 44bd 6465 c23c
00000060: 2ce4 f93b 2b53 7f3d 9a80 303d 71e5 1dbd
00000070: a7a6 933b abf1 633d c9dc a83b ae6f 56bc
00000080: 8830 923c 5886 d63c fc3a ef3c c2dd d43d
00000090: fc89 a0bc e997 ffbb 14f3 6f3b a22e ed3c
000000a0: 79b9 863c 1969 4ebb 6ac3 793d 33b6 933b
000000b0: 0555 f13c 205c 65bc a07d 9b3d de1a 02bd
000000c0: d949 c83d 6d35 49bb 851d f13c d4d6 743d
000000d0: 442c 873b 7151 51bb 2ad7 083d e159 4fbd
000000e0: 37f6 223d 4dcc 15b7 0c88 8c3d b871 353d
000000f0: 35ef ba3a bad3 343d dfca ca3b 2278 08bd
00000100: a17c d23c 6cee 403d 1e2f b8bc 3a89 da3b
00000110: 21c6 2e3d 5fa5 c8bc 0069 b8bc 5e1c b6bc
00000120: 4c0e 533c b1c0 e13b c847 9e3d bf26 4b3c
00000130: f30d 483d f885 ce3c 5815 fd3c 7df2 d73c
00000140: 8c1a 8dbd 6068 933c 22f0 d2bb 148a 9e3c
00000150: 6967 493c 94b8 ab3d 82d5 7abc acad 163d
00000160: f664 6a3b cbe1 593a c48d d93c eff1 b13c
00000170: 80c7 a5bb 61c8 723c 7b69 3f39 ee89 c23c
00000180: 71cb 453d 9225 c03c 93d8 963c 6245 063d
00000190: 823d 92bc d56a 533c ecf9 4cbc 9f4f 20bd
000001a0: d617 023d d31e 053c 5186 1bbd 6533 f33c
000001b0: 1560 633d f9e1 853c 5487 05bd 81a3 a23c
000001c0: f496 f43c 57bf 963b 12db a73d 6c84 2bbd
000001d0: 1c2e 2a3d b759 60bb f904 85bd f79b 4cbc
000001e0: 2b0a 7dbc be46 60bb 41d1 3c3d cee7 583a
000001f0: 41aa 1d3c eafb 51bd 351c 8c3c 4a0b bcbc
0.051914535 -0.013327741 -0.022584442 0.05206569 -0.00837004 -0.007048493 0.030044321 0.036251575
-0.00860534 0.015157734 0.0074859504 -0.0611633 0.063793525 -0.014383542 0.05610764 0.004380243
0.014722943 0.026601765 -0.04350829 0.008666238 -0.025703475 0.04578608 -0.047966797 0.023729987
0.007626077 0.062335175 0.043091394 -0.03854889 0.0045059505 0.055650394 0.0051532728 -0.01308815
0.017845407 0.026187107 0.02920293 0.103938594 -0.019597046 -0.0078000915 0.0036613392 0.0289529
0.016445862 -0.0031495749 0.060977377 0.004507804 0.029459486 -0.013999015 0.075923204 -0.031763904
0.0977971 -0.003070201 0.029433021 0.05977519 0.00412515 -0.0031939412 0.03340832 -0.050622825
0.03978559 -8.92866e-06 0.068618864 0.044297904 0.0014261963 0.04414723 0.006188735 -0.033317693
0.025694193 0.047102377 -0.022483405 0.0066691907 0.04266942 -0.024492918 -0.022511005 -0.022230323
0.012881827 0.0068894257 0.07728535 0.0123993745 0.048841428 0.025210366 0.030893967 0.026360745
-0.06889829 0.017994106 -0.0064373175 0.01935295 0.012292721 0.08384815 -0.015309693 0.03678672
0.0035765744 0.0008311539 0.026556857 0.021721808 -0.0050591826 0.014818282 0.00018254474 0.02374741
0.04828972 0.023455415 0.018413818 0.032781012 -0.017851595 0.012903889 -0.012510758 -0.039138433
0.031761013 0.008125025 -0.03796989 0.029687593 0.055511553 0.016343104 -0.032599762 0.019853355
0.029857136 0.004600446 0.08196081 -0.041874334 0.04154788 -0.0034233162 -0.06495089 -0.012488357
-0.015444319 -0.0034221853 0.046097998 0.00082742877 0.009623111 -0.051265635 0.017103294 -0.022954602
