models/model_objs/nfl_model_1.pth (torch, 911609 bytes, 11 tensors)

weight f4 [256, 208]
000000 c4 20 40 bd 1c 40 73 3c b9 56 2b 3c e4 d1 90 bc
       -0.046906248 0.014846828 0.010457688 -0.017678209
000010 bf de 19 3d 10 a5 45 3d 08 8c 7e bd 36 4d 25 bd
       0.037565943 0.04825312 -0.062145263 -0.040356837
000020 25 b6 8c 3d 16 90 c1 bc 9d f0 a4 bc 50 a1 80 bd
       0.06870679 -0.023628276 -0.020134265 -0.06280768
000030 b5 c3 5c bd 6e a9 01 3d aa 90 47 bc 4c d8 66 bd
       -0.05389758 0.03165572 -0.012180487 -0.05635862
000040 fa 00 c6 bb 55 af 2d bd e4 57 4e bd bd 11 3b bd
       -0.006042597 -0.042403538 -0.050376788 -0.045671213
000050 85 72 7d bd 7b 50 4f bd f7 4a 8c 3d 1a 1c f5 3b
       -0.061876792 -0.05061386 0.06850236 0.0074801566
000060 62 a9 4f 3c 37 3e 9c bd 69 2a 43 bd d1 b9 c9 bc
       0.012674661 -0.07629054 -0.047647867 -0.024624737
000070 84 76 8b bb 23 f3 70 bd 3f 89 ff bc e7 f7 24 bd
       -0.0042560715 -0.058825623 -0.031193374 -0.04027548
000080 14 0c e9 bb 5e ba 04 bd 06 f5 0b bc f1 1d 09 bd
       -0.0071120355 -0.032404296 -0.008542305 -0.03347582
000090 df 37 44 bd 31 6f 29 bd 7c 68 c0 bc 49 bc 79 bd
       -0.047904845 -0.041365806 -0.023487322 -0.06097058
0000a0 e7 e8 50 3d 8b ae 9a bc 8d 25 8d 3d f1 e1 22 3c
       0.051003363 -0.018882057 0.06891928 0.009941564
0000b0 f7 1b 8c bd 85 c5 14 3d bd 9e 86 bc bc 3e 0f 3d
       -0.06841271 0.03632118 -0.016433114 0.034971938
0000c0 7c 2e 6b bd a9 8f 77 bd 3e 0e 0a bc 62 0c 97 3c
       -0.057417378 -0.06043974 -0.008426247 0.018438522
0000d0 dc 09 01 3d 8f e7 80 bd 33 6a 2b 3d 0e a3 25 bd
       0.031503543 -0.06294166 0.041849326 -0.040438704
0000e0 75 bd 70 bd 3e a6 7c bb 39 91 fc 3b 79 75 41 3d
       -0.05877443 -0.0038551237 0.0077077416 0.04723117
0000f0 0b 80 2a 3d fb 42 4d bd 8e 23 24 bc 70 29 ed bc
       0.041626018 -0.050112706 -0.0100182425 -0.028950423
000100 05 14 c8 3b 25 2c 7c bd 6d 40 b1 3d 4f f2 d3 bb
       0.006105902 -0.061565537 0.08654866 -0.0064680944
000110 57 b3 ca 3c f9 4a 22 3d 54 5e 81 bb 56 bb b4 3b
       0.024743719 0.03962228 -0.0039480124 0.0055154962
000120 1f 38 ad 3d d3 dd f7 3c 45 a0 cd bb 09 32 64 bd
       0.0845797 0.030257141 -0.006275209 -0.05571178
000130 83 37 2e 3d ee 12 6c bd 11 cc e3 bc fb 58 86 3d
       0.04253341 -0.05763524 -0.027807267 0.065599404
000140 79 57 89 3b a9 c3 00 bd cf ec 01 bd 48 db 6e bc
       0.0041913358 -0.031436596 -0.03171998 -0.014578648
000150 c5 e1 66 3d 1b 86 ee bc 1f ef 57 bd 2e 52 fb bb
       0.056367654 -0.02911668 -0.052718278 -0.0076697087
000160 a4 29 81 bd f1 7f 5d 3c ca de 2d 3d 39 be c6 bd
       -0.063067704 0.013519273 0.042448796 -0.09704251
000170 e2 eb 83 3c 52 3b fe 3c 7a 41 76 3c aa f6 46 bd
       0.016103689 0.031034146 0.015030259 -0.04857508
000180 2e 88 7f 3d 31 eb 2f 3d d6 df c0 3c 74 2b 1c bd
       0.06238573 0.042948905 0.023544233 -0.038127378
000190 de a3 10 3a 6f a5 a8 3c f9 76 df 3c 8a 90 7a bc
       0.0005517582 0.020586697 0.02727841 -0.01529325
0001a0 05 74 66 3d ba 5e 72 3d 2e 43 fe ba eb 29 ee bc
       0.05626299 0.05917237 -0.0019398683 -0.029072722
0001b0 78 86 a9 bb 7c cb d5 bc 84 b8 18 3d 8f 60 be 3c
       -0.0051735006 -0.026098005 0.037285343 0.023239402
0001c0 11 e0 77 bd 02 0a 1c bd 1b 17 b9 3d 4f 8f 81 3c
       -0.06051642 -0.03809548 0.0903761 0.015815405
0001d0 ea 1b b6 bb aa 3a 2b bd 00 80 76 bd f8 ce 8e bd
       -0.005557527 -0.041803993 -0.060180664 -0.0697307
0001e0 ff b9 0a bd d9 cc 96 3d cb 92 6c 3d 75 b5 fb 3c
       -0.033868786 0.0736329 0.05775718 0.030726174
0001f0 7e aa 59 bc 28 f1 58 bd 21 65 c8 bc 78 fd 49 3d
       -0.013285277 -0.05296436 -0.024462285 0.049313992
000200 5f c8 56 3c 78 14 92 bc 9f 58 20 3d ee 52 1a bd
       0.013109296 -0.017832026 0.039147016 -0.037676744
000210 76 c3 12 bd d6 e6 56 3d 17 4a 2f bd a2 e3 22 bc
       -0.035830937 0.052466236 -0.042795267 -0.009941967
000220 19 e4 80 bd 11 ed 0f 3d 06 8b 73 3d 9c a7 ea 3c
       -0.06293506 0.035138194 0.059458755 0.028644376
000230 7c 2e 74 bd 6b 7c 87 bd 93 bd 45 bd ef a1 25 3d
       -0.059614643 -0.06615528 -0.048276495 0.040437635
000240 35 78 c0 3c ba 83 9c 3d cf 0f da 3c 5f aa 2a 3d
       0.02349482 0.07642312 0.026618866 0.041666385
000250 c6 ba 43 bc ac 6b 0d bd 40 12 7f bd 34 77 8f bd
       -0.011946386 -0.034526512 -0.062273264 -0.07005158
000260 82 30 0e 3d da 96 39 bd b9 ba 48 bc a1 b8 8e bc
       0.03471423 -0.04530988 -0.012251549 -0.017422022
000270 c0 ce c3 bc b3 14 53 bd 8e 6a 93 bc c6 3b 98 3d
       -0.023902297 -0.051533412 -0.017995145 0.07433276
000280 4a 22 57 bc 4e 57 3a 3d 54 06 80 bc 76 49 67 bd
       -0.013130734 0.045493416 -0.015628017 -0.056466542
000290 d6 8d 43 3b ab 36 a4 bd a5 93 07 bd af 12 8a bd
       0.002983918 -0.080182396 -0.03309979 -0.06741845
0002a0 aa 6c c4 bc f2 e6 d1 bc c5 1a 2c 3c 10 da ad 3c
       -0.023977596 -0.025622819 0.010504429 0.021222144
0002b0 b9 75 5d 3d ab 21 64 bd d0 50 b5 3d 0c c7 94 bc
       0.054067347 -0.05569617 0.088533044 -0.01816132
0002c0 fe a6 96 3c c1 cc b6 3d 36 eb e7 3c ac 68 f7 bb
       0.018390175 0.089257725 0.0283104 -0.0075503197
0002d0 e9 71 de bc 96 62 8e bd 2d 5e 87 3d 2f 0d 69 bd
       -0.027153926 -0.069523975 0.066097595 -0.05689734
0002e0 58 c7 91 3d 22 42 97 3c 75 e0 6a 3d 0f 96 4b bd
       0.071181 0.018464152 0.057342965 -0.049703654
0002f0 25 eb 75 bd d8 9d 8d 3b d5 1a 2d 3d 6c f6 80 bd
       -0.060038704 0.004321795 0.042261917 -0.06297001
000300 5e 3b dd bc f7 d7 17 bd 7d a1 8a 39 68 f1 39 bd
       -0.027005848 -0.037071194 0.0002644173 -0.04539624
000310 0b 28 2f bc 74 d9 08 bd c0 e3 a1 bd 61 6f 95 3d
       -0.010690699 -0.033410504 -0.07904768 0.072966345
000320 bb f0 3f 3d 09 7c a8 bc cf 63 a1 3c 8f af 0d bd
       0.046860438 -0.020566957 0.019700913 -0.034591254
000330 3a a7 59 bd ea 43 a1 bd 1c d0 ab 3c 52 20 2b bd
       -0.053137995 -0.07874282 0.020973258 -0.04177887
000340 e0 5a 5b bd a9 b0 0e bc e9 48 cb bc 96 c3 b7 bc
       -0.053553462 -0.008709111 -0.02481504 -0.02243213
000350 ce 95 1b bb 7c 93 11 bc c7 ae ec bc 0f e6 0c bd
       -0.0023740414 -0.008885261 -0.028891934 -0.03439909
000360 7a c3 54 bd a3 c3 95 3d af 16 b1 bc 59 95 ba 3c
       -0.051944233 0.07312705 -0.021617262 0.022776293
000370 98 5d 03 bd eb e8 76 3c 2c c5 81 3d 82 4a ec 3c
       -0.03207168 0.01507018 0.06336436 0.028844122
000380 47 9d 7f bd ce 58 cf 3c 36 28 83 3d 32 e7 98 3c
       -0.06240585 0.0253109 0.06404154 0.01866493
000390 f2 07 43 3d 07 a4 87 3d 2d 08 dd bb eb a1 a0 3c
       0.047615 0.066230826 -0.0067453594 0.019608459
0003a0 00 07 43 bd 54 0f aa bc de 32 42 3d 0d bf 28 3d
       -0.047614098 -0.020759262 0.047411792 0.041197825
0003b0 f9 c4 4c bd 2f 5b 21 bd 32 09 37 bd 0b dd 81 bd
       -0.049992535 -0.0393936 -0.044686504 -0.06340989
0003c0 a9 04 51 bd 22 9c c5 bc b4 26 37 3d 6c bc 87 3c
       -0.051029835 -0.024122301 0.044714645 0.016569339
0003d0 0c 8b 44 bd c7 35 51 bd a8 22 1b 3d a1 db 59 bd
       -0.047984168 -0.051076677 0.037874848 -0.05318797
0003e0 95 0c 56 bc 99 a8 01 3d fa c1 dd bc 91 e9 75 bc
       -0.013064523 0.031654928 -0.027070034 -0.0150093
0003f0 84 8c 5b bc 00 67 c3 bc 0b d6 6c bd 60 cf 0e bd
       -0.013400201 -0.023852825 -0.057821315 -0.034865737

bias f4 [256]
000000 bc e2 44 bd 44 42 9b bb 6b 28 80 3d 44 69 87 3d
       -0.048067793 -0.004738124 0.06257709 0.06611875
000010 e9 be 15 3d b9 3c 20 3d 95 9e a7 3d 36 50 8f 3d
       0.03655902 0.03912041 0.08184544 0.06997721
000020 92 4a b5 3c 99 91 ae bd fc b0 4c 3c 51 2f 2b bd
       0.022130284 -0.08523864 0.012493368 -0.04179317
000030 a0 5e b5 3c 15 af 3f 3c ad 19 12 bd 6f e0 a4 bd
       0.022139847 0.011699458 -0.035669018 -0.0805062
000040 32 ee 52 bd 62 e9 11 bd d8 8e 99 bc 93 1a ec 3c
       -0.051496692 -0.03562296 -0.018744871 0.028821265
000050 8b 49 58 bd 47 ae ab bb 2e e9 97 3c 63 b8 ed 3b
       -0.05280451 -0.0052392813 0.018543806 0.0072546466
000060 3d 62 6e bc 73 ba ad 3d 65 28 c9 3b 9e ea 17 3b
       -0.014549789 0.08482828 0.0061388486 0.0023180614
000070 9d dd 3b 3d 12 73 74 3d 0f 64 23 3d 79 66 40 bd
       0.045865644 0.059680052 0.039890345 -0.046972726
000080 30 b2 8a bc e1 83 65 bc 30 b8 54 3c a7 05 47 bd
       -0.01693067 -0.014008493 0.012983367 -0.048589375
000090 c9 a1 9d bd 2b e8 7d bd 82 e2 71 3d 50 85 85 3c
       -0.07696874 -0.06198899 0.059053905 0.01629892
0000a0 27 d7 8f bd ad 9e 84 3d e1 87 6d 3d 06 75 39 bd
       -0.07023459 0.064755775 0.057990912 -0.045277618
0000b0 fe ac 9e bd ce 86 9e 3d 8f 93 b1 3a 4d a4 d5 3c
       -0.077478394 0.07740556 0.0013548004 0.026079321
0000c0 a8 74 11 3d f0 bd ad 3c c4 57 f3 bc 09 6f 60 3c
       0.035511643 0.021208733 -0.029704936 0.013698348
0000d0 7a f8 40 3d 8d 3d 85 3d e7 be 67 bd dd 3c 7d 3d
       0.047111966 0.065058805 -0.056578543 0.061825622
0000e0 0c ea 39 3d e1 a6 c2 3c f5 5e c0 3c a5 49 7b 3c
       0.04538922 0.023761215 0.023482779 0.015337382
0000f0 77 19 93 bd 53 08 2c bd c8 a2 6f bc 56 ba 63 3d
       -0.071825914 -0.042000126 -0.014626212 0.055597626
000100 f3 07 3f 3d 05 f2 07 bd c4 8d 08 bd 85 a7 7d bd
       0.04663844 -0.033189792 -0.033338323 -0.061927337
000110 08 79 eb 3c 76 c1 01 3d 49 71 97 3d 3e 85 4e bd
       0.028744236 0.03167864 0.07394654 -0.05042004
000120 42 04 03 3d fb b7 a0 3d 0e 32 13 bd f7 44 bb bc
       0.031986482 0.078475915 -0.035936408 -0.022860033
000130 17 e1 1e 3c c2 92 83 bd 45 a9 a7 bb ef 50 b3 3d
       0.00969722 -0.06424476 -0.005116614 0.08755671
000140 5a e1 5e 3d ab 2e cc bc 10 ad a4 bc 4f 0f 24 bc
       0.05441413 -0.024924597 -0.020102054 -0.0100134155
000150 6b ae 08 3d 20 3d 84 3d de 49 3c 3d 30 7a 1d 3d
       0.033369463 0.06456971 0.045968883 0.038446605
000160 f7 b3 55 bc 41 df 92 3d 01 8d ab 3d a5 62 a5 3c
       -0.013043395 0.071714886 0.08376504 0.020188639
000170 a0 2f 81 3a c2 27 a1 bd 24 08 a9 bb 36 9f 96 3d
       0.0009856112 -0.07868911 -0.005158441 0.07354586
000180 a0 34 98 bd f5 4a af bc 7e 7e 4e 3c 6f bb 87 bd
       -0.074319124 -0.021398047 0.0126034 -0.06627547
000190 88 14 8c 3d 61 f6 a3 bc 2c 61 3b bc 1d dd 2c 3b
       0.068398535 -0.020014944 -0.011436742 0.002637691
0001a0 3e c7 91 3d c2 36 e8 3c 45 2e 08 bc 83 80 ea bc
       0.071180806 0.028346423 -0.008311813 -0.028625732
0001b0 ee 99 4d 3d 32 11 a0 bd 12 78 4b bd 7f 1b 25 3d
       0.050195627 -0.0781578 -0.049675055 0.040309425
0001c0 1e e9 89 3c 1b 70 71 bd 3e ec fe 3b 9f 12 0a bd
       0.016834792 -0.058944803 0.007779627 -0.033709165
0001d0 2f 4f a9 3d 35 b7 89 b9 d5 53 94 3d 19 09 e4 bc
       0.08267056 -0.00026267176 0.07242552 -0.02783637
0001e0 94 01 3b bd c2 4c 9d 3c 40 84 94 3c e0 4a a4 bd
       -0.045655802 0.01920164 0.018129468 -0.08022094
0001f0 02 81 5f 3c 99 d8 1a bd f9 e3 5c bc 02 b9 12 3d
       0.013641598 -0.03780422 -0.013482087 0.03582097
000200 00 70 a6 3d ed 3c 07 3d 8b 45 a2 3d 48 9a 70 3d
       0.08126831 0.033017088 0.079234205 0.058740884
000210 1d 2e ff 3c 69 73 44 3d f5 4b ca 3c 9d 0a 1f bc
       0.031149918 0.047961626 0.024694422 -0.00970712
000220 9a 5b 35 3d a0 bc d3 3c ea d5 15 bc 1e af 61 3d
       0.04427681 0.02584678 -0.009145239 0.055098645
000230 13 bd 0f bd ce e6 ac 3d 23 55 46 3d 0f 54 08 bd
       -0.035092425 0.0844246 0.048421036 -0.03328329
000240 8d c1 7f 3d 7c c5 52 3c 4f c4 b5 3c bd d3 a3 bd
       0.062440444 0.012864467 0.022188334 -0.0799937
000250 0b 14 14 3d a3 4c 2e bd 53 5b 7b bd 10 59 27 3d
       0.036151927 -0.042553555 -0.06136639 0.04085642
000260 f9 93 95 3c 2a 37 24 bd 17 37 e2 3c dd 8c 8d 3d
       0.018259035 -0.04009167 0.02761416 0.06911633
000270 81 d4 ca bc c1 f6 d4 3c f9 0e 96 3c 2c ec fc bc
       -0.024759533 0.025996568 0.018317686 -0.030874334
000280 12 ff ab 3d 18 e5 be bc 13 c1 da 3c 2e 29 2a 3d
       0.0839826 -0.0233026 0.026703393 0.04154318
000290 0d f4 28 bd 46 c2 6d 3d 2b 15 29 3d 21 db 55 bd
       -0.04124837 0.0580466 0.041279953 -0.05221093
0002a0 9b 65 8c bb 48 ce 30 bc 1c d2 a9 bd 52 40 83 bd
       -0.0042845733 -0.010791369 -0.08292028 -0.064087525
0002b0 12 e7 46 bd 7e 7a 9b 3d 14 fe bb 3c 39 af 2c bd
       -0.04856021 0.07591723 0.022948302 -0.042159293
0002c0 6a 26 20 3d 35 b1 3a 3d 9b 05 e8 bc 20 29 e9 3c
       0.039099135 0.045579154 -0.028322985 0.028461993
0002d0 31 81 75 3d 8f b1 2e bd 6f f0 31 bd 32 91 d4 3c
       0.05993766 -0.0426498 -0.043442186 0.02594814
0002e0 b4 ba ba ba a6 f5 12 bd ac 7f 0d bd 39 90 12 3d
       -0.0014246316 -0.0358788 -0.034545586 0.035782073
0002f0 0f 9a 36 3d 26 61 ff 3c 78 5e 57 3d 89 2a c3 3c
       0.044580515 0.031174254 0.052580327 0.023823993
000300 0a 53 a9 3d 13 28 b7 bc 9c de ba bc 72 9c dc 3b
       0.082677916 -0.022357976 -0.022811227 0.006732517
000310 2f 97 89 3d 47 ff a1 bd ec 5d 9f 3d c9 7e 57 bd
       0.06718289 -0.079100184 0.07781586 -0.052611146
000320 6d 68 d4 bc c5 6b 68 3d 79 64 1a bd 1a 1c 35 bd
       -0.0259287 0.056743402 -0.037693474 -0.044216253
000330 ca 35 78 3d 97 38 8d bd a5 cb 06 3d 25 e7 8f bd
       0.060598172 -0.06895559 0.032909054 -0.07026509
000340 60 a3 3a bd 35 38 d3 bc c3 af 29 3d 34 82 5c 3d
       -0.045565963 -0.025783638 0.041427385 0.05383511
000350 3b 04 ee 3c 31 00 63 3d 84 d8 ee bc 14 75 ab 3d
       0.029054752 0.055420104 -0.029155977 0.0837194
000360 91 c6 46 3d ee 09 95 3d fd 4c 1c 3d 21 39 9a bc
       0.04852921 0.072772846 0.03815936 -0.01882607
000370 1e 7f 2a 3d e6 84 f0 3b eb 0b a0 bc 4c 05 a1 3b
       0.041625135 0.0073400615 -0.019536933 0.0049139615
000380 52 b3 94 bc 03 39 0b bd 05 08 46 bd 05 64 54 bd
       -0.018151913 -0.033989917 -0.04834749 -0.0518532
000390 2b e4 99 bd 87 f8 41 bd 63 5b 87 bc 09 44 1f 3d
       -0.07514223 -0.047356155 -0.016523069 0.038883243
0003a0 ef 07 b0 bc ca 97 73 bd e0 79 08 bd 4a f2 0d bd
       -0.021488158 -0.05947093 -0.033319354 -0.034654893
0003b0 c9 e0 39 3d 7f 92 cc bc d7 42 03 bc 11 6c 81 3c
       0.045380387 -0.024972199 -0.008011541 0.0157986
0003c0 20 74 86 bc 9a 1d 5c 3d e6 e4 35 bd ac 9f 4c bd
       -0.016412795 0.053739168 -0.044407748 -0.049956962
0003d0 10 b2 a6 3d 3d 9d 4d bd 39 07 13 3d 7e 5f 67 3d
       0.081394315 -0.050198782 0.03589556 0.056487553
0003e0 26 d2 85 bc 40 38 ed bc bd ef 0b 3d 52 2e b4 bc
       -0.016335558 -0.028957486 0.03416418 -0.021994743
0003f0 45 42 24 3d 48 f8 3e bd 71 5c d5 bb a3 d9 e6 bc
       0.040102262 -0.0466235 -0.006511264 -0.02817995

weight f4 [256, 256]
000000 b4 18 d9 bb e6 f2 43 bb 2d a0 2f 3d 27 dc a2 3d
       -0.0066252593 -0.0029899417 0.042877365 0.07952147
000010 48 ba 49 bc 92 59 10 3d 69 d1 28 3c d7 ed 61 3d
       -0.012312479 0.03524167 0.0103038335 0.055158462
000020 c6 84 90 bd b8 b5 a8 bc 2c 66 28 bd d7 04 b3 3c
       -0.070565745 -0.020594463 -0.041113064 0.021852894
000030 e9 e7 2a 3c 2f 8d 5b bd e9 cb 37 3d ba 5e 95 bd
       0.010431268 -0.05360144 0.0448722 -0.07293458
000040 d9 86 59 3a 3b fc 92 3d 78 7c dd bc 7b 0a db 3c
       0.0008297987 0.071770154 -0.02703689 0.026738396
000050 ce 74 5a bd c8 c3 9b 3d bb 0b 38 3d ad 2f 9e bc
       -0.05333405 0.07605702 0.044933062 -0.019309843
000060 b3 c7 15 bd 5b c5 a9 bc e7 85 8f 3d 4b c4 f4 3c
       -0.0365674 -0.02072399 0.07007962 0.029878756
000070 87 4e 71 3d 8d 6a 0a bd 86 07 be bc 3f 35 18 bd
       0.05891278 -0.03379302 -0.023196947 -0.037160154
000080 bc bf 28 bd 9b 55 3f 3d c4 3f 8e 3c 10 77 d2 bc
       -0.041198477 0.0467125 0.01736439 -0.025691539
000090 f4 45 bf bc 73 fa 71 bd 23 4a c9 3c 48 00 16 bd
       -0.023348786 -0.059076738 0.024571484 -0.036621362
0000a0 9b a7 5e bd b5 ba 26 3c 20 42 a1 bd 2d 8c 52 3c
       -0.05435906 0.01017635 -0.078739405 0.012850803
0000b0 45 ee 35 bd 37 14 a1 3d 43 1f d5 3a 5b a5 25 3d
       -0.044416685 0.07865184 0.0016259927 0.0404409
0000c0 67 d5 e7 3c e4 08 6e bd d1 ee 61 3d 05 bc 9d bc
       0.0283 -0.058113948 0.055159394 -0.019254694
0000d0 bf 49 9f bb 03 03 47 3c ad 42 a3 3c 28 53 5a 3d
       -0.004861086 0.012146714 0.019929254 0.05330196
0000e0 33 66 b9 3c aa 5f 51 bc 91 c0 38 3d 39 6e 7a b9
       0.02263174 -0.012779156 0.04510552 -0.00023882919
0000f0 ab 87 7a bc 92 9b 73 3d 25 af 47 3c 66 7a 8d 3d
       -0.015291135 0.059474535 0.012187754 0.06908111
000100 60 39 33 3d 56 43 57 bd d7 26 75 bd cb 81 dd 3b
       0.04375589 -0.05255445 -0.059851494 0.0067598573
000110 2f a5 36 3c 34 f2 f7 3c 39 69 cd 3c a9 ec 4a bd
       0.011147781 0.030266859 0.025074588 -0.049542103
000120 e4 38 59 bd 24 3f e2 3d 07 41 5e 3c 47 78 98 bc
       -0.05303277 0.11047199 0.013565308 -0.01861204
000130 f6 ef 00 bb 12 de 5f bd ea 30 b9 bc 4c 45 2b bc
       -0.0019674278 -0.054655142 -0.022606332 -0.010453533
000140 68 42 78 bc 7c 90 e6 3c e0 8e 4d bd ae 60 b5 bc
       -0.015152551 0.028145067 -0.050185084 -0.022140827
000150 9a 09 09 bc a7 81 80 3d 23 70 2c 3d d7 c8 bb 3c
       -0.008364106 0.06274729 0.04209913 0.022922916
000160 82 8d 8b bd fe d7 2c 3d 51 00 20 3d fb e8 95 bd
       -0.068141 0.042198174 0.0390628 -0.07319828
000170 50 af 51 3c fe 50 b5 bd e8 98 ab bc 4d 1f a4 3b
       0.012798145 -0.08853339 -0.020946935 0.005008614
000180 59 2c c7 bc c4 87 1b bd ba 09 bc 3c 95 fd 01 bc
       -0.024313139 -0.037971273 0.022953857 -0.007933994
000190 85 04 aa 3c 90 59 29 bd 97 4d 08 3d aa 85 3f 3d
       0.020754108 -0.04134518 0.03327712 0.04675833
0001a0 81 32 18 bd 20 6f 9d bc 34 6e 88 3d db 91 d9 bb
       -0.03715754 -0.019218028 0.066616446 -0.006639702
0001b0 d1 36 77 bd d7 37 ba bc 29 c1 9d 3c 4e fb 7c bd
       -0.06035501 -0.022731705 0.019257145 -0.0617631
0001c0 c1 90 02 3c e5 76 88 3c b7 6e 20 bd 19 e3 d3 bb
       0.007969082 0.016658256 -0.039168086 -0.006466281
0001d0 d1 e3 43 3d 06 e9 a1 3d f7 8e f2 3b 35 72 c7 bb
       0.047824685 0.07905774 0.0074022966 -0.0060866126
0001e0 c0 98 7d bb c3 32 5a bd 0f cd 7e 3d 9f c9 8d 3c
       -0.0038695782 -0.053271066 0.062207278 0.017308054
0001f0 d8 23 91 3c 8b 4f 8d 3d b8 17 38 bd 79 96 17 3c
       0.017717287 0.06899937 -0.044944495 0.009252184
000200 f6 f8 ca 3d ac 4f cb bc 62 4b 09 3d 88 e7 68 bc
       0.09910767 -0.024818264 0.033519156 -0.014215358
000210 44 f7 d6 bc 97 5b 12 3d 0a d4 8d bd 74 ab f8 bb
       -0.026240952 0.035731878 -0.06925209 -0.007588798
000220 8f 50 90 3c 5d 37 16 bd c8 8c 2c 3d a2 5f 23 bb
       0.017616538 -0.036673892 0.042126447 -0.0024928828
000230 4a 4b a4 bc 17 a0 b9 bc 59 5c 02 3a c7 c0 5e 3d
       -0.020055432 -0.022659345 0.00049728673 0.054383066
000240 4c 69 8c 3d 70 c2 96 3d f0 17 e8 bc 83 00 3a bc
       0.06856021 0.07361305 -0.028331727 -0.011352661
000250 30 f3 39 3d ed 7c 4b bd 9b 8c be 3b 86 59 c2 3c
       0.045397937 -0.049679685 0.0058151013 0.023724329
000260 e7 45 db bc e3 45 0e bd 31 f1 01 3c 4f 28 33 3d
       -0.02676673 -0.034734618 0.00793104 0.043739613
000270 53 81 85 3b 50 08 86 bc 85 93 04 3d 78 ad 22 bd
       0.0040742545 -0.016361386 0.032367248 -0.039716214
000280 2a 73 3c 3d 7a ff 3e bd dc a3 35 bc e2 e4 01 3d
       0.046008267 -0.04663036 -0.01108643 0.03171242
000290 3f 25 02 bd f4 60 89 3d 3f 01 e9 3c 39 01 9e bd
       -0.031773802 0.067079455 0.028442977 -0.07715077
0002a0 86 f7 a2 bb 98 e7 45 bd 7b ba 13 bd 18 4e 12 3d
       -0.0049733547 -0.048316568 -0.036066514 0.035719007
0002b0 f3 6e 74 3b bf 7e 48 bd 40 cb 03 3d fa 6a 83 3c
       0.0037297576 -0.048949 0.032176256 0.016042221
0002c0 34 3e 15 3d 9a a3 5a 3d a5 54 02 bd ef 7e f7 3c
       0.036436275 0.05337868 -0.031819005 0.030211894
0002d0 1b 47 a6 bc 2c 54 95 bd d9 84 1e bd 8f 25 04 3d
       -0.020297578 -0.07291445 -0.038700912 0.03226238
0002e0 f3 4d 48 3d b5 ea 98 bc 48 29 43 3d 4e 2b 07 bd
       0.048902463 -0.018666605 0.04764679 -0.033000283
0002f0 28 51 8b 3b 0a c3 6e bc ed b2 1e 3c a2 72 d9 3c
       0.004251618 -0.014572868 0.009686214 0.026543919
000300 09 38 0b bd 4f 7c 30 3d c1 f0 2b bd f1 a7 eb bc
       -0.033988986 0.0430873 -0.041977648 -0.028766604
000310 4e 43 31 bd 4c 52 70 bd e8 d3 8a 3d 5e 40 f2 3c
       -0.043277077 -0.058672234 0.06778699 0.029571708
000320 a2 53 c1 3c 66 94 76 3d 07 68 b9 bc b5 11 96 bb
       0.02359945 0.060200118 -0.022632612 -0.0045797476
000330 75 9a 39 3d 11 c5 8e bd bc d4 92 bd 3d 98 35 bc
       0.045313317 -0.06971181 -0.07169482 -0.01108366
000340 a5 50 35 bc dc bb 79 3d 81 45 cc bb 1c a0 23 3c
       -0.01106659 0.060970172 -0.0062338714 0.0099869035
000350 e7 6c 50 bd 31 da 2d bd 8e 3b fd bc 1d 40 fd 39
       -0.050885107 -0.04244441 -0.030912187 0.00048303689
000360 db 11 4d 3d a1 f2 79 3c 3b bd f6 3c f8 c8 76 3c
       0.050065856 0.015255601 0.030119529 0.015062563
000370 87 4a a1 3c f0 ae f2 bc ce 73 bb 3c b0 52 0a bd
       0.019688858 -0.029624432 0.022882368 -0.033770263
000380 ac a4 6e 3d d6 dd 30 3d 7a bc 12 bd f1 16 bf 3d
       0.058262512 0.04318031 -0.035824277 0.093305476
000390 f5 99 14 3d 97 46 89 bb 77 c2 d3 bb fb 8a 8a bc
       0.036279637 -0.004189323 -0.006462391 -0.016911974
0003a0 14 3e 4b 3d b1 88 d4 bc 83 f6 ee 3b aa 04 4b ba
       0.04961975 -0.025944086 0.00729257 -0.00077445304
0003b0 ed 59 25 3d 55 d0 a5 3b 6f 9f f2 bc e8 6c a3 bc
       0.040368963 0.0050602355 -0.02961704 -0.019949391
0003c0 82 a0 81 bd 76 bf 30 3c 0e b6 c1 3b ff 62 64 3d
       -0.063294426 0.010787835 0.005911595 0.055758473
0003d0 fb 3e 7d bc 5f 6a 5a 3c 88 1f ef 3c ac 4a 38 bd
       -0.01545691 0.013331025 0.02918984 -0.044993088
0003e0 81 77 9d 3d 52 d0 85 bd a3 36 86 3c fc 05 46 3b
       0.07688809 -0.065338746 0.016383475 0.003021597
0003f0 ff 3f 6c 3c aa 6b 23 3d 64 69 84 3c d9 1f 4e 3c
       0.014419555 0.0398976 0.016163535 0.012580835

bias f4 [256]
000000 2b ec a1 3d c0 f2 08 bd 7b 30 a5 bc d7 f7 02 bd
       0.079063736 -0.03343463 -0.020164719 -0.03197464
000010 38 eb 85 bc a0 bd d0 3c 07 01 0c 3d 5a 17 85 3d
       -0.016347513 0.025481045 0.034180667 0.064985946
000020 4b 75 65 bd 10 95 66 bd 8b c6 63 bc 28 bb 1d 3d
       -0.056020062 -0.0562945 -0.013902317 0.038508564
000030 22 a5 cf 3c 0f 15 fc bc ac 71 d5 3c cd b4 fe 3c
       0.025347296 -0.03077176 0.02605518 0.031092072
000040 d4 a2 03 bd 79 97 12 bc 02 28 b5 3b 72 d5 4a bd
       -0.032137707 -0.008947247 0.005528451 -0.049519964
000050 ff 00 72 bd a4 54 4c 3d 10 09 8e 3d 2e 75 88 3c
       -0.05908298 0.049885407 0.06935322 0.016657438
000060 f3 36 a1 3c cb e5 f1 bc f6 2a 94 3c 29 d0 81 b9
       0.019679522 -0.02952852 0.018086892 -0.0002475989
000070 bc 5a c4 3c 3f 23 f9 bb 90 78 0e bd 28 54 56 bd
       0.023969047 -0.0076030786 -0.034782946 -0.05232635
000080 91 33 ca bc 0b 90 2f 3d 6d b5 3d 3d f1 7e 81 3c
       -0.024682792 0.04286198 0.0463156 0.0158076
000090 76 38 ef bb ae 1e ed ba 4a 01 7d bc ab 6d fe b8
       -0.007300432 -0.0018090808 -0.015442202 -0.00012132091
0000a0 6d ea ca bc 64 92 1f bd a3 ca 1d bd 3f 07 0f bd
       -0.024769986 -0.03895797 -0.038523328 -0.03491902
0000b0 c7 9a 5f bc f4 62 91 3d 99 75 4c 3c 55 60 fb 3c
       -0.013647742 0.07098952 0.012479209 0.030685583
0000c0 11 98 7b bc 4b 9f 43 3d 15 22 34 3d d1 51 99 3c
       -0.01535608 0.047759335 0.043977816 0.01871577
0000d0 b0 94 0a bd 99 ed 6e bd 01 51 2e bd a7 3b 20 3d
       -0.033833206 -0.05833206 -0.04255772 0.03911939
0000e0 b5 e9 4f bd d5 d4 29 bd 68 3b 7e 3c 3c 9f 88 bd
       -0.05075999 -0.041462738 0.015517093 -0.066709965
0000f0 16 da 2e 3d 1c 61 73 bd 2c c8 1f 3d c5 55 83 bd
       0.04268845 -0.059418783 0.03900926 -0.064128436
000100 78 81 29 bd f0 e4 65 bd 06 7a f2 bc ac 3c 11 bc
       -0.041383237 -0.056126535 -0.029599201 -0.008864563
000110 51 c8 92 3d c6 68 0a 3a 79 53 a8 3d ae 4d 81 bd
       0.071671136 0.00052798947 0.08219046 -0.06313644
000120 dc d8 34 3d a7 df 86 bd 98 97 d1 3b 9b bb 80 3c
       0.044152126 -0.06585627 0.006396245 0.015714457
000130 60 2d 4e bc 49 df 5f 3d fc 0e 96 3b 8c 27 57 bd
       -0.01258406 0.0546563 0.004579423 -0.05252795
000140 74 35 b5 3c b7 c8 ac bb 6c 1e 34 bd b6 aa 84 bd
       0.022120215 -0.0052729505 -0.043974325 -0.06477873
000150 dc 9c aa 3b 49 7c 8d 3d ca d5 61 bd 14 82 a9 bc
       0.0052066874 0.06908471 -0.055135526 -0.020691909
000160 e6 33 4f 3d f5 fe 85 bd 0c 7d 41 3d 6e f0 69 3d
       0.050586604 -0.0654277 0.047238395 0.057114057
000170 66 01 47 3d 24 7d de 3c 00 04 3f bd 92 2c 13 3c
       0.048585318 0.027159281 -0.046634674 0.008982794
000180 7e a4 a0 3c da 6b 5d bd 11 f6 72 3d 2c 90 9a ba
       0.019609686 -0.054057933 0.0593167 -0.0011792234
000190 72 53 56 3d 91 50 9f 3d 52 cc 19 3d f7 21 16 bd
       0.052325673 0.07779039 0.03754837 -0.036653485
0001a0 e6 3f 51 3d 1f b6 ac bc 88 00 2b 3d 6e a2 2f 3d
       0.05108633 -0.021082936 0.041748554 0.042879514
0001b0 d1 52 51 bb 56 b9 18 3d 25 dc 55 3d f4 c2 50 3d
       -0.0031940232 0.037286125 0.0522119 0.05096717
0001c0 b0 77 10 3d 73 de 44 3c 5a 30 24 bc 5d 72 32 3d
       0.035270393 0.012015927 -0.010021294 0.043566097
0001d0 2c 1d ad bc 9a 66 a1 bc 2a a8 4d 3b 01 eb a4 3d
       -0.021132074 -0.019702245 0.0031380751 0.08052636
0001e0 dc dc 0b bb a6 7d c5 bc e7 7c 67 3d ed c2 85 3d
       -0.002134136 -0.024107765 0.0565156 0.0653132
0001f0 63 80 51 b9 ac cd 94 3d ce 29 16 3c 75 eb 65 bd
       -0.00019979621 0.07265791 0.00916524 -0.056132752
000200 f4 3d 9d 3d 7e 1d 5d bd e7 3f 94 bc 03 31 0e 3c
       0.07677832 -0.053983204 -0.018096877 0.0086786775
000210 9b 0e 91 bd ff 5b a9 3d bc f8 93 bd 33 9b 6b 3b
       -0.07082864 0.082695 -0.07225177 0.003595066
000220 e1 f5 10 3e ae 05 02 bd 8b 86 2c bd 4c 5e fb bc
       0.14156295 -0.031743698 -0.042120498 -0.030684613
000230 aa f7 a6 3c 70 74 7c bd 99 ac cf 3c cb 25 29 3c
       0.020381767 -0.06163448 0.025350856 0.010323952
000240 8d c4 4a bd 90 b7 d7 bc 98 92 d1 3c 98 e9 fd bc
       -0.04950385 -0.026332647 0.025582597 -0.030995175
000250 71 98 12 3d 16 6a 5b bd f7 38 66 bc 27 e6 56 3d
       0.03578991 -0.05356797 -0.014051667 0.052465584
000260 0d 8e 64 bd 5a 2d 65 bc e5 17 55 3d 7c aa 8f bd
       -0.055799533 -0.013987863 0.05202474 -0.07014939
000270 c0 9f 3b 3d e4 28 99 3c 2c a0 b3 3c 86 12 84 3d
       0.045806646 0.018696256 0.021926962 0.064488456
000280 05 20 10 3d cc 67 80 3d 5d 99 93 bd 04 19 18 3d
       0.035186786 0.06269798 -0.07206986 0.03713323
000290 d2 71 4e bd 12 83 6f 3b 1d 99 2f 3d e2 cf c8 bc
       -0.050401516 0.003654663 0.04287063 -0.024513189
0002a0 63 12 31 bb 6a 8c ae bc 9b 83 75 bd 79 61 51 3d
       -0.0027019016 -0.021307189 -0.059939962 0.051118348
0002b0 41 50 91 3d d4 88 c4 3c 2e c8 f3 bc 45 4d a0 bc
       0.07095385 0.023991026 -0.029758539 -0.019568095
0002c0 eb 04 40 bd 0b 08 eb 3c 29 f8 c6 39 a4 b9 77 3c
       -0.04687969 0.028690359 0.00037950397 0.015119944
0002d0 78 63 15 bd 4f 2d b8 3c 7b df 79 3c bd 5c ae bc
       -0.036471814 0.022482542 0.015251036 -0.021284455
0002e0 60 e9 b5 bc 9a f1 5d bc 2a f0 9b bc 50 da 90 bd
       -0.022206008 -0.013546372 -0.019035418 -0.0707289
0002f0 32 9a b9 3c f1 30 65 3c 21 93 63 bd 52 1a 53 3d
       0.022656534 0.013988719 -0.055560235 0.051538773
000300 9d 07 c4 bc 4d 94 7f bd eb 79 8a 3d be 77 7a 3c
       -0.023929412 -0.06239729 0.06761535 0.015287338
000310 89 35 1f 3c 3c e7 dd 3c 3c f1 bc bc 61 cb a5 bc
       0.009717354 0.0270878 -0.023064248 -0.02023858
000320 fd 70 46 bd 4d 64 03 bc d4 d6 71 3d 65 e0 7d bd
       -0.048447598 -0.008019519 0.059042767 -0.061981577
000330 93 68 62 bd 77 2c 3a bd 7c 24 d2 3c c2 84 c9 bc
       -0.05527551 -0.04545256 0.025652163 -0.024599437
000340 d5 d6 96 3a 3b 53 8e bd 06 7d 9b 3d 11 84 02 bd
       0.0011508117 -0.06949469 0.07592206 -0.03186423
000350 32 96 b3 3c 04 04 54 3d 49 5d df bc c1 6a 96 3c
       0.021922205 0.051761642 -0.027266162 0.018361451
000360 23 55 67 3d a1 41 10 3b 74 bb 03 bd 58 6b 80 3d
       0.056477677 0.0022011774 -0.03216119 0.06270474
000370 87 98 fe bc d4 65 9c 3d 93 f3 2d 3d 7b 93 3c 3b
       -0.03107859 0.0763661 0.04246862 0.0028774429
000380 54 e7 05 3d 30 fc fc 3c e2 3f 4e 3d dd e0 6f 3c
       0.032691315 0.030881971 0.050353892 0.014641014
000390 79 50 94 bd 0b 6a 80 bc 94 1e af 3c 23 50 8c bd
       -0.072419114 -0.015675565 0.021376885 -0.06851222
0003a0 1b 4a 2b bc 61 30 12 3d 41 3e ad 3b ba 37 2f 3c
       -0.01045468 0.03569067 0.0052869623 0.010694439
0003b0 92 5c 10 bd c4 c6 13 bd 8d f4 0e 3b 90 e3 4b bc
       -0.035244532 -0.03607823 0.0021813244 -0.012444392
0003c0 dc 21 e1 bb 03 2c 3b 3b c5 06 da 39 36 9e 4b 3d
       -0.0068704914 0.0028560169 0.00041585244 0.04971143
0003d0 75 1f ad 3c 1b e8 d3 3c f9 e2 a4 3c cd b0 f8 ba
       0.021133164 0.025867512 0.02012776 -0.0018973589
0003e0 10 3f d0 3c 16 e6 95 bd 46 8f 42 3d d8 4c 63 bd
       0.025420696 -0.07319276 0.047499917 -0.055493206
0003f0 36 4f a8 3b be f3 1d 3d 82 79 60 bd ce 8b 19 bc
       0.005136396 0.03856253 -0.05480338 -0.009371711

weight f4 [256, 256]
000000 62 bc d1 bb f6 6f 8a bd df 96 1a 3d 64 ee f3 ba
       -0.006400631 -0.06759636 0.037741538 -0.0018610475
000010 9d e3 8c bc 07 c5 bb 3d 2c b5 8a bd d5 fe c7 3c
       -0.017198378 0.09168439 -0.06772837 0.024413506
000020 cb b4 ce 3c f1 f1 3f bb 2e 59 a0 3c 1e 23 c0 3c
       0.025232693 -0.0029288495 0.019573774 0.023454245
000030 ed ab 4c bd 42 65 b6 3c 2c 8c e4 bc fe e5 aa bd
       -0.04996865 0.02226508 -0.02789887 -0.08344649
000040 38 ab d3 3d cf 43 c1 3d 70 08 b2 bd a7 a6 9a 3d
       0.10335392 0.094367616 -0.086930156 0.07551318
000050 bd 77 38 bc 96 54 61 3d 4a 1d a9 bd c1 7f a3 bd
       -0.011259017 0.055012308 -0.082575396 -0.079833515
000060 42 6b a1 bc 49 5c 45 3d 76 30 85 3c a2 60 b7 bd
       -0.019704465 0.048183713 0.01625846 -0.08953978
000070 d2 80 a5 3c 5d 58 9b bd 67 61 95 bd 6b 19 0a bc
       0.020203028 -0.07585213 -0.07293969 -0.008428912
000080 52 d4 a9 bc eb 8a 5b 3d 4b ae fc 3c 99 35 d7 bc
       -0.020731125 0.05359928 0.030844828 -0.026270675
000090 eb bc 93 3d 2f 3c 84 bd b5 c1 db bc 90 38 91 3d
       0.072137676 -0.064567916 -0.026825765 0.070908666
0000a0 2c ec 12 3d b4 7f 8e 3b c3 ef 2b bc 0f 5d 6a 3b
       0.035869762 0.0043487195 -0.010494175 0.0035761034
0000b0 f1 8f 5c 3d 28 b7 96 bd a4 aa 8b bd 83 79 4d 3d
       0.05384821 -0.07359153 -0.068196565 0.05016471
0000c0 b6 f0 5e bd 49 7e 14 3d 8f 38 9f bd 7d a0 8e 3d
       -0.05442878 0.036253247 -0.077744596 0.069642045
0000d0 8a dc 92 3c 27 7e aa 3d ec a3 79 3d 7e eb 5d 3d
       0.017927427 0.08324843 0.060947344 0.05417966
0000e0 8a ff 45 3d 11 25 b2 bb d8 43 ba 3d 74 3b 8b 3d
       0.048339404 -0.0054365476 0.090949714 0.06798449
0000f0 fa 97 72 bd 25 2d 34 3d dd 57 2a bc 12 5c 34 3d
       -0.059226967 0.043988366 -0.010396925 0.044033118
000100 8d d4 06 bd 4c 00 fa bc 3e f8 89 bd de 73 96 3d
       -0.032917548 -0.03051772 -0.067368016 0.07346319
000110 6c b3 c2 3c 83 66 94 bd 4d b9 b7 bd a5 95 8b 3b
       0.023767196 -0.07246115 -0.0897089 0.0042597824
000120 a9 6b 95 bd 1b 8c c5 3d 05 a4 bb 3d 9b 8e cb 3d
       -0.07295925 0.096458636 0.091621436 0.09939309
000130 76 f0 08 bd ac f6 22 3c 4c 76 94 bc c8 7a f1 3c
       -0.033432446 0.0099465065 -0.018122815 0.029477492
000140 6c f5 1e 3c b2 bb 96 bc 57 2d 93 3d c7 58 0c bb
       0.009702068 -0.018400047 0.07186382 -0.002141522
000150 5c 4d a9 3c 32 5c b0 bd a5 74 cb 3d f5 1c 07 ba
       0.02066677 -0.08611335 0.099343576 -0.0005154156
000160 59 e9 d4 bd fe 97 a0 3c a6 90 fd bb 85 75 b4 bc
       -0.1039607 0.019603726 -0.0077381907 -0.022028694
000170 82 80 bf 3d 80 bb 78 3d 20 3f 35 3d c7 2a ab 3c
       0.09350683 0.06072569 0.044249654 0.020894421
000180 92 ea 63 bd ac 27 3c 3c 4d b1 79 3c d7 0d 10 3d
       -0.055643626 0.011484068 0.015240026 0.03516945
000190 72 7c 59 bd c9 05 80 bc c8 7f 95 3d 0e 0c 55 3d
       -0.053097196 -0.015627759 0.07299763 0.05201345
0001a0 a8 02 10 bc c2 92 cc 3d 03 05 85 3d a3 84 c2 bb
       -0.008789696 0.09988929 0.064950965 -0.0059362217
0001b0 83 76 77 3d ce 5d 58 bd 31 76 6a 3d d5 16 4c bd
       0.060415756 -0.052823834 0.057241622 -0.04982646
0001c0 73 11 8d 3c 0e a7 87 3c 99 9a 3c bc be 9f 1d 3d
       0.017220234 0.01655915 -0.011511468 0.03848242
0001d0 1d 72 74 3d 0f 87 23 3d d6 85 7d 3d 8a bf 9b bc
       0.05967914 0.039923724 0.061895214 -0.019012231
0001e0 b4 cc 87 bd 2e 60 44 bd e2 1a 89 3c 5e eb 5b bd
       -0.06630841 -0.047943287 0.016736452 -0.05369126
0001f0 31 17 94 3d 19 6d 3f bd eb 58 7f 3d 6a e1 4f 3d
       0.07230986 -0.046734903 0.06234066 0.05075208
000200 6e ac 60 bd d7 23 b9 bc e5 c5 ea bc 6c ee 94 bd
       -0.05485194 -0.022600098 -0.028658817 -0.07272038
000210 f3 bf 2d bc 1f b3 98 bd 1b e7 37 bb 78 b9 b8 3d
       -0.010604846 -0.0745604 -0.0028061334 0.0901975
000220 8a e9 68 3d 8c 3a 3a bc 79 f0 93 3d 82 a0 0f 3d
       0.056863345 -0.011366498 0.07223601 0.03506518
000230 25 81 e9 bb dc bc ac 3d 70 b4 20 3d 6a 4c b3 3d
       -0.007125991 0.084344596 0.03923458 0.08754809
000240 8e 4a ea bc 7d e2 a2 bc b7 84 7a bc f9 15 80 3c
       -0.028600004 -0.019883389 -0.015290431 0.015635477
000250 e8 3e 7c bd 57 1f 4f 3d 1c 31 ff bc c3 55 4b bd
       -0.06158343 0.050566997 -0.031151347 -0.049642336
000260 53 8f a9 3d cd e6 29 bd 26 b8 29 3c 11 01 23 3d
       0.0827929 -0.041479874 0.010358846 0.03979594
000270 b9 1d 06 3c fc db 46 bc 5e 2e 35 bb cd 40 97 3c
       0.008185797 -0.012137409 -0.0027646045 0.018463517
000280 9c 64 d9 bb 1c aa 9b bd 0f b9 c7 3d ac d1 6d bc
       -0.006634308 -0.07600805 0.09752094 -0.014515322
000290 5d 4c 51 3d 02 08 59 3c 7f 92 91 3c e0 bb f6 bc
       0.051098216 0.013246538 0.01777005 -0.030118883
0002a0 ec 8c 81 bc 9f 5a 33 bd 64 96 7f 3d 95 96 23 bd
       -0.015814267 -0.043787595 0.062399283 -0.039938528
0002b0 f9 8a a6 bd 85 65 93 3b 23 2a d5 bb a1 56 7a bd
       -0.08131976 0.004498186 -0.006505267 -0.061117772
0002c0 62 40 ed 3c a4 50 c4 bd af 6a c6 bd cb eb a0 3c
       0.028961364 -0.095856935 -0.09688317 0.019643685
0002d0 e7 7e c2 3d aa 13 7a 3d 34 2c f8 3c 42 d0 c3 3d
       0.09496861 0.06105391 0.030294515 0.095612064
0002e0 6e 9a 05 bc cc 1f 08 bc 70 b0 c4 3d 74 a7 31 3d
       -0.008154495 -0.008308362 0.09603965 0.043372586
0002f0 88 e3 e0 3d c7 d9 00 3d 62 41 53 3d 83 63 52 bd
       0.10980898 0.03145769 0.051576026 -0.051364433
000300 d8 f8 21 3d 1e 37 9e 3d 8d 00 a6 bd 53 31 48 bd
       0.039543957 0.077253565 -0.08105574 -0.048875164
000310 5d 68 ba bc b0 3e 83 bd 30 be 72 3c 6b a8 ff 3b
       -0.022754842 -0.06408441 0.014815852 0.0078020594
000320 05 65 a8 3b 59 e4 87 bb 5d f0 d9 3b ee 45 ae 3d
       0.0051389956 -0.004147094 0.006650968 0.08509432
000330 f0 c0 d5 3c 06 ab 86 3b ac 42 0e 3d ac 9a 86 3d
       0.026092976 0.004109743 0.034731552 0.0657247
000340 67 c6 af bd 7f 01 11 3d 4e 5c e3 bc a4 7d b1 3d
       -0.08582764 0.035401817 -0.027753975 0.08666542
000350 9f 8f dc 3c 01 2f 89 bc 38 14 88 bd 83 24 24 3d
       0.026923953 -0.016746046 -0.066444814 0.040073883
000360 4c d2 39 bd b1 12 b1 3d b2 21 5a 3d fa 2e 59 bd
       -0.04536657 0.08646143 0.05325479 -0.053023316
000370 5c 24 43 3d ea aa 55 bd e9 52 42 bd e7 16 c9 3c
       0.047642097 -0.05216495 -0.04744235 0.024547054
000380 26 ef f2 bb e4 e4 99 bc ab f6 02 3d 95 9c 9e 3c
       -0.0074137626 -0.018785901 0.031973522 0.019361774
000390 2e c6 24 3d db 1d 4e 3b 35 20 16 bc eb 0f 8c 3d
       0.04022806 0.00314509 -0.009162952 0.068389736
0003a0 fb bc d3 bc 11 51 83 3c d8 a4 c4 3c 2d 75 85 bc
       -0.025846949 0.016029866 0.024004385 -0.016291225
0003b0 1b 37 a6 3d f8 79 5b 3d 06 f4 a7 3d fc 9a ad 3c
       0.08115979 0.053583115 0.08200841 0.021192066
0003c0 2a b2 10 bd 5e 6d d7 bd d2 fb 0c 3c 03 34 59 3d
       -0.03532616 -0.10518907 0.0086049605 0.053028118
0003d0 05 2f e8 bc d7 ac 78 bc 4f c8 88 3c 81 6c fb 3b
       -0.028342733 -0.015177927 0.016697077 0.007672847
0003e0 d9 27 1a bd 0b 04 a1 3d 2f 9d bb 3b 20 c9 0f 3d
       -0.037635658 0.07862099 0.005725525 0.035103917
0003f0 45 8a a0 3d 8e 5f 28 bd 7b 9a 66 3d 82 c2 09 bc
       0.07838873 -0.041106753 0.056299668 -0.008408191

bias f4 [256]
000000 97 4b 72 bb e4 c2 55 bd dc 7a c4 bc aa f9 87 3d
       -0.0036971325 -0.052187815 -0.023984365 0.066394165
000010 4b 72 47 bd 92 14 70 bd cc 20 74 bd 10 3d 65 3d
       -0.048692983 -0.058613367 -0.05960159 0.055966437
000020 32 ca 8d bd 75 a9 80 3d 0b 3c 5a 3d 5f 77 f3 bc
       -0.06923331 0.06282321 0.053279918 -0.029720007
000030 e7 80 70 3d 43 66 ab bb 2f f9 1b 3d de 29 15 3c
       0.05871668 -0.0052306964 0.038079437 0.00910422
000040 d0 bb 02 3d a0 c7 2b 3d 71 2e 34 3c 4c ee 9f bb
       0.031917393 0.041938424 0.010997401 -0.004880702
000050 5d 1d d5 bc 67 94 99 ba 91 dd 4e bd 62 a9 86 bc
       -0.026014978 -0.0011717201 -0.05050427 -0.01643819
000060 7a e8 a2 3b a5 f3 b9 3d 4a b7 b1 bc a0 b9 58 3d
       0.004971561 0.09079675 -0.021693844 0.0529114
000070 0c a2 9b 3d 48 34 b4 3d 38 e2 17 bc 84 39 fc 3c
       0.07599267 0.08799034 -0.009270243 0.030789144
000080 68 37 e4 bc a3 71 4a 3d 7f b7 30 bd fd 7d 9a 3c
       -0.027858451 0.04942478 -0.043143746 0.018858904
000090 a9 4b 97 3a 37 9c 98 bb a6 ad d7 bb f1 99 0a bd
       0.0011542934 -0.004657294 -0.00658198 -0.033838216
0000a0 89 a0 ae 3b c6 09 7d 3d ce 79 c6 3b 8e c4 58 3c
       0.005329196 0.0617769 0.0060570007 0.013230456
0000b0 92 fc a6 3c 62 75 7c 3d 97 40 0e 3d 87 2f 75 3d
       0.020384107 0.061635382 0.034729566 0.05985978
0000c0 06 66 d9 3c 18 6c 4b 3d c5 1e af 3b 5c a2 ef 3c
       0.026537906 0.049663633 0.005344244 0.029252224
0000d0 d1 41 7a 3c 3f 98 08 bd da 3a a6 38 2f c6 cd 3c
       0.015274481 -0.03334832 7.926459e-05 0.025118915
0000e0 b9 42 bf bb 77 f3 38 bd 82 28 a0 bc 54 b4 29 3a
       -0.0058368114 -0.04515406 -0.019550566 0.00064737094
0000f0 85 d9 29 3c 04 38 27 3b 58 ec ea bb 2b 00 9b 3d
       0.010366802 0.0025515566 -0.0071692877 0.075683914
000100 10 0a ca 3c 9f f6 a4 3b 98 ea 44 bc 93 71 c6 bc
       0.024663001 0.0050342823 -0.012018822 -0.024224078
000110 2b ce 4a 3d 38 c0 b1 3a a9 ab 92 bc 55 42 8c 3c
       0.049513023 0.0013561314 -0.01790412 0.017121473
000120 fe fe 48 3d 8d ce 14 bc ac 7f 88 bc 0f 28 9a bc
       0.049071305 -0.009082449 -0.016662441 -0.01881793
000130 13 f5 54 3d 26 c5 04 bd 9a 98 89 3d 9b be 9b 3b
       0.051991533 -0.032414578 0.067185596 0.0047529466
000140 05 a7 5f bd b5 15 92 bd 40 f5 ac bc a3 61 ee bb
       -0.05460264 -0.071330465 -0.021113038 -0.007274823
000150 78 3d 4a 3d 5e 24 94 3d 6f cc 80 ba e1 c3 d6 bc
       0.049375027 0.07233499 -0.0009826551 -0.02621645
000160 12 eb c5 bc d0 1e 69 3d 4e 7b 1e bd e4 d8 b1 3d
       -0.024159942 0.05691415 -0.03869181 0.08683947
000170 a4 81 6b bd 6d c1 59 bc 5c 85 53 3d 5f c0 91 3d
       -0.05749668 -0.013290745 0.051640853 0.0711677
000180 49 00 2b bd 6b 62 34 bd bb c8 de 3b 8a 17 bc bc
       -0.04174832 -0.04403917 0.0067988313 -0.022960443
000190 4c 16 c1 3d c4 2c 72 bd 39 2a 11 3d 14 a8 1b bc
       0.09428081 -0.059124723 0.035440657 -0.009500522
0001a0 10 a4 4e ba ca 87 a6 3c ef 09 81 bd c8 4a 03 bd
       -0.00078827236 0.020328421 -0.06300723 -0.03205374
0001b0 74 01 6e 3d b7 a0 f0 3c 06 7f 3c 3d 88 ef 59 3d
       0.058106855 0.02937351 0.046019576 0.05320695
0001c0 cb 56 6c 3d 28 cb bb bc 6a 3c e7 3c 59 3d c5 bb
       0.05769996 -0.02292402 0.02822705 -0.006019276
0001d0 f5 23 cb 3b 8e be 0f bd 1a 24 c1 bb 59 b0 75 3d
       0.006199355 -0.035093836 -0.005894196 0.05998263
0001e0 25 0f e4 3c bc 85 b6 3c 23 e6 46 bd 2e 2d 0a 3d
       0.027839253 0.022280566 -0.04855932 0.033734493
0001f0 99 f0 ff 3c 67 f7 94 3d ae 83 68 bd 4d f5 29 bd
       0.031242656 0.07273751 -0.056766205 -0.041493703
000200 43 bd b0 3d 33 75 b2 bc e6 bb 86 3d a9 39 4d 3d
       0.08629849 -0.0217844 0.065788075 0.050103817
000210 7a 8e 2d 3c fb 4c 9b bd af b3 c4 3d f9 08 e4 bc
       0.010593051 -0.07583042 0.096045844 -0.02783631
000220 03 9f ad 3d 3c c1 2f 3d 88 5d 84 3d 45 78 5d 3d
       0.08477595 0.042908892 0.06463152 0.054069776
000230 08 8f 6f 3d 96 56 40 bd ad 60 5a bd 66 e6 58 3d
       0.058486015 -0.046957575 -0.053314853 0.0529541
000240 59 3c 17 3d 5c 49 44 bc 29 a9 3b bd c8 c5 fa bc
       0.036922786 -0.011980381 -0.04581562 -0.030611888
000250 fb 67 67 3b 12 79 88 3d cc d6 5a bc 25 f1 c1 bc
       0.003530978 0.06663717 -0.013356876 -0.023674557
000260 0e 0c 85 3d 9e 8a 3c bd dd 6b 11 3d 19 f5 6e bd
       0.0649644 -0.046030633 0.035503257 -0.058339212
000270 3b af 62 3d 97 5b 61 3d ca 3e a0 3d e9 4a 35 3d
       0.055342894 0.055018988 0.07824476 0.044260893
000280 21 35 4c 3d b4 ca 9b 3d 0d f0 89 3d 26 9c 2e bc
       0.049855355 0.07607022 0.06735239 -0.010657346
000290 bc b0 b5 3d f3 8f 57 3d de db 79 bd 69 b2 f5 3c
       0.088716 0.052627515 -0.061000697 0.0299923
0002a0 3c 44 a0 3d f0 e1 99 3d d7 dd 9d 3d 4a dc 0f 3d
       0.07825515 0.07513797 0.07708328 0.035122193
0002b0 c2 06 ab 3d fe a7 9b 3b a1 9f a2 3c 53 f2 35 3d
       0.08350898 0.004750251 0.019851508 0.04442055
0002c0 42 93 8b 3d 46 93 4a bd 18 80 a5 3c 70 35 83 3c
       0.068151966 -0.049456857 0.020202681 0.016016692
0002d0 df 9c c1 3b 7a bb 6f 3c 44 d4 83 3d f0 26 50 bd
       0.005908593 0.0146321 0.06436971 -0.050818384
0002e0 b5 cb 34 bd 1a db 2a bd 0c 19 f1 3a a0 30 cd bb
       -0.044139583 -0.041712858 0.0018394305 -0.0062619
0002f0 d3 1f 81 bd 0a 2a 56 bc 42 3d ed 3c 0e 39 3e 3d
       -0.06304898 -0.013071546 0.028959874 0.04644113
000300 1a 06 b9 3d 21 42 6c bd 5f ad c0 bc 8e 2c 6b bd
       0.09034367 -0.057680253 -0.02352017 -0.057415538
000310 f2 3c 67 3c 8b 9d 5b bd 1f b7 35 bc 69 7f 46 3d
       0.014113652 -0.05361704 -0.011091023 0.04846135
000320 0d 10 02 3d 62 3b 38 bc 59 ff 9b 3b 18 5e ee 37
       0.03175359 -0.011244627 0.0047606644 2.8415627e-05
000330 bf d1 16 bd 9c 7a 90 bc 9d 29 51 bd 09 2a 9b 3c
       -0.036821123 -0.01763659 -0.051065076 0.018940942
000340 06 88 8e 3d 1d 1d 0c 3d 49 e5 3f bc 74 55 26 3d
       0.06959538 0.034207452 -0.011712381 0.04060884
000350 9d 17 e0 bc a6 49 f6 bc b7 fe 2d 3d de d4 02 3d
       -0.02735501 -0.030064415 0.042479243 0.031941287
000360 86 1d 22 3d e3 f8 d6 3b d9 d5 91 3d 04 3f 3d bd
       0.039578937 0.0065604313 0.07120866 -0.046202675
000370 3c 90 c8 bc a2 dd 6e bd ec 11 18 3d 0b 03 37 bd
       -0.024482839 -0.058316834 0.037126467 -0.044680636
000380 ab e7 94 3d 4a 8c 93 3d ae 30 35 bd 63 50 18 b9
       0.0727075 0.072044924 -0.044235878 -0.00014525796
000390 53 f4 99 3d e9 12 d8 3c 97 cf da bc c7 fb 82 3a
       0.07517304 0.026376205 -0.026710315 0.0009993248
0003a0 6b 53 42 bc 25 db 26 bd 69 f8 0d bd 46 e3 74 3d
       -0.011860709 -0.040736336 -0.03466073 0.059787057
0003b0 7f 95 8d 3c fb 36 f3 bc 3c f5 8d 3c 31 6a c0 3b
       0.0172832 -0.029689303 0.01732885 0.005872034
0003c0 08 d3 49 bd cd 9d be bc 4b 54 a0 3d cd 47 65 3d
       -0.04927352 -0.023268605 0.078285776 0.055976678
0003d0 f3 f9 15 bb ef 0b 0b 3d 63 e9 3a 3d 32 42 03 3d
       -0.0022884577 0.033946928 0.04563273 0.03204555
0003e0 f8 51 30 bd 7e ad 30 bc 26 7f 54 3d 87 05 1f bd
       -0.04304692 -0.010783551 0.05187907 -0.03882363
0003f0 a0 c9 7f 3d 9b 0b 1a bd d8 39 5b 3d 25 7e 85 bd
       0.062448144 -0.037608724 0.05352196 -0.06518201

weight f4 [128, 256]
000000 60 6e 3d 3d 3a c3 0a 3b d4 24 c7 3c 16 68 f3 ba
       0.04624784 0.0021173493 0.024309553 -0.0018570449
000010 de 97 08 3d 72 9b dc 3c 4d 4e 66 3d 61 3a 06 3d
       0.033347957 0.02692959 0.056227017 0.03277052
000020 fc ed 9b 3d 96 36 3c bd 7c de a9 3c 02 10 db bd
       0.07613751 -0.045950495 0.020735972 -0.106964126
000030 59 4f 64 bd e0 ec 0b 3d 1f 09 0c bd 59 75 81 3d
       -0.055739734 0.03416145 -0.034188386 0.063212104
000040 b1 36 d3 3d 32 7c b6 bc e9 d7 a5 3d 04 f7 5b bd
       0.10313166 -0.022276018 0.08097822 -0.05370237
000050 ab 47 f5 3d 2b 11 af bd 0c 4e 83 3c 0f bd 4a bd
       0.1197656 -0.085481964 0.016028427 -0.049496707
000060 9a a3 a8 3d 92 af 8d bd 57 ed 97 bd 54 ab ad bd
       0.082343295 -0.06918253 -0.07418316 -0.08479944
000070 61 81 7b bd 74 00 4b bd 3e 9d 55 3d 45 4d 67 bd
       -0.061402682 -0.04956098 0.05215191 -0.056470174
000080 12 4d f3 3d 4b bb c5 bd 6e 0d d1 bb c0 cf e3 39
       0.11879934 -0.09654864 -0.006379775 0.000434516
000090 f3 51 c2 bd c9 3a 7f bd 92 e4 2d bd a7 98 52 3c
       -0.09488287 -0.06231192 -0.04245431 0.012853778
0000a0 1d bb cc bd 79 95 8f 3d 9d a1 65 3c 3b 99 81 bb
       -0.099966265 0.070109315 0.014015582 -0.003955034
0000b0 3c 43 78 3c a0 5c 92 bd ca 6f 47 3d 5a 26 28 bc
       0.015152749 -0.07146573 0.048690595 -0.01026305
0000c0 cd b1 be 3d 6f c7 73 bd 80 6e e9 3d b1 ad b2 3d
       0.093112566 -0.059516367 0.11398029 0.08724535
0000d0 e8 06 cb 3d 29 1a 66 3d ec c0 ec 3c 7d 52 82 bd
       0.09913427 0.056177292 0.028900586 -0.0636339
0000e0 45 fe 3a bc 39 bd aa 3d 96 23 d8 3d ec 21 47 3c
       -0.011413162 0.083368726 0.105536625 0.012154084
0000f0 c5 de 04 bd 44 93 c9 3d b8 76 b7 3a a7 ac 64 bc
       -0.032439012 0.09842542 0.0013997173 -0.013957179
000100 67 5d 9e bd 62 47 88 3c c4 93 54 3d d5 41 3d 3d
       -0.07732659 0.0166356 0.051898733 0.04620536
000110 42 d2 ee bb a3 93 d5 3d 30 19 c6 3a 86 31 41 3d
       -0.0072882483 0.1042855 0.0015113708 0.04716637
000120 ee e5 77 3b 10 66 75 3d c2 5f c0 3d 4e a2 38 3d
       0.0037826258 0.059911788 0.09393264 0.04507666
000130 9b 83 64 bc 86 d7 c7 3c 60 83 82 3c 77 4d d0 bd
       -0.013947393 0.024394762 0.015931785 -0.10171025
000140 5b 73 1b 3c 23 bd b2 3d 43 45 0f b9 56 04 7b bd
       0.009487952 0.08727481 -0.00013663345 -0.061283432
000150 5b 88 c9 bd d3 2e 94 bd 2e df 1e bd bc 4c eb 3c
       -0.09840461 -0.072354935 -0.03878706 0.028723113
000160 2f 57 60 bc 4f 8e 27 3c e8 4a c6 3d ad d6 42 bd
       -0.013692661 0.0102268 0.09682256 -0.047568012
000170 01 34 6d 3d ba b3 9b 3d c4 fa 5a bd 3a 45 5c bd
       0.057910923 0.076026395 -0.053461805 -0.053776957
000180 87 f4 bb 3d 80 d0 02 3d f4 71 ae 3c 9e 17 08 3c
       0.09177499 0.031937122 0.021294571 0.008306412
000190 91 cb 8f bd a9 db a5 3b 7e e0 9a bc 9c 24 a9 bd
       -0.07021249 0.005061586 -0.018905874 -0.08258936
0001a0 45 2e 8a bd e2 22 a4 3c 32 20 0a 3b ee fb e9 3d
       -0.067471065 0.020036165 0.0021076319 0.11425005
0001b0 d8 6d a7 bc bb f5 dc 3d 57 da 1e 3d 4d 1c 74 bd
       -0.02043812 0.10789057 0.038782444 -0.059597302
0001c0 8a 02 8d bd 1c cd be bc f4 1c bc bd b0 8e 86 3b
       -0.0688525 -0.023291163 -0.0918521 0.004106365
0001d0 ed 35 07 bd 15 c9 cd 3d ef 8e c0 bd 08 70 9f 3d
       -0.033010412 0.10048119 -0.094022624 0.0778504
0001e0 17 9e 9a 3d eb 77 57 bd b4 cb 1b 3c d2 83 f3 bc
       0.075496845 -0.052604597 0.009509016 -0.029725943
0001f0 f2 06 88 3d ee 3c 13 bd bf d1 d1 3d 0c 57 b9 bd
       0.0664195 -0.03594678 0.10245084 -0.09049806
000200 a0 42 a9 3c 2f 14 ce 3d b1 5e ac bd b9 37 0d bc
       0.020661652 0.100624435 -0.084164985 -0.008619242
000210 70 14 23 bc ba ff a0 3c 5b 00 a7 bd bf 44 c7 3d
       -0.009953603 0.01965319 -0.08154365 0.09729909
000220 17 66 d6 3b 6f da 88 3d fd 91 22 bd 7f 85 75 bc
       0.006542932 0.06682288 -0.039690007 -0.014985441
000230 b9 44 8a bd 02 51 ba 3d 68 fa 25 3d 7a d0 c8 3d
       -0.06751389 0.09097482 0.04052201 0.09805389
000240 2e b6 c6 3d 08 9c f5 bd 96 32 75 bc a8 a3 d5 3d
       0.09702717 -0.11992651 -0.014965674 0.104316056
000250 9f df b1 3d be 91 d4 bd 08 8d 38 3d 8c 2f dd 3d
       0.086852305 -0.103793606 0.045056373 0.108000845
000260 f9 80 88 3c 68 e1 9c 3d ca f5 d9 3c 9d 85 9b b8
       0.016663061 0.0766018 0.02660646 -7.4158634e-05
000270 10 53 b3 bc 3d 5a 32 bc 59 8a c1 bc 70 b0 36 bc
       -0.021890193 -0.010885772 -0.02362554 -0.011150464
000280 9e fd da bd 4c 33 af bd fa ea 85 bd 26 d6 54 3d
       -0.10692905 -0.08554706 -0.06538959 0.05196204
000290 e2 26 2a 3c 24 e1 16 3b 42 22 7c 3d 6d a9 9c 3c
       0.010385247 0.0023022378 0.06155611 0.019123757
0002a0 e2 81 2c bd 5f 3b b2 bd 76 db 17 bd 43 6d de 3d
       -0.042116053 -0.087027304 -0.03707453 0.10860684
0002b0 4d 4b 30 bb 1e 7b 68 3d fc 92 ad bd 4f 38 b9 39
       -0.0026900352 0.05675804 -0.08475301 0.00035327903
0002c0 64 e6 a3 bc 26 f1 62 bc 17 41 d3 3d 60 51 d2 3b
       -0.02000732 -0.01385144 0.10315149 0.006418392
0002d0 73 5d 8d bc 10 bd bc 3c db d8 6d bd 1d fb 0b bb
       -0.017256474 0.02303937 -0.058068138 -0.0021359392
0002e0 8d 1d 3b bc cf d9 73 3d fa a1 c3 3c 45 26 ae 3c
       -0.01142062 0.05953389 0.023880947 0.021258483
0002f0 c1 af a4 3d e1 f9 d0 3d 61 4e a9 bc 97 aa 97 39
       0.08041335 0.102039106 -0.020667257 0.00028928064
000300 5a 12 a6 3c 4d 6e aa 3d 0a d9 7e 3d 24 81 1c 3d
       0.020272423 0.083218195 0.062218703 0.038209096
000310 2c 65 4d bd 29 c6 99 3d e7 0d 9c 3c 13 7e 9c bd
       -0.050145313 0.07508499 0.019049598 -0.07641234
000320 15 0f cb bd 7f 2f 3e bd 36 bd a3 3d 8b 9c e6 bd
       -0.09914986 -0.046432015 0.079950735 -0.11260327
000330 e8 07 d1 3c 9e 97 d7 3d de 72 8e 3d 3c 34 0b 38
       0.025516465 0.105269656 0.06955503 3.318883e-05
000340 c8 f4 fd ba d7 e7 b2 bd f9 54 6e 3c 0a 38 8f 3c
       -0.0019375319 -0.08735626 0.014546626 0.017482776
000350 9e 85 1d 3d 68 fc 9c 3d 38 3d b0 3d 9d 5d b6 3d
       0.038457505 0.0766533 0.086054265 0.08904574
000360 89 99 aa bd 9d eb 13 3d c7 4f 9a 3b d6 6c d4 3b
       -0.08330066 0.03611337 0.004709217 0.006482701
000370 81 81 2c 3c 45 a5 c9 3c de 04 86 3c 2d 3a 46 3c
       0.010528923 0.02461494 0.016359743 0.012098831
000380 a2 55 45 bd c6 b0 2a bd 80 b9 a1 3c 01 c9 6d 3d
       -0.04817737 -0.04167249 0.019741774 0.05805302
000390 b0 c8 21 3c 83 5c 84 bc c1 f6 c6 bd 04 7d c4 3d
       0.009874508 -0.016157394 -0.09715033 0.09594157
0003a0 73 b1 0d bd bd 18 45 39 11 45 0a 3d bb 6b 9f bd
       -0.034593057 0.000187966 0.033757273 -0.0778422
0003b0 31 ef 1b bd 87 6b fd 3c 00 f8 73 3a 1a 38 7e 3d
       -0.038069908 0.030935062 0.0009306669 0.06206522
0003c0 da 86 17 3d 4e cf 7d 3d c5 8a ab bd 64 a3 8b 3d
       0.03699384 0.06196528 -0.083760776 0.06818274
0003d0 ac 71 92 bd 33 db 2a bd 12 53 41 3c fe 1f bb 3c
       -0.071505874 -0.04171295 0.011799591 0.022842404
0003e0 72 2f 86 3d 40 a3 c9 bc 86 ec 29 bd d9 c6 4d 3c
       0.06552018 -0.024613976 -0.041485332 0.012559616
0003f0 8a 27 bf bd a4 b3 81 3c 52 cd 5c bb 59 b5 03 3c
       -0.09333713 0.01583273 -0.0033691716 0.008038842
