models/model_objs/nfl_model_1.pth (torch, 911609 bytes, 11 tensors)

weight f4 [256, 208]
0.031838804 -0.03459665 0.029028192 -0.053873036 -0.04531449 0.018316183 0.01624128 -0.033325195
0.03197077 0.038544655 -0.05006404 -0.04280531 0.045753337 -0.0198808 -0.021632127 -0.07952503
-0.05511838 0.008292762 -0.013445305 -0.07108231 0.0023445135 -0.059576053 -0.061462343 -0.035689235
-0.058598112 -0.055680268 0.057850476 0.019838147 0.024987208 -0.069181874 -0.04912466 -0.03472764
0.014220896 -0.07112793 -0.031169834 -0.038523838 0.0053693824 -0.019063221 0.00022869966 -0.05887491
-0.0611211 -0.040219802 -0.036662646 -0.06515482 0.048554543 -0.02418897 0.035537295 0.076969944
-0.070946686 0.052149013 -0.046335008 -0.014936084 -0.061721135 -0.04992287 -0.0106830355 -0.040884234
0.03442885 -0.0839839 0.04373719 -0.060405683 -0.031361144 0.03244945 0.043268792 0.035950102
0.06189903 -0.0759136 0.03608304 -0.0060270387 -0.023244703 -0.10109906 0.030341279 -0.039866295
0.041535277 0.04666263 0.030334217 -0.030321175 0.071348146 0.0060273916 0.020270675 -0.05668902
0.014598242 -0.0042683813 -0.020972002 0.045048393 0.012176012 -0.026976176 -0.031343296 0.011219898
0.024206556 -0.032157645 -0.053995974 -0.046984076 -0.05180032 0.017228907 0.07295981 -0.098647445
0.050877206 0.03736305 0.014700461 -0.01453744 0.05540313 0.052648805 0.049053933 -0.00036521093
-0.0037792628 -0.019331671 -0.004173512 -0.01331586 0.04233731 0.042098407 0.007740044 0.009194835
-0.016120119 -0.014834177 0.04448836 0.012966979 -0.032218844 -0.025588164 0.043995824 0.027010778
-0.017957522 0.0038877702 -0.054166082 -0.055201 0.032617956 0.00890672 0.042489264 0.017617553
-0.07015978 -0.03674673 0.0006335747 0.05256478 0.016977161 -0.009016037 0.014177139 -0.015058304
-0.0404641 0.03609974 -0.025394218 -0.0031066763 -0.08348613 0.052396454 0.062389523 0.010761085
-0.048670985 -0.05380027 -0.06597325 0.07380154 0.018780507 0.07672962 0.03534842 0.020942211
0.006872559 -0.06724044 -0.05395925 -0.04347999 0.013875293 -0.030942941 -0.009238814 -0.04642241
-0.032709386 -0.056510217 -0.038142823 0.01902347 -0.011499148 -0.0047194306 -0.017695133 -0.054016817
-0.0495121 -0.008648727 -0.03637374 -0.08173263 0.035161115 -0.06732778 0.053929847 0.055132356
0.036848135 -0.041899744 0.07554355 -0.037766982 0.048706245 0.071862 0.034667842 0.028055534
-0.0030218675 -0.061601635 0.028509418 -0.05873857 0.06741812 0.03737124 0.076923974 -0.011940341
-0.07147947 0.015595824 0.05441086 -0.08352111 -0.019021174 -0.030178152 -0.0023134097 -0.019597681
-0.04285178 -0.0025719928 -0.064217106 0.04750075 0.06964336 -0.025385756 0.011837554 -0.06009013
-0.06373276 -0.06638624 0.033084285 -0.0380695 -0.049774755 -0.004315981 -0.024998017 -0.018729294
0.008844014 -0.02542699 -0.019577077 -0.035213895 -0.05058973 0.06210246 -0.031269055 0.020475736
-0.022132767 0.016909862 0.056956477 0.04201966 -0.061948948 0.031938165 0.067386374 0.018468652
0.045266505 0.0688483 -0.0118212 0.010967839 -0.049891017 -0.026444696 0.05380439 0.036671937
-0.046203315 -0.056090508 -0.04729544 -0.064729564 -0.055385187 -0.021088807 0.045681186 0.014206657
-0.04815052 -0.056001004 0.038690392 -0.051890433 -0.0096109975 0.032947287 -0.025945889 -0.04180889
00000000: 6869 023d 38b5 0dbd 88cc ed3c f9a9 5cbd
00000010: b09b 39bd d20b 963c 6f0c 853c 0080 08bd
00000020: c8f3 023d 00e1 1d3d f30f 4dbd 9f54 2fbd
00000030: da67 3b3d 0fdd a2bc dc35 b1bc 05de a2bd
00000040: cfc3 61bd 5dde 073c b249 5cbc 9a93 91bd
00000050: 69a6 193b 0506 74bd f0bf 7bbd e02e 12bd
00000060: 9304 70bd fe10 64bd 9ff4 6c3d 9c83 a23c
00000070: f9b1 cc3c 3aaf 8dbd f136 49bd 923e 0ebd
00000080: c3fe 683c 85ab 91bd e157 ffbc 2ccb 1dbd
00000090: a5f1 af3b 792a 9cbc 19cf 6f39 d126 71bd
000000a0: 1e5a 7abd 85bd 24bd 922b 16bd e46f 85bd
000000b0: 21e1 463d f227 c6bc 8e8f 113d 6ba2 9d3d
000000c0: 7f4c 91bd 349a 553d c7c9 3dbd 7ab6 74bc
000000d0: 4dcf 7cbd ec7b 4cbd e607 2fbc 3a76 27bd
000000e0: 4405 0d3d c0ff abbd c525 333d f36b 77bd
000000f0: 8b74 00bd b7e9 043d 9e3a 313d 6a40 133d
00000100: d689 7d3d 9778 9bbd cfcb 133d 777e c5bb
00000110: ad6b bebc 060d cfbd 468e f83c d74a 23bd
00000120: e520 2a3d 5021 3f3d 777f f83c 1d64 f8bc
00000130: fa1e 923d 6d81 c53b b00e a63c bf32 68bd
00000140: 772d 6f3c c7dd 8bbb 7acd abbc aa84 383d
00000150: e57d 473c 24fd dcbc d461 00bd aad3 373c
00000160: d44c c63c bcb7 03bd e22a 5dbd 6072 40bd
00000170: 932c 54bd a323 8d3c f46b 953d ac07 cabd
00000180: 9e64 503d ff09 193d 34da 703c 712e 6ebc
00000190: 64ee 623d 46a6 573d c7ec 483d c879 bfb9
000001a0: 82ad 77bb 745d 9ebc f5c1 88bb c42a 5abc
000001b0: e369 2d3d 616f 2c3d 32a0 fd3b efa5 163c
000001c0: 570e 84bc 0c0b 73bc 6d39 363d 7473 543c
000001d0: e8f7 03bd 459e d1bc f734 343d b545 dd3c
000001e0: a71b 93bc f6c9 7e3b 41dd 5dbd 721a 62bd
000001f0: 689a 053d 7eed 113c 3909 2e3d b052 903c
00000200: eeaf 8fbd bd83 16bd 7a16 263a 2b4e 573d
00000210: b013 8b3c 00b8 13bc 3b47 683c 1bb7 76bc
00000220: afbd 25bd 52dd 133d 8907 d0bc 6199 4bbb
00000230: c7fa aabd aa9d 563d 288c 7f3d 434f 303c
00000240: 3a5b 47bd ac5d 5cbd fc1c 87bd 4325 973d
00000250: 94d9 993c 6b24 9d3d 81c9 103d 008f ab3c
00000260: 3433 e13b 5bb5 89bd 6004 5dbd 1318 32bd
00000270: 3255 633c 0d7c fdbc 655e 17bc 6d25 3ebd
00000280: 47fa 05bd 4277 67bd a63b 1cbd 1cd7 9b3c
00000290: ec66 3cbc 74a5 9abb 62f5 90bc bd40 5dbd
000002a0: 33cd 4abd 64b3 0dbc a1fc 14bd 7063 a7bd
000002b0: 1a05 103d 26e3 89bd 8be5 5c3d 77d2 613d
000002c0: 12ee 163d 119f 2bbd 94b6 9a3d 8db1 1abd
000002d0: 3380 473d 622c 933d deff 0d3d b8d4 e53c
000002e0: 860a 46bb ff51 7cbd 958c e93c db97 70bd
000002f0: 8312 8a3d 9612 193d 518a 9d3d 6ca1 43bc
00000300: d463 92bd a185 7f3c ecdd 5e3d 1e0d abbd
00000310: 4bd2 9bbc 2c38 f7bc 939c 17bb 518b a0bc
00000320: 5985 2fbd e18e 28bb 4284 83bd 2590 423d
00000330: 2ea1 8e3d caf5 cfbc 4df2 413c 1121 76bd
00000340: 5286 82bd 82f5 87bd 6383 073d c4ee 1bbd
00000350: 9de0 4bbd 136d 8dbb a4c8 ccbc 2d6e 99bc
00000360: 7ce6 103c 434c d0bc 1b60 a0bc 723c 10bd
00000370: 2d37 4fbd 265f 7e3d fb13 00bd bbbc a73c
00000380: c74f b5bc 8d86 8a3c 324b 693d cf1c 2c3d
00000390: 2ebe 7dbd 98d1 023d de01 8a3d 924b 973c
000003a0: 5f69 393d 5600 8d3d b5ad 41bc 73b2 333c
000003b0: 865a 4cbd 8ca2 d8bc fe61 5c3d 5035 163d
000003c0: b03f 3dbd 29bf 65bd ddb8 41bd ef90 84bd
000003d0: 94db 62bd 6fc2 acbc 321c 3b3d 0ac3 683c
000003e0: 7b39 45bd 4f61 65bd d179 1e3d 108b 54bd
000003f0: 7277 1dbc bcf3 063d 798c d4bc cc3f 2bbd

bias f4 [256]
-0.07573447 0.057325087 -0.026180537 0.06615987 -0.049036574 0.028864363 0.029096862 0.06643274
0.06749718 0.07145715 0.08418298 0.050248656 0.055658683 -0.04947751 -0.00014851957 -0.059911806
-0.005546243 0.035862844 -0.066130765 -0.04739822 -0.054949947 -0.06756534 -0.008824106 0.035185054
-0.026626108 -0.0444171 0.02033958 -0.02606074 -0.015648568 0.05117 -0.023013819 0.039884772
0.04279953 0.05670449 0.063697934 -0.05122739 -0.019472409 -0.0065364214 0.012897668 -0.03953315
-0.069524705 -0.028744582 0.08525379 -0.013331468 -0.06614537 0.04096444 0.07789393 -0.04314002
-0.04393288 0.04340604 0.01754371 -0.0077084885 0.033135556 0.02706437 -0.026944827 0.04131571
0.045142114 0.06467908 -0.06796978 0.066974714 0.07360421 0.023339875 0.025337292 0.024564445
-0.036177643 -0.072942026 -0.04374855 0.073826306 0.04417011 -0.0047333427 0.0008552935 -0.032452937
-2.4132296e-05 0.040666852 0.06795067 -0.016082304 0.06085758 0.07425607 -0.037723336 -0.024630276
-0.011950458 -0.029907232 0.025585735 0.08348434 0.0842548 -0.022388702 -0.04900149 0.008577651
0.030134752 0.059517886 0.07913317 0.0138978 0.020234995 0.04309606 0.08091017 0.050898265
0.033975482 -0.084269375 -0.032575373 0.041910853 -0.047988005 -0.023054518 0.047659017 -0.064260274
0.066335425 -0.0251281 -0.009556607 0.010667061 0.072848044 0.02836893 -0.037563894 -0.058202017
0.05053225 -0.044672232 -0.06867413 0.06769375 0.054945193 -0.022853794 0.0380277 -0.031748492
0.049921528 -0.002494375 0.09232334 -0.026232285 -0.04459235 0.017671257 0.0065033115 -0.04349242
0.014404916 -0.030876108 -0.009665868 -0.00019712491 0.08033105 0.030156584 0.076952785 0.049583506
0.06616202 0.015594827 0.029129284 0.028399175 0.043055564 0.0073378244 -0.013838118 0.057096895
-0.002773792 0.0540729 0.08120355 -0.03698834 0.061717287 0.0075551076 0.020491453 -0.08328204
0.03475902 -0.04870384 -0.064429924 0.0411778 0.05178466 -0.04510866 -0.0037818756 0.03969719
0.0022770828 0.035179213 0.0477948 0.0035872054 0.0832961 -0.05133106 0.017794905 0.006483588
-0.07317202 0.026201028 0.009459887 -0.018033046 -0.034506638 0.021846648 -0.049598712 -0.03139205
-0.076110475 0.07822641 0.021040488 -0.042173892 0.030548844 0.038955864 0.0016055361 0.02762428
0.026615731 -0.022281416 -0.0734006 0.014974482 -0.0026672399 -0.035499282 -0.032714017 0.06680004
0.074282765 -0.0069408426 0.07998211 0.024281107 0.08425613 -0.024170395 -0.017200327 0.03721174
0.036725704 -0.041017156 0.04517683 -0.051256724 0.0049780854 0.02921511 -0.032060802 -0.050102223
0.02999725 -0.034174446 0.04029888 -0.07173159 -0.045670267 -0.0488323 0.07462869 0.044604886
0.034780495 0.04940742 0.0038517928 0.068330124 0.04184969 0.064506255 0.06585298 0.007963359
0.044516027 0.032159306 -0.050018318 0.009079101 -0.040855896 -0.054139435 -0.019425824 -0.055647254
-0.047444545 -0.017200982 -0.04152726 0.011725058 -0.051035233 -0.03180605 -0.037526656 -0.035586618
0.04430399 -0.02038377 -0.035235524 0.014808976 0.060381606 0.02187198 -0.045512512 -0.048662275
0.0800122 -0.021585017 0.031569242 0.03762426 -0.04448319 -0.034395758 0.056431215 0.0150377415
00000000: ac1a 9bbd b6cd 6a3d 9178 d6bc d37e 873d
00000010: 93da 48bd f574 ec3c 8b5c ee3c e30d 883d
00000020: f63b 8a3d 2058 923d 2068 ac3d 89d1 4d3d
00000030: 5cfa 633d eea8 4abd ebbb 1bb9 1566 75bd
00000040: 42bd b5bb ebe4 123d 916f 87bd a324 42bd
00000050: 3213 61bd b25f 8abd fc92 10bc 341e 103d
00000060: ff1e dabc b4ee 35bd 319f a63c 557d d5bc
00000070: 6d31 80bc a297 513d 7a87 bcbc 375e 233d
00000080: 8f4e 2f3d f842 683d 1074 823d d0d3 51bd
00000090: 9a84 9fbc 7a2f d6bb be50 533c 83ed 21bd
000000a0: f862 8ebd c279 ebbc 8a99 ae3d 3b6c 5abc
000000b0: 3977 87bd 54ca 273d da86 9f3d 97b3 30bd
000000c0: f7f2 33bd 88ca 313d d4b7 8f3c 7d97 fcbb
000000d0: 26b9 073d 19b6 dd3c 66bb dcbc a93a 293d
000000e0: f0e6 383d 7776 843d bd33 8bbd 0a2a 893d
000000f0: cebd 963d 4433 bf3c 2790 cf3c 603b c93c
00000100: 022f 14bd a162 95bd ae31 33bd 3f32 973d
00000110: b8eb 343d 281a 9bbb c635 603a 5fed 04bd
00000120: b66f cab7 4992 263d b929 8b3d 09bf 83bc
00000130: cc45 793d 9113 983d c983 1abd 6fc5 c9bc
00000140: dbcb 43bc 0300 f5bc 2d99 d13c d6f9 aa3d
00000150: c88d ac3d 8368 b7bc c9b5 48bd 4789 0c3c
00000160: 28dd f63c 07c9 733d 9210 a23d 99b3 633c
00000170: dcc3 a53c 7f85 303d 3bb4 a53d b37a 503d
00000180: e029 0b3d 6c95 acbd c16d 05bd b7aa 2b3d
00000190: 128f 44bd d4dc bcbc 1a36 433d e49a 83bd
000001a0: deda 873d 72d9 cdbc 5193 1cbc e6c4 2e3c
000001b0: 5b31 953d f565 e83c 99dc 19bd 3d65 6ebd
000001c0: e8fa 4e3d 3bfa 36bd 06a5 8cbd 05a3 8a3d
000001d0: 360e 613d e137 bbbc efc2 1b3d b50a 02bd
000001e0: 847a 4c3d ab78 23bb 0514 bd3d 17e5 d6bc
000001f0: 78a6 36bd 50c3 903c bb19 d53b 1c25 32bd
00000200: 9902 6c3c e4ef fcbc 975d 1ebc 51b3 4eb9
00000210: 9b84 a43d f10a f73c 6c99 9d3d 1318 4b3d
00000220: f47f 873d 7281 7f3c 89a0 ee3c 63a5 e83c
00000230: 085b 303d 2272 f03b 46b9 62bc 6fde 693d
00000240: 82c8 35bb 8c7b 5d3d 0c4e a63d 1681 17bd
00000250: 44cb 7c3d d690 f73b b1dd a73c c68f aabd
00000260: 795f 0e3d ad7d 47bd d6f3 83bd 0eaa 283d
00000270: 271c 543d dcc3 38bd 58d9 77bb 8599 223d
00000280: 1c3b 153b 1418 103d 7bc4 433d 5217 6b3b
00000290: 2597 aa3d 8440 52bd 9fc6 913c 4774 d43b
000002a0: 36db 95bd 8aa3 d63c a4fd 1a3c 0aba 93bc
000002b0: d556 0dbd bef7 b23c 0528 4bbd f394 00bd
000002c0: cfdf 9bbd 2b35 a03d 1a5d ac3c 88be 2cbd
000002d0: 9241 fa3c 2f90 1f3d da70 d23a 504c e23c
000002e0: 3c09 da3c 8487 b6bc 0e53 96bd 8857 753c
000002f0: dccc 2ebb b267 11bd 22ff 05bd 76ce 883d
00000300: 9021 983d 0270 e3bb a9cd a33d 2ce9 c63c
00000310: 7a8e ac3d fe00 c6bc b3e7 8cbc 566b 183d
00000320: b16d 163d 9b01 28bd 570b 393d 92f2 51bd
00000330: 351f a33b 8754 ef3c 3052 03bd fd37 4dbd
00000340: cbbc f53c 81fa 0bbd 7010 253d 03e8 92bd
00000350: bf10 3bbd 6104 48bd edd6 983d 9db3 363d
00000360: fe75 0e3d 6f5f 4a3d 5c6e 7c3b aaf0 8b3d
00000370: 956a 2b3d db1b 843d eddd 863d c078 023c
00000380: 7056 363d 7ab9 033d 02e0 4cbd 82c0 143c
00000390: 8358 27bd 50c1 5dbd e822 9fbc 60ee 63bd
000003a0: 3655 42bd 13e9 8cbc 7d18 2abd 751a 403c
000003b0: 520a 51bd 1047 02bd 8db5 19bd 46c3 11bd
000003c0: 1a78 353d ddfb a6bc 2053 10bd 59a1 723c
000003d0: b452 773d de2c b33c 546b 3abd 1852 47bd
000003e0: 70dd a33d 10d3 b0bc c04e 013d e51b 1a3d
000003f0: 0134 36bd 91e2 0cbd 6b24 673d dc60 763c

weight f4 [256, 256]
0.049298573 -0.078243606 -0.016420027 0.012842274 0.028307775 -0.02992235 0.019414064 0.043527655
-0.042928305 0.028540997 -0.02908608 0.039183516 -0.087899856 -0.03599561 0.008173259 0.016636854
0.022635233 -0.074726805 0.04845162 -0.049821973 0.0522018 0.07055525 -0.064751364 0.009677265
-0.044740945 0.059187233 0.021666313 -0.02138072 0.010523136 -0.031038666 0.06691035 0.064145796
0.01854913 -0.096897595 -0.04845719 -0.08484959 -0.009704434 -0.006706947 -0.030606259 -0.02546374
0.0069902474 -0.07402853 -0.0061393604 -0.04873041 -0.027387874 0.02593624 -0.062453177 -0.020385576
-0.044219412 0.07388184 0.017014362 0.04090401 0.050511286 -0.011507176 0.022350835 -0.025623547
-0.0043464275 -0.022355387 0.035984635 0.02992605 0.020776438 -0.035439245 0.013856285 0.037045144
-0.03866806 0.05186923 0.021214832 0.05319063 -0.020252962 -0.03787384 -0.073002845 0.0028575151
0.02556008 0.059521265 0.0110571375 -0.040553648 -0.049857505 0.0453117 -0.01819328 -0.06399868
0.031966712 -0.087497346 -0.025992472 -0.03265462 -0.038251486 0.043219764 -0.040138394 -0.021726819
0.030259201 0.050264295 0.035613734 0.01848768 -0.084630005 0.045945928 0.043143988 -0.06804695
-0.008889158 -0.036121596 -0.014771777 0.0036621997 -0.06879111 -0.05635686 0.031221274 0.020373061
-0.022228623 -0.056035932 0.04785391 0.037077572 -0.05911991 -0.038792882 0.071047515 -0.006088433
-0.033005774 -0.022473425 0.01721607 -0.06745398 -0.006913169 0.031455554 -0.043105766 -0.03725374
0.045350026 0.031325813 -0.006299482 0.016236592 -0.039663337 -0.049710028 0.022695687 0.008124037
-0.029368555 0.014397156 -0.050495572 0.0073828413 0.04415521 -0.043489277 -0.021344898 -0.0035563924
-0.029895652 0.045571443 -0.091416605 0.038457394 -0.018839126 -0.027758174 -0.028366057 -0.015967168
0.03665189 -0.016778214 8.189272e-05 0.028594596 0.03312322 0.03746842 -0.055682626 0.030487401
0.021945998 -0.031931072 0.028529977 -0.035819143 -0.024531597 -0.057501234 0.05095796 0.059999038
-0.016199159 -0.036812484 0.03002188 -0.09952883 -0.0060753482 -0.047363605 -0.035413258 0.016636545
-0.00085815147 0.039543156 0.033350743 -0.039868694 0.0069314796 -0.06256668 -0.05877592 0.038144972
0.011796732 -0.058803458 -0.020178614 -0.008738427 -0.0070231818 0.06487409 -0.03773554 0.05438275
-0.0191705 -0.051395595 -0.039111137 -0.013171261 0.017209552 0.012912548 -0.00018827332 -0.03720307
0.021056797 -0.014350181 0.024717623 0.0011882026 -0.05359521 -0.007124428 -0.011088299 -0.06451411
-0.0506897 -0.082631595 0.07017994 0.048088003 0.018936353 0.06543041 -0.061915435 0.029756589
0.039823126 -0.068199895 -0.007734599 0.028280154 -0.019673975 0.08303982 -0.012341814 -0.015228589
-0.047294654 -0.029816093 -0.047638662 -0.032700412 0.031431884 -0.025295421 0.047266256 0.056263026
-0.0029182166 -0.018995242 0.035240766 -0.019686703 0.080711626 0.052285723 -0.050192203 0.03786149
0.040030904 0.00015055308 0.0031003433 0.0066874414 0.06714296 -0.011669707 -0.035523128 0.0177823
0.02110388 -0.015917046 -0.035907857 -0.06621214 -0.04587512 0.011980368 -0.04145972 0.019040933
-0.04173155 0.07143281 0.01372469 -0.03088518 0.08801777 -0.07515384 0.007505503 -0.009223955
00000000: 4ded 493d 2f3e a0bd 4b83 86bc 6768 523c
00000010: b5e5 e73c b71f f5bc 3e0a 9f3c 0e4a 323d
00000020: 97d5 2fbd cfce e93c ee45 eebc e57e 203d
00000030: d704 b4bd 2270 13bd 22e9 053c 034a 883c
00000040: 866d b93c 5e0a 99bd 3575 463d 2012 4cbd
00000050: 8ed1 553d 457f 903d 5d9c 84bd 648d 1e3c
00000060: 4842 37bd 506e 723d 8d7d b13c 9f26 afbc
00000070: 3b69 2c3c cd44 febc 4b08 893d df5e 833d
00000080: 58f4 973c 3f72 c6bd 0c7b 46bd 9fc5 adbd
00000090: 59ff 1ebc f3c5 dbbb fab9 fabc 5599 d0bc
000000a0: 720e e53b 459c 97bd b02c c9bb 8a99 47bd
000000b0: 895c e0bc 3d78 d43c e7ce 7fbd a7ff a6bc
000000c0: 6a1f 35bd 5d4f 973d b461 8b3c f78a 273d
000000d0: ece4 4e3d 9888 3cbc 1919 b73c 79e8 d1bc
000000e0: 7a6c 8ebb a522 b7bc a064 133d 7a27 f53c
000000f0: 5933 aa3c be28 11bd 7905 633c a6bc 173d
00000100: 6662 1ebd d474 543d baca ad3c 6bde 593d
00000110: 8ae9 a5bc 9a21 1bbd 8482 95bd 2645 3b3b
00000120: 5f63 d13c 92cc 733d ff28 353c 951b 26bd
00000130: 6237 4cbd c398 393d 130a 95bc bd11 83bd
00000140: 87ef 023d cf31 b3bd 2aee d4bc dac0 05bd
00000150: 97ad 1cbd 3507 313d 2868 24bd 71fc b1bc
00000160: 25e2 f73c efe1 4d3d b5df 113d 7a73 973c
00000170: 7f52 adbd cc31 3c3d c0b7 303d 335c 8bbd
00000180: d5a3 11bc 3df4 13bd 5305 72bc 8401 703b
00000190: 5ae2 8cbd 73d6 66bd c2c3 ff3c 68e5 a63c
000001a0: cd18 b6bc ef85 65bd 7602 443d a7de 173d
000001b0: b827 72bd 49e5 1ebd 5c81 913d 7a81 c7bb
000001c0: 1031 07bd 301a b8bc b708 8d3c 5025 8abd
000001d0: dd87 e2bb 8ad7 003d ac8f 30bd 6197 18bd
000001e0: f3c0 393d 7f4f 003d e36b cebb 9a02 853c
000001f0: 0676 22bd be9c 4bbd 4eec b93c ae1a 053c
00000200: 5396 f0bc 0de2 6b3c 72d4 4ebd c3eb f13b
00000210: 18dc 343d d021 32bd 7fdb aebc 5d12 69bb
00000220: bae7 f4bc 1fa9 3a3d a138 bbbd 8085 1d3d
00000230: 8354 9abc 1c65 e3bc ef5f e8bc 94cd 82bc
00000240: 4b20 163d 7772 89bc d2bd ab38 373f ea3c
00000250: 37ac 073d 7c78 193d 7713 64bd b7c0 f93c
00000260: 18c8 b33c 28ca 02bd b3b7 e93c 18b7 12bd
00000270: 7df6 c8bc 6a86 6bbd 4bb9 503d 8dc1 753d
00000280: 19b4 84bc b0c8 16bd 72f0 f53c c5d5 cbbd
00000290: b713 c7bb 5700 42bd 7e0d 11bd 5d49 883c
000002a0: 92f5 60ba 01f8 213d ca9a 083d 5b4d 23bd
000002b0: 7721 e33b f622 80bd 05bf 70bd e73d 1c3d
000002c0: 1547 413c e5db 70bd 9f4d a5bc 9f2b 0fbc
000002d0: b822 e6bb b5dc 843d 9590 1abd 72c0 5e3d
000002e0: 740b 9dbc 3084 52bd 0033 20bd 46cc 57bc
000002f0: 0cfb 8c3c 278f 533c 3c6b 45b9 3f62 18bd
00000300: 4e7f ac3c 061d 6bbc 9d7c ca3c 77bd 9b3a
00000310: a786 5bbd 0974 e9bb b2ab 35bc f91f 84bd
00000320: 01a0 4fbd c13a a9bd 80ba 8f3d edf7 443d
00000330: 6920 9b3c 6100 863d 0a9b 7dbd 17c4 f33c
00000340: 931d 233d 63ac 8bbd 8572 fdbb c8ab e73c
00000350: 512b a1bc c810 aa3d 5235 4abc 5581 79bc
00000360: 0ab8 41bd e140 f4bc c220 43bd def0 05bd
00000370: b8be 003d 5838 cfbc 439a 413d 0f74 663d
00000380: 8d3f 3fbb e99b 9bbc 9f58 103d 0246 a1bc
00000390: 234c a53d 8e29 563d 5796 4dbd a614 1b3d
000003a0: 72f7 233d c9dd 1d39 212f 4b3b 5322 db3b
000003b0: 4082 893d 4c32 3fbc b380 11bd 30ac 913c
000003c0: 0be2 ac3c 7764 82bc 1e14 13bd 3b9a 87bd
000003d0: 8de7 3bbd 4e49 443c abd1 29bd bbfb 9b3c
000003e0: b4ee 2abd 5d4b 923d 86dd 603c eb02 fdbc
000003f0: a942 b43d 42ea 99bd b9f0 f53b 1220 17bc

bias f4 [256]
-0.061145607 0.037277583 -0.016052788 -0.017025676 0.075829886 -0.029111573 -0.022268053 -0.06517928
0.012653177 0.051787958 0.0050123692 0.041194133 -0.056599185 -0.05292886 -0.03683673 0.03358333
-0.0058706435 -0.061111685 -0.00072535925 -0.0014536609 -0.033289503 0.023240205 -0.028243491 -0.016347934
-0.025532875 0.0038406982 0.06427241 0.01346485 0.018675338 -0.00095488975 0.019079028 -0.030198598
-0.0062067015 -0.032268733 -0.067278065 -0.018699318 -0.055005495 0.041679695 0.042600475 0.016601153
0.021122461 -0.000979003 -0.043700147 0.0042682 -0.024485078 -0.06441791 -0.004336998 -0.034817375
-0.014657936 0.071005605 0.0151279215 0.021955319 -0.046480455 0.049673013 0.042126484 0.04554084
-0.0017298692 -0.02606194 -0.0113855265 0.07157441 -0.051970974 -0.04174191 0.024771148 -0.06744442
0.042966343 -0.061112113 0.041377608 -0.042296175 -0.028224297 -0.024534699 -0.029174391 0.018437354
0.07453226 -0.032306895 0.08056164 -0.039358724 0.016698522 -0.06577685 0.0052752756 0.043560855
-0.04606083 0.05970556 -0.01317803 -0.026472466 0.021265382 -0.0072141937 -0.04320088 -0.060523305
0.0071080155 0.03894881 -0.021225417 -0.023085406 0.017366976 -0.07362335 0.07606814 0.055364877
0.07359719 0.044021122 -0.010457811 0.005801557 0.017694773 -0.058140576 0.028533706 -0.0030444819
0.022506896 0.08008004 0.04057588 -0.032207727 0.048041765 -0.01802116 0.040740706 0.014401213
0.028563095 0.0034334105 0.086014606 0.019575272 0.005863506 0.010828245 -0.03607676 0.039998744
-0.026276207 -0.023512334 -0.000844247 0.08137559 -0.0008563029 -0.023179742 0.020940349 0.06406819
0.033325434 0.040082864 0.009523267 -0.05722316 0.07619528 -0.045727264 -0.030747531 0.008452529
-0.07047299 0.07809552 -0.06877343 0.032845724 0.008415139 -0.031713486 -0.04038583 0.0038958034
0.025074963 -0.030425664 0.053336643 0.040287733 -0.053246062 0.005700249 0.027009115 -0.063331634
0.037156466 -0.04696786 -0.04451368 0.04482457 -0.05278176 -0.04706299 0.0214637 -0.070219494
0.04581909 -0.015017967 0.026906412 0.032113712 0.06661525 0.032676388 -0.040970717 0.050936725
-0.051177096 -0.026108809 0.071589455 -0.050139535 0.0019825655 -0.05652085 -0.030425847 0.051495202
0.04628252 0.028894039 -0.063171804 -0.055572707 -0.047758285 0.026026178 -0.001204794 -0.0033298165
-0.010607209 0.053023644 -0.02675362 0.010973662 -0.022517866 0.017212624 -0.021734335 -0.070738755
0.048639175 0.010821429 -0.05107045 0.053834446 0.008445522 -0.06499929 0.03563352 0.010805318
0.012147148 -0.009591669 -0.05446753 -0.048822124 -0.045242652 -0.043114156 0.026021326 -0.02931309
-0.05757427 -0.047629286 0.031205142 -0.026260464 0.0025891885 -0.04201538 0.0797599 -0.03384832
0.049828947 0.053106304 -0.056103643 0.02003987 0.054471795 -0.00013008552 -0.029371804 0.06728106
-0.0032769707 0.077686615 0.041067217 -0.02845218 0.06521303 0.027749253 0.079449594 -0.011226942
-0.026292257 -0.04653738 -0.011348867 -0.0676821 -0.035498533 0.038980544 0.009964278 0.014651381
-0.033485133 -0.035886396 0.03505166 -0.01462229 -0.037483823 0.0034717293 -0.0039382316 0.021619044
0.052458595 0.025175462 -0.010747913 0.027929533 0.026728936 -0.07734222 0.082523234 -0.055721015
00000000: d173 7abd 61b0 183d 2381 83bc 6e79 8bbc
00000010: b34c 9b3d 657b eebc 7e6b b6bc b77c 85bd
00000020: 454f 4f3c 9c1f 543d cd3e a43b 2ebb 283d
00000030: 8cd4 67bd efcb 58bd 1ce2 16bd ad8e 093d
00000040: 875e c0bb 3f50 7abd 0926 3eba c488 beba
00000050: 935a 08bd 3e62 be3c e55e e7bc 1aec 85bc
00000060: 522a d1bc 39b4 7b3b 41a1 833d ad9b 5c3c
00000070: 06fd 983c 9151 7aba 9f4b 9c3c 0d63 f7bc
00000080: 9661 cbbb 382c 04bd 15c9 89bd 502f 99bc
00000090: 714d 61bd 54b8 2a3d d67d 2e3d 24ff 873c
000000a0: 0309 ad3c e451 80ba edfe 32bd 42dc 8b3b
000000b0: ee94 c8bc 8aed 83bd 601d 8ebb aa9c 0ebd
000000c0: d727 70bc 636b 913d 1adb 773c a4db b33c
000000d0: 4a62 3ebd ee75 4b3d d28c 2c3d 0889 3a3d
000000e0: c7bc e2ba d97f d5bc 5c8a 3abc 9b95 923d
000000f0: 84df 54bd 91f9 2abd ddec ca3c 4d20 8abd
00000100: 7afd 2f3d b250 7abd 917b 293d c13e 2dbd
00000110: a436 e7bc fefc c8bc 22ff eebc ef09 973c
00000120: 5fa4 983d 3c54 04bd 80fd a43d 9d36 21bd
00000130: 57cb 883c 03b6 86bd 38dc ac3b de6c 323d
00000140: 48aa 3cbd d18d 743d aae8 57bc c9dc d8bc
00000150: bd34 ae3c 0b65 ecbb 68f3 30bd 49e7 77bd
00000160: 5bea e83b ca88 1f3d ede0 adbc 9b1d bdbc
00000170: 3045 8e3c d7c7 96bd 9dc9 9b3d 48c6 623d
00000180: 20ba 963d 7e4f 343d 3d57 2bbc fd1a be3b
00000190: a1f4 903c d024 6ebd 85bf e93c ee85 47bb
000001a0: 6260 b83c 0101 a43d e532 263d 40ec 03bd
000001b0: 71c7 443d 1da1 93bc badf 263d 11f3 6b3c
000001c0: 27fd e93c 1203 613b 6d28 b03d 525c a03c
000001d0: a722 c03b f468 313c 3ac5 13bd b9d5 233d
000001e0: 3341 d7bc f09c c0bc 7550 5dba 3fa8 a63d
000001f0: 8479 60ba 71e3 bdbc 188b ab3c 2f36 833d
00000200: 4080 083d ee2d 243d 7a07 1c3c d562 6abd
00000210: 450c 9c3d 834c 3bbd 3fe2 fbbc 7a7c 0a3c
00000220: 2554 90bd 8bf0 9f3d 16d9 8cbd 3d89 063d
00000230: a7df 093c 00e6 01bd 9d6b 25bd bc50 7f3b
00000240: 026a cd3c 3e3f f9bc 8677 5a3d c004 253d
00000250: 8b18 5abd 28c9 ba3b 3842 dd3c 04b4 81bd
00000260: 6131 183d 5f61 40bd fa53 36bd f899 373d
00000270: b031 58bd 1fc5 40bd a4d4 af3c 3dcf 8fbd
00000280: ccac 3b3d eb0d 76bc d66a dc3c ab89 033d
00000290: 946d 883d add7 053d e9d0 27bd 07a3 503d
000002a0: 139f 51bd 24e2 d5bc 7e9d 923d 1d5f 4dbd
000002b0: eeed 013b 6882 67bd a03f f9bc a2ec 523d
000002c0: bd92 3d3d 31b3 ec3c 3860 81bd 35a0 63bd
000002d0: 319e 43bd da34 d53c 2eea 9dba 0d39 5abb
000002e0: dcc9 2dbc 522f 593d 682a dbbc e0ca 333c
000002f0: 6377 b8bc 7d01 8d3c 340c b2bc 7bdf 90bd
00000300: df39 473d 5d4c 313c 402f 51bd 8281 5c3d
00000310: 165f 0a3c 591e 85bd 74f4 113d ca08 313c
00000320: d504 473c 6026 1dbc 5819 5fbd b5f9 47bd
00000330: 5c50 39bd 7898 30bd ad2a d53c 0122 f0bc
00000340: ffd2 6bbd ed16 43bd eda1 ff3c 2f20 d7bc
00000350: 60af 293b 5218 2cbd 2959 a33d 89a4 0abd
00000360: 7019 4c3d ff85 593d efcc 65bd a72a a43c
00000370: d11d 5f3d 9167 08b9 239d f0bc a7ca 893d
00000380: 72c2 56bb 291a 9f3d 1936 283d 8c14 e9bc
00000390: 698e 853d 6752 e33c 78b6 a23d 35f1 37bc
000003a0: dc62 d7bc fb9d 3ebd 99f0 39bc ea9c 8abd
000003b0: e966 11bd 10aa 1f3d 3641 233c 590c 703c
000003c0: b527 09bd 9dfd 12bd 5492 0f3d 5492 6fbc
000003d0: a388 19bd f485 633b 480c 81bb 6c1a b13c
000003e0: d3de 563d c53c ce3c 0418 30bc 7acc e43c
000003f0: a4f6 da3c 9965 9ebd f101 a93d b83b 64bd

weight f4 [256, 256]
0.058234677 -0.012967086 -0.09025227 0.035616033 0.0009903954 -0.04087645 0.03786209 0.08975277
-0.0784887 0.038011648 -0.0043575005 0.09286541 -0.005289637 0.019826373 0.10232081 0.010865343
0.039014112 0.072026014 -0.080502205 -0.0069474177 0.10422732 0.029598799 -0.023563616 0.02396343
-0.074962236 0.08908531 -0.11189391 -0.07644883 -0.041604575 0.0014616267 0.022279363 -0.015179426
0.10177651 0.0037444918 0.017235987 -0.06886483 0.031940088 0.06062488 0.03308451 -0.03890342
-0.012505702 -0.062921554 0.0778139 0.09325721 0.03288997 0.10498136 -0.0787078 0.0054142256
0.054693047 -0.06896275 -0.06559721 0.08595096 0.014665656 0.030329347 -0.06327903 0.016535351
-0.042379897 0.012296114 -0.02191534 0.005364826 0.031210572 0.0030467787 0.11177057 0.09335629
-0.06032853 0.03083504 -0.0126884235 -0.036559276 -0.007318257 -0.079491496 -0.07666913 -0.010007685
0.034254048 0.009076308 -0.0832521 -0.039047003 -0.002880904 0.09446148 0.08239106 0.025336687
0.055075448 0.021694623 -0.00347329 -0.050584894 0.011144067 -0.0305687 0.09700217 0.004357175
0.040693145 -0.013731602 0.040961973 0.015039035 -0.0086929565 0.04767188 -0.047115836 -0.011327961
0.019288564 -0.02778175 0.009452134 0.015980031 -0.06345615 0.025140516 0.09300052 0.040514633
0.008071141 0.0072443024 0.10395324 0.075656064 -0.009743851 0.1221304 0.07127945 0.06276987
0.006049972 0.0028159835 0.019024145 0.010686026 0.08189618 0.026182203 0.07662425 0.04085417
0.058664422 0.053265292 0.0636473 -0.026806382 -0.07506199 -0.026415313 0.0654822 -0.04971776
0.015795674 0.03086002 0.07069769 0.06448342 -0.053786308 -0.07246953 0.021143552 -0.09848422
-0.0066988966 -0.08027719 0.026297426 0.055483922 0.07988757 -0.018079493 0.076916724 0.0055035325
-0.0024475555 0.03270243 -0.029555827 0.0420115 0.010341423 -0.05669333 -0.006580376 0.08170762
-0.051666964 0.069578305 0.030040007 -0.053347897 0.09163869 0.02241133 0.07211886 0.053368546
0.020280309 0.055215333 0.011392265 0.08765993 -0.09058503 -0.009846492 0.01815717 -0.08474793
0.066287115 0.10650432 -0.01917457 0.05922881 0.021629937 0.03932399 -0.012392436 -0.055243436
0.010575686 0.0045761294 0.0531425 0.027096426 0.051716205 -0.09563285 -0.08724606 0.10241465
0.049550187 -0.015495164 0.07581989 0.038295347 -0.0048697144 -0.051929522 0.10499736 0.05900132
0.022403302 0.04159058 0.07099959 -0.046094492 -0.024114845 0.09334077 -0.010673557 -0.04271799
-0.018178808 -0.007147673 0.11081362 0.08945423 0.031510204 0.06075593 0.07491336 0.032223847
0.029308299 0.011291277 0.053938948 0.016177064 -0.08922042 -0.03824646 -0.015134973 0.08757923
-0.029945832 0.0025442091 0.006104619 0.054066714 -0.056339428 0.084688954 0.07010136 -0.07113074
-0.008597234 -0.034160323 -0.037495382 0.091411345 -0.06720492 -0.030822685 -0.026393779 0.1226969
0.013678964 0.07513766 0.044154774 0.07482643 0.05848292 0.023056734 0.05224345 -0.0035872913
0.06494678 0.07652735 0.015349399 0.018987492 0.04585562 -0.09599518 0.019596238 0.10622383
-0.087586544 0.0011992931 0.095310494 -0.061140906 -0.022835406 0.06656363 -0.05725423 0.055808544
00000000: 7c87 6e3d e773 54bc 2fd6 b8bd 1ee2 113d
00000010: 28d0 813a 106e 27bd 4715 1b3d 4dd0 b73d
00000020: afbe a0bd 1ab2 1b3d 5dc9 8ebb 3830 be3d
00000030: b154 adbb eb6a a23c 938d d13d 8d04 323c
00000040: 43cd 1f3d 6082 933d 57de a4bd 2aa7 e3bb
00000050: 2275 d53d 2e79 f23c 7c08 c1bc f54e c43c
00000060: cd85 99bd 5c72 b63d a228 e5bd 3491 9cbd
00000070: 8f69 2abd 0e94 bf3a 3683 b63c 21b3 78bc
00000080: 3470 d03d 2666 753b 7c32 8d3c 0109 8dbd
00000090: 9cd3 023d cb51 783d a083 073d 3159 1fbd
000000a0: b7e4 4cbc 04dd 80bd e55c 9f3d a3fd be3d
000000b0: a2b7 063d 7800 d73d 8e31 a1bd d169 b13b
000000c0: d105 603d 583c 8dbd d457 86bd 0f07 b03d
000000d0: 3848 703c 4075 f83c 7098 81bd 2575 873c
000000e0: 8b96 2dbd a475 493c cd87 b3bc 6ccb af3b
000000f0: 50ad ff3c 77ac 473b f8e7 e43d 9531 bf3d
00000100: 0c1b 77bd c499 fc3c 1be3 4fbc 2ebf 15bd
00000110: fdcd efbb 70cc a2bd b404 9dbd 46f7 23bc
00000120: f94d 0c3d ccb4 143c 1480 aabd c0ef 1fbd
00000130: 8ccd 3cbb 0575 c13d a5bc a83d e28e cf3c
00000140: cb96 613d ecb8 b13c 23a0 63bb 1b32 4fbd
00000150: 9b95 363c 366b fabc 13a9 c63d a2c6 8e3b
00000160: dbad 263d 83fa 60bc bec7 273d 4966 763c
00000170: e76c 0ebc 9743 433d 89fc 40bd ea98 39bc
00000180: 0d03 9e3c 8d96 e3bc 20dd 1a3c 8ee8 823c
00000190: 4cf5 81bd 7cf3 cd3c 0e77 be3d acf2 253d
000001a0: d23c 043c 9d61 ed3b 70e5 d43d 91f1 9a3d
000001b0: aca4 1fbc 811f fa3d f6fa 913d 7d8d 803d
000001c0: d83e c63b 5d8c 383b 86d8 9b3c 7114 2f3c
000001d0: 2fb9 a73d 0f7c d63c 2ded 9c3d b456 273d
000001e0: 1b4a 703d b52c 5a3d 8459 823d 0f99 dbbc
000001f0: 1aba 99bd ed64 d8bc 881b 863d daa4 4bbd
00000200: ee65 813c 27ce fc3c f3c9 903d e20f 843d
00000210: 084f 5cbd e86a 94bd 3e35 ad3c 18b2 c9bd
00000220: 6b82 dbbb 5e68 a4bd b36d d73c 1c43 633d
00000230: 189c a33d 721b 94bc 8486 9d3d fa56 b43b
00000240: 2b67 20bb fcf2 053d 101f f2bc 4014 2c3d
00000250: 126f 293c 4437 68bd 32a0 d7bb 5356 a73d
00000260: bda0 53bd 127f 8e3d 7616 f63c 5383 5abd
00000270: 11ad bb3d f797 b73c 0eb3 933d fa98 5a3d
00000280: e422 a63c 7929 623d 9fa6 3a3c 0d87 b33d
00000290: a584 b9bd 2e53 21bc 58be 943c 5390 adbd
000002a0: 8ac1 873d f01e da3d fd13 9dbc e999 723d
000002b0: 4431 b13c 3112 213d a509 4bbc f146 62bd
000002c0: a445 2d3c 5bf3 953b f3ab 593d 53f9 dd3c
000002d0: 5fd4 533d 28db c3bd 10ae b2bd c6be d13d
000002e0: 23f5 4a3d 6edf 7dbc 7547 9b3d 95db 1c3d
000002f0: 2092 9fbb 0db4 54bd db08 d73d 5eab 713d
00000300: 2187 b73c e25a 2a3d 3c68 913d 94cd 3cbd
00000310: 7f8c c5bc 7229 bf3d 25e0 2ebc 0ff9 2ebd
00000320: b9eb 94bc 0737 eabb 40f2 e23d c833 b73d
00000330: d810 013d 36db 783d 2d6c 993d 27fd 033d
00000340: f517 f03c 0cff 383c 16ef 5c3d c385 843c
00000350: 32b9 b6bd 52a8 1cbd aef8 77bc bd5c b33d
00000360: f650 f5bc bfbc 263b 4109 c83b 0f75 5d3d
00000370: 2cc4 66bd 6771 ad3d 4d91 8f3d feac 91bd
00000380: 6adb 0cbc b2eb 0bbd c294 19bd df35 bb3d
00000390: bca2 89bd db7f fcbc c437 d8bc 8348 fb3d
000003a0: bc1d 603c c6e1 993d a3db 343d 993e 993d
000003b0: c98b 6f3d 7ae1 bc3c 3afd 553d c318 6bbb
000003c0: d102 853d 5fba 9c3d 0c7c 7b3c a88b 9b3c
000003d0: 1ad3 3b3d 1f99 c4bd 4a88 a03c e18b d93d
000003e0: 9360 b3bd 9931 9d3a 2632 c33d e36e 7abd
000003f0: 5111 bbbc 8352 883d 6983 6abd 8097 643d

bias f4 [256]
0.017130392 0.034686632 0.03147856 -0.07999071 0.020347584 -0.051114824 -0.015291021 0.061863787
-0.063334644 -0.06347531 -0.05432524 0.044081386 -0.07528513 0.06529327 0.056184992 -0.054816853
0.02944559 0.014439925 0.0070402296 0.03409532 0.035814736 0.04651529 0.012292079 0.0003568796
-0.030509884 -0.03741905 -0.034486175 -0.03985843 0.00494018 0.08115906 -0.018613864 0.014510761
0.07658878 0.08917376 0.022970008 0.018803015 -0.024260748 0.047357887 -0.032667335 -0.0016939228
-0.0015525934 -0.012955834 -0.009296421 -0.022993125 -0.024602603 0.084961034 0.0076611554 0.043048177
0.039248154 0.060320966 0.06220762 0.028660443 0.022048984 0.028204598 0.037465356 0.021821426
0.025061153 -0.03774164 0.026916208 -0.0022059816 -0.035986666 -0.024293164 -0.017741222 -0.02283588
-0.01655208 0.0005933185 -0.0009315015 0.0733791 0.011650459 -0.0051818136 -0.010761834 -0.031291675
0.019716576 0.023996735 -0.013943438 0.010030684 0.0473649 0.019692846 0.013968356 0.0065301433
0.022259735 0.001125254 0.06338831 -0.026351083 -0.047090195 -0.035489958 -0.02349953 -0.04173403
0.02283244 0.06801669 -0.032377668 -0.029521901 -0.023650907 0.06150709 -0.04227295 0.08466337
-0.047099214 -0.013689319 0.022939833 0.061653074 -0.043375406 -0.044103116 -0.0038907866 -0.018673182
0.08888009 -0.06501105 0.031453624 -0.0100544095 -0.036915325 0.05381171 -0.059696 -0.027231222
0.053944 0.04569952 0.050353285 0.05406907 0.057032444 -0.052095257 0.0185208 0.017343132
0.0062306146 -0.037743174 -0.040925857 0.08255714 0.05234379 0.0023410383 -0.050152555 0.031244049
0.055431046 0.06830917 -0.052994385 -0.030643668 0.08304037 -0.003399031 0.06144843 0.047294654
0.011272284 -0.070375994 0.08910946 -0.023181397 0.074378945 0.08236877 0.06192167 0.077798694
0.063390136 -0.050335996 -0.0677194 0.053184118 0.059573617 -0.053865455 -0.050562277 -0.02689518
-0.004361687 0.03554152 -0.015661076 -0.015877755 0.058281414 -0.006957372 0.061355222 -0.04420207
0.051909428 0.07470561 0.047927886 0.055600006 0.04863155 0.073452175 0.03843411 -0.013202603
0.090289846 0.054109283 -0.059655875 0.02545894 0.048254732 0.07422364 0.08162022 0.06184595
0.08336008 0.0027606264 -0.013447811 0.037455615 0.03987974 -0.05379159 0.03441718 0.046036046
0.013135655 0.038711824 0.054359645 -0.022499345 -0.047145765 -0.042419735 -0.00086970406 -0.006725237
-0.062880956 0.0031674965 0.01736485 0.05232108 0.08930384 -0.06373583 0.0072415685 -0.059096314
0.0038972774 -0.033455905 0.03579626 0.015797883 0.03402496 -0.044948593 0.03637922 0.0061005466
-0.010263158 0.019677585 -0.06126457 0.028274558 0.06765301 0.036870934 -0.02309731 0.04611718
-0.020947376 -0.016906867 0.04148835 0.038313895 0.03286093 0.039494712 0.06705228 -0.054230113
-0.022529399 -0.06796312 0.042321455 -0.04728451 0.074347906 0.0708751 -0.04596571 0.021202838
0.04231592 0.0035851493 -0.017627437 0.02839782 -0.018952029 -0.045809515 -0.028352227 0.06301521
0.013324994 -0.03115064 0.041319385 0.012935256 -0.045354117 -0.00046190622 0.07412329 0.06983589
-0.030789783 0.032307625 0.052282527 0.027175685 -0.04629896 -0.03380056 0.051755443 -0.048726328
00000000: 0955 8c3c 9213 0e3d aaef 003d 2bd2 a3bd
00000010: faaf a63c c75d 51bd 3187 7abc e264 7d3d
00000020: 98b5 81bd 58ff 81bd 2584 5ebd af8e 343d
00000030: 172f 9abd 7ab8 853d 3c22 663d a387 60bd
00000040: e137 f13c 6f95 6c3c bab1 e63b 89a7 0b3d
00000050: 79b2 123d d186 3e3d b764 493c 921b bb39
00000060: ddef f9bc b844 19bd 6041 0dbd 9842 23bd
00000070: 3ce1 a13b b936 a63d 1a7c 98bc 8bbe 6d3c
00000080: 94da 9c3d bba0 b63d 992b bc3c c808 9a3c
00000090: 7abe c6bc 58fa 413d 2fce 05bd 9e06 deba
000000a0: 6480 cbba b544 54bc 0450 18bc 145c bcbc
000000b0: 668b c9bc 0d00 ae3d 6e0a fb3b 4953 303d
000000c0: acc2 203d 1e13 773d 6bcd 7e3d 4ec9 ea3c
000000d0: 12a0 b43c 540d e73c 4675 193d d9c2 b23c
000000e0: 0c4d cd3c fa96 1abd 617f dc3c 3b92 10bb
000000f0: c166 13bd 7502 c7bc 0a56 91bc 5012 bbbc
00000100: 3a98 87bc ee88 1b3a 0230 74ba c847 963d
00000110: 91e1 3e3c 34cc a9bb 6752 30bc b32b 00bd
00000120: a884 a13c cd94 c43c 0573 64bc bd57 243c
00000130: b301 423d e452 a13c 88db 643c d0fa d53b
00000140: 0c5a b63c 427d 933a bbd1 813d 3ade d7bc
00000150: a6e1 40bd eb5d 11bd 1682 c0bc 4df1 2abd
00000160: 190b bb3c 564c 8b3d 729e 04bd ead7 f1bc
00000170: 8cbf c1bc dcee 7b3d 6726 2dbd fd63 ad3d
00000180: 1beb 40bd 2a49 60bc 51ec bb3c ef87 7c3d
00000190: 69aa 31bd 78a5 34bd 91fc 7ebb 80f8 98bc
000001a0: c406 b63d 8324 85bd 84d5 003d 40bb 24bc
000001b0: 8634 17bd ab69 5c3d cb83 74bd 0314 dfbc
000001c0: 62f4 5c3d 6b2f 3b3d 3f3f 4e3d 8777 5d3d
000001d0: da9a 693d d661 55bd efb8 973c 2f13 8e3c
000001e0: 2f2a cc3b 9698 1abd dfa1 27bd b813 a93d
000001f0: 7166 563d 1b6c 193b c46c 4dbd 85f3 ff3c
00000200: aa0b 633d aee5 8b3d a410 59bd 6e08 fbbc
00000210: 1211 aa3d 47c2 5ebb 59b1 7b3d 0ab8 413d
00000220: 63af 383c 4a21 90bd 057f b63d eae6 bdbc
00000230: fd53 983d f5b0 a83d 94a1 7d3d ec54 9f3d
00000240: b0d2 813d 1e2d 4ebd 78b0 8abd 97d7 593d
00000250: 7703 743d 06a2 5cbd 641a 4fbd 4853 dcbc
00000260: 7cec 8ebb fc93 113d a84b 80bc 1112 82bc
00000270: 7eb8 6e3d abfa e3bb 9d4f 7b3d 3b0d 35bd
00000280: fb9e 543d 41ff 983d 0850 443d d5bc 633d
00000290: e031 473d 186e 963d 166d 1d3d bb4f 58bc
000002a0: e2e9 b83d b2a1 5d3d b859 74bd 448f d03c
000002b0: c1a6 453d 9002 983d 8028 a73d 2e52 7d3d
000002c0: b1b8 aa3d a0eb 343b 3554 5cbc 0f6b 193d
000002d0: f058 233d 9254 5cbd 07f9 0c3d 4b90 3c3d
000002e0: ee36 573c 4a90 1e3d 38a8 5e3d 8c50 b8bc
000002f0: eb1b 41bd 51c0 2dbd dafc 63ba 605f dcbb
00000300: bbc7 80bd c695 4f3b bb40 8e3c a14e 563d
00000310: efe4 b63d ee87 82bd ae4a ed3b fa0e 72bd
00000320: 7769 7f3b 0f09 09bd 199f 123d 906a 813c
00000330: c25d 0b3d 041c 38bd 6102 153d 18e7 c73b
00000340: ce26 28bc e332 a13c 8ff0 7abd 0ca0 e73c
00000350: a98d 8a3d fa05 173d 9236 bdbc 5ee5 3c3d
00000360: d599 abbc 4580 8abc b0ef 293d 08ef 1c3d
00000370: 2f99 063d 35c5 213d b552 893d 6520 5ebd
00000380: 938f b8bc 4030 8bbd 4359 2d3d 67ad 41bd
00000390: b743 983d f726 913d 8a46 3cbd 93b1 ad3c
000003a0: 7553 2d3d d3f4 6a3b 6a67 90bc 8ca2 e83c
000003b0: 4941 9bbc c2a2 3bbd ee42 e8bc 1e0e 813d
000003c0: 1351 5a3c a12f ffbc 843e 293d 65ee 533c
000003d0: 3dc5 39bd 012c f2b9 f4cd 973d 1e06 8f3d
000003e0: db3a fcbc 0055 043d 3426 563d 8b9f de3c
000003f0: faa3 3dbd 7572 0abd 84fd 533d 4295 47bd

weight f4 [128, 256]
0.07243211 0.0047079413 0.0953796 -0.13498855 0.08995742 -0.050781626 -0.057119273 0.099248394
-0.11963215 -0.09276767 0.0052922447 -0.003962447 -0.050785072 0.07827299 0.13231471 -0.11667092
0.025280926 0.03143327 0.011508789 0.056860574 0.07777582 0.10587922 0.06517716 0.0685372
0.06323977 -0.054645255 0.027598293 -0.06879264 0.032536443 0.054551587 0.013446008 -0.1281874
0.053677652 0.07100547 0.07689109 -0.0061949086 0.072276294 0.02236029 0.11090327 0.049096365
0.014427756 0.019915653 0.05809219 -0.022329623 -0.084743716 0.09133748 -0.02369882 0.028006671
0.03327008 0.03807633 0.05204408 0.06505082 0.021925608 0.018051526 0.14409095 -0.008744649
0.06520084 -0.020989845 0.062200617 -0.0016083021 -0.030165425 0.041677777 -0.0059220167 0.047245536
-0.0015340261 -0.008894365 0.10465857 0.10181403 0.0081383465 -0.12868191 -0.08215282 -0.021735456
-0.013526384 0.118569225 -0.04023082 0.017975705 0.0867132 0.062196042 0.12369306 0.06949268
0.050100114 0.04539507 0.12953873 -0.040263657 -0.039645113 0.124230914 -0.0427527 -0.018043684
-0.050500005 0.041304342 -0.01195396 -0.08713849 -0.040638335 0.12938933 0.024328934 0.068730764
-0.044877484 -0.042291187 -0.053631715 0.06370828 -0.008263665 -0.08376504 0.1507312 -0.0617932
0.03985198 -0.08599673 0.088844694 0.03874481 -0.03414453 0.04686602 -0.057543535 -0.00294604
0.083569765 0.13615976 0.033126388 0.054906912 0.035636827 0.0053007817 0.034950316 0.03308281
0.0890725 0.04423118 -0.11608952 0.10456479 0.09444804 -0.0030669633 -0.108218305 0.087224096
0.08782095 0.071037605 0.052483965 0.022311391 0.13175653 0.13926512 0.023845375 0.109119326
0.13897988 -0.09173955 0.03900725 0.005607964 0.105663516 0.09131302 0.08045204 0.021225674
0.055226117 0.033261884 -0.07536671 0.07195927 0.12803054 -0.118663475 -0.12664995 0.06044504
0.031530086 -0.094919704 -0.024117064 0.06532454 0.131032 0.11845944 0.053993344 -0.10615983
0.108208515 0.014900568 -0.019573173 0.011256855 0.029065654 0.05426004 0.010688247 -0.04119424
0.12060162 -0.05099986 -4.1977397e-05 -0.064182244 0.003509523 0.0123004215 0.08114074 0.14295563
0.12945911 -0.02004056 -0.059766635 -0.051052045 0.03722484 -0.05532724 0.08795055 0.030683158
0.10347486 0.026912773 0.057732377 -0.011211932 -0.06864808 -0.045981567 0.13554472 0.13177586
0.047342356 0.078998506 0.07289079 0.12519316 0.13057782 -0.031558547 0.03421624 -0.012245294
0.05575604 0.020025045 0.045901172 -0.06913736 0.017227037 -0.051471647 0.056322798 0.027411098
0.043375604 0.14675581 -0.03955919 0.02205725 0.11807535 0.042531952 -0.012923689 0.11470557
0.0073743537 0.056402054 0.059061255 0.06327899 -0.002554774 0.07982442 0.1141871 -0.11173096
-0.108584605 -0.083970815 0.14791086 -0.069234006 0.07586985 0.07017807 -0.11666427 0.088967994
0.058819458 0.044332847 -0.0063404925 0.1303884 0.07892727 -0.12630601 -0.050407525 0.045984857
0.06359829 -0.06992297 0.03687859 0.03908828 -0.0351988 0.07740097 0.039874833 0.094696455
-0.044589072 0.060746238 0.121467054 -0.085668914 -0.020244699 0.019592093 0.07965069 -0.121388875
00000000: 4957 943d 1345 9a3b 6156 c33d 703a 0abe
00000010: 993b b83d 6500 50bd e6f5 69bd be42 cb3d
00000020: b301 f5bd fafc bdbd 916a ad3b 6ad7 81bb
00000030: 0204 50bd 974d a03d 827d 073e 2af1 eebd
00000040: f219 cf3c 2cc0 003d 5c8f 3c3c a2e6 683d
00000050: ee48 9f3d 34d7 d83d 9a7b 853d 3b5d 8c3d
00000060: da83 813d b4d3 5fbd d115 e23c 28e3 8cbd
00000070: ef44 053d 7c71 5f3d a54c 5c3c 8f43 03be
00000080: 19dd 5b3d 516b 913d 1379 9d3d a9fe cabb
00000090: 9805 943d ed2c b73c 4121 e33d 4519 493d
000000a0: 6562 6c3c 2726 a33c 14f2 6d3d 9dec b6bc
000000b0: 1d8e adbd 250f bb3d 0724 c2bc 3f6e e53c
000000c0: 3546 083d edf5 1b3d 2c2c 553d 5d39 853d
000000d0: 559d b33c cbe0 933c 948c 133e b745 0fbc
000000e0: 0588 853d e5f2 abbc 13c6 7e3d aacd d2ba
000000f0: 7b1d f7bc 51b6 2a3d 7a0d c2bb 8984 413d
00000100: 6011 c9ba acb9 11bc 3b57 d63d e083 d03d
00000110: b356 053c 31c5 03be bd3f a8bd 8e0e b2bc
00000120: c49d 5dbc 6cd4 f23d 13c9 24bd c941 933c
00000130: b196 b13d 47c1 7e3d c952 fd3d 2e52 8e3d
00000140: c735 4d3d 2ef0 393d cda5 043e 81eb 24bd
00000150: ea62 22bd c76c fe3d 751d 2fbd 59d0 93bc
00000160: 18d9 4ebd be2e 293d 8bda 43bc aa75 b2bd
00000170: 6274 26bd a37e 043e 794d c73c b7c2 8c3d
00000180: 74d1 37bd 8639 2dbd eeac 5bbd 7d79 823d
00000190: 5364 07bc 018d abbd 4859 1a3e de1a 7dbd
000001a0: d43b 233d 0e1f b0bd 35f4 b53d e1b2 1e3d
000001b0: 22db 0bbd 95f6 3f3d c5b2 6bbd 5912 41bb
000001c0: a026 ab3d 776d 0b3e 89af 073d 12e6 603d
000001d0: ecf7 113d 2eb2 ad3b 1028 0f3d d781 073d
000001e0: a56b b63d c12b 353d 58c0 edbd 1126 d63d
000001f0: f96d c13d 1bff 48bb 8fa1 ddbd 8ca2 b23d
00000200: 78db b33d 2a7c 913d 6df9 563d 61c6 b63c
00000210: 2feb 063e 849b 0e3e 6057 c33c f479 df3d
00000220: be50 0e3e f2e1 bbbd 11c6 1f3d 03c3 b73b
00000230: 1d66 d83d 5202 bb3d 0ac4 a43d 77e1 ad3c
00000240: c834 623d 9d3d 083d dd59 9abd 625f 933d
00000250: 701a 033e d605 f3bd 86b0 01be 3895 773d
00000260: b125 013d 4365 c2bd 2691 c5bc dfc8 853d
00000270: 412d 063e dd9a f23d 2028 5d3d 536a d9bd
00000280: 6d9c dd3d 8321 743c eb57 a0bc ac6e 383c
00000290: 181b ee3c c73f 5e3d c21d 2f3c 4bbb 28bd
000002a0: fbfd f63d 3be5 50bd e310 30b8 fb71 83bd
000002b0: 0700 663b b587 493c 1e2d a63d f662 123e
000002c0: ee90 043e 1a2c a4bc dccd 74bd f31b 51bd
000002d0: 1379 183d d19e 62bd 6b1f b43d 3f5b fb3c
000002e0: a1ea d33d 2d78 dc3c c978 6c3d 40b2 37bc
000002f0: 5d97 8cbd 2b57 3cbd 3ccc 0a3e 40f0 063e
00000300: 0fea 413d f8c9 a13d c447 953d a332 003e
00000310: 31b6 053e 8943 01bd 5426 0c3d 7ca0 48bc
00000320: 7260 643d 900b a43c de02 3c3d e397 8dbd
00000330: b71f 8d3c efd3 52bd bcb2 663d 3d8d e03c
00000340: 9eaa 313d 2847 163e d108 22bd 68b1 b43c
00000350: 7dd1 f13d fc35 2e3d e1bd 53bc c1ea ea3d
00000360: 90a4 f13b d705 673d 37ea 713d 6a98 813d
00000370: ff6d 27bb fc7a a33d edda e93d 34d3 e4bd
00000380: 9b61 debd e4f8 abbd f275 173e 8fca 8dbd
00000390: a761 9b3d 85b9 8f3d aded eebd da34 b63d
000003a0: acec 703d 5c96 353d e8c3 cfbb 8984 053e
000003b0: 9fa4 a13d 5d56 01be 1f78 4ebd 9e5a 3c3d
000003c0: d23f 823d c633 8fbd 010e 173d 081b 203d
000003d0: 9e2c 10bd 6684 9e3d cb53 233d 37f0 c13d
000003e0: 08a3 36bd 0cd1 783d b8c3 f83d 2f73 afbd
000003f0: 36d8 a5bc 997f a03c e71f a33d bb9a f8bd

bias f4 [128]
0.075243555 0.03793308 -0.00768436 -0.02972943 -0.0314863 0.07401596 -0.017060172 -0.01251572
0.08282363 0.0084414845 -0.0034247914 -0.009147148 0.03542218 -0.002308498 0.0059624356 -0.032190032
0.026139736 -0.026135752 0.033401314 -0.04899589 0.061300054 -0.050954822 -0.0021226632 0.056986447
0.085145704 0.036147032 0.06309309 0.054208294 -0.042540953 0.03417354 0.1031353 0.075551696
-0.04707888 0.013585201 0.061366264 -0.011289189 0.029586429 -0.01180444 0.049527846 -0.0064690094
0.04752118 0.059858367 0.017731994 0.034370538 -0.016560951 0.0049839634 0.09920244 -0.026297431
0.06380133 0.07705679 -0.024919346 0.012037462 0.011048908 0.073032305 0.0011849698 0.1044889
-0.046480797 -0.037614197 0.06362248 0.0760882 -9.436473e-05 -0.022489447 0.025389167 -0.08197452
0.001518334 0.049131062 -0.0012733528 0.0001523915 -0.015780052 0.018769028 0.08371327 0.06947058
0.07801924 0.05052371 0.03464915 0.066550285 0.03727996 -0.06443437 0.046542767 -0.0073017953
-0.041367922 -0.018741721 0.044842187 -0.025299264 0.042374577 0.045330208 0.07571285 -0.0025232332
0.052009407 0.08208481 0.029230013 -0.014051833 0.04403191 -0.03495414 -0.023977336 0.07125507
-0.0056751044 0.08770219 0.053211242 -0.006878137 0.07128672 -0.022426642 0.05051526 0.056746144
0.056377184 -0.030219516 0.019210605 -0.033969477 0.070756435 0.053955562 0.008412855 0.07638182
-0.034565166 0.0067780185 0.014638956 -0.018661235 -0.07257681 0.05040581 -0.035547003 0.007214461
0.078610025 -0.03890315 0.049060233 -0.006557203 0.01263365 0.07935951 0.039888527 0.009703971
00000000: 4b19 9a3d b85f 1b3d 15cd fbbb 228b f3bc
00000010: c7f7 00bd ae95 973d c6c1 8bbc bc0e 4dbc
00000020: 6f9f a93d 274e 0a3c 7772 60bb ebdd 15bc
00000030: d916 113d 2b4a 17bb 8960 c33b b2d9 03bd
00000040: 0023 d63c a51a d6bc d1cf 083d eaaf 48bd
00000050: c415 7b3d 01b6 50bd 611c 0bbb 9f6a 693d
00000060: df60 ae3d e90e 143d f336 813d 8409 5e3d
00000070: 6c3f 2ebd 8ef9 0b3d 9a38 d33d d9ba 9a3d
00000080: c9d5 40bd 7794 5e3c 315b 7b3d 4af6 38bc
00000090: 3d5f f23c 6967 41bc b6dd 4a3d fcf9 d3bb
000000a0: 92a5 423d 0c2e 753d b042 913c 1fc8 0c3d
000000b0: d5aa 87bc 8450 a33b a62a cb3d b66d d7bc
000000c0: 46aa 823d f3cf 9d3d a823 ccbc c638 453c
000000d0: 7b06 353c f691 953d fd50 9b3a 47fe d53d
000000e0: a662 3ebd 5811 1abd 814c 823d 21d4 9b3d
000000f0: aee5 c5b8 ca3b b8bc f1fc cf3c 42e2 a7bd
00000100: d602 c73a a73d 493d a1e6 a6ba 48cb 1f39
00000110: 2b45 81bc 81c1 993c dd71 ab3d 9746 8e3d
00000120: 8dc8 9f3d f3f1 4e3d 44ec 0d3d 844b 883d
00000130: dfb2 183d 2bf6 83bd a1a3 3e3d e643 efbb
00000140: 6971 29bd 3d88 99bc 71ac 373d 6740 cfbc
00000150: f790 2d3d 2bac 393d 570f 9b3d d45c 25bb
00000160: d107 553d 151c a83d c873 ef3c a939 66bc
00000170: ce5a 343d 132c 0fbd 1e6c c4bc 2eee 913d
00000180: 3af6 b9bb 359d b33d 08f4 593d ff61 e1bb
00000190: c6fe 913d 14b8 b7bc 17e9 4e3d a56e 683d
000001a0: c3eb 663d eb8e f7bc 8f5f 9d3c 9423 0bbd
000001b0: c0e8 903d 8200 5d3d 12d6 093c 126e 9c3d
000001c0: 3494 0dbd 241a de3b 3bd8 6f3c 72df 98bc
000001d0: 27a3 94bd 5376 4e3d bc99 11bd 4967 ec3b
000001e0: 4bfe a03d e958 1fbd 62f3 483d cedd d6bb
000001f0: 5efd 4e3c 3d87 a23d 2762 233d 68fd 1e3c
