models/model_objs/nfl_model_1.pth (torch, 639097 bytes, 11 tensors)

weight f4 [256, 195]
-0.0059913658 0.041312583 -0.02889542 -5.7222608e-36 -0.0005537083 -0.014676207 -0.03413181 -0.055699628
-0.05582873 -0.026018457 0.06781195 -0.039023697 -0.036533378 0.010937467 0.019977309 0.040551018
0.0574436 0.027631236 -0.069531225 0.016649287 0.043475915 -0.003327456 -0.03759134 0.06826923
-0.021964736 -0.03163769 -0.048544295 0.012302222 0.03255083 0.02671133 0.012543229 -0.049503937
-0.061671257 0.0013937862 0.06538419 0.039024327 -0.031863447 -0.00031511075 -0.04355209 -0.030096963
0.016208623 0.04019876 0.05406872 -0.060795993 0.048799023 -0.04612859 0.019272832 0.053998727
-0.0063251024 0.064500935 -0.028368823 -0.04587334 0.078535646 -0.032612782 0.014387904 -0.036477376
0.057546243 0.014861892 0.024988037 -0.04713605 -0.05435444 0.0154332565 0.019073656 -0.032824468
-0.028783452 0.047444467 0.0238579 0.0173986 -0.012855488 -0.053268638 -0.044294942 -0.007613523
-0.005792909 0.059588213 0.0042237043 -0.013987672 0.06094731 0.032235455 0.057399526 -0.01324688
-0.0010572284 0.05828186 -0.04352854 -0.04541869 -0.0060209823 -0.0008216323 -0.0046945405 0.032940317
0.07235036 0.00049096975 -0.007985262 -0.030633328 0.004661701 0.02908799 0.036208153 -0.003288928
-0.040907256 0.03011481 -0.018145442 0.04588873 -0.031725585 0.025466992 0.0010915453 -0.014144224
0.020963674 0.03695875 -0.0012823772 0.057968274 0.07100203 0.0027641435 -0.02863474 0.045018513
0.05334927 -0.04280586 0.0007641435 -0.041946966 -0.046555646 0.028720584 0.010695476 0.0023732546
-0.09072484 0.2160476 0.010381615 -0.010850693 0.00087809056 0.021287011 0.048215926 -0.0027279663
0.023167634 -0.0016171499 -0.0034400546 -0.00797661 0.04936315 0.06601233 0.07455065 0.004552527
0.054683115 0.028017279 -0.040831815 0.04339666 -0.0016654796 -0.03467319 -0.008980823 0.0023612566
0.06508803 0.015108595 -0.024817893 0.007270459 -0.016770365 -0.016351424 0.04915719 0.008959019
0.0739143 0.07868567 0.013878417 0.029433252 0.0029813382 -0.0076803225 -0.011485568 -0.0129592875
0.02627382 0.049675733 0.03241522 -0.028234864 -0.01816033 -0.015720258 0.00055030687 0.045269806
0.048912685 0.03567471 -0.049603857 -0.033723503 -0.024376601 -0.011977195 0.01598425 -0.07290653
0.0029369243 -0.046188492 -0.023597905 -0.003442616 0.058351494 -0.03340768 0.005580126 0.03076325
-0.0054432303 0.042701114 -0.009086057 0.0047957916 0.04896955 -0.041307364 0.030214714 0.03637123
0.002390462 0.16165799 -0.048708312 -0.028047536 -0.0044236914 0.075807974 5.7496633e-36 0.0032531475
-0.061513815 -0.0016786926 -0.04157765 0.063706964 -0.035648547 0.0030716222 -0.002818691 0.016437676
0.073007114 0.002115236 0.046917945 0.06241821 0.063275486 -0.02376672 -0.018352242 0.03956525
-0.016707778 0.037639096 -0.018349145 -0.041864213 0.03686312 -0.000555548 0.03673982 0.065343656
0.051260404 0.069120556 0.005034149 -0.059190203 -0.042212307 -0.04323224 -0.05747365 -0.02650737
-0.05535781 -0.055240873 -0.03995166 -0.0688081 -0.03967475 0.031659916 0.06443194 -0.015249603
-0.015263114 0.018304726 -0.0277831 -0.04143987 0.06312745 -0.05700214 -0.032843597 0.05660456
0.010604293 0.015670178 -0.057179827 0.014171305 -0.0005721915 -0.004540461 0.020710105 0.07640999
00000000: 3853 c4bb 6237 293d 16b6 ecbc e765 f384
00000010: bc26 11ba 7974 70bc cccd 0bbd 4b25 64bd
00000020: abac 64bd a924 d5bc fee0 8a3d 50d7 1fbd
00000030: 06a4 15bd 1033 333c 74a7 a33c d318 263d
00000040: fb49 6b3d e75a e23c 6366 8ebd 1664 883c
00000050: cd13 323d 7311 5abb 60f9 19bd bdd0 8b3d
00000060: 64ef b3bc 8696 01bd 62d6 46bd 428f 493c
00000070: 0554 053d b8d1 da3c 1e82 4d3c a4c4 4abd
00000080: 009b 7cbd b4af b63a 25e8 853d f9d7 1f3d
00000090: 3f83 02bd 7335 a5b9 ad63 32bd e88d f6bc
000000a0: f2c7 843c 74a7 243d 2a77 5d3d 3805 79bd
000000b0: 7ce1 473d 55f1 3cbd 0fe2 9d3c c52d 5d3d
000000c0: ce42 cfbb 1119 843d bc65 e8bc afe5 3bbd
000000d0: 4cd7 a03d fb94 05bd 3ebb 6b3c 4d69 15bd
000000e0: 9cb5 6b3d 4b7f 733c b6b3 cc3c bb11 41bd
000000f0: c3a2 5ebd c5db 7c3c 5b40 9c3c f372 06bd
00000100: 46cb ebbc 2155 423d a571 c33c 8287 8e3c
00000110: d39f 52bc 3730 5abd 9d6e 35bd dc7a f9bb
00000120: 71d2 bdbb c512 743d 0067 8a3b 8c2c 65bc
00000130: e3a3 793d 5309 043d c41b 6b3d 7109 59bc
00000140: b392 8aba f6b8 6e3d fb4a 32bd f308 3abd
00000150: a94b c5bb cf62 57ba a9d4 99bb 6dec 063d
00000160: 6d2c 943d 6cb4 003a 9ed4 02bc bff2 fabc
00000170: 2fc1 983b f049 ee3c 004f 143d 0e8b 57bb
00000180: 5e8e 27bd 56b3 f63c c0a5 94bc d2f5 3b3d
00000190: b0f2 01bd 27a0 d03c 2f12 8f3a 2dbd 67bc
000001a0: 03bc ab3c 0f62 173d 7015 a8ba 2470 6d3d
000001b0: 8369 913d a226 353b 6793 eabc 5565 383d
000001c0: c484 5a3d 3355 2fbd cd50 483a 95d0 2bbd
000001d0: 22b1 3ebd 6e47 eb3c 143c 2f3c 9b88 1b3b
000001e0: f2cd b9bd 953b 5d3e a617 2a3c 1bc7 31bc
000001f0: a92f 663a 1962 ae3c 107e 453d aec7 32bb
00000200: 0dca bd3c 8cf6 d3ba 8a72 61bb 54b0 02bc
00000210: 0431 4a3d 7931 873d 03ae 983d 5d2d 953b
00000220: 67fb 5f3d 7e84 e53c 433f 27bd b2c0 313d
00000230: 394c daba 7a05 0ebd 4d24 13bc 50bf 1a3b
00000240: e04c 853d 0a8a 773c e54e cbbc 083d ee3b
00000250: 0162 89bc 6cf3 85bc 0d59 493d d9c8 123c
00000260: 6160 973d f425 a13d 4d62 633c 011e f13c
00000270: 8e62 433b 37ab fbbb f72d 3cbc 3153 54bc
00000280: 323c d73c c878 4b3d d2c5 043d cd4c e7bc
00000290: f9c4 94bc c5c7 80bc 7842 103a d56c 393d
000002a0: ab58 483d a51f 123d 6a2d 4bbd a821 0abd
000002b0: 70b1 c7bc ff3b 44bc 67f1 823c 0550 95bd
000002c0: 6a79 403b 2530 3dbd 6550 c1bc 839d 61bb
000002d0: fa01 6f3d 7ed6 08bd 7dd9 b63b 3603 fc3c
000002e0: 205d b2bb 5de7 2e3d afdd 14bc 0426 9d3b
000002f0: 4b94 483d e931 29bd d984 f73c 00fa 143d
00000300: 4ca9 1c3b ac89 253e 5e82 47bd f2c3 e5bc
00000310: 9df4 90bb 3641 9b3d 4a90 f404 c232 553b
00000320: e9f5 7bbd 9407 dcba 534d 2abd cc78 823d
00000330: 3604 12bd 454d 493b cab9 38bb 4ea8 863c
00000340: c184 953d c59f 0a3b 082d 403d 3daa 7f3d
00000350: 9496 813d 6db2 c2bc 7157 96bc 2c0f 223d
00000360: c0de 88bc 742b 1a3d f250 96bc cf79 2bbd
00000370: c8fd 163d 32a2 11ba 7e7c 163d e5d2 853d
00000380: 6ef6 513d 148f 8d3d 81f5 a43b 6d71 72bd
00000390: d0e6 2cbd 4a14 31bd 7d69 6bbd fc25 d9bc
000003a0: dfbe 62bd 4144 62bd 5aa4 23bd 43eb 8cbd
000003b0: fe81 22bd d4ad 013d e5f4 833d 79d9 79bc
000003c0: 2412 7abc cbf3 953c 6299 e3bc dabc 29bd
000003d0: f748 813d 137b 69bd 0287 06bd 2fda 673d
000003e0: a1bd 2d3c bf5e 803c 6535 6abd c32e 683c
000003f0: 1fff 15ba 26c8 94bb 3da8 a93c d77c 9c3d

bias f4 [256]
0.028464558 -0.062319297 -0.044386562 0.011373346 0.03788587 0.0069994 -0.020345444 0.04002474
0.03084232 -0.041503713 0.06262173 0.0402417 0.06937194 0.014702 0.04372885 0.0130084455
0.07066807 0.06400431 0.0074198972 0.05672361 -0.003994267 -0.014556794 0.01745475 0.055965733
0.05880162 0.050674066 0.067190126 0.046862893 0.040725484 -0.05897981 -0.042824376 0.027475975
0.054988638 0.042754844 0.036432415 0.04252723 -0.027309863 -0.007154884 -0.025669046 -0.009270114
-0.023080526 -0.025860544 0.0047293557 -0.058003392 0.051948823 -0.052121278 -0.014964947 0.0042839237
-0.039615277 -0.01710135 0.072813906 -0.0515573 0.06514918 -0.03247959 -0.05471759 0.047761735
0.023945177 0.04387005 0.04304449 0.049872715 0.022552866 0.015769854 0.065035634 -0.03469169
-0.06744964 -0.01926808 -0.014174913 0.07238307 0.037305396 0.07749368 -0.0033330868 0.09102245
-0.056549422 -0.033575892 0.07492648 0.0005813992 0.040703356 -0.033212904 0.035734188 -0.019010324
0.07190458 0.044017993 0.0021580337 -0.014869365 -0.03681371 0.028852915 0.009295258 -0.030375317
-0.015091156 0.009271582 0.068125084 -0.009048643 0.02362441 -0.03389373 0.06996456 -0.022487052
-0.014643888 0.058262497 0.05696462 0.046226483 0.084745705 -0.015179499 -0.013866357 0.083265625
0.08633734 0.080402814 -0.04247151 0.036873367 0.077785455 0.059063084 0.01916841 0.06939199
0.07317189 0.046587825 0.036636684 -0.061431646 -0.05341501 0.020008013 -0.04402044 0.017791577
-0.0042420905 0.003762888 -0.03239282 0.061669312 0.07413508 -0.05387131 0.07360311 -0.046570636
-0.039498404 0.035542663 -0.013110367 -0.034605063 -0.027623938 0.06273823 -0.038345013 -0.027188132
-0.0014710957 0.0390564 0.05181325 -0.026578087 0.023733927 0.005272884 -0.043817308 0.023555204
0.023468414 0.07233307 0.06613043 -0.016408667 -0.003046756 -0.0009268647 -0.034292758 0.050923824
0.041941196 -0.0025547638 0.059391174 0.013015474 0.04034291 0.048516802 -0.058042575 0.012168463
0.053908337 -0.016411591 -0.00045934762 0.053546578 0.019555107 -0.026087513 0.059949547 0.051009234
0.026580328 -0.035066362 -0.040779825 -0.0044303406 0.027032252 0.06657559 0.019664066 0.016755411
0.02917495 -0.043595668 0.0051592174 0.026772067 -8.227398e-05 0.024681376 -0.017965341 -0.062388342
-0.039227705 0.0088731395 -0.06360957 0.05947452 0.032196496 0.08407221 -0.0072115785 0.06043203
-0.05059017 0.034861278 0.039664786 0.04429645 -0.01683571 -0.01662696 -0.0060838656 0.07619722
0.031025015 -0.016547225 -0.01054596 0.008892824 0.034475546 0.067613535 0.059995707 0.07120293
-0.020942608 0.02958013 0.051150586 0.064961635 0.01232221 0.07811526 -0.030387646 -0.054949034
0.021637524 0.060195614 0.04981842 -0.049244273 0.08794263 -0.05056543 0.066399455 -0.017210338
0.09050204 0.038695924 0.059793018 0.009284362 -0.048333533 -0.061834473 -0.051187564 -0.01580261
-0.008886622 0.04039762 -0.06284601 -0.0382013 0.008110525 -0.01678002 -0.009780686 -0.05163124
-0.064018786 -0.051364694 -0.03213917 -0.0011050418 -0.05284142 -0.051699862 -0.007126239 0.08190672
0.06379265 0.017158518 -0.02902955 0.026557775 -0.05140436 -0.045455426 0.013671993 0.03804381
00000000: 812e e93c 8542 7fbd afce 35bd 4557 3a3c
00000010: 372e 1b3d 395b e53b 7dab a6bc fbf0 233d
00000020: 08a9 fc3c ccff 29bd d23f 803d 7bd4 243d
00000030: e012 8e3d a8e0 703c 061d 333d 6021 553c
00000040: 6cba 903d b114 833d 9c22 f33b 0457 683d
00000050: 57e2 82bb 9f7f 6ebc 44fd 8e3c 533c 653d
00000060: f8d9 703d 9c8f 4f3d fa9a 893d 4ef3 3f3d
00000070: c4cf 263d d094 71bd 9d68 2fbd 4c15 e13c
00000080: c43b 613d b41f 2f3d 283a 153d 0831 2e3d
00000090: efb8 dfbc 8473 eabb e447 d2bc ade1 17bc
000000a0: 5f13 bdbc 7ed9 d3bc b6f8 9a3b f794 6dbd
000000b0: 4ac8 543d 1f7d 55bd 892f 75bc 2860 8c3b
000000c0: a143 22bd 2118 8cbc 751f 953d bf2d 53bd
000000d0: ef6c 853d 5209 05bd 8d1f 60bd cfa1 433d
000000e0: ad28 c43c 15b1 333d 6b4f 303d 5547 4c3d
000000f0: cac0 b83c c82f 813c 6731 853d e018 0ebd
00000100: 0923 8abd 18d8 9dbc e53d 68bc 933d 943d
00000110: 8bcd 183d 02b5 9e3d eb6f 5abb fa69 ba3d
00000120: 5ea0 67bd e086 09bd 0e73 993d 0a69 183a
00000130: 90b8 263d 410a 08bd 035e 123d 8abb 9bbc
00000140: b542 933d 364c 343d cc6d 0d3b a39e 73bc
00000150: f9c9 16bd f35c ec3c 234b 183c a8d5 f8bc
00000160: e540 77bc d5e7 173c 2a85 8b3d c240 14bc
00000170: fb87 c13c 27d4 0abd 9449 8f3d c436 b8bc
00000180: ebec 6fbc a8a4 6e3d bc53 693d fb57 3d3d
00000190: 288f ad3d 6fb3 78bc b72f 63bc 2b87 aa3d
000001a0: a2d1 b03d 3baa a43d 9bf6 2dbd 8708 173d
000001b0: fb4d 9f3d 22ec 713d 1207 9d3c 631d 8e3d
000001c0: 25db 953d e0d2 3e3d 5910 163d c09f 7bbd
000001d0: b3c9 5abd d8e7 a33c c74e 34bd a4bf 913c
000001e0: 3c01 8bbb c99a 763b 55ae 04bd f698 7c3d
000001f0: 22d4 973d 2aa8 5cbd 3abd 963d dac0 3ebd
00000200: 14c9 21bd 2f95 113d ddcc 56bc 0abe 0dbd
00000210: 994b e2bc e77c 803d a90f 1dbd a5b9 debc
00000220: c8d1 c0ba 9bf9 1f3d 213a 543d 4aba d9bc
00000230: a76d c23c 28c8 ac3b c779 33bd d8f6 c03c
00000240: d540 c03c 5c23 943d 646f 873d 786b 86bc
00000250: 15ac 47bb d6f8 72ba 9076 0cbd 8095 503d
00000260: 88ca 2b3d d36d 27bb 2944 733d db3e 553c
00000270: 9b3e 253d 8eb9 463d 0dbe 6dbd 3c5e 473c
00000280: fdce 5c3d 9a71 86bc 98d4 f0b9 a853 5b3d
00000290: 0832 a03c 7bb5 d5bc a88d 753d 0fef 503d
000002a0: fdbe d93c bfa1 0fbd bf08 27bd 642c 91bb
000002b0: be72 dd3c c858 883d 8916 a13c a542 893c
000002c0: 4e00 ef3c 5f91 32bd a70e a93b 1851 db3c
000002d0: 828a acb8 9930 ca3c 0d2c 93bc eb8a 7fbd
000002e0: 3bad 20bd a560 113c bc45 82bd 8e9b 733d
000002f0: 79e0 033d 0d2e ac3d 1b4f ecbb 9487 773d
00000300: a337 4fbd b3ca 0e3d 8b77 223d 3270 353d
00000310: 0beb 89bc 4335 88bc 2a5b c7bb 4a0d 9c3d
00000320: 2c28 fe3c 0c8e 87bc f6c8 2cbc 35b3 113c
00000330: 3b36 0d3d f778 8a3d 0fbe 753d d7d2 913d
00000340: d58f abbc 0752 f23c 4783 513d 9b0a 853d
00000350: 18e3 493c e5fa 9f3d 83ef f8bc 3d12 61bd
00000360: 2d41 b13c ad8f 763d 660e 4c3d 5db4 49bd
00000370: 441b b43d b21d 4fbd 70fc 873d b2fc 8cbc
00000380: 2259 b93d 9e7f 1e3d 86e9 743d 701d 183c
00000390: 62f9 45bd 2546 7dbd 0daa 51bd 7a74 81bc
000003a0: 3299 11bc fa77 253d 69b5 80bd f778 1cbd
000003b0: 02e2 043c 4176 89bc 2c3f 20bc 477b 53bd
000003c0: 481c 83bd c963 52bd 5da4 03bd 0dd7 90ba
000003d0: 3f70 58bd 3cc3 53bd 3a83 e9bb b6be a73d
000003e0: b9a5 823d 0590 8c3c 61cf edbc b18f d93c
000003f0: 618d 52bd 782f 3abd 7f00 603c d3d3 1b3d

weight f4 [256, 256]
0.003757493 0.01645976 0.0039206245 0.010386468 0.047607098 0.035256207 -0.01407719 0.01699577
-0.032897808 -0.0027780945 -0.04430786 -0.016433455 -0.029766273 0.040319033 0.017033499 0.015561642
0.05687572 0.029581338 0.024677007 0.041405752 0.0037137405 0.015915427 0.024626393 0.06445096
0.07024197 -0.014858256 0.01657908 0.046303757 0.022291418 -0.05526352 0.059935413 -0.032247636
-0.00970855 0.014110332 0.06709779 0.04737443 0.016977483 0.024959102 0.0024217854 -0.03835011
-0.010555629 -0.011572094 0.02703182 -0.00041236918 0.0521801 -0.021351486 -0.0022959951 0.006842967
-0.0032682628 0.019071465 -0.019730683 0.040661808 0.0149386395 0.01670496 0.022444732 0.06808056
0.025625346 -0.019605018 -0.020418346 0.02698503 -0.01939877 0.042745423 0.0029018456 0.04579216
0.036950473 0.059504695 0.038881157 6.7866094e-05 0.029027931 -0.011488069 0.061942328 0.026559569
9.150659e-05 0.065679856 -0.019409414 0.05597506 0.043280896 -0.010059514 0.017557824 -0.013091517
-0.02092262 0.0021391185 0.02259256 -0.03049829 0.014898772 0.03625574 -0.05468533 0.064851135
0.02039934 0.061784554 0.022433799 0.024212062 -0.03230431 -0.017450735 -0.01736235 0.022605484
0.027940748 0.03082017 0.03161045 0.0017919124 0.03794729 0.0402312 0.029997628 0.06221286
-0.0017203748 0.0013711742 -0.0033712047 0.0019612422 -0.036443282 0.05606268 0.033371698 0.04333422
0.029822368 0.057904676 0.0050937566 0.0022814462 0.0061812387 0.02098216 0.026215052 0.000907541
0.04018395 -0.020343393 0.008228816 0.049851056 0.017066872 -0.022846531 0.0040126876 0.002695548
0.04178092 0.044290796 -0.010126351 0.02643262 0.020353502 9.881803e-05 0.007547156 0.010244222
0.055796746 -0.012190101 0.028836658 0.018025687 -0.018224556 0.0054327142 0.02825906 0.039834965
0.019480264 0.0013641247 -0.009271545 0.050863225 0.05869677 0.005207842 0.050864674 0.035931505
-0.059615515 0.0044221487 0.01328038 0.018041624 0.0100303665 0.0054403227 0.0055254074 0.058638904
0.058790077 -0.009328831 0.010811952 0.033960074 -0.0010737493 -0.014891501 0.012279345 0.002347334
-0.009576304 0.053088807 0.048900936 0.016373694 0.012139828 0.014368073 0.0007798274 0.015038339
0.0018018503 -0.00013675603 -0.014717228 -0.008277067 0.045306243 0.019505601 0.009277524 0.06393455
0.03227548 -0.035817485 -0.013628036 0.030265909 0.034711845 -0.022138571 0.03989905 -0.0018540318
0.005267157 -0.014275323 0.048007738 0.09135304 -0.009943975 -0.036934707 0.028393162 0.06399957
0.013427631 -0.0022210246 0.04470223 -0.03228514 0.058623157 0.0013172241 0.022445334 0.006856115
-0.00493864 0.0009849509 0.03612763 0.029296663 0.009474849 0.06983699 0.01538283 -0.0019954026
-0.041867107 0.031391557 -0.0068178843 0.010502173 -0.014678466 -0.017829088 0.015575889 0.028485866
0.0017294054 0.04311923 -0.013859915 0.007011804 0.010332934 -0.0060238633 -0.034048147 -0.0043022493
-0.027424952 0.0025283822 -0.024135862 0.0003061569 -0.01293986 0.0204414 0.007601945 0.046086993
0.026856871 -0.02681551 0.008167625 -0.024512166 0.02879612 0.0031765183 0.01872606 0.054560795
0.051247682 0.023647482 -0.013489547 0.066261984 0.015772345 0.014009928 0.016437737 -0.0041537173
00000000: 4640 763b 9ed6 863c 9578 803b 012c 2a3c
00000010: a9ff 423d d068 103d 04a4 66bc b73a 8b3c
00000020: dabf 06bd b110 36bb 297c 35bd 749f 86bc
00000030: 66d8 f3bc 9225 253d d689 8b3c 42f6 7e3c
00000040: 84f6 683d 9054 f23c 6f27 ca3c 1499 293d
00000050: 3a62 733b 1261 823c 4abd c93c ddfe 833d
00000060: 06db 8f3d 0b70 73bc dad0 873c 02a9 3d3d
00000070: 7e9c b63c 005c 62bd d67e 753d 1916 04bd
00000080: 9c10 1fbc 062f 673c 916a 893d b10b 423d
00000090: 5d14 8b3c 0877 cc3c d1b6 1e3b 0115 1dbd
000000a0: 84f1 2cbc e198 3dbc d671 dd3c 4133 d8b9
000000b0: cdba 553d 50e9 aebc 6878 16bb f83a e03b
000000c0: 5a30 56bb c33b 9c3c 3ea2 a1bc ff8c 263d
000000d0: 32c1 743c d7d8 883c 04de b73c d26d 8b3d
000000e0: 3fec d13c b49a a0bc 6044 a7bc b60f dd3c
000000f0: 2bea 9ebc d315 2f3d e42c 3e3b 8f90 3b3d
00000100: 6159 173d 32bb 733d d941 1f3d 5553 8e38
00000110: fccb ed3c 7438 3cbc 3db7 7d3d 7493 d93c
00000120: 3ae7 bf38 2983 863d 7e00 9fbc 1b46 653d
00000130: 4f47 313d a9d0 24bc 6dd5 8f3c cd7d 56bc
00000140: ea65 abbc 7430 0c3b 0814 b93c 8dd7 f9bc
00000150: fb19 743c e680 143d b9fd 5fbd acd0 843d
00000160: 841c a73c cd11 7d3d 16c7 b73c 6058 c63c
00000170: 8651 04bd d8f4 8ebc 7d3b 8ebc 232f b93c
00000180: ffe3 e43c 957a fc3c f679 013d 9ade ea3a
00000190: 9e6e 1b3d 79c9 243d 96bd f53c e9d2 7e3d
000001a0: 337e e1ba f9b8 b33a 6eef 5cbb 2f88 003b
000001b0: 8d45 15bd fba1 653d c3b0 083d 397f 313d
000001c0: 0a4e f43c 742d 6d3d 87e9 a63b 5184 153b
000001d0: fd8b ca3b c7e2 ab3c f3c0 d63c 0ce8 6d3a
000001e0: ed97 243d 30a7 a6bc 28d2 063c 9f30 4c3d
000001f0: d3cf 8b3c a628 bbbc dd7c 833b cba7 303b
00000200: 7822 2b3d 446a 353d ffe8 25bc 3989 d83c
00000210: 63bc a63c 873c cf38 224e f73b 62d7 273c
00000220: 218b 643d fdb8 47bc db3a ec3c 9baa 933c
00000230: aa4b 95bc e904 b23b 8b7f e73c fd29 233d
00000240: 1395 9f3c 6ecc b23a aee7 17bc f555 503d
00000250: 066c 703d 8ca6 aa3b 7a57 503d ea2c 133d
00000260: 662f 74bd ace7 903b f395 593c 07cc 933c
00000270: 6856 243c bc44 b23b 7a0e b53b 592f 703d
00000280: ddcd 703d f4d7 18bc 9d24 313c b819 0b3d
00000290: 0cbd 8cba 7bfb 73bc 4e2f 493c bbd5 193b
000002a0: eee5 1cbc a673 593d 594c 483d 2022 863c
000002b0: 21e6 463c 1168 6b3c 556d 4c3a 5e63 763c
000002c0: 102c ec3a 2b66 0fb9 8720 71bc 899c 07bc
000002d0: 0a93 393d 36ca 9f3c c200 183c 1ef0 823d
000002e0: 4b33 043d 5bb5 12bd 2048 5fbc 36f0 f73c
000002f0: 022e 0e3d f35b b5bc 306d 233d fc02 f3ba
00000300: 1e98 ac3b 0be3 69bc c3a3 443d 4d17 bb3d
00000310: 0eec 22bc d948 17bd c798 e83c 3512 833d
00000320: 91ff 5b3c 9c8e 11bb af19 373d 6c3d 04bd
00000330: d61e 703d b5a6 ac3a 47df b73c 43a9 e03b
00000340: 51d4 a1bb 7819 813a 91fa 133d 8eff ef3c
00000350: 663c 1b3c b206 8f3d 4408 7c3c 4dc5 02bb
00000360: d87c 2bbd 6f94 003d 8f68 dfbb 4e11 2c3c
00000370: f37d 70bc 4f0e 92bc 0332 7f3c 315b e93c
00000380: 37ad e23a ca9d 303d b214 63bc 46c3 e53b
00000390: 774b 293c d463 c5bb 1276 0bbd e2f9 8cbb
000003a0: 4baa e0bc 37b3 253b 92b8 c5bc af83 a039
000003b0: b501 54bc b974 a73c bd19 f93b b7c5 3c3d
000003c0: f102 dc3c 33ac dbbc 81d1 053c bdcd c8bc
000003d0: d7e5 eb3c 222d 503b 6567 993c 247b 5f3d
000003e0: 17e9 513d 5db8 c13c 4303 5dbc 5db4 873d
000003f0: 0135 813c e689 653c 6fa8 863c e81b 88bb

bias f4 [256]
-0.024751544 0.05812034 0.025856296 0.01640852 0.05119942 -0.05245166 -0.039455697 -0.036037013
0.0068183728 0.06361737 -0.022793097 -0.05177171 -0.025764177 0.021447128 0.06278012 -0.05020158
-0.0023615626 0.05420045 -0.009045957 0.023098746 0.047467723 -0.027761111 -0.008986165 0.037986044
-0.002227082 0.013896572 0.014551079 0.015061193 0.023867479 0.050737575 -0.0066298377 -0.035780467
0.04271535 0.023348602 0.09105782 0.047605377 -0.022695787 -0.028142793 -0.017906493 0.05188544
0.049707815 0.023920722 0.007372253 -0.030377926 -0.016918637 0.045301814 -0.019602431 -0.026578797
0.055048443 0.012721342 0.0260206 -0.03175207 0.035625927 0.039271116 0.035022438 -0.017737126
0.07990816 0.014237799 -0.043620218 0.001371822 -0.024094295 0.058667842 0.057880305 0.02524415
0.043936733 -0.02640241 0.059355516 0.07264334 0.011871412 0.045541782 -0.040158443 0.063608944
-0.015243834 0.030319447 -0.046314072 0.024432953 -0.027203638 5.725856e-06 0.06481444 -0.041874934
-0.013179938 0.06392012 -0.025426842 0.058937002 0.063711956 -0.046706688 -0.026922522 -0.0063265357
-0.049585737 0.005894639 -0.006539517 0.02488524 -0.018669903 -0.04999713 0.07840349 0.02625721
0.06757203 0.072997265 0.03418543 0.0041615292 0.032481167 -0.03478368 -0.011892036 0.011337136
0.0030706355 0.04228146 -0.007905044 -0.0581162 -0.016903669 0.0076543773 -0.012104873 0.044908173
0.03543738 0.01725448 -0.014297599 -0.037800923 0.052750185 0.055491496 -0.047955707 -0.00046337573
0.023209466 0.047392048 0.053317197 0.0102848215 -0.03113123 -0.016705975 0.043006055 -0.0074991677
0.005489509 -0.038519397 -0.018804029 0.026165592 0.069542795 0.016394833 0.018175332 -0.012680871
0.05592946 0.0103932945 0.04414504 -0.011751579 0.005718476 0.057822105 -0.049291845 -0.022752585
0.06540525 0.015422 -0.045714766 0.034302425 -0.014170888 -0.062078614 -0.025507832 0.052226868
0.024880657 -0.025251571 0.050507292 0.019596962 -0.013034923 0.06539831 0.04705578 0.032510936
0.023686504 0.05592588 -0.048763465 0.015157765 0.03479147 -0.044971436 0.05915815 -0.014804861
0.014548743 -0.035385255 0.0016737193 -0.051576786 -0.03632381 0.010002418 0.0029492301 0.05222785
0.054694463 0.041721985 0.0060122255 0.021204436 0.041100156 -0.052964535 0.051404737 0.053572636
0.051092055 0.07188378 0.013788614 0.061791465 0.041519437 -0.040587634 0.069205604 -0.0021486755
0.040537138 0.018991074 0.030293956 0.06334378 0.03572307 -0.013006256 -0.058839515 -0.005003803
0.041783288 -0.026065493 -0.03758393 -0.017162083 0.01377176 -0.039385453 0.02906475 -0.027044425
-0.063055344 -0.03980774 0.018316735 0.0020711173 0.0718508 0.074248075 0.024133623 0.015242426
0.007359705 0.037538864 0.022393905 -0.00034020416 0.009296431 0.020328188 0.06028942 -0.037241615
-0.03034294 -0.05201921 -0.0358195 0.041074093 0.008555422 -0.017681397 0.057069097 0.055753596
-0.0027055955 0.038340945 -0.030014265 -0.020060327 0.051085226 0.0044982363 -0.025135456 0.036398377
0.022624392 0.03685315 0.024747206 0.02410894 -0.034990408 0.080177106 -0.013553853 -0.029432306
-0.03862382 0.0016104643 -0.040173095 0.04426273 -0.039187003 -0.017301476 -0.04872957 -0.017584916
00000000: c0c3 cabc 980f 6e3d 95d0 d33c 296b 863c
00000010: 7cb6 513d 8dd7 56bd 4c9c 21bd 8c9b 13bd
00000020: a86c df3b d349 823d 97b8 babc 930e 54bd
00000030: 650f d3bc e3b1 af3c dd92 803d 2ca0 4dbd
00000040: 72c4 1abb 4b01 5e3d 7e35 14bc 9539 bd3c
00000050: 846d 423d 456b e3bc b53a 13bc 4197 1b3d
00000060: 3cf4 11bb 73ae 633c a667 6e3c 39c3 763c
00000070: bb85 c33c 34d2 4f3d 1c3f d9bb 8a8e 12bd
00000080: 4af6 2e3d 9145 bf3c 867c ba3d dbfd 423d
00000090: 84ec b9bc b78b e6bc a3b0 92bc d485 543d
000000a0: 6c9a 4b3d 64f5 c33c f192 f13b 21db f8bc
000000b0: f498 8abc 658e 393d 4795 a0bc c7bb d9bc
000000c0: 7a7a 613d 2d6d 503c 2729 d53c 750e 02bd
000000d0: 7eec 113d c0da 203d b073 0f3d 734d 91bc
000000e0: e4a6 a33d a845 693c 1dab 32bd b5ce b33a
000000f0: 6661 c5bc b14d 703d e613 6d3d d2cc ce3c
00000100: 01f7 333d de49 d8bc c51e 733d 08c6 943d
00000110: 5080 423c 058a 3a3d 2e7d 24bd 6845 823d
00000120: 46c1 79bc 7d60 f83c d3b3 3dbd 9e27 c83c
00000130: 2ada debc bb20 c036 6fbd 843d 0d85 2bbd
00000140: abf0 57bc 8de8 823d f44b d0bc ed67 713d
00000150: 6a7b 823d 834f 3fbd 9f8c dcbc d44e cfbb
00000160: 6a1a 4bbd d127 c13b 7249 d6bb 21dc cb3c
00000170: a0f1 98bc cac9 4cbd 0292 a03d 5c19 d73c
00000180: 3463 8a3d 977f 953d 0506 0c3d 705d 883b
00000190: f90a 053d 5579 0ebd d0d6 42bc 65bf 393c
000001a0: b73c 493b 532f 2d3d 2884 01bc 410b 6ebd
000001b0: 9079 8abc 92d1 fa3b 8453 46bc a2f1 373d
000001c0: c926 113d 4459 8d3c 7a40 6abc 24d5 1abd
000001d0: 9410 583d 0d4b 633d 346d 44bd 3df1 f2b9
000001e0: c721 be3c 2a1e 423d 2263 5a3d ab81 283c
000001f0: ec06 ffbc f8da 88bc 1e27 303d 94bb f5bb
00000200: 57e1 b33b 84c6 1dbd e80a 9abc 3959 d63c
00000210: 746c 8e3d 754e 863c 6fe4 943c 6ec3 4fbc
00000220: 4a16 653d a348 2a3c 6ed1 343d b289 40bc
00000230: 0e62 bb3b dfd6 6c3d 3fe6 49bd a163 babc
00000240: 30f3 853d 8eac 7c3c 683f 3bbd b380 0c3d
00000250: 032d 68bc 2546 7ebd cdf5 d0bc d7eb 553d
00000260: 85d2 cb3c 62dc cebc bce0 4e3d cf89 a03c
00000270: 6e90 55bc 8def 853d 90bd 403d 302a 053d
00000280: 330a c23c 8912 653d 33bc 47bd 4658 783c
00000290: 8081 0e3d f833 38bd d14f 723d 1690 72bc
000002a0: da5d 6e3c 21f0 10bd b360 db3a 2e42 53bd
000002b0: 47c8 14bd 2fe1 233c df47 413b dfec 553d
000002c0: 4d07 603d ace4 2a3d 3402 c53b edb4 ad3c
000002d0: a358 283d 57f1 58bd c68d 523d fb6e 5b3d
000002e0: e745 513d ce37 933d a4e9 613c 0c19 7d3d
000002f0: 4910 2a3d 383f 26bd abbb 8d3d cbd0 0cbb
00000300: 450a 263d 2b93 9b3c 082b f83c 62ba 813d
00000310: 5b52 123d 3118 55bc b401 71bd f1f6 a3bb
00000320: f424 2b3d 4d87 d5bc 9bf1 19bd 7f97 8cbc
00000330: f3a2 613c a452 21bd 3319 ee3c 458c ddbc
00000340: 2923 81bd 710d 23bd fa0c 963c 95bb 073b
00000350: 8326 933d 600f 983d e0b3 c53c 5ebb 793c
00000360: ae29 f13b 5ac2 193d 6c73 b73c 6e5d b2b9
00000370: 0f50 183c 4d87 a63c 0af2 763d aa8a 18bd
00000380: c291 f8bc 1812 55bd 78b7 12bd 4f3d 283d
00000390: 0a2c 0c3c 94d8 90bc 49c1 693d e25d 643d
000003a0: 5c50 31bb 650b 1d3d 7ae0 f5bc 8e55 a4bc
000003b0: be3e 513d f165 933b dfe8 cdbc 7716 153d
000003c0: ca56 b93c 54f3 163d a7ba ca3c 1d80 c53c
000003d0: 1a52 0fbd e533 a43d fb10 5ebc 051c f1bc
000003e0: 0334 1ebd 3716 d33a 8b8c 24bd d64c 353d
000003f0: 8d82 20bd d3bb 8dbc a898 47bd 3e0e 90bc

weight f4 [128, 256]
0.003394906 0.006455965 -0.006425 0.013247465 0.06550301 0.014028482 -0.0036342386 0.027064562
-0.014030327 0.06593164 -0.0046210396 0.012440785 0.002687932 0.048012104 0.039636955 0.082875155
0.037550088 -0.048141424 -0.020147974 0.0605334 -0.047930945 0.07644486 -0.0134824645 -0.027200866
0.053606715 -0.013553394 0.072073385 0.021283835 -0.023149844 0.028972851 -0.040744524 -0.05418946
-0.016896 -0.061567895 -0.028244894 0.021906894 0.013695429 0.053627897 0.0013013422 0.059154954
0.026198715 -0.011763323 -0.015957246 -0.02049852 0.028135384 0.04536179 -0.0009257021 0.026352102
0.009786064 0.03032048 0.030992988 -0.04235669 0.08039304 0.03802651 -0.012643399 0.03716559
0.011733037 -0.014832706 0.050070774 -0.015585754 0.022146862 -0.040239796 0.010824059 0.05433262
0.003672721 0.07670406 -0.02886285 -0.045788884 0.06472983 0.038842045 0.045877486 0.0088730715
0.06768104 0.07260159 0.033283982 0.058110002 0.0768937 1.0477976e-06 -0.009797951 0.018573457
-0.01532215 0.0057502696 0.07383239 0.06919914 0.031729467 0.06195051 0.044732306 0.029163245
0.024689598 -0.022654759 0.02489897 -0.062497426 0.078423396 0.05006766 0.0019283388 -0.00089828385
0.07130694 0.013176897 -0.041394938 -0.016066698 0.03992267 0.010480594 -0.025673885 0.03513725
0.048666503 -0.014077126 0.054924518 -0.018534733 0.079688415 -0.04176214 0.06024328 0.045052912
-0.011052522 0.07137773 0.07208498 0.022530047 0.016265843 0.043063644 0.12300404 0.01549399
0.029762188 0.03784222 -0.0638546 -0.02841262 -0.041453384 0.030938795 0.04638077 0.027849391
-0.003078148 -0.008522938 0.052973583 0.06347273 -0.038149767 -0.0339434 -0.0119476635 0.028719086
0.036386225 -0.02793424 0.0033109526 0.06546363 0.020072807 0.047819808 0.0064429315 0.015933944
0.009243093 0.03495001 0.0065998635 0.014409228 0.006777121 0.0039442927 -0.025193822 -0.029678302
0.07670338 -0.0036534206 -0.019373793 0.03517907 0.005683373 0.011016939 0.09753443 0.05042304
0.07677278 0.06942632 0.061348904 -0.017217044 0.062399637 0.09284601 -0.03870575 0.08405143
0.047900494 -0.0067298985 0.06093066 0.057448022 -0.012182652 0.048989017 0.019109232 0.03102853
0.03926861 0.038177777 0.041312024 0.05432824 0.0017720979 -0.012875803 0.023949582 0.013091193
0.006814832 0.053831533 0.01780459 -0.0017968368 0.04411318 -0.010131446 -0.04653036 0.045245957
-0.0024756293 -0.006076287 0.049482998 0.044250358 -0.027089173 -0.057484664 0.0023882962 0.019448817
0.059388105 0.07767015 0.03078452 -0.00691158 -0.05492 0.026521616 0.07500986 0.11807116
0.08874163 0.088674605 0.067294024 0.018870324 -0.015304915 -0.024847781 0.043114092 0.045083344
0.013862839 -0.03911625 0.01833066 0.020710865 -0.04714175 -0.003939061 0.017150206 0.08533444
-0.020950126 0.009194712 0.056313444 0.023479758 0.031521905 0.073150106 -0.043149862 0.0010282374
-0.026514772 0.020830933 -0.033978593 0.0740896 0.088264495 0.008063168 -0.033860654 0.029129434
0.006836032 0.05104036 -0.021243075 0.023798542 -0.04565999 -0.049231686 -0.049449623 0.036529202
0.0019285085 0.052439637 -0.0133287655 0.0115206195 0.07332191 -0.05566972 -0.03875162 -0.0048590032
00000000: 127d 5e3b 8f8c d33b ce88 d2bb e50b 593c
00000010: 7126 863d b8d7 653c 682c 6ebb 80b6 dd3c
00000020: 75df 65bc 2b07 873d 176c 97bb 6fd4 4b3c
00000030: 0428 303b 57a8 443d 5c5a 223d 73ba a93d
00000040: 1fce 193d f12f 45bd 5d0d a5bc dff1 773d
00000050: 3d53 44bd 1f8f 9c3d 8ee5 5cbc 5ad4 debc
00000060: b792 5b3d 0e0f 5ebc 369b 933d 705b ae3c
00000070: bea4 bdbc 7958 ed3c bbe3 26bd c4f5 5dbd
00000080: 7b69 8abc 9e2e 7cbd d661 e7bc 1676 b33c
00000090: cb62 603c eda8 5b3d cc91 aa3a 774c 723d
000000a0: b09e d63c f4ba 40bc c5b8 82bc 83ec a7bc
000000b0: 2d7c e63c 49cd 393d d1aa 72ba 5de0 d73c
000000c0: ba55 203c a862 f83c 02e5 fd3c 357e 2dbd
000000d0: 1ba5 a43d b0c1 1b3d 4226 4fbc f23a 183d
000000e0: ed3b 403c e104 73bc 0317 4d3d 645b 7fbc
000000f0: 566d b53c 7cd2 24bd 6557 313c e28b 5e3d
00000100: 09b2 703b 0517 9d3d c971 ecbc 208d 3bbd
00000110: 1391 843d d618 1f3d 08ea 3b3d 5c60 113c
00000120: 5b9c 8a3d 24b0 943d c954 083d c104 6e3d
00000130: 727a 9d3d 0da2 8c35 9687 20bc 5d27 983c
00000140: c109 7bbc c26c bc3b 7035 973d 47b8 8d3d
00000150: c2f6 013d d1bf 7d3d 3939 373d c2e7 ee3c
00000160: d741 ca3c 7996 b9bc edf8 cb3c 4dfd 7fbd
00000170: 729c a03d bf13 4d3d 50c0 fc3a cf7a 6bba
00000180: 5f09 923d e9e3 573c bd8d 29bd 4f9e 83bc
00000190: f485 233d ccb6 2b3c 0a52 d2bc 14ec 0f3d
000001a0: 8756 473d bfa3 66bc 88f8 603d 27d6 97bc
000001b0: ae33 a33d c70e 2bbd a8c1 763d 6789 383d
000001c0: a315 35bc 7d2e 923d 4aa1 933d ef90 b83c
000001d0: f23f 853c 8163 303d 8be9 fb3d 81da 7d3c
000001e0: d5cf f33c 7200 1b3d 33c6 82bd 95c1 e8bc
000001f0: 06cb 29bd 5b73 fd3c c3f9 3d3d 6824 e43c
00000200: c1ba 49bb cba3 0bbc d4fa 583d fefd 813d
00000210: ee42 1cbd 3c08 0bbd 22c0 43bc 4a44 eb3c
00000220: b909 153d 59d6 e4bc 91fc 583b cc11 863d
00000230: ba6f a43c b4de 433d 3a1f d33b e787 823c
00000240: 5870 173c be27 0f3d ab43 d83b af14 6c3c
00000250: 9d12 de3b 203f 813b 4663 cebc e91f f3bc
00000260: a916 9d3d 3a6e 6fbb cab5 9ebc ee17 103d
00000270: 973b ba3b 6480 343c 22c0 c73d 6488 4e3d
00000280: 0c3b 9d3d 632f 8e3d fd48 7b3d c20a 8dbc
00000290: c396 7f3d 0d26 be3d ec89 1ebd 2823 ac3d
000002a0: 4f33 443d 7b86 dcbb 6e92 793d 9e4e 6b3d
000002b0: bf99 47bc b5a8 483d f78a 9c3c 8b2f fe3c
000002c0: 1fd8 203d 4d60 1c3d cc36 293d 4a87 5e3d
000002d0: bd45 e83a 08f5 52bc ea31 c43c 717c 563c
000002e0: f44e df3b 747e 5c3d eeda 913c d783 ebba
000002f0: 06b0 343d 5dfe 25bc 9e96 3ebd d353 393d
00000300: 2b3e 22bb 971b c7bb afae 4a3d dd3f 353d
00000310: 1dea ddbc 0a75 6bbd f684 1c3b 2053 9f3c
00000320: f140 733d 8711 9f3d d12f fc3c 897a e2bb
00000330: cbf3 60bd dc43 d93c c59e 993d 4bcf f13d
00000340: 2cbe b53d 089b b53d 73d1 893d f095 9a3c
00000350: 77c1 7abc 938d cbbc 6798 303d 50a9 383d
00000360: f620 633c 5c38 20bd 2e2a 963c d5a9 a93c
00000370: b517 41bd 3d13 81bb 977e 8c3c d3c3 ae3d
00000380: 999f abbc 6ba5 163c eda8 663d 9f58 c03c
00000390: 1d1d 013d b9cf 953d e9bd 30bd ecc5 863a
000003a0: 8235 d9bc a2a5 aa3c 232d 0bbd 4abc 973d
000003b0: 04c4 b43d 611b 043c 78b1 0abd daa0 ee3c
000003c0: cb00 e03b b20f 513d f505 aebc 29f5 c23c
000003d0: f805 3bbd 2aa7 49bd b08b 4abd a59f 153d
000003e0: 02c6 fc3a f2ca 563d e560 5abc fbc0 3c3c
000003f0: cc29 963d ef05 64bd 05ba 1ebd 4638 9fbb

bias f4 [128]
0.061774924 0.058253255 0.061674368 0.0243504 0.0666843 -0.025306018 -0.014700997 0.033446845
0.06856623 -0.01047669 0.085649475 9.003811e-06 0.0021523624 -0.03856575 -0.05352761 0.0064468244
0.02154925 -0.026763715 0.0041285055 0.06870784 0.05199695 0.046838526 0.010840404 -0.027797125
0.04737475 0.00602391 0.028390752 0.03578934 0.06715678 0.013327098 0.057049327 0.029619051
-0.021642564 -0.00843647 0.0634618 -0.026938312 -0.03414178 0.020462675 0.06888646 -0.028249018
0.04610012 -0.009542189 0.022264762 -5.8242187e-12 0.012940591 -1.3047928e-06 -0.032236457 0.010052223
-0.005196956 -0.021959946 -0.0035693021 0.004331789 -0.047429573 -0.038723666 0.06927224 0.06247108
-0.028864196 -0.00022698486 0.06458699 0.031258866 -0.01388871 0.01736869 -0.03423549 -0.022167565
-0.018170761 -0.01630213 0.052287873 0.027410217 0.04357337 0.061615568 0.041174162 -0.0017674478
-3.4335884e-05 0.04489748 -8.1848084e-05 -0.034041297 -0.018768348 -1.7404066e-06 0.05829297 0.002160082
0.02757827 0.05208687 0.017872006 0.034049552 0.062756896 0.02515841 0.07092563 0.062929146
-0.04051758 0.069972225 -0.030909944 -0.022496453 0.019920927 0.06266612 0.035493907 0.042997655
0.06757622 0.023151167 -0.020475449 0.05181918 0.007372771 0.0015201792 -0.016467277 -0.043772493
-0.01747363 -0.00029249754 0.06908916 -0.038161077 -8.095453e-08 0.031799257 -0.034024015 -5.6533114e-36
-0.04582672 0.052874476 0.05826799 -0.012745905 0.036722183 -0.017706593 -0.028839996 0.0339201
0.03875015 -0.026311435 0.07399117 0.04005818 0.07429894 0.0038377533 0.039135233 -0.008740899
00000000: b407 7d3d f79a 6e3d 439e 7c3d 7d7a c73c
00000010: c791 883d 914e cfbc 73dc 70bc 8fff 083d
00000020: 746c 8c3d 6ca6 2bbc fe68 af3d 130f 1737
00000030: a60e 0d3b 1ff7 1dbd c43f 5bbd e23f d33b
00000040: 0e88 b03c 943f dbbc 6a48 873b b2b6 8c3d
00000050: c1fa 543d c1d9 3f3d f39b 313c ccb6 e3bc
00000060: 070c 423d 3864 c53b b993 e83c d897 123d
00000070: 7e89 893d e759 5a3c 8eac 693d a7a3 f23c
00000080: bf4b b1bc 1f39 0abc 43f8 813d bcad dcbc
00000090: 40d8 0bbd 57a1 a73c 5814 8d3d 7c6a e7bc
000000a0: 7bd3 3c3d d756 1cbc 9764 b63c e6eb ccac
000000b0: c604 543c 5720 afb5 600a 04bd 14b2 243c
000000c0: 3a4b aabb 58e5 b3bc f4ea 69bb aef1 8d3b
000000d0: 8345 42bd b59c 1ebd 9bde 8d3d ade1 7f3d
000000e0: 9b74 ecbc c902 6eb9 2f46 843d 4c09 003d
000000f0: 798d 63bc c848 8e3c 833a 0cbd c198 b5bc
00000100: d9da 94bc 0b8c 85bc cf2b 563d 648b e03c
00000110: fd79 323d 9b60 7c3d 3da6 283d b5a9 e7ba
00000120: e003 10b8 6ce6 373d dba5 abb8 e36e 0bbd
00000130: 14c0 99bc ea97 e9b5 9cc4 6e3d 2a90 0d3b
00000140: d3eb e13c 0b59 553d 5068 923c 8b77 0b3d
00000150: b086 803d 0319 ce3c 7541 913d ffe0 803d
00000160: c3f5 25bd 994d 8f3d da36 fdbc 7b4a b8bc
00000170: 3631 a33c 1857 803d 0f62 113d 4f1e 303d
00000180: 6765 8a3d 84a7 bd3c 21bc a7bc 5940 543d
00000190: 4997 f13b c040 c73a 62e6 86bc c94a 33bd
000001a0: dc24 8fbc 5b5a 99b9 9e7e 8d3d ca4e 1cbd
000001b0: 39d9 adb3 f03f 023d c45c 0bbd 1c77 f084
000001c0: ccb4 3bbd e892 583d 6aaa 6e3d 33d4 50bc
000001d0: 006a 163d 6b0d 91bc db41 ecbc ceef 0a3d
000001e0: 7ab8 1e3d 148b d7bc af88 973d 0c14 243d
000001f0: 0b2a 983d d182 7b3b 444c 203d fd35 0fbc

weight f4 [64, 128]
0.039260767 0.010123841 0.014308414 0.016340274 0.07156501 -0.0017720228 -0.12462077 -0.11103098
0.05805514 -0.061620705 0.07892091 9.430572e-07 -0.07100065 0.0038088602 -0.017797941 -0.0038928415
-0.009160881 -0.08774836 -6.3480843e-07 0.035823487 -0.105768606 0.0269314 0.017362542 -0.05828736
-0.06705284 0.025189705 0.03939009 -0.008256366 0.10749946 0.021194428 0.0034268098 -0.078003526
-0.032124892 0.028002439 0.08668386 -0.06207751 0.032558333 0.04450583 -2.5296731e-05 0.00024063035
-0.054349404 0.08263035 0.08604959 4.5593204e-35 -0.017898804 -1.7101028e-08 -0.09039299 0.005057418
-0.036797613 -0.017895723 -0.0539315 -0.030953435 -0.046476223 0.036903005 0.014990656 0.055841345
0.01668759 3.272218e-24 0.079566084 0.06209134 0.08534615 -0.046874415 0.0977238 0.041382268
-0.044870835 0.0079771755 0.07345789 0.095675014 0.057872184 0.02015618 0.072815806 0.016277963
-1.813521e-25 0.0663711 -1.1623852e-09 -0.025603766 -0.08300946 -5.6733487e-36 -0.02297647 -0.007090841
0.10015834 0.024921691 -0.025724182 -0.07865366 -0.06064471 -0.07675429 0.055037618 0.058985546
0.057284355 0.071790315 0.036382876 -0.029383585 -0.045164403 -0.014540627 -0.022612045 -0.060214363
0.06804206 -0.0030805895 -0.0013979856 0.0049874536 -0.10254782 -0.08013829 -0.014971685 -0.07462467
-0.029921047 1.34917795e-20 0.11949498 0.025564514 -5.7392514e-36 -0.07853585 0.012626002 -5.753341e-36
0.03585648 -0.03437425 -0.006847488 -0.043740284 0.013415176 -0.008112006 -0.013750485 -0.0251225
0.009559426 0.10783526 -0.010789311 0.0065421024 0.10153875 -1.3689194e-07 0.07343043 0.0022098366
0.0017675807 -0.0013578702 1.0741967e-07 6.9353696e-09 -0.0004893023 -2.5972346e-14 3.7642647e-05 -0.007920619
-2.9088294e-05 -0.0018242727 -0.013830915 6.729456e-11 -0.0039685005 4.1206462e-05 -5.6261833e-06 0.0005556905
0.0024003969 0.0013712236 7.862096e-05 -0.003862038 0.0008559778 -0.003225988 0.009017148 -5.662681e-36
0.0001444434 -0.0028253382 0.0034049216 0.008780883 0.009548747 0.0018487514 0.021286912 0.0015049947
-0.00064767 4.0412688e-06 0.00017985997 0.003052971 -0.0003455566 0.010102559 -0.004958585 -9.646894e-05
0.003832396 -0.0005078403 0.0056050946 -4.737744e-33 0.0034359414 -5.7056852e-36 0.00019749423 9.0543914e-08
-3.592227e-07 -0.0022729735 5.9792335e-05 -0.0008478532 -0.0015292208 -6.440103e-05 -0.00053289626 -0.0032675525
0.00022105362 -5.653718e-36 -0.008787645 0.00021044597 2.655488e-07 0.0059468094 3.225397e-07 0.0017925128
-1.7257942e-05 2.5470143e-07 0.0041417796 -0.011631111 7.292789e-05 -0.0009139823 -0.004083772 0.0032382132
5.6955668e-36 8.445516e-07 -2.398197e-19 -0.0005124349 6.2115824e-08 -2.2996706e-32 -0.011428563 8.2003524e-08
1.7146395e-07 0.00022135922 0.0049152067 0.008154848 -9.972407e-05 -7.343928e-07 -0.0039655613 -0.010919628
1.3401172e-05 0.02438872 -0.0019512326 5.654286e-36 0.0033970345 -0.00079350034 0.003726423 -0.028381333
8.3818115e-05 8.110467e-05 -4.7804875e-28 -0.027450597 0.002022228 1.7687987e-07 0.0038812296 0.008238625
-0.0032267547 2.5782479e-16 0.007375771 -0.0047617736 -5.77255e-36 -0.00016730119 2.1002037e-18 5.705637e-36
-6.9532005e-05 0.0009774782 -0.002198977 -0.0017432215 0.01448386 -8.171069e-05 0.0014968712 -0.0047663506
-0.0031354835 -0.001755774 -0.0016414508 0.001039615 -0.0033165663 -8.392387e-07 -0.003353991 -0.01026988
00000000: e6cf 203d 78de 253c d76d 6a3c 0adc 853c
00000010: ad90 923d 3843 e8ba 2d39 ffbd 3664 e3bd
00000020: 3acb 6d3d fe65 7cbd 49a1 a13d 6626 7d35
00000030: ca68 91bd 129e 793b fdcc 91bc 0b1f 7fbb
00000040: 8517 16bc 6ab5 b3bd b467 2ab5 a6bb 123d
00000050: 369d d8bd 3d9f dc3c e43b 8e3c babe 6ebd
00000060: 0053 89bd a45a ce3c 8157 213d b545 07bc
00000070: ad28 dc3d f09f ad3c 5494 603b 50c0 9fbd
00000080: 6495 03bd 5f65 e53c 4f87 b13d fd44 7ebd
00000090: e35b 053d bf4b 363d 5134 d4b7 b851 7c39
000000a0: 7b9d 5ebd 1a3a a93d c43a b03d 416a 7206
000000b0: 83a0 92bc 8fe5 92b2 f61f b9bd b2b8 a53b
000000c0: 18b9 16bd 0d9a 92bc 47e7 5cbd 0f92 fdbc
000000d0: da5d 3ebd 9b27 173d 5e9b 753c e5b9 643d
000000e0: 6ab4 883c f42c 7d18 8bf3 a23d 7d53 7e3d
000000f0: f6c9 ae3d 63ff 3fbd 6a23 c83d 7480 293d
00000100: 7bca 37bd b3b2 023c 1771 963d 43f1 c33d
00000110: 620b 6d3d 931e a53c 7420 953d 5d59 853c
00000120: c680 6096 92ed 873d cbc1 9fb0 fdbe d1bc
00000130: dd00 aabd 4c51 f184 2639 bcbc 495a e8bb
00000140: d11f cd3d 9328 cc3c 85bb d2bc 2c15 a1bd
00000150: 9666 78bd 5a31 9dbd 206f 613d d49a 713d
00000160: 00a3 6a3d cd06 933d 3606 153d d8b5 f0bc
00000170: 4ffe 38bd cf3b 6ebc e53c b9bc 56a3 76bd
00000180: a359 8b3d b7e3 49bb 9d3c b7ba cb6d a33b
00000190: 9704 d2bd 8b1f a4bd cc4b 75bc d2d4 98bd
000001a0: fc1c f5bc 3eda 7e1e c9b9 f43d ac6c d13c
000001b0: ea1e f484 67d7 a0bd 4add 4e3c 56b8 f484
000001c0: 3fde 123d 03cc 0cbd e560 e0bb 0329 33bd
000001d0: 54cb 5b3c 38e8 04bc b749 61bc b3cd cdbc
000001e0: 249f 1c3c bcd8 dc3d a6c5 30bc 225f d63b
000001f0: 8cf3 cf3d 92fc 12b4 b162 963d e8d2 103b
00000200: 2bae e73a 90fa b1ba 97ae e633 284c ee31
00000210: 8644 00ba 27f0 e9a8 7ce2 1d38 7cc5 01bc
00000220: a302 f4b7 6f1c efba 109b 62bc 78fb 932e
00000230: 320a 82bb 1ad5 2c38 8cc8 bcb6 c2ab 113a
00000240: fa4f 1d3b a1ba b33a 4ee1 a438 3f1a 7dbb
00000250: b363 603a 196b 53bb a9bc 133c 23dd f084
00000260: bb75 1739 4f29 39bb 1b25 5f3b b1dd 0f3c
00000270: 5972 1c3c ce51 f23a e461 ae3c 3e43 c53a
00000280: 66c8 29ba 3c9a 8736 cb98 3c39 5b14 483b
00000290: d22b b5b9 3485 253c a07b a2bb 5e4f cab8
000002a0: ef28 7b3b 9620 05ba f1aa b73b 56cc c489
000002b0: 882d 613b 69b1 f284 7416 4f39 0b71 c233
000002c0: 31db c0b4 2bf6 14bb 88c9 7a38 7742 5eba
000002d0: 2370 c8ba 0a0f 87b8 10b2 0bba 6f24 56bb
000002e0: a1ca 6739 8a7b f084 0efa 0fbc 29ab 5c39
000002f0: c090 8e34 74dd c23b 8529 ad34 c0f2 ea3a
00000300: 26c5 90b7 e6bd 8834 c4b7 873b 6a90 3ebc
00000310: ddf0 9838 5098 6fba 2ad1 85bb 3438 543b
00000320: 3b43 f204 25b5 6235 8790 8da0 ed54 06ba
00000330: 8964 8533 bbcf ee8a de3e 3bbc ea19 b033
00000340: a71b 3834 aa1c 6839 be0f a13b e99b 053c
00000350: f422 d1b8 1723 45b5 8af1 81bb 3de8 32bc
00000360: 98d5 6037 daca c73c 80c0 ffba b981 f004
00000370: c8a0 5e3b e802 50ba 0137 743b f87f e8bc
00000380: 82c7 af38 bd16 aa38 ec7f 1792 13e0 e0bc
00000390: 5b87 043b 5eec 3d34 3a5c 7e3b 4cfb 063c
000003a0: f677 53bb 39a0 9425 74b0 f13b a708 9cbb
000003b0: 8189 f584 926d 2fb9 baf7 1a22 e3b0 f204
000003c0: b6d1 91b8 ba1e 803a b61c 10bb cf7c e4ba
000003d0: b64d 6d3c 185c abb8 aa32 c43a 0c2f 9cbb
000003e0: af7c 4dbb 0022 e6ba f325 d7ba b143 883a
000003f0: c05a 59bb 0b48 61b5 a2ce 5bbb 0043 28bc

bias f4 [64]
7.249012e-05 0.044749115 -0.0043713883 -4.1443946e-06 0.037103113 -0.07828498 -0.03407372 -0.04922306
0.079489514 -0.0031518205 0.03468538 -0.0025030938 -0.06126759 0.07850451 0.06126266 0.08175572
0.058804076 0.06482231 0.024460182 0.039419934 0.057371948 0.050964598 -0.038780916 0.050053623
-0.011605474 0.049626864 -0.031630192 -0.03319955 -0.009122111 0.071220286 -5.7415972e-36 0.03983597
-0.016099202 -0.00012924653 0.10194483 -0.06879914 0.055882268 0.09323463 0.06879633 -0.018699553
0.083677076 0.08602492 0.084602915 -0.056695018 0.014202309 0.006681557 0.045939617 0.08729561
0.08946694 -0.07037993 0.050128788 0.027304193 -0.026530035 0.03100709 0.013264551 0.006820389
-0.02993751 7.8151096e-08 0.055144597 -0.0006015321 0.06933242 -0.0004503213 -0.069955386 -0.055390026
00000000: d605 9838 d94a 373d dd3d 8fbb 1410 8bb6
00000010: 6ff9 173d e053 a0bd e390 0bbd 1f9e 49bd
00000020: 66cb a23d c68e 4ebb 4212 0e3d f20a 24bb
00000030: b9f3 7abd f9c6 a03d 8eee 7a3d 8b6f a73d
00000040: 8bdc 703d 8fc1 843d b860 c83c cc76 213d
00000050: d9fe 6a3d 41c0 503d bdd8 1ebd 0705 4d3d
00000060: e324 3ebc 8a45 4b3d a98e 01bd 40fc 07bd
00000070: e874 15bc f1db 913d 7538 f484 0b2b 233d
00000080: 79e2 83bc 5a86 07b9 73c8 d03d 90e6 8cbd
00000090: cee4 643d ccf1 be3d 17e5 8c3d ce2f 99bc
000000a0: e35e ab3d d52d b03d 4b44 ad3d 0939 68bd
000000b0: cdb0 683c f6f0 da3b 2e2b 3c3d 0ac8 b23d
000000c0: 713a b73d 5a23 90bd d853 4d3d 0bad df3c
000000d0: 8455 d9bc 9502 fe3c 8f53 593c 927d df3b
000000e0: 823f f5bc 05d4 a733 4ddf 613d 23b0 1dba
000000f0: 28fe 8d3d 1a19 ecb9 c544 8fbd a7e0 62bd

weight f4 [16, 64]
0.071018115 -0.023788093 0.026554877 -4.2694337e-06 -0.0175635 -0.14433882 0.031032197 -0.02697378
0.13182376 0.110713154 0.03397546 0.17483853 -0.07358017 -0.02624269 -0.07954599 0.013080384
-2.0796251e-06 -0.01817319 0.05847277 -0.13155657 -0.063713126 0.12094273 -0.07983934 -0.07468177
-0.10525713 0.14026658 -0.07195808 -0.07607932 -0.07497271 -0.033704836 5.76133e-36 0.07494485
-0.09636147 -4.705132e-10 -0.11890409 -0.09320505 0.14453124 0.04826979 -0.14872693 -0.1135422
-0.13594405 0.045245305 0.09147796 -0.029642276 5.692931e-36 0.115819015 -0.0559326 -0.03302622
0.033954002 -0.04376082 0.08600785 0.094167896 -1.7305616e-06 0.1518578 0.14288473 0.036287915
0.070926294 4.826697e-08 -0.063142724 0.0025396822 0.027754223 -0.0017778642 -0.03315009 0.0830038
-4.7724436e-11 -5.7639075e-36 -0.00043853797 -1.6624782e-07 -9.362667e-05 0.014307382 5.74386e-36 0.013068264
-0.00048736652 0.0019951581 -0.0072268816 -0.00027938525 -0.0070010214 1.4257574e-22 -0.00020292032 -0.017883314
0.039164476 -1.7115728e-07 -0.028921757 -0.017152201 -0.00057624356 -0.00025539295 0.051617082 -0.017320989
0.041986562 -3.7149707e-07 -0.0003145309 -0.00034168534 0.008670177 1.3744928e-23 -5.6799903e-36 -0.026648872
-0.011040407 -6.5776505e-05 -0.00802489 0.0037331705 0.00039004712 0.0074727093 0.013451877 0.009117683
0.0025469367 -5.6474647e-36 -0.0016785807 -0.00025500695 -0.0028656314 -0.014512799 -2.6958487e-09 0.0193706
-8.225452e-14 -0.0150879035 -2.014211e-09 -1.0575923e-06 -0.006186374 -3.1111817e-06 -0.00020604455 -0.00070035056
0.026630646 -1.4873941e-09 0.007628015 -1.4651666e-06 0.0019762886 -0.01702567 -0.00030024443 4.3610007e-06
-0.060168907 -0.020548861 0.12978129 2.2611239e-05 0.07480675 0.16077735 -0.036523003 -0.022564016
0.084033184 -0.013378484 0.016145578 -0.052833945 0.16624503 0.04353806 0.09438893 0.025720442
0.03967389 0.006796054 0.081978805 -0.0014775493 0.12716858 -0.14785135 0.05578912 -0.06274906
0.14855194 -0.12873997 0.031739097 0.11205076 0.16217326 0.07391112 5.67879e-36 -0.017470589
0.051856387 2.5738356e-09 0.079831325 0.1754314 -0.11007755 -0.0001454849 -0.035485476 0.1033415
0.049567103 -0.043185767 0.099919155 0.15606435 0.004920796 -0.046027202 -0.03549219 0.17203566
-0.15062788 0.12739156 0.07031371 0.03223748 -0.00019881513 -0.10032637 0.060566537 0.07475222
0.09993818 1.7991901e-07 0.15721798 -0.00047001734 0.11316272 0.099363476 -0.033737134 -0.11771592
0.05861089 2.8023132e-08 -0.041608732 -4.244922e-06 0.058361355 -0.04376922 3.4067943e-05 -0.025125407
0.052288663 0.035523616 0.062980086 0.098435566 -0.02898091 0.063456595 0.05319802 -0.040589303
-5.7633683e-36 0.05780125 -0.042047407 -0.043316565 -0.03937148 0.030056553 -0.046411958 6.503431e-05
-0.04725814 0.05216794 -0.036871936 -0.005604324 -0.028931677 0.049487326 -5.679011e-36 0.04803609
-0.04414473 -4.5753432e-10 0.012003555 -0.043339673 0.05793727 0.023701657 -0.039325878 -0.04214554
-0.041783437 0.055080302 0.0007691808 -0.03632695 -5.710684e-36 0.040312547 0.059239026 -0.049214844
0.055038113 -0.043975007 0.060498573 0.055684753 -1.8405243e-06 0.061144687 0.06934402 0.03256648
-0.04077499 4.8813874e-08 -0.039171826 0.0025136736 -0.04272382 -0.042038843 -0.035150073 0.059140205
00000000: f271 913d 3fdf c2bc 9d89 d93c 2842 8fb6
00000010: 54e1 8fbc 8ecd 13be 3c37 fe3c 1ef8 dcbc
00000020: cffc 063e 94bd e23d da29 0b3d df08 333e
00000030: 33b1 96bd e9fa d6bc 02e9 a2bd 1b4f 563c
00000040: b08f 0bb6 f1df 94bc 2581 6f3d c4b6 06be
00000050: 077c 82bd d2b0 f73d cf82 a3bd c1f2 98bd
00000060: 0d91 d7bd 0ba2 0f3e c25e 93bd 79cf 9bbd
00000070: 4b8b 99bd 150e 0abd 540f f504 af7c 993d
00000080: 2a59 c5bd 6c55 01b0 fd83 f3bd 4ae2 bebd
00000090: ffff 133e 8bb6 453d df4b 18be d088 e8bd
000000a0: eb34 0bbe 2453 393d cc58 bb3d 5cd4 f2bc
000000b0: 8726 f204 8532 ed3d 9519 65bd 8046 07bd
000000c0: 5a13 0b3d 8c3e 33bd e224 b03d 19db c03d
000000d0: a545 e8b5 9c80 1b3e 6050 123e a3a2 143d
000000e0: ce41 913d 184e 4f33 f950 81bd cc70 263b
000000f0: d35c e33c 3907 e9ba 64c8 07bd e5fd a93d
00000100: f0e4 51ae 652b f584 92eb e5b9 da81 32b4
00000110: 7059 c4b8 8269 6a3c 1951 f404 461c 563c
00000120: 3a85 ffb9 33c1 023b 7acf ecbb 747a 92b9
00000130: d368 e5bb 0e5d 2c1b 02c7 54b9 0780 92bc
00000140: ee6a 203d 5bc7 37b4 52ed ecbc c682 8cbc
00000150: 0d0f 17ba 43e6 85b9 6f6c 533d bfe4 8dbc
00000160: 1afa 2b3d 2b72 c7b4 9fe7 a4b9 3b24 b3b9
00000170: 5c0d 0e3c cbee 8419 9e99 f184 bc4e dabc
00000180: d3e2 34bc 7ef1 89b8 d47a 03bc 35a8 743b
00000190: 3d7f cc39 a1dd f43b 4365 5c3c 5662 153c
000001a0: 82ea 263b 7237 f084 d203 dcba 74b2 85b9
000001b0: 51cd 3bbb 17c7 6dbc df41 39b1 18af 9e3c
000001c0: 8138 b9a9 4133 77bc 606a 0ab1 98f2 8db5
000001d0: 11b7 cabb b2c9 50b6 aa0d 58b9 bb97 37ba
000001e0: 8328 da3c 076d ccb0 6df4 f93b bea6 c4b5
000001f0: 9f84 013b 6b79 8bbc 206a 9db9 b654 9236
00000200: ac73 76bd 1656 a8bc 63e5 043e 44ad bd37
00000210: 4834 993d d1a2 243e 2599 15bd 2cd8 b8bc
00000220: 9719 ac3d 6e31 5bbc bb43 843c 6868 58bd
00000230: 233c 2a3e f754 323d fc4e c13d adb3 d23c
00000240: 1781 223d 6fb1 de3b 81e4 a73d 54aa c1ba
00000250: 7b38 023e 5866 17be 2283 643d 9482 80bd
00000260: 001e 183e 69d4 03be db00 023d de7a e53d
00000270: bf10 263e b75e 973d 8c8c f104 7b1e 8fbc
00000280: 5d67 543d 65df 3031 9b7e a33d 4aa4 333e
00000290: 5770 e1bd 4e8d 18b9 3859 11bd b5a4 d33d
000002a0: e006 4b3d 8fe3 30bd 6aa2 cc3d 55cf 1f3e
000002b0: a13e a13b 0587 3cbd 4260 11bd 1e2a 303e
000002c0: 323e 1abe ef72 023e a200 903d 730b 043d
000002d0: 0879 50b9 e977 cdbd 9e14 783d b117 993d
000002e0: 63ac cc3d c32f 4134 c0fd 203e a96c f6b9
000002f0: dbc1 e73d 147f cb3d f32f 0abd 0b15 f1bd
00000300: f911 703d 85b7 f032 eb6d 2abd 9a6f 8eb6
00000310: 510c 6f3d 5b47 33bd 2de4 0e38 ccd3 cdbc
00000320: a32c 563d 3681 113d b4fb 803d 9698 c93d
00000330: 6069 edbc 88f5 813d 2be6 593d f840 26bd
00000340: 8625 f584 01c1 6c3d e739 2cbd b66c 31bd
00000350: fd43 21bd 2939 f63c 771a 3ebd 0863 8838
00000360: c091 41bd 0dae 553d 0707 17bd 7aa4 b7bb
00000370: 2002 edbc 39b3 4a3d f48e f184 7ec1 443d
00000380: 1bd1 34bd 3b88 fbaf 8faa 443c f184 31bd
00000390: a14f 6d3d fa29 c23c 2c14 21bd cda0 2cbd
000003a0: 1c25 2bbd e29b 613d daa2 493a 91cb 14bd
000003b0: d8e7 f284 c51e 253d 9fa4 723d 8195 49bd
000003c0: a56f 613d 231f 34bd 5acd 773d b215 643d
000003d0: ef07 f7b5 da72 7a3d 3d04 8e3d 6e64 053d
000003e0: ad03 27bd 6ca7 5133 a372 20bd 72bc 243b
000003f0: 2cff 2ebd ec30 2cbd 86f9 0fbd 003d 723d

bias f4 [16]
0.013492922 -0.024457997 0.10260053 0.0045081605 -0.08757062 0.047328938 -0.02733395 0.05517575
0.1369363 0.035625625 0.046397313 0.023144543 0.06690028 0.046346527 0.111546956 0.06491664
00000000: 6b11 5d3c 235c c8bc 3a20 d23d 31b9 933b
00000010: 3a58 b3bd fddb 413d 73eb dfbc f8ff 613d
00000020: 0839 0c3e 2dec 113d 1c0b 3e3d a099 bd3c
00000030: 0403 893d dbd5 3d3d bb72 e43d 04f3 843d
