models/model_objs/nfl_model_1.pth (torch, 639097 bytes, 11 tensors)

weight f4 [256, 195]
-0.024134362 -0.082115114 -0.06281697 5.6985055e-36 -0.007137987 0.0064930203 -0.026709862 0.04755311
0.013658959 -0.044504203 -0.01128762 0.0054359366 0.013283518 -0.04362764 0.023896117 -0.054687887
-0.07628343 -0.0373499 0.059730068 0.06545253 0.06262384 0.013922987 0.043954983 -0.011938439
-0.05284345 0.018198432 -0.032469515 -0.052076474 -0.026054583 0.002992693 0.0121144 -0.038953584
-0.04421732 0.00267525 -0.041310556 -0.048004095 0.033868484 -0.011932673 0.062008746 0.041415155
0.002158982 0.020063002 0.030030487 -0.019701298 -0.025681542 -0.019940834 0.030986458 0.06594229
-0.001687452 -0.0007462975 0.000274476 0.006188218 0.03070595 0.0597189 0.06712964 0.034620102
-0.03834148 -0.022191938 -0.0073383967 -0.004574531 0.002572482 -0.054644626 0.029185621 -0.043369226
-0.032801785 -0.042919055 0.06113884 -0.052676868 0.05644964 -0.004057717 0.009195339 0.05594684
0.025458166 0.059176527 0.047468834 -0.06596432 0.02544757 0.015178079 0.023129642 0.009083738
0.03564456 -0.028355407 0.011298829 0.05939337 0.048815116 0.01728243 -0.024620052 0.012554803
-0.017715305 0.031416304 -0.043184247 0.011481665 -0.026694858 0.051291734 0.08453753 -0.008332242
0.040019717 0.04383472 0.06401196 -0.04172314 0.016750658 0.028257426 -0.0010022986 0.031286273
0.01327098 -0.03648683 0.005276769 0.007608879 0.05794051 0.07445774 0.061755873 0.05267406
0.001355525 -0.013911094 -0.0219037 -0.039290447 -0.06455195 -0.03002687 -0.059401765 -0.034953274
-0.12786798 0.02497363 -0.03781474 0.028983716 0.06873559 -0.02009855 -0.011814683 0.05101719
-0.029628515 -0.03216079 0.05586868 -0.03768758 0.0073813014 0.05580445 0.023987722 0.035550844
-0.033840194 0.008777693 0.011947999 0.01246888 0.042433303 0.059595305 -0.038376622 0.021268839
-0.021102253 -0.036003686 0.0016045334 -0.018504292 0.060382556 -0.013195531 -0.046889745 0.046182856
-0.025153592 -0.017828465 -0.01402524 -0.060216274 -0.04877591 -0.0027972925 0.0596175 0.065193415
0.03456443 -0.026929902 -0.03605544 0.057051588 0.020635739 -0.0040669455 0.0011504926 -0.01888411
-0.010604424 0.06602478 -0.01630809 0.006112503 -0.07137345 -0.04050591 0.00013878885 -0.03237676
0.012180684 0.036717728 -0.07014856 0.037030388 -0.0488118 -0.023716586 0.042159684 0.06073265
0.0010710555 -0.036182545 -0.061679248 -0.0109337345 -0.034711514 -0.027973613 0.023060892 -0.060148604
0.071042106 0.103923365 -0.1262228 -0.043951403 0.012938831 -0.016168803 -5.7394577e-36 -0.04737946
0.059783414 -0.03911716 0.04315774 0.009941382 0.015245889 0.039338592 -0.0159586 -0.04939595
-0.011272975 0.06352408 -0.062315144 0.0052125417 -0.071590625 0.03708712 0.017897332 0.0079753995
0.020403454 0.002469121 0.045559593 -0.06405393 -0.020513201 0.021944948 0.06307694 0.040620375
-0.04790252 0.043194853 -0.029783241 -0.012192114 -0.06446178 -0.0044306936 0.04127058 0.0043866523
-0.044939034 0.01707444 -0.03191192 0.051948875 -0.0640264 -0.024939844 -0.083095945 -0.044512816
0.0059524504 0.06859437 0.02818896 0.07999412 0.023108466 0.050340325 0.06863601 0.0783484
-0.023650976 0.07121432 0.04190544 -0.037342053 -0.009635132 -0.03327292 0.018343337 -0.06997912
00000000: 6db5 c5bc f82b a8bd 2fa6 80bd 3b63 f204
00000010: c6e5 e9bb 67c3 d43b a4ce dabc 0dc7 423d
00000020: d4c9 5f3c 0a4a 36bd b6ef 38bc f11f b23b
00000030: 1da3 593c e5b2 32bd cac1 c33c 6800 60bd
00000040: 7d3a 9cbd 35fc 18bd 84a7 743d fa0b 863d
00000050: ee40 803d 3d1d 643c 240a 343d 7199 43bc
00000060: 6072 58bd e114 953c c1fe 04bd 244e 55bd
00000070: 6c70 d5bc 0f21 443b 7a7b 463c cb8d 1fbd
00000080: 381d 35bd 3f53 2f3b 4235 29bd f19f 44bd
00000090: aeb9 0a3d 4281 43bc e2fc 7d3d f0a2 293d
000000a0: b57d 0d3b 2a5b a43c 7f02 f63c 9e64 a1bc
000000b0: 1962 d2bc f65a a3bc 50d7 fd3c c00c 873d
000000c0: 7e2d ddba 2da3 43ba 8ce7 8f39 89c6 ca3b
000000d0: 0b8b fb3c ce9b 743d 447b 893d cfcd 0d3d
000000e0: f50b 1dbd decb b5bc ef76 f0bb f3e5 95bb
000000f0: 1697 283b 0bd3 5fbd af16 ef3c eea3 31bd
00000100: 2a5b 06bd e4cb 2fbd b86c 7a3d b3c3 57bd
00000110: bd37 673d 99f6 84bb 0ca8 163c 8428 653d
00000120: a58d d03c 1663 723d ae6e 423d 4d18 87bd
00000130: 6c77 d03c 7aad 783c 607a bd3c f5d3 143c
00000140: 0800 123d 9949 e8bc b91e 393c 7646 733d
00000150: 5cf2 473d e293 8d3c feaf c9bc a9b2 4d3c
00000160: b01f 91bc 62ae 003d f7e1 30bd 981d 3c3c
00000170: 2daf dabc 4817 523d 0322 ad3d f583 08bc
00000180: b7eb 233d 098c 333d b418 833d e2e5 2abd
00000190: ad38 893c 1e7c e73c 8f5f 83ba 0926 003d
000001a0: 866e 593c 3773 15bd bfe8 ac3b e753 f93b
000001b0: 0753 6d3d 4d7d 983d baf3 7c3d c1c0 573d
000001c0: dfab b13a 5beb 63bc 636f b3bc 05ef 20bd
000001d0: d033 84bd e9fa f5bc 444f 73bd 2a2b 0fbd
000001e0: d3ef 02be 8095 cc3c a1e3 1abd 426f ed3c
000001f0: 3fc5 8c3d b7a5 a4bc 5f92 41bc 67f7 503d
00000200: 80b7 f2bc 08bb 03bd 8fd6 643d 4b5e 1abd
00000210: d8de f13b 3593 643d e681 c43c c39d 113d
00000220: 049c 0abd 50d0 0f3c 8ac1 433c 464a 4c3c
00000230: 8bce 2d3d 351a 743d ce30 1dbd fd3b ae3c
00000240: a2de acbc 9a78 13bd 354f d23a 5096 97bc
00000250: b353 773d 1232 58bc 760f 40bd 3c2a 3d3d
00000260: e80e cebc 000d 92bc 1fca 65bc 57a5 76bd
00000270: 40c9 47bd c852 37bb 7b31 743d 2084 853d
00000280: 6f93 0d3d 199c dcbc deae 13bd edae 693d
00000290: 480c a93c 0344 85bb 20cc 963a d9b2 9abc
000002a0: 2ebe 2dbc 0038 873d 8b98 85bc 644b c83b
000002b0: 3e2c 92bd 86e9 25bd d987 1139 7e9d 04bd
000002c0: 7e91 473c 5465 163d 0caa 8fbd 2dad 173d
000002d0: e2ee 47bd 4949 c2bc a2af 2c3d cdc2 783d
000002e0: a962 8c3a 2634 14bd 61a3 7cbd 6823 33bc
000002f0: a92d 0ebd eb28 e5bc 32ea bc3c 625e 76bd
00000300: 867e 913d c6d5 d43d 8d40 01be 6306 34bd
00000310: 64fd 533c 7074 84bc 2921 f484 f710 42bd
00000320: 74df 743d 5139 20bd 2cc6 303d 2ee1 223c
00000330: e5c9 793c 8121 213d 9cbb 82bc 6853 4abd
00000340: 49b2 38bc ea18 823d 2a3e 7fbd f8cd aa3b
00000350: 1b9e 92bd aae8 173d 6d9d 923c 40ab 023c
00000360: 2525 a73c fad0 213b b29c 3a3d b52e 83bd
00000370: 4d0b a8bc e4c5 b33c 7c2e 813d 8d61 263d
00000380: 6f35 44bd 16ed 303d fcfb f3bc 6fc1 47bc
00000390: 8a04 84bd 5a2f 91bb 570b 293d e8bd 8f3b
000003a0: fe11 38bd b2df 8b3c 13b6 02bd 58c8 543d
000003b0: 4620 83bd a54e ccbc 352e aabd 1253 36bd
000003c0: c60c c33b 347b 8c3d 89ec e63c f5d3 a33d
000003d0: f74d bd3c a831 4e3d 0991 8c3d 2075 a03d
000003e0: b1bf c1bc d0d8 913d 0aa5 2b3d fbf3 18bd
000003f0: acdc 1dbc 2f49 08bd c444 963c 3651 8fbd

bias f4 [256]
0.05064955 -0.046310138 -0.05944355 0.039697967 -0.035297 0.009548228 -0.0027471408 0.030452337
-0.025448242 0.05140498 0.07834035 -0.047786415 0.08250681 -0.045357563 -0.02792652 0.03379347
-0.0049985964 -0.047689002 -0.015003721 0.073311955 -0.03461806 -0.010943242 -0.0017539887 0.046106007
0.08050469 -0.016377654 0.016518587 0.018524177 -0.030686038 0.021632643 0.035492048 0.07000385
0.06278923 -0.03241982 0.0070788516 -0.006024161 -0.039007913 0.051328916 0.042717036 0.0069749625
0.05997768 -0.00073597074 0.061502304 0.058948185 -0.056094933 0.006466869 0.06200811 -0.008057447
-0.00077658385 0.050286308 0.019528601 -0.027833361 0.07131672 0.058755297 0.03404324 -0.035636745
-0.03011979 0.010228099 0.030828929 0.08448315 0.03354746 0.006835769 0.04072929 -0.046979453
0.018996222 0.039213654 0.006681033 0.029474985 -0.023299579 -0.0560801 -0.043432884 0.0098552145
-0.05378433 0.06883515 0.04401963 0.09861714 0.0011413518 0.06741923 -0.050935965 0.030516297
0.04094697 0.022139113 -0.014786988 -0.026338926 0.003199786 0.07952379 0.033589672 -0.009966837
-0.0028807297 0.007819039 0.04380299 0.07682378 0.067201294 0.08448487 -0.021825247 0.022363052
0.063948706 0.06852112 0.02181715 0.06969195 -0.029966207 -0.044212848 0.026969 0.03924959
0.058752287 -0.042971127 0.06990159 -0.039851904 0.06958408 0.006880501 0.09348121 0.049153112
0.06490432 0.0023911833 -0.06003669 -0.06361379 -0.05747072 0.004416499 -0.008140792 0.035585318
-0.055674776 -0.039380234 0.017554043 -0.016914882 -0.0065840804 -0.025462436 -0.058692362 -0.039441016
-0.017537186 0.0021394962 -0.025903275 -0.051744696 -0.0024578876 0.08544279 0.06324629 0.015282596
-0.016942177 0.008895946 -0.039353892 -0.02881739 0.01616795 0.030796766 -0.019742562 0.017388782
0.019957306 0.004460902 0.03054946 0.056016624 -0.027349934 0.007417186 -0.039780643 -0.026659153
-0.058100626 -0.03500797 -0.02907513 0.009178081 0.020906698 0.023569811 0.06176098 0.027720908
0.008450644 0.0352639 -0.013485021 0.0048321825 0.02593656 0.07086422 0.0682764 -0.056854833
0.0138988355 0.08078518 0.04822716 -0.06477182 0.06695605 -0.035830703 -0.033155076 -0.04865361
0.09788933 0.08901562 -0.0057325326 0.030730361 0.030245759 -0.036891393 -0.027137069 0.0025310798
0.006505856 0.022065036 0.05928677 -0.040550023 -0.017309682 0.04791319 0.006804898 0.0012634307
-0.02983152 0.06776977 0.038061284 0.01799619 0.017653823 0.09208723 0.023085332 0.0033257774
-0.023079086 0.051302515 -0.034148835 0.04962895 -0.0018635531 0.04064093 0.053988863 0.08129279
0.014708775 -0.018852236 0.016930006 -0.012237586 0.04975304 0.017627304 0.03050601 0.09498915
-0.043718647 0.06628627 0.054083362 -0.017904617 0.08144558 -0.0068879975 -0.039768286 0.005155739
0.0026497464 -0.0459787 0.033969793 0.06369389 -0.04226228 0.06299785 0.0385504 0.0837032
0.08710191 0.017769335 0.018845921 -0.055497736 -0.019206624 0.031543165 0.046320617 0.07149785
0.045584723 0.013689784 0.034639545 0.045799892 0.06888234 0.060372934 -0.018228533 -0.008857229
0.0045842277 0.010574464 -0.05920982 0.065632604 0.051408056 0.07425415 0.04376356 0.08207494
00000000: e775 4f3d b3af 3dbd 147b 73bd 569a 223d
00000010: 9693 10bd 2c70 1c3c 6009 34bb 2e77 f93c
00000020: d578 d0bc 078e 523d e870 a03d b0bb 43bd
00000030: 55f9 a83d dac8 39bd 28c6 e4bc 066b 0a3d
00000040: 44cb a3bb 8b55 43bd 2bd2 75bc 9424 963d
00000050: abcb 0dbd 494b 33bc 18e6 e5ba a7d9 3c3d
00000060: a5df a43d 6e2a 86bc fd51 873c 04c0 973c
00000070: 4961 fbbc f136 b13c 1c60 113d 2e5e 8f3d
00000080: a497 803d a5ca 04bd b6f5 e73b 5366 c5bb
00000090: c3c6 1fbd 453e 523d 0ff8 2e3d 3a8e e43b
000000a0: 28ab 753d 29ee 40ba d7e9 7b3d a773 713d
000000b0: cdc3 65bd 07e8 d33b 37fc 7d3d 6203 04bc
000000c0: a993 4bba 04f9 4d3d 72fa 9f3c ca02 e4bc
000000d0: 800e 923d 65a9 703d ed70 0b3d d6f7 11bd
000000e0: c7bd f6bc c293 273c f38c fc3c 8005 ad3d
000000f0: 1069 093d 96fe df3b c2d3 263d 876d 40bd
00000100: f79d 9b3c 7f9e 203d 91ec da3b 8675 f13c
00000110: c2de bebc 3fb4 65bd aee6 31bd c477 213c
00000120: f54c 5cbd 71f9 8c3d ed4d 343d c8f7 c93d
00000130: 6999 953a 1813 8a3d 3ba2 50bd 50fd f93c
00000140: 03b8 273d 165d b53c 1f45 72bc bbc4 d7bc
00000150: 80b3 513b 5edd a23d 5395 093d f24b 23bc
00000160: a0ca 3cbb 6d1b 003c c46a 333d c955 9d3d
00000170: d5a0 893d 6706 ad3d dcca b2bc b832 b73c
00000180: 8af7 823d cd54 8c3d e1b9 b23c a7ba 8e3d
00000190: b17b f5bc 8818 35bd 18ee dc3c 2ec4 203d
000001a0: 3da6 703d 7e02 30bd 9128 8f3d c03b 23bd
000001b0: 1982 8e3d d375 e13b 1473 bf3d c654 493d
000001c0: 8eec 843d 66b5 1c3b 08e9 75bd f247 82bd
000001d0: 6b66 6bbd 47b8 903b f560 05bc e9c1 113d
000001e0: 3c0b 64bd 2b4d 21bd 7fcd 8f3c 1491 8abc
000001f0: 45bf d7bb 9996 d0bc 6767 70bd e78c 21bd
00000200: 25aa 8fbc ca36 0c3b 1b33 d4bc 3ff2 53bd
00000210: 8314 21bb a1fc ae3d 4587 813d db63 7a3c
00000220: 52ca 8abc 4dc0 113c 8c31 21bd 7212 ecbc
00000230: a672 843c 8049 fc3c 27bb a1bc eb72 8e3c
00000240: 817d a33c c22c 923b dc42 fa3c b071 653d
00000250: f80c e0bc de0b f33b 07f1 22bd 4c64 dabc
00000260: ecfa 6dbd 8464 0fbd f82e eebc a95f 163c
00000270: 8644 ab3c 7a15 c13c 15f9 7c3d f516 e33c
00000280: 9274 0a3c e170 103d 47f0 5cbc 4957 9e3b
00000290: e978 d43c 4321 913d 7fd4 8b3d 9de0 68bd
000002a0: f1b7 633c b372 a53d d889 453d 17a7 84bd
000002b0: 4120 893d 37c3 12bd 9ecd 07bd 0249 47bd
000002c0: 337a c83d d24d b63d f8d7 bbbb 3dbe fb3c
000002d0: f4c5 f73c 6e1b 17bd 8f4e debc 79e0 253b
000002e0: 132f d53b bcc1 b43c afd6 723d c817 26bd
000002f0: 09cd 8dbc 9f40 443d 9ffb de3b b399 a53a
00000300: 3b61 f4bc e1ca 8a3d 26e6 1b3d bf6c 933c
00000310: c09e 903c 3b98 bc3d 731d bd3c 49f5 593b
00000320: 5a10 bdbc 9622 523d a6df 0bbd ba47 4b3d
00000330: 7742 f4ba 1b77 263d 6d23 5d3d d67c a63d
00000340: 13fd 703c 0170 9abc ccb0 8a3c 2880 48bc
00000350: d8c9 4b3d 2367 903c bde7 f93c ac89 c23d
00000360: 5312 33bd 19c1 873d 8486 5d3d b4ac 92bc
00000370: f1cc a63d b6b4 e1bb 12e4 22bd 79f1 a83b
00000380: 5ea7 2d3b 2954 3cbd e923 0b3d f171 823d
00000390: 361b 2dbd 0405 813d 06e7 1d3d 956c ab3d
000003a0: 7c62 b23d ff90 913c c362 9a3c 9851 63bd
000003b0: 3657 9dbc 6833 013d b0ba 3d3d 776d 923d
000003c0: 0cb7 3a3d 1e4b 603c 32e2 0d3d ab98 3b3d
000003d0: 2f12 8d3d 9c49 773d 0154 95bc e91d 11bc
000003e0: 4a37 963b 8440 2d3c ff85 72bd 636a 863d
000003f0: 4191 523d 8f12 983d 6b41 333d e816 a83d

weight f4 [256, 256]
0.05019622 0.0038832277 0.009204786 0.04686601 0.0077411802 0.022008684 0.0267774 0.017474983
-0.026366869 0.050201397 0.010238738 -0.032373555 0.028178005 0.0056135217 0.03638329 0.031696003
-0.046932057 -0.002077035 -0.0077383234 -0.02617003 -0.03581708 0.05283498 0.055348843 -0.02728942
0.035532713 0.033946753 -0.056605183 0.011344984 0.009774024 0.025932077 0.035325088 -0.02369103
-0.029924627 0.034811687 0.10397019 0.010789333 0.066201724 0.01580262 -0.0310719 -0.0070443936
-0.014445566 0.019519163 0.029898573 -0.030144164 0.0061923456 0.013766704 0.05173204 -0.018718507
0.010817871 0.025304135 -0.0088809505 -0.014487541 0.03508603 0.012145448 -0.020324582 0.054723766
0.07190407 0.029751413 -0.020018065 -0.007906399 0.034732737 0.030951133 0.0054158852 0.00794143
-0.0022109568 -0.014016427 -0.002515676 0.015786279 -0.010658592 0.057142463 0.043704 -0.029097427
-0.05612152 0.039458178 0.02747984 -0.041193135 0.03997279 -0.015006339 0.011644441 0.006737779
0.102976464 0.06470008 -0.04079671 -0.050235193 0.054189622 0.053801056 0.017256886 -0.04031793
0.045248568 0.0007902574 0.08338159 -0.031688824 0.02201695 0.0435504 -0.020852638 -0.014814757
0.0482133 0.012889146 7.893972e-05 0.068871416 -0.0045694117 -0.009081483 -0.05007346 0.04408434
-0.04013765 0.025641138 -0.025031677 -0.044081323 0.023746114 0.06476281 -0.043537445 0.06264633
-0.04455085 -0.04378084 0.0024777194 -0.062005885 -0.038250852 0.014681869 -0.054181114 -0.012759977
-0.020424537 -0.058367543 -0.018400278 0.040154763 -0.00023072374 0.021906216 0.040316146 -0.05842619
0.01582278 -0.07958763 0.079446666 -0.0065336097 0.00016125833 -0.002776486 0.06531086 0.019563302
-0.0025083176 0.06369426 -0.018250942 0.02216769 0.0010611201 -0.0036101956 0.008215472 0.011203116
0.042186566 0.046006832 0.032315757 -0.008533665 0.034871195 0.042825364 -0.0029762841 -0.08267478
0.02308784 0.02211109 -0.05166941 -0.008312513 -0.017027738 -0.048235092 0.061660253 0.02516003
-0.009945232 0.066048086 0.011027006 0.03029435 -0.019998737 -0.03539587 -0.014743533 -0.0028094426
-0.007606577 0.026889494 0.007436288 0.009762489 0.043806143 -0.0103034815 0.028138312 -0.036419183
-0.026737938 0.020389011 0.020216981 0.023142446 -0.04548953 0.09541024 -0.058788188 -0.013044869
0.043166343 -0.005406745 -0.018160518 -0.011057632 0.0039322395 0.038220298 -0.024846803 -0.058228113
-0.031958587 0.029383186 -0.012171264 -0.0162458 -0.065178506 0.00075871864 -0.04856936 0.0072541614
0.0016517461 -0.0047552045 -0.019975517 -0.0723159 0.01786034 0.028000101 0.010136791 0.0041128006
0.022787845 0.007189582 -0.05894355 0.064722486 0.07474633 -0.03783931 0.014002944 -0.03414312
0.0264634 0.016445922 -0.024371231 0.012050098 0.07095517 0.026077855 -0.045691505 0.006764344
-0.039046716 -0.0042483057 -0.04734614 -0.016845815 -0.0009373806 0.013254793 -0.0056082197 0.025760308
0.07444199 0.05351629 0.08346335 0.061578754 -0.0041682404 0.0431355 0.090540744 -0.050450183
-0.040336944 0.056800064 0.03738771 0.036296457 0.027954232 -0.03135479 0.060072653 -0.0006983843
0.02027659 0.044486485 0.043306187 0.012427626 -0.0025372608 -0.029753586 0.048034213 0.061534803
00000000: 8d9a 4d3d c07d 7e3b accf 163c 93f6 3f3d
00000010: baa9 fd3b 8e4b b43c 475c db3c b227 8f3c
00000020: 55ff d7bc fb9f 4d3d 61c0 273c 229a 04bd
00000030: 8fd5 e63c a2f1 b73b a506 153d abd3 013d
00000040: d43b 40bd dd1e 08bb c391 fdbb 8862 d6bc
00000050: eeb4 12bd 7e69 583d 78b5 623d 108e dfbc
00000060: c08a 113d c00b 0b3d d6da 67bd 50e0 393c
00000070: 3a23 203c 826f d43c 0ab1 103d b113 c2bc
00000080: 7e24 f5bc b396 0e3d 53ee d43d bec5 303c
00000090: c594 873d 7f74 813c 7f8a febc a8d4 e6bb
000000a0: 18ad 6cbc a7e6 9f3c daed f43c e5f0 f6bc
000000b0: 29e9 ca3b be8d 613c fae4 533d 8e57 99bc
000000c0: 713d 313c 9e4a cf3c 6881 11bc 275d 6dbc
000000d0: 5eb6 0f3d b3fd 463c bd7f a6bc 0726 603d
000000e0: 7142 933d 3cb9 f33c edfc a3bc d789 01bc
000000f0: ea43 0e3d 3b8d fd3c bd77 b13b c61c 023c
00000100: b3e5 10bb 28a5 65bc 0ade 24bb 3a52 813c
00000110: 60a1 2ebc 370e 6a3d f702 333d ba5d eebc
00000120: aedf 65bd e69e 213d 671d e13c 22ba 28bd
00000130: 82ba 233d 26dd 75bc 53c8 3e3c 96c8 dc3b
00000140: 53e5 d23d 7a81 843d 731a 27bd 6bc3 4dbd
00000150: f0f5 5d3d 7f5e 5c3d 505e 8d3c 6a24 25bd
00000160: 9056 393d 4729 4f3a f8c3 aa3d 24cc 01bd
00000170: e45c b43c e761 323d 27d3 aabc 98b9 72bc
00000180: 4f7b 453d ff2c 533c 718c a538 750c 8d3d
00000190: 01bb 95bb 80ca 14bc d419 4dbd c891 343d
000001a0: 6067 24bd 5d0d d23c 3b0f cdbc 9e8e 34bd
000001b0: 3687 c23c 5da2 843d 5254 32bd b84c 803d
000001c0: f47a 36bd 8a53 33bd 3c61 223b e2f9 7dbd
000001d0: edac 1cbd 398c 703c 04ed 5dbd 390f 51bc
000001e0: 5c51 a7bc ce12 6fbd 2ebc 96bc 5279 243d
000001f0: 6fee 71b9 aa74 b33c 8b22 253d 4d50 6fbd
00000200: c69e 813c d7fe a2bd efb4 a23d e417 d6bb
00000210: 7417 2939 b5f5 35bb b3c1 853d 3843 a03c
00000220: 9662 24bb 2372 823d 0083 95bc 0499 b53c
00000230: 4815 8b3a 0899 6cbb 309a 063c 468d 373c
00000240: d2cb 2c3d a971 3c3d 875d 043d c9d0 0bbc
00000250: 19d5 0e3d a669 2f3d c30d 43bb 6551 a9bd
00000260: b622 bd3c 5122 b53c 4ea3 53bd 3531 08bc
00000270: c17d 8bbc 2992 45bd 768f 7c3d 681c ce3c
00000280: 54f1 22bc 3844 873d 9eaa 343c db2b f83c
00000290: 64d4 a3bc 43fb 10bd dc8e 71bc a01e 38bb
000002a0: 9840 f9bb 5b47 dc3c 1bac f33b d9f2 1f3c
000002b0: 126e 333d efcf 28bc 5182 e63c 482c 15bd
000002c0: 8509 dbbc db06 a73c 159e a53c 3a95 bd3c
000002d0: 3b53 3abd 7266 c33d e2cb 70bd 25ba 55bc
000002e0: 31cf 303d 102b b1bb 5ec5 94bc 122b 35bc
000002f0: 04da 803b e38c 1c3d 868b cbbc 9a80 6ebd
00000300: 02e7 02bd 02b5 f03c fb69 47bc e915 85bc
00000310: 4f7c 85bd bfe4 463a aaf0 46bd 51b4 ed3b
00000320: 677f d83a 8cd1 9bbb b2a3 a3bc 5c1a 94bd
00000330: d94f 923c 7860 e53c c814 263c acc4 863b
00000340: 93ad ba3c 9696 eb3b cb6e 71bd 398d 843d
00000350: 9b14 993d 64fd 1abd 9b6c 653c a8d9 0bbd
00000360: c6c9 d83c 99b9 863c 2da6 c7bc c66d 453c
00000370: f250 913d 3aa1 d53c 0427 3bbd 6ea7 dd3b
00000380: 73ef 1fbd 5f35 8bbb 07ee 41bd 3c00 8abc
00000390: 8cba 75ba a22a 593c 28c5 b7bb 4807 d33c
000003a0: 0b75 983d e633 5b3d d5ee aa3d 013a 7c3d
000003b0: bc95 88bb daae 303d 6d6d b93d daa4 4ebd
000003c0: 5a38 25bd 2fa7 683d db23 193d 98ab 143d
000003d0: 4600 e53c e16d 00bd be0e 763d c713 37ba
000003e0: 171b a63c 7637 363d d461 313d 3e9d 4b3c
000003f0: 2c48 26bb cbbd f3bc 86bf 443d eb0b 7c3d

bias f4 [256]
-0.016414417 -0.034188967 0.062791616 0.06580816 -0.06367683 -0.0051422324 0.025875501 0.070257135
0.047056306 0.011998341 -0.025637845 -0.007023753 0.056802668 -0.0023075566 0.0081758825 -0.027286964
-0.042104676 0.008445661 0.074216016 0.016515816 0.0119687915 -0.004952101 0.02641437 0.018205805
0.032328486 -0.007073467 -0.0014346526 0.052687567 -0.041269407 -0.065329455 0.059038773 0.018784901
-0.044837903 0.016256962 0.005576441 -0.0028222397 -0.025905618 0.0673523 0.0376714 -0.018935375
0.058153305 0.0034589034 -0.0009487859 0.053784057 0.051318254 0.042003855 0.024639444 0.038491633
-0.050850708 0.034303524 0.04368359 -0.054492418 0.053570457 0.0026418392 0.023888148 -0.03311334
0.011174868 -0.04801418 -0.028866692 0.020187806 0.007490037 0.089018784 0.07504659 0.067308374
0.015708568 0.02191031 0.0448763 -0.057946585 0.053046122 0.077480115 0.06393678 0.055028014
0.019818746 0.07020895 0.042702753 -0.05597049 0.073201425 -0.0024549672 0.03707393 0.026897095
0.020812145 0.060014524 0.036672857 -0.00633695 -0.056612283 -0.009611795 0.044644732 -0.025963612
-0.028317254 -0.021618765 0.0148192905 -0.040104937 0.032501962 -0.026837535 -0.07480082 -0.039719086
0.012361992 -0.012223214 0.07697926 0.06918394 0.030608544 0.014225049 0.00396337 0.03148055
-0.0052725594 -0.009639026 0.007855433 0.01596743 0.052928388 -0.033616133 -0.018896166 -0.05716779
-0.0225263 0.026031425 0.027333915 -0.021853762 0.03353235 0.052018274 0.0029707935 0.037036914
-0.02771632 -0.008554782 0.05666869 0.005279364 -5.309084e-05 0.043428592 0.015818058 0.034866035
0.01823792 0.033896536 -0.033125658 0.07538382 0.0081864055 -0.004460477 -0.033096895 -0.04151288
-0.03549261 0.049154848 -0.048229888 -0.010090218 -0.039279718 -0.030926308 0.009090013 -0.01684335
0.0282876 -0.0044643483 0.06680055 -0.0045527285 -0.037645474 -0.05607294 -0.0018461561 0.06187956
0.022414273 -0.0037102085 -0.011214253 0.018233841 0.031051567 0.069110125 0.00097493734 -0.03411994
-0.05411073 0.071618386 -0.03247243 0.068000786 -0.008467 -0.036568977 0.048484292 0.0009446665
0.060807176 0.013021242 -0.02798016 0.014935797 -0.02977707 -0.038187858 -0.008864602 -0.04852865
-0.021989735 0.0051348316 0.03870413 0.027456496 0.026067954 0.05500669 -0.0007568113 -0.0048965164
-0.03993481 -0.05477731 -0.022015223 0.00021287455 0.02513722 0.047648728 0.0030640112 0.02839745
0.04581524 -0.028486822 0.051541813 0.016386151 0.009984402 0.032037634 0.009072561 -0.034153566
0.024543157 -0.029379245 0.0035499744 -0.023170704 0.032155756 0.031578597 0.011830881 0.06418792
-0.025460346 -0.034956817 0.05889208 0.01763996 0.011210214 0.02641927 0.046483822 0.053631593
0.023435444 0.03645941 0.035558954 0.06377913 0.0012844802 -0.002780277 0.021767104 0.0165877
0.050986756 0.01684239 0.05233071 0.033437926 0.027785953 0.03644791 0.00087849575 0.01790207
0.010043687 -0.038097385 0.032335203 0.059808794 -0.001262352 -0.013877767 0.007928532 0.0061783963
-0.019299287 -0.032716714 0.026672231 0.0627623 0.016452888 0.01965753 0.061766617 -0.008316218
0.02654183 -0.048288137 0.06405583 -0.014367096 0.05010965 0.03143914 0.008269851 0.083070844
00000000: 8777 86bc bb09 0cbd e498 803d 6ec6 863d
00000010: ff68 82bd 2c80 a8bb dcf8 d33c f9e2 8f3d
00000020: 1dbe 403d b194 443c 7506 d2bc 8327 e6bb
00000030: eaa9 683d 603a 17bb 23f4 053c e988 dfbc
00000040: f475 2cbd ab5f 0a3c 91fe 973d 2d4c 873c
00000050: c018 443c 3c45 a2bb f362 d83c 5724 953c
00000060: e06a 043d 8bc8 e7bb f40a bcba ebce 573d
00000070: 1c0a 29bd 73cb 85bd a4d2 713d cbe2 993c
00000080: f3a7 37bd 522d 853c 94ba b63b 53f5 38bb
00000090: 0538 d4bc 01f0 893d 534d 1a3d 5c1e 9bbc
000000a0: 2932 6e3d c5ae 623b f2b7 78ba ac4c 5c3d
000000b0: 1733 523d 3c0c 2c3d a9d8 c93c 67a9 1d3d
000000c0: d548 50bd da81 0c3d 90ed 323d 7133 5fbd
000000d0: b26c 5b3d b522 2d3b 14b1 c33c dba1 07bd
000000e0: cb16 373c 84aa 44bd d779 ecbc e660 a53c
000000f0: fc6e f53b 7b4f b63d 07b2 993d f9d8 893d
00000100: 41af 803c 407d b33c 36d0 373d 6659 6dbd
00000110: e446 593d e5ad 9e3d 49f1 823d 0e65 613d
00000120: ec5a a23c b6c9 8f3d 15e9 2e3d 5041 65bd
00000130: a1ea 953d 84e3 20bb d5da 173d 4c57 dc3c
00000140: 3b7e aa3c cad1 753d 4736 163d 31a6 cfbb
00000150: 48e2 67bd ca7a 1dbc 65dd 363d a4b1 d4bc
00000160: 96f9 e7bc d619 b1bc 9ccc 723c 1345 24bd
00000170: c720 053d 64da dbbc 2c31 99bd 7bb0 22bd
00000180: f489 4a3c e043 48bc 4da7 9d3d 4fb0 8d3d
00000190: c5be fa3c 2e10 693c 28df 813b c0f1 003d
000001a0: 6fc5 acbb 01ed 1dbc 13b4 003c 21ce 823c
000001b0: 70cb 583d 12b1 09bd 22cc 9abc c628 6abd
000001c0: 1389 b8bc db3f d53c 60eb df3c a906 b3bc
000001d0: 3859 093d 1d11 553d a5b1 423b 05b4 173d
000001e0: 560d e3bc 5b29 0cbc 6e1d 683d 84fe ac3b
000001f0: dbad 5eb8 2ee2 313d df94 813c b0cf 0e3d
00000200: b167 953c 18d7 0a3d c5ae 07bd d562 9a3d
00000210: 4620 063c 3129 92bb 9c90 07bd 6909 2abd
00000220: b360 11bd 9856 493d b48c 45bd 7151 25bc
00000230: c5e3 20bd 2b59 fdbc 47ee 143c 11fb 89bc
00000240: 66bb e73c ab49 92bb bace 883d 0e2f 95bb
00000250: 2432 1abd bdac 65bd b8fa f1ba 6c75 7d3d
00000260: 239e b73c f826 73bb fcbb 37bc 235f 953c
00000270: db5f fe3c 9c89 8d3d f092 7f3a 5ac1 0bbd
00000280: 36a3 5dbd a9ac 923d d001 05bd ff43 8b3d
00000290: 2cb9 0abc 5ac9 15bd 7797 463d 7fa3 773a
000002a0: f210 793d 0c57 553c a636 e5bc 46b5 743c
000002b0: 0bef f3bc df6a 1cbd d63c 11bc fac5 46bd
000002c0: d123 b4bc 1742 a83b 3988 1e3d 72ec e03c
000002d0: 768c d53c b24e 613d bf64 46ba f572 a0bb
000002e0: af92 23bd 2c5e 60bd 4559 b4bc 1437 5f39
000002f0: 92ec cd3c 502b 433d 94cd 483b c5a1 e83c
00000300: c3a8 3b3d 325d e9bc 821d 533d 403c 863c
00000310: 9e95 233c e539 033d 14a5 143c 9ce4 0bbd
00000320: bb0e c93c beac f0bc b0a6 683b 7dd0 bdbc
00000330: c1b5 033d 8f58 013d 50d6 413c f574 833d
00000340: 3792 d0bc e12e 0fbd d238 713d ad81 903c
00000350: 0cab 373c 3a6d d83c d265 3e3d cdac 5b3d
00000360: b0fb bf3c 7656 153d 44a6 113d a29e 823d
00000370: 015c a83a 4f35 36bb ed50 b23c eee2 873c
00000380: 7dd7 503d 0df9 893c ba58 563d 35f6 083d
00000390: 5e9f e33c 674a 153d da4a 663a 5da7 923c
000003a0: 478e 243c 010c 1cbd eb71 043d 11fa 743d
000003b0: 8175 a5ba 935f 63bc ace6 013c 2574 ca3b
000003c0: 8a19 9ebc f601 06bd b97f da3c 8589 803d
000003d0: 35c8 863c d408 a13c fefe 7c3d bf40 08bc
000003e0: 406e d93c c8c9 45bd b42f 833d f863 6bbc
000003f0: c73f 4d3d 54c6 003d 457e 073c 0c21 aa3d

weight f4 [128, 256]
0.08296083 0.022754107 -0.02397731 0.010007566 0.07597317 0.06765059 0.012323983 0.004864955
-0.036553744 -0.023262208 -0.033792026 0.00072394393 0.032116514 0.043410998 -0.017380368 -0.041886065
0.042192545 0.06535782 -0.006737422 -0.019252216 -0.00805868 0.01568066 0.05129275 -0.023192743
0.0086698085 0.024820955 0.011625397 0.07351566 0.0053732153 0.051441535 0.009375093 0.03771735
0.015196348 0.014465344 -0.036091782 -0.005508861 -0.013479383 -0.026897212 0.047149055 -0.0026431575
-0.042909525 0.04114923 0.00897057 -0.0068235463 0.07522322 0.043435115 0.06910696 0.04396156
0.069187135 -0.00092203694 0.010621769 0.07830192 -0.024254743 0.033520434 0.03174831 -0.009075198
0.03297664 0.045631144 -0.00073667086 0.04416114 0.016021913 -0.015727336 0.014716698 0.07418824
0.021632368 0.06778866 -0.01423858 0.025549874 0.03264267 0.00457227 0.033142753 0.043510795
0.00063837145 0.015515736 0.050484166 0.006735435 -0.006458864 0.042101707 0.031800736 -0.00083854276
0.029669804 0.06809667 -0.0143832015 -0.054207552 -0.0038779776 0.020497458 0.055017762 0.06351899
0.05554978 0.019363714 -0.041393932 0.022129124 0.036753546 0.06431324 0.065807715 0.006302473
0.07079166 0.050601542 -0.0179486 -0.045395996 0.035575137 0.03902946 0.036408175 -0.019753492
0.06440872 0.024538899 -0.058433227 -0.017801162 0.013800135 0.047992647 -0.004738798 0.0027285872
0.033422012 0.081681445 0.05964991 0.024115928 0.00050668186 0.016488096 -0.0123177385 -0.039296567
-0.05949035 0.06949343 0.05523213 0.00026116535 -3.586027e-06 0.05548659 0.009842919 0.07804589
0.012534496 -0.004622906 -0.010790059 -0.042955942 0.019326486 0.077415004 0.0057609645 0.080561526
-0.01819241 0.01062376 0.044371303 -0.024685388 -0.02651109 -0.024282971 0.006808664 0.03916856
0.020139186 -0.049865708 0.063337065 0.03396636 0.05910081 0.005370655 0.04845415 0.017039951
0.0036365218 -0.016243191 -0.033924256 0.004096679 -0.04755317 -0.013491213 0.04495437 -0.005576597
-0.004170757 0.062390517 -0.032967787 -0.0046315645 0.0371311 0.019067753 -0.04923569 -0.014950025
-0.015979277 0.06809133 0.007099789 -0.029920787 -0.006163154 0.016054813 -0.007815376 0.027825855
-0.025796771 0.022062644 0.027891722 0.053927746 -0.031256072 0.0032913035 0.07194991 0.022500133
0.009588333 0.0753079 0.037336323 -0.051959276 0.008197012 -0.058116674 0.024447342 0.0170347
0.0011338164 0.014053332 0.02673742 0.028104993 0.029904919 0.01605437 -0.04111451 -0.053642746
0.08061263 -0.029141331 -0.057847444 0.05717688 -0.003292155 -0.051485617 0.0765046 0.0056130155
0.021343147 -0.04085088 0.032297473 0.06665553 0.009279407 -0.017838603 0.045857914 0.07458173
-0.05832059 0.08323462 0.023871629 -0.032013588 0.0038132968 0.028340466 0.053638667 0.011143862
0.026092695 -0.00026858406 0.07753962 0.0022137598 -0.03864296 -0.016796138 -0.024216304 -0.032261014
-0.073873565 -0.011015319 0.018947637 0.024877304 0.013445073 0.02769456 0.006101011 0.06046516
0.057962947 0.05959294 -0.050061427 0.018289462 0.020607688 0.062172443 -0.004549307 0.09311745
-0.036115717 0.029839588 0.06347259 0.00066320575 -0.065376505 0.05935901 -0.0059224414 0.0096087465
00000000: 5ee7 a93d d266 ba3c 106c c4bc c6f6 233c
00000010: d297 9b3d 648c 8a3d 88ea 493c 336a 9f3b
00000020: 61b9 15bd 6390 bebc 8269 0abd 0ec7 3d3a
00000030: 9b8c 033d bbcf 313d 4661 8ebc b990 2bbd
00000040: 17d2 2c3d 52da 853d 98c5 dcbb d3b6 9dbc
00000050: 8e08 04bc ba74 803c 5918 523d b5fe bdbc
00000060: d00b 0e3c 5155 cb3c 7378 3e3c 618f 963d
00000070: cc11 b03b 5cb4 523d fd99 193c 827d 1a3d
00000080: 1afa 783c 0d00 6d3c fad4 13bd ad83 b4bb
00000090: a1d8 5cbc 8b57 dcbc 5e1f 413d d338 2dbb
000000a0: e6c1 2fbd 188c 283d 4cf9 123c 0e98 dfbb
000000b0: a20e 9a3d 05e9 313d f387 8d3d 0911 343d
000000c0: fcb1 8d3d dab4 71ba ee06 2e3c c25c a03d
000000d0: e2b1 c6bc b94c 093d 840a 023d 24b0 14bc
000000e0: 8312 073d b9e7 3a3d 251d 41ba 50e2 343d
000000f0: 6340 833c 9dd6 80bc 4e1e 713c 01f0 973d
00000100: 5d36 b13c c8d4 8a3d ef48 69bc f84d d13c
00000110: 52b4 053d fbd2 953b b2c0 073d 6038 323d
00000120: 6258 273a b735 7e3c 7cc8 4e3d edb4 dc3b
00000130: e1a4 d3bb d772 2c3d 7d41 023d a7d1 5bba
00000140: 170e f33c 4476 8b3d 85a7 6bbc bd08 5ebd
00000150: ab25 7ebb 49ea a73c 4e5a 613d 3f16 823d
00000160: 2b88 633d a7a0 9e3c af8c 29bd 2348 b53c
00000170: e38a 163d a9b6 833d 32c6 863d fa84 ce3b
00000180: 38fb 903d 9043 4f3d f108 93bc 27f1 39bd
00000190: 3cb7 113d 5bdd 1f3d bd20 153d 13d2 a1bc
000001a0: b8e8 833d cd05 c93c ae57 6fbd bed3 91bc
000001b0: f619 623c f093 443d eb47 9bbb 19d2 323b
000001c0: 85e5 083d 9a48 a73d 7753 743d c48e c53c
000001d0: d8d2 043a 0b12 873c 57d0 49bc 70f5 20bd
000001e0: 27ac 73bd 9252 8e3d 163b 623d 05ed 8839
000001f0: 7aa7 70b6 e845 633d 3244 213c 86d6 9f3d
00000200: 7d5d 4d3c bf7b 97bb cac8 30bc 92f2 2fbd
00000210: 9452 9e3c c28b 9e3d 79c6 bc3b 71fd a43d
00000220: 4008 95bc 470f 2e3c afbe 353d 0339 cabc
00000230: c92d d9bc 15ed c6bc 371b df3b 366f 203d
00000240: effa a43c fc3f 4cbd ddb6 813d 4f20 0b3d
00000250: b113 723d 52fc af3b dc77 463d 5e97 8b3c
00000260: b652 6e3b 7110 85bc 29f4 0abd 6f3d 863b
00000270: 1dc7 42bd 400a 5dbc 1322 383d e3bb b6bb
00000280: d8aa 88bb 338d 7f3d 3b09 07bd 61c4 97bb
00000290: c816 183d fa33 9c3c 5dab 49bd f3f0 74bc
000002a0: f9e6 82bc 7873 8b3d 59a5 e83b 701c f5bc
000002b0: 48f4 c9bb 6285 833c 100c 00bc 0cf3 e33c
000002c0: c053 d3bc b8bc b43c 2e7d e43c 57e3 5c3d
000002d0: 5e06 00bd e9b2 573b 795a 933d 3352 b83c
000002e0: 6218 1d3c 073b 9a3d f9ed 183d 40d3 54bd
000002f0: c34c 063c c00b 6ebd cb45 c83c 5b8c 8b3c
00000300: 919c 943a f23f 663c 6f08 db3c 713c e63c
00000310: 29fb f43c 7484 833c b067 28bd 7fb8 5bbd
00000320: 3c18 a53d cdb9 eebc 71f1 6cbd 4e32 6a3d
00000330: 32c1 57bb 95e2 52bd 72ae 9c3d 63ed b73b
00000340: d3d7 ae3c 4153 27bd 5b4a 043d b282 883d
00000350: a708 183c 4322 92bc 82d5 3b3d 4ebe 983d
00000360: 92e1 6ebd ea76 aa3d 6f8e c33c ae20 03bd
00000370: 81e8 793b 442a e83c 38b4 5b3d bf94 363c
00000380: 59c0 d53c bed0 8cb9 18cd 9e3d ba14 113b
00000390: 1548 1ebd 0e98 89bc 4561 c6bc 2024 04bd
000003a0: 064b 97bd 9979 34bc 1338 9b3c 7dcb cb3c
000003b0: b948 5c3c b4df e23c fdea c73b 51aa 773d
000003c0: 8e6a 6d3d ba17 743d 360d 4dbd c8d3 953c
000003d0: 74d1 a83c 88a8 7e3d 5a12 95bb 5db4 be3d
000003e0: 13ee 13bd 2772 f43c ebfd 813d fcda 2d3a
000003f0: 1ee4 85bd 6f22 733d 0a11 c2bb 016e 1d3c

bias f4 [128]
0.047502432 -0.0376235 3.849115e-06 -0.013722353 -9.779399e-05 0.0071590096 0.04066811 -0.019740717
0.07025939 0.02852271 0.047603805 0.028860169 0.03777545 -1.7226376e-06 0.051539645 0.0015397168
0.050524965 0.04634262 0.035219613 0.012641083 -0.054114755 -0.041385025 0.024024691 4.2534052e-07
0.046524633 -0.059828185 -0.01905059 0.020000074 0.048142992 0.007023149 -0.01890761 -6.53962e-11
-0.011959543 0.02674378 -0.059027195 -0.004561596 0.047152776 -0.0023910312 -0.028078843 0.024093201
0.02250894 0.029845381 0.07366314 0.050999653 -0.026735703 -0.03186059 -3.0013805e-06 0.022425562
0.030592509 -0.0060219374 0.04382055 -0.0010126228 0.004032652 0.0007481546 -0.027168373 0.053632453
0.08982627 0.08115608 -0.043493226 0.017732177 -0.022735935 0.018085767 -0.059834663 0.024834156
0.013426149 -0.0013787929 0.016952543 0.012193687 0.013807691 0.03095042 -0.033261094 -0.0070197373
0.04700444 0.027488435 0.05024076 -0.048453175 0.052904863 0.04352413 0.01195381 -0.040646967
0.038700726 0.060040075 0.046531305 0.048863463 0.038208336 0.03631999 0.022565017 0.018910564
0.034031358 -0.0010227924 -0.03139422 -7.987806e-06 -0.00011072711 0.06464719 0.060906086 -0.014692638
-0.035253428 -0.049559485 -0.012906674 -0.03338348 0.027678572 0.0014566474 0.049564257 0.030504543
0.036599685 0.03659119 -0.026844043 -0.032082997 0.0097763715 -0.009737363 0.025904274 0.017453479
-0.026623722 0.040850993 -5.724426e-36 -0.009189074 -0.013834458 -0.01389533 -0.044433992 0.021744817
0.059336293 0.06681808 -0.0002957033 -0.024685362 0.03510345 0.007645231 0.06623618 0.020197378
00000000: e991 423d 191b 1abd a527 8136 b8d3 60bc
00000010: c016 cdb8 2096 ea3b 9b93 263d 49b7 a1bc
00000020: 28e4 8f3d 75a8 e93c 35fc 423d 296c ec3c
00000030: 6eba 1a3d 6135 e7b5 3c1b 533d 53d0 c93a
00000040: 44f3 4e3d c2d1 3d3d 7142 103d 8c1c 4f3c
00000050: 6fa7 5dbd 5883 29bd 6ecf c43c 5b5a e434
00000060: 9d90 3e3d 660e 75bd fc0f 9cbc 32d7 a33c
00000070: 9631 453d 7222 e63b 22e4 9abc cace 8fae
00000080: f6f1 43bc c615 db3c 80c6 71bd 7179 95bb
00000090: 4523 413d d9b2 1cbb 9a05 e6bc 1b5f c53c
000000a0: ab64 b83c 4d7e f43c b3dc 963d 03e5 503d
000000b0: d504 dbbc 4080 02bd 536b 49b6 d0b5 b73c
000000c0: 249d fa3c ac53 c5bb 2d7d 333d fcb9 84ba
000000d0: 5624 843b ce1f 443a 3590 debc b4ad 5b3d
000000e0: d6f6 b73d 2935 a63d f425 32bd 1243 913c
000000f0: b640 babc 9a28 943c 3115 75bd 0071 cb3c
00000100: 5af9 5b3c 9db8 b4ba 0fe0 8a3c 08c8 473c
00000110: a739 623c bc8b fd3c c93c 08bd d305 e6bb
00000120: ba87 403d 6d2f e13c 41c9 4d3d d676 46bd
00000130: c5b2 583d 5c46 323d ead9 433c 6f7d 26bd
00000140: a784 1e3d 95ec 753d 9c97 3e3d 0e25 483d
00000150: 5880 1c3d 45c4 143d 45da b83c 54ea 9a3c
00000160: 7764 0b3d 380f 86ba 3a97 00bd 5e03 06b7
00000170: 2a36 e8b8 bf65 843d a978 793d 64b9 70bc
00000180: e665 10bd e3fe 4abd 8476 53bc 1ebd 08bd
00000190: 2cbe e23c faec be3a e403 4b3d aae4 f93c
000001a0: 8de9 153d a5e0 153d 0ae8 dbbc 7669 03bd
000001b0: 132d 203c 7689 1fbc 3335 d43c 99fa 8e3c
000001c0: fe19 dabc 5f53 273d 7b7d f384 c58d 16bc
000001d0: eca9 62bc 3da9 63bc 6b00 36bd 3022 b23c
000001e0: 9d0a 733d ebd7 883d a008 9bb9 f538 cabc
000001f0: a3c8 0f3d d984 fa3b d6a6 873d f974 a53c

weight f4 [64, 128]
-0.019595457 -0.020289632 2.1824039e-07 -0.039542884 1.0075033e-05 0.015976934 0.08529722 0.04127274
-0.037894998 -0.01752276 0.029356575 0.07128639 0.06389855 5.2140827e-08 -0.008278418 -0.07963906
0.04197764 0.037430655 0.021787673 0.009892037 0.04644261 -0.055547956 0.008844761 9.975559e-08
-0.07555355 0.024065675 -0.045633316 0.051337283 0.005669595 0.011503852 -0.020874012 1.6820256e-21
6.266626e-05 -0.059830636 0.046805445 0.007931845 0.057860643 -1.0529271e-19 1.1030427e-12 -0.018819047
0.012089105 -0.010129871 0.02679678 0.021898586 0.061032545 0.028105408 6.1268592e-27 0.06910083
0.053393878 0.07260316 -0.021281086 0.031043917 -0.00064540264 3.9163217e-05 0.024651604 -0.02940202
0.08992168 0.04027471 0.025918905 0.00023229307 0.07386631 0.02242693 -0.024325715 -0.0117472755
0.092009395 -0.0063526523 -0.043971676 -0.031072507 0.030434396 -0.06848173 0.02516422 -0.038550947
0.015590759 -0.005877248 -0.056059264 0.06972414 0.06662175 0.029580195 -0.02778121 -0.007931331
0.089459784 -0.079626635 0.03749485 0.07913964 -0.04592928 -0.0002797651 0.02662995 0.054609198
0.033308346 0.04514599 0.029641332 -5.7321604e-36 1.5923152e-22 0.052764382 -0.019012267 0.053736154
0.046326283 0.027837195 -0.008888751 0.006461943 -0.015173216 0.00013681478 0.061671026 0.07121666
0.020699453 -0.011493953 0.038011868 0.011323637 -0.01168183 -3.90549e-35 0.03551377 0.022583097
0.026636353 -0.09137347 5.7299334e-36 0.01113318 0.00014792573 0.057999108 -0.014185294 0.03576647
0.04434977 -0.037689157 -0.018302994 -0.015350927 0.021966107 0.12576047 -0.048818048 0.008778308
-0.019139368 -0.08062088 -1.0240042e-07 -0.031890236 7.4805466e-05 -0.05811473 -0.08175702 0.041168932
0.00988219 0.074960515 -0.11856771 -0.038261935 0.016649429 -2.4985743e-08 0.0067524896 0.055633172
-0.0175039 0.041872125 -0.08398675 -0.013066757 -0.07514372 0.10034422 -0.005617112 7.5606187e-07
0.052104644 0.013541617 0.062090077 0.109683104 0.10383203 0.11946977 0.03520013 -5.1234102e-23
-3.221429e-05 -0.028632997 -0.10307026 0.019342255 -0.038249865 -4.4755667e-15 -7.714031e-08 0.062468376
0.037903056 0.098501205 0.10486844 -0.020235028 0.013688135 0.08987554 -2.5066978e-22 0.0047534397
-0.05053475 0.09853121 0.1096571 -0.106741376 -0.006140004 0.00029768297 0.018086763 0.043763362
-0.08355369 0.008093635 -0.07175841 -8.857763e-05 -0.038183488 -0.019049412 0.035380837 -0.03185277
-0.058571704 -0.049527813 -0.045370866 0.0740706 -0.013024323 0.04370899 -0.10649551 0.07090964
-0.080588564 0.1091781 0.10604937 -0.02165189 0.01675861 0.08456151 -0.029296102 -0.026576007
-0.077855594 0.07708222 -0.096662916 -0.10373964 0.021258526 0.116983086 0.074746266 0.08917101
-0.055239584 -0.066144146 -0.014425083 2.208619e-30 -1.7385925e-22 0.09195866 -0.042770837 0.059266735
0.054522865 0.09694454 0.03680756 -0.057515875 0.07967221 0.0011459414 -0.0030022524 -0.06708517
-0.100902915 0.11036764 0.06007391 -0.048642535 0.117973514 -4.4652625e-11 -0.08068379 0.055031847
-0.035533626 0.06109413 5.6836827e-36 0.11400775 -9.2517264e-05 0.093474865 0.00711295 0.029751971
-0.10283569 0.11494812 0.11655451 0.0067221303 -0.038131252 0.024357019 0.031734787 0.107221745
00000000: a786 a0bc 7136 a6bc 7655 6a34 b8f7 21bd
00000010: f007 2937 0fe2 823c 4fb0 ae3d 9b0d 293d
00000020: c937 1bbd e48b 8fbc 337d f03c 99fe 913d
00000030: 3edd 823d 72f1 5f33 34a2 07bc ce19 a3bd
00000040: bff0 2b3d e350 193d 107c b23c 3612 223c
00000050: 9b3a 3e3d 4186 63bd 9ee9 103c 3739 d633
00000060: d2bb 9abd 6125 c53c 00ea 3abd 0b47 523d
00000070: 03c8 b93b a77a 3c3c faff aabc 372e fe1c
00000080: b16b 8338 f810 75bd 11b7 3f3d 92f4 013c
00000090: 48ff 6c3d 8a9d f89f 4d3d 9b2b 672a 9abc
000000a0: 6211 463c c2f7 25bc ec84 db3c aa64 b33c
000000b0: 43fd 793d 503d e63c bcb5 f213 bc84 8d3d
000000c0: 8ab3 5a3d f7b0 943d ac55 aebc d04f fe3c
000000d0: 3d30 29ba 2f43 2438 29f2 c93c 81dc f0bc
000000e0: dc28 b83d 18f7 243d e253 d43c b293 7339
000000f0: 3847 973d aeb8 b73c b946 c7bc a577 40bc
00000100: 6c6f bc3d e929 d0bb a51b 34bd c58b febc
00000110: 8e51 f93c 2640 8cbd 3225 ce3c 99e7 1dbd
00000120: 6270 7f3c ee95 c0bb 669e 65bd 88cb 8e3d
00000130: fc70 883d 2a52 f23c 6c95 e3bc 6af2 01bc
00000140: b136 b73d 4a13 a3bd 3394 193d f713 a23d
00000150: 5720 3cbd 70ad 92b9 0e27 da3c e5ad 5f3d
00000160: 556e 083d 00eb 383d 61d2 f23c b3d1 f384
00000170: c57f 401b 771f 583d 9dbf 9bbc 711a 5c3d
00000180: a1c0 3d3d d40a e43c 20a2 11bc b5be d33b
00000190: 1599 78bc f075 0f39 c29a 7c3d 0ada 913d
000001a0: e691 a93c 2251 3cbc 55b2 1b3d c786 393c
000001b0: 2565 3fbc c6a6 4f86 e376 113d 3000 b93c
000001c0: 7b34 da3c 0422 bbbd 73b9 f304 f167 363c
000001d0: 831c 1b39 7990 6d3d 6f69 68bc dd7f 123d
000001e0: 1ba8 353d f25f 1abd 29f0 95bc 7482 7bbc
000001f0: 44f2 b33c 5ac7 003e 6ff5 47bd e4d2 0f3c
00000200: 2aca 9cbc 8f1c a5bd 3ae7 dbb3 569f 02bd
00000210: e1e0 9c38 b609 6ebd 3970 a7bd c1a0 283d
00000220: e9e8 213c e684 993d a1d3 f2bd 8cb8 1cbd
00000230: 6264 883c 3ba0 d6b2 fd43 dd3b 9cdf 633d
00000240: 5764 8fbc 1b82 2b3d 3f01 acbd f315 56bc
00000250: f3e4 99bd 4581 cd3d c00f b8bb 2df4 4a35
00000260: ae6b 553d a9dd 5d3c 2a52 7e3d 89a1 e03d
00000270: e3a5 d43d 91ac f43d 032e 103d bfc0 779a
00000280: d51d 07b8 bf8f eabc 8016 d3bd a673 9e3c
00000290: e4ab 1cbd d13f a1a7 55a8 a5b3 d7de 7f3d
000002a0: 3c40 1b3d 00bb c93d 44c5 d63d eec3 a5bc
000002b0: 3344 603c ab10 b83d 4585 979b bec2 9b3b
000002c0: 87fd 4ebd bbca c93d e793 e03d 399b dabd
000002d0: 1632 c9bb 5512 9c39 b12a 943c 3641 333d
000002e0: 321e abbd 2a9b 043c 13f6 92bd c1c2 b9b8
000002f0: 4a66 1cbd 830d 9cbc 7feb 103d 0d78 02bd
00000300: e2e8 6fbd addd 4abd cdd6 39bd 54b2 973d
00000310: f863 55bc 3308 333d 511a dabd 1339 913d
00000320: 9e0b a5bd c598 df3d 6930 d93d 4e5f b1bc
00000330: 5a49 893c 962e ad3d 61fe efbc edb5 d9bc
00000340: c172 9fbd 48dd 9d3d 35f7 c5bd 7375 d4bd
00000350: 5c26 ae3c d494 ef3d 9214 993d 4a9f b63d
00000360: e742 62bd 9576 87bd 2f57 6cbc 392f 330e
00000370: d52e 529b d254 bc3d 7930 2fbd adc1 723d
00000380: 5e53 5f3d dc8a c63d 86c3 163d c495 6bbd
00000390: 2f2b a33d 6a33 963a 70c1 44bb f363 89bd
000003a0: 30a6 cebd 6e08 e23d 0f10 763d 653d 47bd
000003b0: 199c f13d 6362 44ae 8b3d a5bd 1369 613d
000003c0: b58b 11bd d73d 7a3d d3c1 f104 e57c e93d
000003d0: d405 c2b8 c06f bf3d c013 e93b 68ba f33c
000003e0: 859b d2bd ec69 eb3d 22b4 ee3d 5145 dc3b
000003f0: 842f 1cbd 5f88 c73c 56fc 013d 1397 db3d

bias f4 [64]
0.05288699 0.04001643 0.07669916 0.09150545 0.08037043 0.01853102 0.09739875 0.05387602
-0.011273381 -0.060302757 0.05966243 0.035411175 0.025632767 0.028540308 -1.5643091e-07 -0.023119219
-5.7005112e-36 -0.018756323 -0.0058951774 0.07040174 0.10933519 0.06999872 -0.04743622 0.01971247
-0.046347506 -0.013012215 -0.027286192 0.029534077 -0.027251447 0.007571434 0.07824899 0.017763648
0.047313523 0.008619143 0.02242011 -0.01866672 0.09135666 -0.019706268 0.06979295 0.04084025
-1.0204158e-09 0.09501255 0.056674536 0.07056429 -0.04961611 -0.056245353 -0.005556786 -5.716655e-36
-0.00051158335 0.038142163 0.025503471 0.028870312 0.08247362 0.073742256 0.017899636 -0.0252015
-0.07332538 0.013834787 0.06955245 0.036040504 0.037649266 0.029591223 -0.020530399 -0.006631136
00000000: 07a0 583d 45e8 233d 7314 9d3d 3667 bb3d
00000010: 4199 a43d 5ece 973c ff78 c73d 1aad 5c3d
00000020: fdb3 38bc 0600 77bd 9860 743d 4f0b 113d
00000030: cffb d13c 5dcd e93c 67f7 27b4 8464 bdbc
00000040: 1279 f284 dca6 99bc 552c c1bb ca2e 903d
00000050: 21eb df3d 7d5b 8f3d 7b4c 42bd 0c7c a13c
00000060: e2d6 3dbd 2f31 55bc 4b87 dfbc 73f1 f13c
00000070: 6d3e dfbc cb19 f83b 0241 a03d 1285 913c
00000080: d3cb 413d 4e37 0d3c 61aa b73c f3ea 98bc
00000090: 3319 bb3d 0a6f a1bc 9bef 8e3d 1b48 273d
000000a0: b03e 8cb0 f195 c23d 8f23 683d 0384 903d
000000b0: 433a 4bbd 8761 66bd b315 b6bb dc28 f384
000000c0: c71b 06ba f53a 1c3d a8ec d03c 6f81 ec3c
000000d0: eee7 a83d 2e06 973d 42a2 923c 6073 cebc
000000e0: 9e2b 96bd 4dab 623c 8471 8e3d 359f 133d
000000f0: 1e36 1a3d 4b69 f23c 5e2f a8bc 004a d9bb

weight f4 [16, 64]
0.0577373 0.024342129 -0.15338866 0.07900158 -0.1463244 -0.12750396 0.07554189 0.07311159
0.119522095 -0.024256201 0.086482294 -0.116216704 0.003910374 0.11902993 -5.649144e-36 0.0053487914
5.6812146e-36 -0.010573878 0.16080126 0.16805178 -0.050378636 -0.12339076 0.12667815 -0.07914793
0.043419372 0.14355242 0.11385236 0.09297674 0.005990778 -0.01238174 0.11739544 0.06265223
0.122476324 0.22566354 0.0510336 -0.0010869621 0.023270566 -0.015146285 0.13405998 -0.1405278
-8.239994e-12 0.09921342 0.13722076 0.1934027 0.17706792 0.021757465 -1.4931873e-28 -5.739665e-36
0.0053032977 0.17437573 -0.061230727 -0.0873844 -0.15053442 0.060777497 -0.059993595 -0.040775634
0.02283186 0.1182625 0.106994964 -0.12537025 0.08178063 0.17139594 -0.16503842 0.15122701
0.17998233 0.06774838 -0.09372462 -0.025689615 0.059439294 0.02200003 0.056816258 -0.014307817
0.1731243 -0.026219709 0.11264258 0.011659073 -0.12987633 -0.011478143 5.7664007e-36 -0.0035415313
5.7505738e-36 -0.011157939 0.084845506 0.001370507 0.028946407 -0.14957467 0.047712017 -0.07381164
0.09318343 -0.03754008 -0.05768941 0.10275863 0.004247781 0.044380352 -0.06102754 0.029680839
0.0880144 0.18367651 0.08347826 0.0006103847 0.09815878 0.00065492844 0.12386807 -0.044496782
-8.4829e-16 0.117348276 0.05639065 -0.0020990511 0.03382478 0.110222675 4.3212924e-32 -5.7518225e-36
-0.12953332 0.15245971 -0.007091869 -0.16114648 -0.11933539 -0.09149699 -0.099910475 -0.038717195
-0.08068381 -0.0013898824 0.09405901 -0.0808642 0.082859725 -0.0050554303 -0.060410067 -0.0010354181
0.1289333 0.022033853 -0.009727937 0.049532082 0.058384668 -0.06383482 0.07245564 -0.03543127
0.099197015 0.08696027 -0.024642894 -0.020775294 -0.10667177 0.09168647 -5.6715985e-36 0.063271135
5.6504193e-36 -0.009924002 0.089526646 -0.0031312972 0.08562821 -0.05467197 -0.03421394 0.058038387
0.04766536 0.10389377 -0.024240578 0.10132035 0.0019260157 -0.041250937 -0.045301203 -0.04296163
0.10981583 0.08181665 0.016377544 0.00026405993 0.053869277 5.6398534e-05 -0.059544362 -0.029908186
-4.8957124e-15 -0.05945976 -0.058278292 0.05771306 0.057064738 0.113683 -7.1250094e-23 5.720332e-36
0.017845701 0.07749278 0.0054581678 0.0026152686 -0.033004828 0.03964521 -0.04544347 0.056900054
-0.06810173 -0.028500827 0.09299093 -0.08294292 0.07335281 -0.021067409 0.0046136654 0.08247264
0.01214623 0.06482502 -0.088506855 0.11438338 0.014587147 0.06996524 -0.054007884 0.118266284
0.0873383 0.13657081 0.12578654 -0.070240475 -0.092858374 0.07053014 -5.6820203e-36 0.015911777
5.769007e-36 0.00390622 0.15915373 0.06399846 0.04799936 0.00034229548 -0.007785635 0.0711674
0.12547465 0.16876063 -0.072884455 0.052954633 0.0038532862 -0.043481857 0.015166386 0.052126218
0.07606325 0.16786069 -0.08643105 0.00049849664 0.12228685 -0.0033810525 -0.07251399 -0.119383894
4.472838e-17 -0.0096490625 0.12419163 0.1876841 0.0040957932 0.09734189 -3.737388e-20 5.635207e-36
-0.09095412 0.054036167 0.027396278 0.024404615 0.033156015 0.13917328 0.046913005 -0.03247411
-0.15459433 -0.036123533 0.08691589 -0.08214941 0.06891246 0.13897634 -0.002317618 0.04793563
00000000: f27d 6c3d 2569 c73c eb11 1dbe 95cb a13d
00000010: 10d6 15be 6690 02be b5b5 9a3d 88bb 953d
00000020: 00c8 f43d f1b4 c6bc a11d b13d 0603 eebd
00000030: 9822 803b f7c5 f33d bb49 f084 ea44 af3b
00000040: f3a6 f104 0f3e 2dbc 16a9 243e c415 2c3e
00000050: d459 4ebd 4bb4 fcbd ebb7 013e 4f18 a2bd
00000060: 83d8 313d 68ff 123e 6d2b e93d 976a be3d
00000070: 4a4e c43b c8dc 4abc 056d f03d d04f 803d
00000080: ded4 fa3d 5814 673e 9c08 513d 6578 8eba
00000090: eaa1 be3c 2028 78bc 0547 093e 85e6 0fbe
000000a0: a2f5 10ad 6830 cb3d 9983 0c3e 5b0b 463e
000000b0: 4b51 353e b63c b23c b348 3d91 6b23 f484
000000c0: 49c7 ad3b 8d8f 323e 12cd 7abd 98f6 b2bd
000000d0: b225 1abe d3f1 783d d8bb 75bd 5a04 27bd
000000e0: e209 bb3c 9c33 f23d 2d20 db3d 0f61 00be
000000f0: 9a7c a73d 6b82 2f3e d5ff 28be 41db 1a3e
00000100: 4a4d 383e aabf 8a3d b2f2 bfbd 0773 d2bc
00000110: 9e76 733d 6839 b43c 2ab8 683d 566b 6abc
00000120: 7f47 313e b7ca d6bc 27b1 e63d b205 3f3c
00000130: 4dfe 04be d20e 3cbc 8b46 f504 0919 68bb
00000140: 349a f404 cacf 36bc 7bc3 ad3d 95a2 b33a
00000150: 0421 ed3c 1a2a 19be ad6d 433d 8f2a 97bd
00000160: f4d6 be3d a0c3 19bd bb4b 6cbd 1e73 d23d
00000170: f830 8b3b 2cc8 353d 04f8 79bd 3b25 f33c
00000180: e540 b43d b215 3c3e a6f6 aa3d 3902 203a
00000190: 7807 c93d 81af 2b3a 8bae fd3d 4242 36bd
000001a0: c180 74a6 4b54 f03d e2f9 663d 3c90 09bb
000001b0: da8b 0a3d 6dbc e13d d45f 600b cda7 f484
000001c0: 62a4 04be 661e 1c3e e962 e8bb 9503 25be
000001d0: 1d66 f4bd c662 bbbd dd9d ccbd ec95 1ebd
000001e0: 8e3d a5bd b72c b6ba 03a2 c03d 219c a5bd
000001f0: 5cb2 a93d 06a8 a5bb 8c70 77bd deb6 87ba
00000200: 1707 043e 5780 b43c ed61 1fbc 27e2 4a3d
00000210: c324 6f3d d5bb 82bd 9f63 943d 6120 11bd
00000220: ce27 cb3d 3a18 b23d e5df c9bc f330 aabc
00000230: bb76 dabd 1ec6 bb3d 3d3e f184 4c94 813d
00000240: 9e57 f004 4898 22bc bf59 b73d 7336 4dbb
00000250: d85d af3d b7ef 5fbd eb23 0cbd a9b9 6d3d
00000260: c13c 433d 42c6 d43d 2d94 c6bc 0b81 cf3d
00000270: 5d72 fc3a bef6 28bd c18d 39bd 89f8 2fbd
00000280: 1fe7 e03d 7d8f a73d 332a 863c 8671 8a39
00000290: 08a6 5c3d 778d 6c38 cae4 73bd 0302 f5bc
000002a0: fa62 b0a7 148c 73bd 38b5 6ebd 8864 6c3d
000002b0: b7bc 693d a2d2 e83d ac45 ac9a e650 f304
000002c0: 2631 923c 89b4 9e3d 6eda b23b ed64 2b3b
000002d0: 1230 07bd 0463 223d ef22 3abd 0810 693d
000002e0: eb78 8bbd 917a e9bc 0772 be3d fadd a9bd
000002f0: 003a 963d 8f95 acbc 3b2e 973b 6ae7 a83d
00000300: fb00 473c fbc2 843d 1543 b5bd d541 ea3d
00000310: eefe 6e3c f049 8f3d 5f37 5dbd 9835 f23d
00000320: 6cde b23d 38d9 0b3e 30ce 003e 3dda 8fbd
00000330: 882c bebd 1b72 903d b9af f184 6a59 823c
00000340: ec62 f504 7fff 7f3b 32f9 223e a011 833d
00000350: fa9a 443d 1f76 b339 a41e ffbb 37c0 913d
00000360: 6d7c 003e 96cf 2c3e 7244 95bd f5e6 583d
00000370: 6a87 7c3b 081a 32bd 6f7c 783c 4d82 553d
00000380: 0dc7 9b3d ace3 2b3e c302 b1bd 8bad 023a
00000390: 8771 fa3d a694 5dbb 3782 94bd 8b7f f4bd
000003a0: f345 4e24 1a17 1ebc 2e58 fe3d 4330 403e
000003b0: 0136 863b 2f5b c73d 407e 309f f8b1 ef04
000003c0: 2746 babd 0755 5d3d 296e e03c 30ec c73c
000003d0: 9ace 073d 7183 0e3e da27 403d 9303 05bd
000003e0: fa4d 1ebe 45f6 13bd f500 b23d f33d a8bd
000003f0: fa21 8d3d d04f 0e3e 2ee3 17bb 2758 443d

bias f4 [16]
-0.00025472662 0.026157776 -0.0901794 -0.015550731 -0.025721008 0.009838078 0.014865695 -0.092177354
0.08293746 0.066919655 0.06122464 0.064240284 0.11783657 -0.01137095 0.083623394 -0.008999488
00000000: d48c 85b9 d548 d63c faaf b8bd 7ec8 7ebc
00000010: ddb4 d2bc e42f 213c 3e8f 733c 7bc7 bcbd
00000020: 1ddb a93d 2c0d 893d b0c6 7a3d 6990 833d
00000030: 4d54 f13d 394d 3abc be42 ab3d 9772 13bc

weight f4 [1, 16]
-0.27396527 -0.19925198 -0.09191525 -0.1794714 0.024294483 -0.34234026 -0.41638586 0.07633336
-0.25439382 -0.12945932 0.15893306 -0.12569413 0.28204036 5.63736e-12 0.21116678 -0.24373388
00000000: 2d45 8cbe b608 4cbe 103e bcbd 5ac7 37be
00000010: 3905 c73c 3947 afbe 8730 d5be aa54 9c3d
00000020: e83f 82be fc90 04be 59bf 223e f6b5 00be
00000030: 9867 903e d358 c62c 1b3c 583e 6095 79be
