models/model_objs/nfl_model_pregame.pth (torch, 904525 bytes, 11 tensors)

weight f4 [256, 201]
0	0xba96fa3a	-0.0011518665
1	0x3b82bfe3	0.00399016
2	0x3b177559	0.0023110716
3	0x3b03190d	0.0020003945
4	0x3b1ca440	0.0023901612
5	0x3ae5ca41	0.001753159
6	0x3b7e38a6	0.003879109
7	0xba872eca	-0.0010313627
8	0x3ab8dadf	0.0014103315
9	0xbacd4180	-0.0015659779
10	0x3b8e70c7	0.00434694
11	0x3aa46005	0.0012540823
12	0x3a71c2cc	0.00092224474
13	0xbaabf4e3	-0.0013119247
14	0x3b39769b	0.0028299454
15	0xba055ff4	-0.00050878455
16	0xb816e46e	-3.597553e-05
17	0xbb4ee7c4	-0.0031571249
18	0x3b5ba6b5	0.0033516113
19	0x3a1d1332	0.0005991935
20	0x3b57652d	0.0032866702
21	0xb7ed880d	-2.8315955e-05
22	0xbb867350	-0.004103102
23	0xba34fb67	-0.0006903917
24	0xba0f2add	-0.0005461404
25	0x3a960328	0.0011445032
26	0x3b2953fe	0.0025837417
27	0x3a2a1264	0.0006487726
28	0xb96585da	-0.00021889005
29	0xbaacf0e5	-0.0013194351
30	0x3b4fa32d	0.0031682954
31	0xb9806882	-0.00024491927
32	0x3b63ceeb	0.0034760784
33	0x38eb7a21	0.000112284215
34	0x3af231f0	0.0018478017
35	0xbb018505	-0.0019763124
36	0x3b0795b9	0.0020688607
37	0x3b7cd364	0.0038578147
38	0x3b6efa91	0.0036465267
39	0x3aa6325c	0.0012679803
40	0x3b40c4e4	0.002941423
41	0x3aab4735	0.0013067486
42	0x397bf4b0	0.00024028379
43	0xb9e930a8	-0.00044477475
44	0x3b872cfb	0.004125235
45	0x3984b475	0.00025311453
46	0x3ba184fc	0.004929183
47	0xbb4e71a5	-0.0031500843
48	0x3ba0a645	0.0049026334
49	0xbb9c454d	-0.0047690035
50	0x3b6e35e2	0.0036348035
51	0x3b2b63ed	0.002615209
52	0xbb100518	-0.0021975692
53	0x3b50d070	0.003186252
54	0xb8a8a94f	-8.0424004e-05
55	0xbb66c027	-0.0035209747
56	0x3a9b4ad8	0.0011847867
57	0x3bd9c583	0.0066458597
58	0x3a4c5b0d	0.000779555
59	0xb99c3c2a	-0.00029799464
60	0x3b6d4bb7	0.003620846
61	0xbb9997dd	-0.004687293
62	0xb9792939	-0.00023761847
63	0xb88ec7a4	-6.8082736e-05
64	0xbb3bccfe	-0.002865612
65	0xbbac0a01	-0.005250216
66	0xb9d5933e	-0.0004073623
67	0xb7a1f64b	-1.9307385e-05
68	0x3bb11778	0.005404409
69	0x348f7195	2.6718467e-07
70	0x3b580647	0.0032962726
71	0xb84e2ae5	-4.9154176e-05
72	0xbb4b6e52	-0.0031041098
73	0xbb3fba7f	-0.0029255447
74	0xb9cc1655	-0.0003892655
75	0xb8a7b725	-7.997294e-05
76	0xb92d3a05	-0.0001652018
77	0x3919cfc4	0.00014668616
78	0x364bfc38	3.0396168e-06
79	0x3b825edf	0.0039785947
80	0xbb0f5020	-0.0021867827
81	0x385062d2	4.9683098e-05
82	0x3b88d862	0.0041761855
83	0xb9c3b130	-0.00037325313
84	0xbb29828a	-0.002586516
85	0xba9a3c15	-0.0011767173
86	0x385062d1	4.9683094e-05
87	0x33aec2a7	8.1379135e-08
88	0xbae969fb	-0.0017808074
89	0x3b2c32b9	0.002627535
90	0xb548f5de	-7.486359e-07
91	0x3b386228	0.0028134678
92	0xbbc4046a	-0.0059819715
93	0xb613e11f	-2.2035745e-06
94	0xb7d51471	-2.5401097e-05
95	0x3aa30cf0	0.0012439769
96	0xbb892662	-0.004185484
97	0xb6e1f068	-6.7335095e-06
98	0x3b8f52b9	0.004373875
99	0x3b94557c	0.004526792
100	0x3b6b09ee	0.0035864073
101	0x3ba4b5ea	0.0050265687
102	0x3bdc3dd7	0.006721239
103	0xbb4d80fe	-0.0031357403
104	0x3b24b13a	0.002513005
105	0x38f13130	0.000115009374
106	0x398700a2	0.00025749678
107	0xbabe1cfa	-0.0014504485
108	0xb9b57c37	-0.00034615558
109	0xba430fed	-0.0007441033
110	0xb9904be9	-0.00027522378
111	0xb9572424	-0.00020517461
112	0xbb8bb947	-0.00426403
113	0xbb91aed1	-0.0044458886
114	0xbbbeb351	-0.005819716
115	0x3b5b5357	0.0033466422
116	0x3b89ecc2	0.004209132
117	0x385062d0	4.968309e-05
118	0xb84cc4e3	-4.8820755e-05
119	0x3b660aaa	0.003510157
120	0xbb40540f	-0.0029346978
121	0xbb0fba67	-0.0021931173
122	0xbb0fb153	-0.0021925762
123	0xbb4f0b8c	-0.0031592576
124	0xb51e5773	-5.898684e-07
125	0x385062d0	4.968309e-05
126	0x3cfc1d73	0.030775761
127	0xbd041e64	-0.032255545
128	0x3bbb0014	0.0057067964
129	0xb9da979b	-0.00041693155
130	0x385062d2	4.9683098e-05
131	0xbacfb4a9	-0.0015846688
132	0x3b957342	0.004560859
133	0x385062d1	4.9683094e-05
134	0x3b343c4b	0.0027501758
135	0xb904b1b0	-0.00012654695
136	0x385062d1	4.9683094e-05
137	0x3b8bf385	0.004270973
138	0x39bdf64a	0.0003623239
139	0xbae40ddd	-0.0017399151
140	0xb9348799	-0.00017216652
141	0x385062d0	4.968309e-05
142	0x39a9a964	0.00032360398
143	0xbbca369b	-0.0061710603
144	0x3abb6d10	0.0014299471
145	0x3adaf4e2	0.0016705061
146	0x385062d1	4.9683094e-05
147	0x3a2388ec	0.00062383595
148	0xba557cde	-0.0008143912
149	0x385062d0	4.968309e-05
150	0xba19a7db	-0.0005861499
151	0xb8a5e61c	-7.910674e-05
152	0xb917085c	-0.00014403596
153	0xbac377ef	-0.0014913062
154	0xb9fda326	-0.00048377475
155	0xb8aaea97	-8.1499275e-05
156	0x3b2ea737	0.002664996
157	0xb8a2ed09	-7.768913e-05
158	0xbb055b44	-0.0020348588
159	0xbb52f8f1	-0.0032191838
160	0xbb30afaa	-0.0026960173
161	0x3ae482b8	0.0017433977
162	0x3b49e86f	0.0030808707
163	0x3b64a616	0.0034889034
164	0xbb95e250	-0.0045740977
165	0x3b5f90bd	0.003411337
166	0xbada47df	-0.0016653499
167	0xba533200	-0.0008056462
168	0xb9eebfea	-0.00045537885
169	0xb87de6d0	-6.053486e-05
170	0xbb286c6b	-0.0025699388
171	0xba561a65	-0.0008167385
172	0x3b8f7f56	0.0043791933
173	0x3b724d1b	0.0036972228
174	0xbb8d37e5	-0.0043096417
175	0x3be85f2b	0.007091423
176	0xb87492fe	-5.831103e-05
177	0x3b88ce06	0.0041749505
178	0xba04b32d	-0.00050620997
179	0x39093bf6	0.00013087675
180	0xbac2cf73	-0.001486285
181	0x3521811a	6.016504e-07
182	0x385062d1	4.9683094e-05
183	0x3b7a3cc5	0.0038183194
184	0x3a39db21	0.00070898427
185	0x385062d0	4.968309e-05
186	0xbac9a059	-0.001538287
187	0xbb1815da	-0.0023206384
188	0x385062d0	4.968309e-05
189	0x3b7f27b9	0.0038933589
190	0xb965f8ed	-0.00021931874
191	0xbb1d039e	-0.0023958455
192	0xb9cbcc0a	-0.00038871198
193	0x385062cf	4.9683087e-05
194	0xbb1c3084	-0.0023832629
195	0xbb46f6da	-0.0030359537
196	0x3af171c9	0.0018420751
197	0x3adf0b15	0.0017016853
198	0x385062d0	4.968309e-05
199	0xbd03e836	-0.032203875
200	0x3ce6cb30	0.02817306
201	0xbbacfab7	-0.005278911
202	0xbb7b5912	-0.003835265
203	0xbc47eae7	-0.012202001
204	0xbb362fb5	-0.0027799432
205	0xbbfde949	-0.007748757
206	0x3bb14dbd	0.0054108785
207	0x3ba58eb3	0.0050524115
208	0x3c3481e1	0.011017294
209	0xbc0f8765	-0.008760308
210	0x3ae2da81	0.0017307551
211	0x39489df0	0.00019132323
212	0x3b73ffe7	0.0037231387
213	0x3c542a4a	0.012949536
214	0x3b986e3e	0.004651814
215	0xb990afcb	-0.00027596796
216	0xbb3577dd	-0.0027689852
217	0xbc0a56d7	-0.008443556
218	0x3b4dd121	0.0031405168
219	0xbc6ff2aa	-0.014645258
220	0x3b6cce79	0.003613381
221	0x3b282169	0.002565468
222	0x3b9d81c2	0.004806728
223	0x3ade22cd	0.0016947627
224	0xbc1d097c	-0.009584781
225	0x3b355bc0	0.0027673095
226	0x3c1b3c53	0.009474832
227	0xbc2069fd	-0.009790895
228	0x3b6b3b80	0.003589362
229	0xbbbc4ab0	-0.005746208
230	0xbbd376ea	-0.0064533846
231	0xbbc8ccff	-0.006127953
232	0xbbaeaeec	-0.005330911
233	0xbb59fed9	-0.0033263473
234	0xbc41fd3a	-0.011840159
235	0x3c38b69c	0.011274006
236	0x3c2779fd	0.010221955
237	0x3b279c24	0.0025575245
238	0x3b3f7092	0.0029211384
239	0x396d4af0	0.00022629998
240	0xbc0b31f2	-0.008495795
241	0xbc117002	-0.008876802
242	0x3c1ccdcd	0.009570551
243	0x3a1d85fa	0.0006009039
244	0xbbf2ec2a	-0.007413407
245	0xbaa284f4	-0.0012399242
246	0xbb83eba4	-0.0040258933
247	0xba8ec2a0	-0.0010891743
248	0x3bd947a9	0.006630857
249	0x3b0d6690	0.0021576025
250	0x3a2795f6	0.00063928904
251	0xbb2b0a3e	-0.0026098634
252	0x3a453969	0.00075235084
253	0xbbbfa490	-0.005848475
254	0x3b787d33	0.0037916421
255	0x39850d9d	0.0002537788

bias f4 [256]
0	0x3ac4b112	0.0015006384
1	0xbb65ffa0	-0.0035094991
2	0x3bb70e54	0.005586425
3	0x3be75f4e	0.0070609218
4	0x3b159d0f	0.002282921
5	0xb9ed3492	-0.0004524333
6	0x3d9e6662	0.07734372
7	0x3af67b8c	0.001880513
8	0x3ce36f70	0.027763098
9	0xb98bd08a	-0.0002666752
10	0xbb1e667c	-0.0024169972
11	0xbb000b02	-0.0019537811
12	0x3b57c8bb	0.0032926041
13	0x3d393601	0.045217518
14	0xbbbeadda	-0.0058190646
15	0x3de61c88	0.11235911
16	0xbba0d43e	-0.0049081137
17	0xbad684fb	-0.0016366536
18	0x3ca68a93	0.02032975
19	0x3b419780	0.0029539764
20	0x3c8b99ac	0.01704105
21	0x3942d104	0.00018579146
22	0x38d1b884	0.00010000265
23	0x3ce83fe4	0.028350778
24	0x3e53f516	0.20698962
25	0xbb164b70	-0.0022933148
26	0x3c8a0a6b	0.01685067
27	0x3a66a651	0.0008798587
28	0x3c6f6eb3	0.014613795
29	0xbbe9e98b	-0.007138436
30	0x3a94e894	0.0011360818
31	0x3d12ef05	0.035872478
32	0x3d33b54a	0.043874063
33	0x3d61c34f	0.0551179
34	0x3c91e6c5	0.017810235
35	0x3d0e452d	0.03473394
36	0x3d488516	0.048955046
37	0xbbebbb1b	-0.0071939356
38	0x3bf0f95d	0.007353945
39	0xbb004e93	-0.0019578084
40	0xba2597d3	-0.0006316874
41	0xba743da9	-0.00093170494
42	0x3aab951a	0.00130907
43	0xba7c34a3	-0.00096208806
44	0xbaac30db	-0.0013137119
45	0x3d870120	0.065920115
46	0x3d627817	0.055290308
47	0x3d729133	0.059220504
48	0x3e280b76	0.16410622
49	0x3c948ec0	0.018134475
50	0xbbeba759	-0.0071915803
51	0x3b502cd8	0.003176501
52	0x3b85c737	0.004082586
53	0xbb32c9c8	-0.0027280916
54	0x3ca3ba84	0.019986399
55	0x3d0c2c77	0.034222092
56	0x3ab391ad	0.0013700031
57	0xbaa5a234	-0.0012636841
58	0x3cd69cb3	0.026197767
59	0x3bf750ec	0.0075474884
60	0x37762ef0	1.4673671e-05
61	0x3c1feb8a	0.009760747
62	0x3d3e626b	0.046480577
63	0xba94fa95	-0.0011366183
64	0x3d4b5bfb	0.049648266
65	0x3cc3d057	0.023903055
66	0xbb471751	-0.0030378888
67	0xba5b4353	-0.0008364219
68	0x3bbe0cbe	0.005799859
69	0x393031fe	0.00016803292
70	0x3be4cebc	0.0069826525
71	0x3cb6b204	0.022301681
72	0xb8dbb653	-0.00010476694
73	0x3b0f19a2	0.0021835347
74	0xb739fbbc	-1.1085471e-05
75	0x3d2115c4	0.039327398
76	0xba944b6a	-0.0011313979
77	0xbada7ea5	-0.0016669823
78	0x3c860cc2	0.016363505
79	0x3e0afe04	0.13573462
80	0xba8b0c73	-0.0010608569
81	0x3e1f1c3b	0.15538113
82	0x3d34efe0	0.044174075
83	0x3bae08c7	0.005311105
84	0x3c58cfa5	0.0132331
85	0x3d6325ae	0.055455856
86	0x3bf34247	0.0074236724
87	0x3de49539	0.111612745
88	0x3d72fa62	0.059320815
89	0x3e0fe5da	0.14052525
90	0x3d4706bd	0.04859041
91	0x3c931433	0.017953968
92	0xbac1e227	-0.001479213
93	0xbb22e982	-0.002485842
94	0x3cf5f44e	0.03002372
95	0x3c8cd0ff	0.0171895
96	0x3b5b6059	0.0033474176
97	0xbbd24475	-0.006416852
98	0x3da5aae4	0.080892354
99	0x3db15288	0.0865832
100	0xb99d1158	-0.00029958296
101	0x3d67806f	0.05651897
102	0xbacdd87d	-0.0015704777
103	0xba996fb2	-0.0011706261
104	0x3d551fa7	0.05203214
105	0x38ec5d01	0.0001127068
106	0xb8a49d9e	-7.849488e-05
107	0x3cbff730	0.023433298
108	0x3d2bc7dd	0.04193865
109	0x3d1af225	0.037828583
110	0x3ddd4818	0.108047664
111	0x3d0d0391	0.03442723
112	0x3d21bd1c	0.03948699
113	0x3b68a546	0.0035498901
114	0x3c6cd333	0.014454651
115	0x3d6bd261	0.05757368
116	0x3d841690	0.06449616
117	0x3d0c6fbd	0.03428625
118	0x3ce17c8c	0.027525209
119	0x3e2cac4c	0.16862601
120	0x3e0c01ca	0.13672557
121	0x3e1eff60	0.15527105
122	0x3af96449	0.001902708
123	0x3af9c255	0.0019055108
124	0x3aa11142	0.0012288468
125	0x3d7a730a	0.061144866
126	0x3e17704d	0.14788933
127	0x3b8ffba7	0.004394013
128	0xbacad255	-0.0015474061
129	0xbac44c23	-0.0014976304
130	0xbb9c7f37	-0.0047759074
131	0x3bac0a15	0.0052502253
132	0x3b9791a8	0.004625518
133	0x3e36308e	0.1779196
134	0x3d86b7a9	0.06577999
135	0x3cce8885	0.025211582
136	0x3c0c1f66	0.008552408
137	0x3cb4994b	0.022045752
138	0x3d9555e5	0.07291774
139	0xbbdd6972	-0.006756955
140	0xbafc6622	-0.0019256512
141	0xbbad5efd	-0.0052908645
142	0xb9cb8169	-0.00038815595
143	0x3da08024	0.07836941
144	0x3d3b68b1	0.04575414
145	0x3bcb741b	0.006208909
146	0x3d497375	0.049182374
147	0x3d3b19f5	0.04567905
148	0x3dabd381	0.083899505
149	0x3a77fa42	0.00094595936
150	0x3b0c701f	0.0021429134
151	0x3b63eee8	0.003477985
152	0x3e81a444	0.25320637
153	0x3cf4b384	0.029870756
154	0xbb932e1c	-0.0044915807
155	0xbb8b9d99	-0.0042607305
156	0x3bc3976c	0.0059689786
157	0x3c2959b4	0.010336328
158	0xbb4a3bfe	-0.0030858512
159	0xbbd61197	-0.0065328586
160	0x3ca15f63	0.019698804
161	0x3ac65499	0.0015131413
162	0x3d865f41	0.06561137
163	0x3ce1943e	0.027536508
164	0x3c2e6a8d	0.010645521
165	0x3d0ea9ac	0.03482978
166	0x3cd30076	0.025757056
167	0x3c157925	0.009123121
168	0x3cf16555	0.029467264
169	0x3da6b0d8	0.08139199
170	0xbaa6ca66	-0.0012725114
171	0xba924d6d	-0.0011161991
172	0x3c4dfa26	0.012571847
173	0xbabd3d93	-0.0014437906
174	0x3d7dbcd7	0.06194767
175	0xbaf9a52e	-0.001904642
176	0x3c12b9cd	0.008955431
177	0x3cc0d78f	0.023540286
178	0xbc2dcfc9	-0.010608622
179	0xba34fcd1	-0.00069041277
180	0x3d100f6d	0.03517096
181	0x3cd91ca6	0.026502918
182	0x3819188a	3.6500896e-05
183	0xbae038f7	-0.0017106821
184	0x3cfac607	0.030612005
185	0xbaecdf87	-0.0018071987
186	0x3d9163d2	0.07099117
187	0xbaedc8b2	-0.0018141477
188	0x3e48719c	0.19574589
189	0x3d0a99bc	0.03383802
190	0x3b96366e	0.0045841252
191	0x3d065cd8	0.032803386
192	0x3ceb0c2f	0.028692333
193	0x3ac9e114	0.0015402162
194	0x39befcad	0.00036427882
195	0x39b9ea31	0.00035460436
196	0xbb394781	-0.002827138
197	0x3b5607f2	0.0032658544
198	0x3d7204a6	0.059086464
199	0x3d9e79d4	0.077380806
200	0x3b6c32bf	0.003604099
201	0x3de254bb	0.11051317
202	0x3d876b4d	0.06612263
203	0x3c4770fd	0.012172935
204	0x3d8ed0a5	0.069733895
205	0x3c8c81d6	0.017151754
206	0x3cb532fb	0.022119036
207	0x3dc0c194	0.09411922
208	0x3c0d7408	0.008633621
209	0x3de21b92	0.11040415
210	0x3ce653a3	0.028116053
211	0x3dc38f14	0.09548774
212	0x3c7cb980	0.015425086
213	0x3be70b59	0.0070509133
214	0x3d3f5888	0.04671529
215	0x3c5da9a5	0.013529216
216	0x3cb05f6c	0.021529876
217	0xb9f71786	-0.00047129038
218	0x3d3ef1e5	0.046617407
219	0x3d7020dc	0.058625087
220	0xb7f62981	-2.9344812e-05
221	0x3dbbe6a4	0.091748506
222	0x3e001cfd	0.12511058
223	0xbb85ba18	-0.004081022
224	0x3ace1dd7	0.0015725446
225	0x3bd116a2	0.006380872
226	0x3ce4b096	0.027916234
227	0xbb663030	-0.0035123937
228	0x3aaa40d3	0.001298929
229	0x3c953061	0.018211545
230	0x3a3219fe	0.0006794034
231	0x3ccacbce	0.024755385
232	0x3aa9be35	0.0012950363
233	0x3c444137	0.011978439
234	0xb9a8a048	-0.00032162876
235	0x3c71b42a	0.014752427
236	0xb92c07b3	-0.00016406066
237	0xba84a4f9	-0.0010119966
238	0x3ab286f5	0.0013620543
239	0x3d9d139c	0.07669756
240	0x3bee7656	0.0072772903
241	0x3e399371	0.1812265
242	0xba6ccff9	-0.0009033676
243	0xbbcec0e4	-0.0063096154
244	0x3c9694ea	0.018381555
245	0x3c657556	0.014005026
246	0x3dd6b7fe	0.104843125
247	0xbb5e6ad0	-0.0033938177
248	0x3babf256	0.0052473946
249	0x3cb0dae3	0.021588748
250	0x3b113930	0.002215933
251	0x3d8607de	0.06544469
252	0x3d80c544	0.062876254
253	0x3c24dfff	0.01006317
254	0xbae67339	-0.0017581946
255	0x3b1a8a20	0.0023580864

weight f4 [256, 256]
0	0x3bd08aa6	0.0063641844
1	0xbb4f5bfd	-0.0031640523
2	0xbb16b003	-0.0022993095
3	0x3b960d61	0.0045792316
4	0xbb202046	-0.00244333
5	0x3b33d860	0.0027442202
6	0xbb9b2054	-0.0047340784
7	0x3b25c0eb	0.002529199
8	0xbb172b07	-0.0023066418
9	0x3b171eae	0.0023059058
10	0xba918fee	-0.0011105516
11	0xbb06dbc1	-0.002057776
12	0xbb9e05c3	-0.004822464
13	0xba5b1c43	-0.00083583983
14	0xbb158502	-0.0022814875
15	0xbbb592e3	-0.005541192
16	0x3c0e08c5	0.008669083
17	0xbac3593e	-0.0014903916
18	0x3b2b53b2	0.0026142416
19	0xbbd8af70	-0.0066127107
20	0x3b9fcb9b	0.0048765666
21	0xbb7942a8	-0.0038034115
22	0xba462b2f	-0.00075595354
23	0x3b06f65a	0.0020593614
24	0x3a82b7c1	0.0009972976
25	0x3b25f0e1	0.0025320577
26	0xbb307d54	-0.002693017
27	0xbb770d2b	-0.0037697058
28	0x3a827ce2	0.0009955431
29	0x3ba64527	0.0050741616
30	0xbbb16ec0	-0.0054148138
31	0x3b2e46a1	0.002659239
32	0x3b34325d	0.002749584
33	0x3bf69948	0.007525597
34	0xbb190466	-0.002334857
35	0x3a3f3413	0.00072938314
36	0x392b862c	0.00016357814
37	0x3b600bc2	0.0034186696
38	0x3bb4640a	0.0055050896
39	0xbb22ff55	-0.0024871428
40	0xbaf6b468	-0.0018822076
41	0xbb3dd54a	-0.0028966242
42	0xbb3cda4b	-0.0028816636
43	0xbb1459e4	-0.0022636587
44	0xbb25f0a7	-0.0025320442
45	0x3b9e3bae	0.0048288917
46	0x3c15884f	0.009126737
47	0x3ac6249c	0.0015117112
48	0x3c3754c4	0.011189643
49	0x3b9ed430	0.004847072
50	0xba926578	-0.0011169156
51	0x3b1feb8b	0.002440187
52	0x3bbaccc2	0.0057006786
53	0x3bd3a1ef	0.006458513
54	0xba989801	-0.001164198
55	0x3b3876e4	0.0028147036
56	0x3aaca177	0.0013170679
57	0x3bbcfcd7	0.0057674455
58	0x3b92ece4	0.004483806
59	0x3baea520	0.005329743
60	0xbb4488df	-0.0029988808
61	0x3aad3bef	0.0013216714
62	0x3ad1978a	0.0015990597
63	0x3b561aab	0.0032669704
64	0x3bf377d8	0.007430058
65	0xbb0ad98b	-0.0021186795
66	0xbae79ca9	-0.001767059
67	0xba83d34a	-0.0010057476
68	0xbc1d3571	-0.009595261
69	0xbc0317e5	-0.008001302
70	0xbbf89668	-0.007586289
71	0x3b906a7f	0.0044072266
72	0x3a4eaad6	0.0007883733
73	0xbbc14c40	-0.0058989823
74	0xbb8d9c21	-0.0043215905
75	0x3aef8002	0.0018272402
76	0xbb0bd3e7	-0.002133602
77	0xbbc32d12	-0.0059563005
78	0xbbc4c761	-0.006005213
79	0x3c524590	0.012833968
80	0x3af6c31e	0.001882646
81	0x3c8ece62	0.017432395
82	0x3b0f5e5a	0.0021876306
83	0xbb287ec4	-0.0025710324
84	0xbb236d69	-0.002493704
85	0x3bb33d59	0.0054699597
86	0x3bbffb35	0.0058588036
87	0x3c2381cd	0.009979677
88	0xba4ec9d8	-0.00078883534
89	0x3c7cadb4	0.015422273
90	0xbb34789f	-0.0027537716
91	0xbacf53c5	-0.0015817812
92	0x3bb07657	0.005385201
93	0x3b8031bc	0.003912179
94	0x3b816b63	0.003949569
95	0x3ba6fec7	0.00509629
96	0x3b2a8605	0.0026019823
97	0xbb153c41	-0.002277151
98	0x3c232ba9	0.00995914
99	0xbbf5b717	-0.0074986327
100	0xbb491916	-0.0030685118
101	0x3b9da77d	0.004811226
102	0xba994b29	-0.0011695373
103	0xbb0687f7	-0.0020527819
104	0xbb6e2f03	-0.003634394
105	0x3c00bc66	0.007857418
106	0xbb129fbb	-0.0022373039
107	0x3aca5a8f	0.0015438366
108	0xbb1a28e6	-0.0023522913
109	0xbba9efda	-0.0051860632
110	0x3a145980	0.00056590885
111	0x3b80cf27	0.0039309445
112	0x3b1bd3f8	0.0023777466
113	0xbbabf220	-0.0052473694
114	0xbad2fbd9	-0.0016096785
115	0xbb1560a4	-0.0022793198
116	0xbaa947e8	-0.0012915106
117	0x3aeb2fd2	0.0017943329
118	0x3a615e1a	0.0008597091
119	0x3cbac5ad	0.022799337
120	0x3b3ae1f6	0.002851603
121	0x3bb0a768	0.00539105
122	0x3b113b51	0.00221606
123	0xbc0b1e27	-0.008491076
124	0xbb0b88b4	-0.0021291198
125	0x3bb8ce19	0.005639803
126	0x3c70da49	0.014700481
127	0x3b8c084e	0.004273451
128	0x3c0ff85f	0.008787244
129	0xbb2c717d	-0.0026312761
130	0x3c00c764	0.007860038
131	0x3abedccf	0.0014561656
132	0xbb0f1f91	-0.0021838883
133	0x3c5f78c9	0.013639637
134	0x3bfc6a78	0.0077031218
135	0x3b0e751e	0.0021737288
136	0xbb52949b	-0.0032132033
137	0x3a8d4114	0.0010776841
138	0x3bd045f2	0.0063559944
139	0xbac03d6e	-0.0014666745
140	0xbaee387e	-0.0018174795
141	0x3b4d115a	0.003129086
142	0xbb2c500a	-0.0026292824
143	0x3c119404	0.008885387
144	0xba3b9896	-0.0007156221
145	0x3be6ad96	0.007039736
146	0x3b73c216	0.0037194542
147	0x3a0e8f91	0.0005438263
148	0xbb031e31	-0.002000701
149	0x3b0d37d3	0.0021548166
150	0x3b2669a9	0.0025392568
151	0x3aebe858	0.0017998321
152	0x3ce8870f	0.028384713
153	0x3b6c901c	0.0036096638
154	0x3b010137	0.0019684562
155	0x3c2778cd	0.010221672
156	0x3c00591e	0.007833747
157	0x3bb1dbc1	0.005427808
158	0xbbb8fc71	-0.0056453277
159	0x3b392370	0.0028249882
160	0x39d086b1	0.00039773204
161	0x3b12733f	0.0022346524
162	0x3bf2e729	0.0074128103
163	0x3b63ba13	0.003474836
164	0x3bc20027	0.0059204283
165	0xb97aecd6	-0.00023930086
166	0x3aa25a30	0.0012386497
167	0x3a3002f1	0.00067143055
168	0xbbc3325f	-0.0059569324
169	0x3bf20b52	0.0073866034
170	0xbb8cc615	-0.004296074
171	0xbbd7237e	-0.0065655103
172	0x3baef076	0.005338724
173	0xbb0ccec5	-0.002148555
174	0x3ba3595c	0.0049850177
175	0x3b100f44	0.0021981755
176	0xbb8e0a10	-0.0043346956
177	0xbb8c5534	-0.004282618
178	0xbbe317f2	-0.0069303447
179	0xbaccc23c	-0.0015621851
180	0x3ac664e0	0.0015136264
181	0xbbda7282	-0.0066664824
182	0x3be8abcb	0.0071005574
183	0x3b2827d2	0.00256585
184	0x39904d06	0.00027523207
185	0x391388eb	0.00014070018
186	0x3b4a74c0	0.0030892342
187	0xba9d282d	-0.0011990123
188	0x3c3754c7	0.011189646
189	0x39e8030a	0.00044252753
190	0x3bab8a7a	0.0052350136
191	0xb8fecc24	-0.00012149688
192	0x3827a0d2	3.996568e-05
193	0x3b3507ad	0.0027622983
194	0x3b3b4d20	0.0028579906
195	0xbaf6043f	-0.0018769576
196	0x3bf9c8a3	0.0076227947
197	0xbb5570e3	-0.0032568506
198	0x3c1b69d1	0.009485678
199	0x3bd909bb	0.0066234744
200	0xbaeace77	-0.0017914315
201	0x3c4ed271	0.012623415
202	0x3b78b60b	0.0037950303
203	0x3bb17db8	0.005416598
204	0xbb192241	-0.0023366364
205	0xbbaf37a1	-0.0053472077
206	0xbb0f0b9a	-0.0021826983
207	0xbba37bea	-0.004989137
208	0x38de178a	0.000105901694
209	0x3bb99998	0.0056640618
210	0x3a862d44	0.0010236879
211	0x3c382f67	0.01124177
212	0x39816e68	0.00024687056
213	0x3b929007	0.004472736
214	0xbc0cbd5f	-0.008590071
215	0x3b42fdf1	0.0029753412
216	0x3b0f9e06	0.0021914258
217	0xbb13914f	-0.002251703
218	0x3ba98438	0.0051732324
219	0xba3e0519	-0.00072486844
220	0x3b3593c3	0.002770648
221	0xbbd9e940	-0.00665012
222	0xbaf0c8d9	-0.0018370404
223	0x3c01ecce	0.007929994
224	0xbab960c4	-0.0014143218
225	0x39e30e61	0.00043307527
226	0xbb0f4654	-0.0021861987
227	0xbae15342	-0.001719095
228	0x3b9303f2	0.0044865543
229	0x3a2dbbd8	0.0006627417
230	0x39a30486	0.00031093153
231	0xbb2f72cf	-0.0026771312
232	0xbba10955	-0.0049144425
233	0xbbe72161	-0.0070535396
234	0xbb3c41df	-0.0028725786
235	0x3bb19931	0.005419873
236	0x3b37d82a	0.0028052428
237	0xbb9768f8	-0.0046206675
238	0x3c15e29e	0.009148268
239	0x3bd496c3	0.0064876988
240	0x3bc83f8c	0.006111091
241	0x3c2a556c	0.010396343
242	0x3b29eea2	0.002592959
243	0x3ba6ab15	0.0050863125
244	0x3bac3744	0.0052556116
245	0x399d8e6e	0.00030051492
246	0x3ae0223f	0.001710005
247	0x3b273404	0.0025513181
248	0xbc0025b2	-0.007821487
249	0x3a8a33af	0.0010543967
250	0xbb33925e	-0.0027400474
251	0x3b367df4	0.002784607
252	0x3a417edd	0.000738127
253	0x3bd2345c	0.006414933
254	0xbab1db82	-0.0013569447
255	0x3b201a99	0.0024429916

bias f4 [256]
0	0x3c5016e6	0.012700772
1	0x3dbd53c6	0.09244494
2	0x3b135f87	0.0022487359
3	0x3b7b42aa	0.0038339295
4	0x39dc6bf8	0.00042042113
5	0x3b9639d5	0.004584531
6	0x3d69e40f	0.05710226
7	0x3ba0e5b2	0.0049101943
8	0x3cd90960	0.026493728
9	0x3cba7e6a	0.022765357
10	0x3b8032de	0.003912314
11	0xbb8f2483	-0.004368366
12	0x3d8c8271	0.06860817
13	0x3b729ccf	0.0037019735
14	0x3c69d0b2	0.014270948
15	0x398712ac	0.00025763118
16	0x3a8b6380	0.0010634512
17	0x3a5cc2b8	0.00084213493
18	0x3b8c2239	0.0042765406
19	0x3b8558c8	0.0040694214
20	0x3a485134	0.0007641495
21	0x3b2d2ef9	0.0026425703
22	0x3c8873e7	0.016656829
23	0x3d519e8e	0.0511766
24	0xb9459e77	-0.00018846417
25	0x3b741ba9	0.0037247932
26	0x3b688713	0.00354809
27	0x3b920bbc	0.0044569653
28	0x3b90ba14	0.0044167135
29	0x3adee6e4	0.0017006067
30	0xbb48cb18	-0.0030638631
31	0x3b8fec10	0.0043921545
32	0x3b2fddc3	0.002683506
33	0x3d86c14f	0.065798394
34	0x3b72e229	0.0037061071
35	0x3b4fd095	0.0031710018
36	0x3b8e5c61	0.0043445085
37	0xbb9bfa1e	-0.004760041
38	0x3d96f341	0.07370616
39	0x3bf464ab	0.0074582896
40	0xbba4ac63	-0.005025433
41	0x3b23d150	0.0024996586
42	0x3b756a19	0.0037447272
43	0x3b80021f	0.003906503
44	0x3b8e2c0f	0.0043387483
45	0x3b67c28d	0.0035363764
46	0xb8aa6622	-8.1252554e-05
47	0x3c94a82b	0.018146595
48	0x3b848627	0.0040443125
49	0x3b14b93a	0.0022693411
50	0x3ce182bb	0.027528157
51	0x3d9e846d	0.07740102
52	0x3da84edc	0.08218166
53	0xbb93f670	-0.0045154616
54	0xbb15a04f	-0.0022831147
55	0x3b644e8c	0.0034836857
56	0x3cff4781	0.031162025
57	0xbb916529	-0.004437108
58	0x3d505374	0.050860837
59	0x3a82ad64	0.0009969887
60	0x3d20b57f	0.03923559
61	0x3b7a3034	0.0038175704
62	0x3b1f20a8	0.002428094
63	0xbaa5d6ba	-0.0012652494
64	0x3b7d55a5	0.0038655784
65	0x3b8e1161	0.004335568
66	0x3b63398b	0.003467175
67	0xb9d9f51d	-0.0004157209
68	0x3cca8307	0.024720682
69	0xbb89d874	-0.0042067114
70	0xbba7ee2d	-0.0051248283
71	0x3bc5dff3	0.0060386597
72	0x3b62d8ca	0.003461408
73	0x3b9556a8	0.0045574494
74	0x3b5e84fe	0.0033953781
75	0x3d257d41	0.040402655
76	0xbacf174d	-0.0015799791
77	0x3b0ed9f2	0.0021797386
78	0x3b0d2f1f	0.002154298
79	0x3b83297d	0.0040027485
80	0x3b881e84	0.0041540284
81	0x3b43e3b5	0.0029890363
82	0x3da3edfe	0.08004378
83	0x3d02d676	0.031942807
84	0x3a6cc9f4	0.0009032779
85	0x3d159d8a	0.036527194
86	0x3d2ffab9	0.042963717
87	0x3db813d6	0.089881584
88	0xbaea6fdc	-0.001788612
89	0xbb693dbd	-0.0035589777
90	0x3b886ea7	0.0041635814
91	0x3bda553e	0.0066629937
92	0xbb990f47	-0.0046710107
93	0x3aef12b8	0.0018239832
94	0x3d7f3d93	0.06231458
95	0x3a8b7d5f	0.0010642222
96	0x3b8fb8bf	0.004386037
97	0x3b1b12ee	0.0023662406
98	0x3bfe6398	0.0077633373
99	0x3b870be8	0.0041212924
100	0xbb91291a	-0.0044299485
101	0x3abc6083	0.0014372024
102	0x3d26af11	0.0406943
103	0x3b29cf35	0.0025910859
104	0x3c86237d	0.016374344
105	0xbb8b6b07	-0.004254702
106	0x3b905033	0.0044040917
107	0x3d09841a	0.033573247
108	0x3ccdc38e	0.025117662
109	0xbb919344	-0.0044426043
110	0x3a8652c6	0.0010248057
111	0xbb5fd184	-0.003415198
112	0x3b46a88b	0.0030312862
113	0x3b2ef5b8	0.0026696753
114	0x3d8d896a	0.06910975
115	0xba70fdd6	-0.0009193098
116	0x3ce4e4c3	0.027941113
117	0x3d0555bc	0.032552466
118	0x3b85688d	0.0040713013
119	0xbb7c026b	-0.003845359
120	0x3de64802	0.11244203
121	0x3ad9e11e	0.0016622876
122	0xb9949893	-0.00028342436
123	0xbb274e09	-0.002552869
124	0x3d88b27d	0.06674669
125	0x3b105740	0.0022024661
126	0x3d80c5d1	0.062877305
127	0x3b6fe9e0	0.0036607906
128	0x3ac281fc	0.0014839764
129	0x3c7a447b	0.015275116
130	0xbb947dc7	-0.0045315954
131	0x3a90e1da	0.0011053637
132	0xbb982406	-0.004642966
133	0x3b695f32	0.003560972
134	0xbb92f10a	-0.0044843005
135	0x3d1480c0	0.036255598
136	0x3b8a2274	0.004215533
137	0x3b76e949	0.003767567
138	0x3bcd603f	0.006267577
139	0x3b6bb452	0.0035965634
140	0x3d2a26c2	0.04154087
141	0x3d2c2c21	0.042034272
142	0x3b13e21c	0.0022565192
143	0x3d70536f	0.05867332
144	0x3a939b85	0.0011261558
145	0x3b5f23cd	0.0034048439
146	0x396d9262	0.00022656613
147	0x3dcf5d17	0.10125177
148	0x3ae23b9a	0.0017260194
149	0xbb95cc6b	-0.0045714877
150	0x3af5cf94	0.001875388
151	0x3c9f75cf	0.019465355
152	0x3a663591	0.0008781786
153	0x3b25019a	0.0025177957
154	0xbb92d973	-0.0044814884
155	0x3acf42d4	0.0015812763
156	0x3b07cc81	0.002072126
157	0x3b82f5cb	0.003996586
158	0x3bb6496e	0.0055629527
159	0xbb96bb93	-0.0045999973
160	0x3991707d	0.00027740365
161	0x3b3e2511	0.0029013793
162	0x3b25a323	0.002527424
163	0x3c0f9e0f	0.008765711
164	0x3d99416e	0.07483183
165	0x3b70899d	0.0036703118
166	0x3d92fee4	0.07177523
167	0xbb970173	-0.004608327
168	0x3af0bf95	0.0018367643
169	0x3d711f46	0.058867715
170	0x3b8590c2	0.0040760944
171	0xbb5c1684	-0.0033582756
172	0x3d124243	0.035707723
173	0x3b917d92	0.004440018
174	0x3d0d2ac6	0.03446462
175	0x3bd50e3a	0.00650194
176	0x3b0de80a	0.0021653199
177	0x3af62ce1	0.0018781686
178	0xbb95a097	-0.004566263
179	0x3bbbf710	0.0057362393
180	0x3b8aa65e	0.0042312583
181	0x3b87b682	0.0041416297
182	0x3b2be1ab	0.0026227038
183	0x3b88e65b	0.004177851
184	0x3af651a6	0.0018792644
185	0x3b95b219	0.00456835
186	0x3a30eea2	0.0006749426
187	0xbb8efd05	-0.0043636584
188	0x3d6595fe	0.056051247
189	0x3d8601d3	0.06543317
190	0x3d1600fa	0.036622025
191	0x3be80add	0.007081373
192	0x3b6760b5	0.0035305445
193	0x3b824040	0.0039749444
194	0xbb93b0a4	-0.004507141
195	0xbb97e12c	-0.004634997
196	0x3adf6867	0.0017044664
197	0x3a073c4b	0.00051588257
198	0x3b6286ca	0.0034565204
199	0x3a221784	0.00061833137
200	0xbb94d926	-0.0045424877
201	0x3b058e84	0.0020379135
202	0x3bb9aada	0.005666119
203	0x3d3be54b	0.045872968
204	0x39c3b1f3	0.0003732588
205	0xbb94d1fe	-0.0045416346
206	0x3ce086f1	0.027408095
207	0x3b59e958	0.0033250656
208	0xbb90674e	-0.004406846
209	0x3b6b58b8	0.0035911035
210	0x3a9990f3	0.0011716172
211	0x3b0f0d15	0.0021827866
212	0x3a6efd63	0.0009116737
213	0x3cf89082	0.030342344
214	0x3abba51b	0.0014316173
215	0x3d56de2b	0.05245797
216	0x3cc5bbdc	0.02413743
217	0x3b7879c7	0.0037914382
218	0x3d840699	0.06446571
219	0xbb5fabba	-0.0034129457
220	0x3b8ef07f	0.0043621655
221	0xbb9536a5	-0.0045536333
222	0x3a848ee8	0.001011339
223	0x3d240422	0.040043004
224	0x3b841b0e	0.0040315455
225	0x3b4eb985	0.0031543684
226	0xbb95ead6	-0.0045751138
227	0x3b95e115	0.004573951
228	0x3c10327f	0.008801102
229	0x3b6567c0	0.0035004467
230	0x3bbdaca3	0.005788402
231	0x3a9fbed6	0.0012187611
232	0xba6b9d65	-0.0008987992
233	0x3c5fff1f	0.013671665
234	0x3c1e6ec9	0.009669968
235	0x3d754acf	0.059885796
236	0x3d0be157	0.034150448
237	0x3b29f675	0.0025934253
238	0x39c315ec	0.0003720963
239	0x3b3c8b67	0.0028769614
240	0x3ca1277b	0.019672146
241	0x3c3dd00d	0.011585248
242	0xbb03f7a5	-0.0020136621
243	0xbb266258	-0.0025388207
244	0x3a5c0bb4	0.0008394078
245	0xbb186fc3	-0.0023259975
246	0x3b8833d4	0.004156569
247	0xb929383f	-0.00016138049
248	0x3b77e3a4	0.0037824893
249	0x3d925fc1	0.0714717
250	0x3b7f952a	0.003899882
251	0xbb97dbff	-0.00463438
252	0x3d501521	0.0508014
253	0x3c208b83	0.009798887
254	0x3b3894dc	0.00281649
255	0x3b41d60c	0.0029577045

weight f4 [256, 256]
0	0x3a5cc8ae	0.00084222376
1	0x39fb0a98	0.00047882344
2	0x3b14deba	0.0022715763
3	0x3bc49660	0.0059993714
4	0xbc17a662	-0.009255977
5	0xbae9b6ad	-0.0017830931
6	0x399b9869	0.00029677458
7	0xb9419da3	-0.00018464639
8	0x3863e420	5.4333475e-05
9	0x39980322	0.00028994033
10	0xbb03d571	-0.0020116235
11	0x3aeaf756	0.0017926495
12	0xb8d7b083	-0.00010284877
13	0xbc1a4143	-0.009414974
14	0x3abf5606	0.001459778
15	0x3b2b7f90	0.0026168562
16	0xbc1935e5	-0.009351228
17	0xbbea0ea7	-0.00714286
18	0xbaed3e05	-0.0018100148
19	0xbb00f4b5	-0.0019677107
20	0xbc19aa1e	-0.009378938
21	0xbc187871	-0.009306059
22	0xb9b5418d	-0.0003457185
23	0x39ccf3c7	0.0003909154
24	0xb9519dd8	-0.00019990595
25	0x3bcb7311	0.0062087853
26	0xbb0e4694	-0.0021709548
27	0xbae956d9	-0.0017802372
28	0xbaea23b2	-0.0017863421
29	0xbc199710	-0.009374395
30	0xbafcaa11	-0.0019276758
31	0xbae62e27	-0.0017561362
32	0xbb0436a7	-0.0020174177
33	0x39aa437b	0.00032475204
34	0xbb08a4bb	-0.002085014
35	0xba4acd6b	-0.0007736298
36	0xbaea9f68	-0.001790029
37	0x3ac7643a	0.0015212365
38	0x39ea7669	0.0004472018
39	0xbc1c0812	-0.0095234085
40	0x3aff65c8	0.0019485289
41	0xbc1a1876	-0.009405246
42	0xbb098507	-0.0020983831
43	0xbb0131bb	-0.001971348
44	0xbc1c99bd	-0.009558138
45	0xbafaefd5	-0.0019144962
46	0xbc146cdd	-0.009059158
47	0x398fbda2	0.00027416373
48	0xbaf9a425	-0.0019046111
49	0xbc1b817a	-0.009491319
50	0xb7c7936e	-2.3791301e-05
51	0x39e9441e	0.00044491974
52	0xb8c0cc59	-9.193336e-05
53	0x3ad146e0	0.0015966557
54	0xbaea4957	-0.001787464
55	0x3c132ab9	0.008982354
56	0x38c2737f	9.272154e-05
57	0x3ad8bd07	0.0016535827
58	0x363fd7b0	2.8586765e-06
59	0xbba093a5	-0.004900413
60	0x3901108d	0.00012308564
61	0x3b4a8f92	0.0030908328
62	0xbb045e80	-0.0020197928
63	0x3ad2a477	0.0016070743
64	0xbb0f517d	-0.002186864
65	0x3bc0bdd6	0.005882005
66	0xbaff0521	-0.0019456485
67	0x3b039eb9	0.002008362
68	0x39596bd0	0.00020734896
69	0x3ad6cdc3	0.0016388226
70	0x3acb0fe1	0.0015492403
71	0xbc0350ec	-0.008014899
72	0x3af19bff	0.0018433331
73	0xbaf0adb4	-0.0018362314
74	0x3b684d9f	0.0035446656
75	0x38c0fdd4	9.2025526e-05
76	0x3ae5eb82	0.00175415
77	0xbc1944a8	-0.009354748
78	0xbc1674e4	-0.009183142
79	0xbafb9659	-0.0019194587
80	0xbafaef99	-0.0019144892
81	0xbc1a893c	-0.009432133
82	0x3a39613e	0.000707168
83	0x37eca902	2.8212093e-05
84	0x3b17c742	0.0023159538
85	0xb7ae9b11	-2.0814625e-05
86	0xb724b58c	-9.817431e-06
87	0xb907d644	-0.00012954423
88	0xbab47dad	-0.0013770364
89	0x3af7d0de	0.0018906852
90	0xbaf2b720	-0.001851771
91	0xba9f655d	-0.0012160946
92	0x3acd1c7e	0.001564875
93	0xbc19e3ca	-0.009392688
94	0x38fad508	0.00011960609
95	0xbc1d5d43	-0.009604755
96	0xbaf01748	-0.0018317485
97	0x3b6f1985	0.0036483717
98	0x3b8e1362	0.0043358067
99	0xbaffb725	-0.0019509537
100	0x3aee2de6	0.0018171638
101	0x3b0f9649	0.0021909645
102	0xb6602e92	-3.3405709e-06
103	0xba164dc3	-0.00057336333
104	0xb98c8b3a	-0.00026806613
105	0x3adcc294	0.0016842657
106	0xbae69b38	-0.0017593866
107	0x38770ede	5.8903235e-05
108	0x37ffa1bb	3.047368e-05
109	0x3ad951a4	0.0016580117
110	0xbba0c223	-0.0049059554
111	0x3aed304b	0.0018096057
112	0xbadb74cd	-0.0016743183
113	0xbb054eea	-0.0020341226
114	0x36ad5b67	5.1664424e-06
115	0xba81052c	-0.000984346
116	0xb8604ed5	-5.347918e-05
117	0x384daacb	4.9034872e-05
118	0xbafe4ca6	-0.0019401505
119	0x3ada6e02	0.0016664865
120	0xb922fae2	-0.00015542985
121	0xbc18fdff	-0.009337901
122	0xbc1a399b	-0.009413148
123	0xbabeb135	-0.0014548661
124	0xb8d63117	-0.00010213459
125	0xbac73bc1	-0.0015200303
126	0x39d3797f	0.00040335578
127	0xbb08f2a1	-0.0020896571
128	0xbb075f3e	-0.0020656134
129	0x3a1bce83	0.00059435534
130	0x3accc8f1	0.001562385
131	0xbc149688	-0.009069093
132	0x3acc4eb8	0.0015587425
133	0xbb054dc1	-0.0020340534
134	0x3ad14b2c	0.0015967838
135	0x3882d7fa	6.239112e-05
136	0xbafb112d	-0.0019154899
137	0xbb04fd3b	-0.0020292539
138	0xba172c41	-0.0005766787
139	0x3bb142ba	0.0054095658
140	0x3933a6bc	0.00017132884
141	0x39183da7	0.00014518817
142	0xbc1d13f9	-0.009587281
143	0xb9202ad5	-0.00015274745
144	0x3a9d0654	0.0011980035
145	0xbaf27d46	-0.0018500469
146	0x3b0d3fca	0.0021552914
147	0xb90f340e	-0.00013656935
148	0xbbb292e9	-0.005449642
149	0x3ad24145	0.001604118
150	0x399b41e8	0.00029613008
151	0x39f92022	0.00047516922
152	0xbc1ad8d6	-0.009451112
153	0x3af11f0f	0.0018396097
154	0x3ace69fa	0.0015748136
155	0xbc17b081	-0.00925839
156	0x3b601eb0	0.0034197979
157	0xbb0283f9	-0.0019915088
158	0xbbcbd507	-0.006220463
159	0x3acc8f82	0.0015606734
160	0xbbe261f5	-0.00690865
161	0x3b499513	0.0030759021
162	0xbab3a774	-0.0013706521
163	0x3ab4a789	0.001378284
164	0x3a0565e7	0.0005088732
165	0xbaec9c7d	-0.0018052008
166	0xb8c7a520	-9.5198164e-05
167	0x3af65f1c	0.0018796655
168	0x3b1d573d	0.0024008297
169	0xb7d04d18	-2.4831432e-05
170	0xbb051005	-0.0020303738
171	0xbc298a3e	-0.010347901
172	0x38310b04	4.2210348e-05
173	0xbae93d6c	-0.0017794794
174	0x3976f534	0.00023551733
175	0xba79a033	-0.0009522468
176	0xbc150f05	-0.009097819
177	0xbc18fa1f	-0.009336977
178	0x3acd4638	0.0015661186
179	0xbb017c2e	-0.0019757855
180	0xbaf45563	-0.001864117
181	0xbaf8e97a	-0.001899048
182	0xbc1a600a	-0.009422312
183	0xbaf1627f	-0.0018416195
184	0xbc1a7afa	-0.009428734
185	0xbaeb29e4	-0.0017941562
186	0xbbd7cca8	-0.006585676
187	0x3ae1e61e	0.0017234718
188	0x39f821af	0.00047327342
189	0x3a182e88	0.00058052735
190	0x3915804f	0.00014257546
191	0x3b28fb35	0.0025784497
192	0xbaeedabb	-0.0018223146
193	0x387e692b	6.0656264e-05
194	0x3ad0f009	0.0015940677
195	0x3acbe48a	0.0015555781
196	0xbbf33201	-0.0074217324
197	0xbb086968	-0.002081478
198	0x3c0fe5d5	0.008782824
199	0x3af71ded	0.0018853523
200	0x3ace7f48	0.0015754486
201	0x3b235c30	0.0024926774
202	0x3b92d647	0.0044811103
203	0x39cff3d8	0.00039663794
204	0x3b1d7507	0.0024026053
205	0x3acc58f6	0.0015590477
206	0x38a6587d	7.931979e-05
207	0xbb0dd83a	-0.0021643774
208	0x3ae86ea4	0.0017733169
209	0xbafc3654	-0.0019242265
210	0xbbe62a18	-0.007024061
211	0xbc1a489c	-0.0094167255
212	0x3b128a95	0.0022360433
213	0x397719b2	0.00023565328
214	0x3a865ed4	0.001025165
215	0x39820362	0.00024798053
216	0x39b3a589	0.00034264874
217	0xbb0bef25	-0.0021352258
218	0x39e8be4f	0.0004439228
219	0xbb00b475	-0.001963881
220	0xbaeac31a	-0.0017910928
221	0x3acaba06	0.0015466816
222	0xbc1e12cb	-0.009648035
223	0x394304b6	0.00018598404
224	0xbaf5848f	-0.0018731522
225	0x3b17d7ab	0.002316932
226	0x3acde903	0.0015709702
227	0xbae9bd45	-0.0017832896
228	0x3b9265b2	0.0044676894
229	0xbaf1fe80	-0.0018462688
230	0xba84935c	-0.0010114717
231	0x3b45cda1	0.0030182379
232	0x3b0029df	0.0019556207
233	0xb9b39c84	-0.00034258154
234	0xba5462f4	-0.00081019034
235	0xb6c75a6d	-5.941189e-06
236	0x378fbc10	1.7134502e-05
237	0xbc1a28f7	-0.009409181
238	0x37c6e164	2.3708395e-05
239	0xbb01c398	-0.001980042
240	0x394a40c4	0.00019288348
241	0xb9f784a9	-0.0004721035
242	0xbb9f69af	-0.0048648934
243	0xbbac38ce	-0.005255795
244	0xbc1aa036	-0.009437611
245	0xbb3ecf29	-0.0029115176
246	0xba87ccd3	-0.0010360725
247	0xbc1e6805	-0.009668355
248	0xbafe71cb	-0.0019412575
249	0x39defdc9	0.00042532224
250	0xbb02bcd5	-0.0019948978
251	0x3acbefe3	0.0015559163
252	0x39b227de	0.0003398051
253	0x3a177625	0.0005777798
254	0xbc1b8e3a	-0.009494359
255	0x3b39651a	0.002828902

bias f4 [256]
0	0x38b6809f	8.702394e-05
1	0xbb0a7620	-0.0021127537
2	0xbafe5da0	-0.0019406565
3	0xbaca0f73	-0.0015415981
4	0xbaeede43	-0.0018224198
5	0x3a5cc3c5	0.0008421506
6	0x3cd45c5e	0.02592295
7	0x3b599ef7	0.0033206323
8	0xbaf77487	-0.0018879332
9	0xba72d0d3	-0.00092626846
10	0x3b2635b5	0.0025361602
11	0xbb07970d	-0.0020689399
12	0xbaa3e40a	-0.0012503874
13	0x3d0ec420	0.034855008
14	0xbac16e43	-0.0014757592
15	0xbab3fc90	-0.0013731886
16	0x3d19e07b	0.037567597
17	0xba7709df	-0.0009423773
18	0x3cb1e3ca	0.021715064
19	0xbb2324f6	-0.0024893857
20	0x3a0a7ef0	0.00052831974
21	0x3d019cc3	0.03164364
22	0xba9dfbe3	-0.0012053218
23	0x3c85bc85	0.016325245
24	0xbb0ad819	-0.0021185933
25	0x3cf36767	0.029712392
26	0xba49837e	-0.00076871354
27	0x3b2ac85c	0.0026059365
28	0xba4b22ae	-0.0007749003
29	0x3b4ad2d2	0.0030948413
30	0xbab73d9c	-0.0013980153
31	0x3d1576ab	0.036490124
32	0x3b2afe94	0.0026091682
33	0xba7a6d04	-0.0009552988
34	0xba0e242a	-0.0005422259
35	0x3ad74474	0.0016423599
36	0xba1d802b	-0.0006008173
37	0x3b21a6f2	0.0024666158
38	0xbac9bf27	-0.0015392051
39	0xb9f8ff3f	-0.0004749242
40	0xbb1e4f88	-0.002415629
41	0x3c9dbfaa	0.019256432
42	0xb9cd0012	-0.000391007
43	0x3c8d2100	0.01722765
44	0xba805f09	-0.0009793948
45	0xba976a13	-0.0011551998
46	0xba6f0eb2	-0.0009119316
47	0xbabc7bd5	-0.0014380167
48	0xbb098dd5	-0.002098908
49	0xbac5372e	-0.0015046352
50	0x3b138aa8	0.0022513065
51	0xba03c82e	-0.00050270825
52	0x3d0d9f93	0.03457601
53	0x3b13915a	0.0022517056
54	0xba5524f7	-0.00081308134
55	0xbada58b0	-0.0016658511
56	0x3aad7552	0.0013233817
57	0xba0abdc1	-0.0005292558
58	0x3a38e5a9	0.0007053265
59	0x3aa581c2	0.0012627172
60	0xbadfa7ca	-0.0017063555
61	0x3b15186e	0.0022750157
62	0xba4b0894	-0.00077451137
63	0x3b1cd923	0.0023933135
64	0xbb256444	-0.0025236765
65	0x3c5edbd0	0.013602212
66	0x3cd6150d	0.026133085
67	0xbae87b34	-0.0017736913
68	0x3a691438	0.00088912575
69	0x3d03ae98	0.032148927
70	0x3b1dce52	0.0024079275
71	0xbaf0d6a3	-0.0018374514
72	0x3ce0fc77	0.027464135
73	0x3d276385	0.040866394
74	0x3cf32178	0.029679045
75	0xba74b224	-0.00093344063
76	0x3a9d2608	0.0011989484
77	0xbadd1196	-0.0016866203
78	0x3c9cb855	0.019130865
79	0x3cb3d9c3	0.021954423
80	0xbac0b7e4	-0.0014703241
81	0xbaa47fa6	-0.0012550249
82	0xbb2522c9	-0.0025197736
83	0x3cbaa110	0.022781879
84	0x3ad4d093	0.0016236476
85	0x3b851219	0.0040609953
86	0x3abae9d5	0.0014260361
87	0xbab13b79	-0.0013521753
88	0x3cf04582	0.029330019
89	0xbaa6ab3e	-0.0012715829
90	0x3a26dbe9	0.00063651666
91	0xba1c123f	-0.00059536466
92	0x3983b125	0.0002511825
93	0x3cbcf5ff	0.023066519
94	0x3b362f46	0.0027799173
95	0xbb066dab	-0.0020512145
96	0xbb014a84	-0.0019728253
97	0xb9a103f3	-0.00030711255
98	0x39e984ba	0.00044540112
99	0xbb24cb33	-0.002514553
100	0xbb05cd56	-0.002041658
101	0x3cf7c5d4	0.030245699
102	0x3b06f557	0.0020593011
103	0x3b1b663e	0.0023712064
104	0x3cd19715	0.025584737
105	0x3a242d53	0.00062628574
106	0x3d127aec	0.03576176
107	0x3d0ced3f	0.034405943
108	0xbaeda422	-0.001813058
109	0x3b166534	0.0022948505
110	0xbaac99c2	-0.0013168382
111	0x3c13076e	0.008973939
112	0x3ab93342	0.0014129656
113	0xba9f58fc	-0.0012157257
114	0x3a411b6d	0.00073664525
115	0xbb36b6e1	-0.002788
116	0x37a3325c	1.9454565e-05
117	0x3b1f9f98	0.00243566
118	0x3ac76afe	0.0015214381
119	0xba0f4caa	-0.0005466441
120	0x3aecc1d9	0.0018063142
121	0x3a94bded	0.0011348106
122	0x3b263ccd	0.002536583
123	0xbab7daa9	-0.0014026958
124	0x3b054220	0.0020333603
125	0x3d20440d	0.0391274
126	0x3a07f3ea	0.00051861873
127	0x3c82ba6a	0.01595803
128	0xba26f9b7	-0.0006369608
129	0x3b16ee2e	0.002303015
130	0x39c3b6b0	0.0003732941
131	0x3d164318	0.03668508
132	0xba915003	-0.0011086467
133	0xbb152016	-0.002275472
134	0x3cecdc29	0.028913574
135	0xbad30746	-0.001610019
136	0x3c1218b2	0.008917021
137	0xbac8cfe3	-0.0015320744
138	0x3b299b90	0.0025880076
139	0xba6b6986	-0.0008980263
140	0xbb22fc82	-0.0024869745
141	0x3c83e78e	0.016101625
142	0x397fc95e	0.0002439371
143	0xba813246	-0.0009856902
144	0xbaed5423	-0.001810674
145	0xbb1a79ef	-0.0023571213
146	0x3ac0563e	0.001467414
147	0xbb00e84f	-0.0019669717
148	0x3c84f7b8	0.016231403
149	0xba903e2a	-0.0011004854
150	0x3cb5e72d	0.02220496
151	0x3cef596e	0.029217448
152	0x3cbf1ec2	0.023330096
153	0xbb25fbc3	-0.0025327064
154	0xbad5a904	-0.0016300981
155	0x3998eb7e	0.00029167155
156	0x3d10bf06	0.035338424
157	0xbb1bdb47	-0.0023781823
158	0x3b078031	0.0020675773
159	0x3a159257	0.0005705705
160	0x3aa889db	0.0012858467
161	0xbb167fbf	-0.0022964326
162	0xb9a7ed3d	-0.00032029478
163	0xba99e9f6	-0.00117427
164	0x39ea78ea	0.00044722046
165	0x3d3f31da	0.0466784
166	0x3a970455	0.0011521677
167	0xbafe184a	-0.0019385901
168	0x3aa8b62d	0.0012871675
169	0x3cde37f5	0.027126292
170	0xbabd1973	-0.001442714
171	0x3d0a6382	0.033786304
172	0x3a1ccedf	0.0005981754
173	0x3a995cd6	0.0011700641
174	0xbaae3e90	-0.0013293792
175	0xbb045d7b	-0.002019732
176	0x3cfc2f2a	0.030784208
177	0x3c29358d	0.010327709
178	0x38b9ae30	8.8539324e-05
179	0x3b1fbcf4	0.00243741
180	0xbb04049f	-0.0020144356
181	0xbaadbfd5	-0.0013256023
182	0x3af53b1e	0.0018709635
183	0xbabf9a43	-0.0014618117
184	0x3ca8c771	0.020602914
185	0x3b288372	0.0025713113
186	0xbaa05c98	-0.0012234626
187	0xb9ff1e2f	-0.0004865988
188	0xbab89c1b	-0.0014084609
189	0xbaa263f5	-0.0012389409
190	0x3b2b3716	0.0026125363
191	0x3cf6bfc0	0.03012073
192	0xba6e2093	-0.00090838334
193	0xbaf4f4a7	-0.0018688635
194	0xb9d59cde	-0.000407434
195	0x3ad18945	0.0015986344
196	0x3b7d186f	0.00386193
197	0xbae38283	-0.0017357621
198	0xba452e25	-0.00075218297
199	0x3b6a9440	0.003579393
200	0x393c1088	0.00017935236
201	0x3aab4a60	0.001306843
202	0x3b048640	0.002022162
203	0x3a9f5060	0.0012154691
204	0xbae4d99a	-0.001745987
205	0x3d21720a	0.039415397
206	0x3d32d728	0.04366222
207	0x3b19c085	0.0023460698
208	0x3d3f2664	0.04666747
209	0x3b2787a9	0.0025563037
210	0xbac0a94c	-0.0014698892
211	0x3ccb5a21	0.02482325
212	0x3bc26fa1	0.0059337174
213	0x3a5367b1	0.00080644625
214	0x3be09cf3	0.0068546473
215	0xbb23582f	-0.0024924388
216	0x3b0f64ee	0.0021880227
217	0x3cb37a94	0.021909036
218	0x3a86b8fe	0.0010278521
219	0x3cf5f426	0.030023646
220	0x3afdd9d5	0.0019367287
221	0xbabfbf38	-0.0014629131
222	0xbadb9c0b	-0.0016754878
223	0x3c5e47e9	0.013566949
224	0x3a64f361	0.0008733776
225	0x3b272316	0.002550309
226	0x3ca8ae27	0.020590855
227	0xbafb8cef	-0.0019191782
228	0xb9a1d3f3	-0.00030866227
229	0x3c4b0012	0.0123901535
230	0x3cb5d958	0.022198364
231	0xbada8487	-0.0016671576
232	0x3a862653	0.001023481
233	0x3aafd571	0.0013415051
234	0xbadc22f6	-0.0016795087
235	0xbab1d156	-0.0013566415
236	0x3b02eb62	0.0019976725
237	0xbab119df	-0.0013511739
238	0xba7a7b64	-0.000955513
239	0xbb11dc8e	-0.0022256705
240	0x3c89fe72	0.016844962
241	0x3a687ae8	0.0008868412
242	0xbaeccfb2	-0.0018067269
243	0x39a0a52a	0.00030640635
244	0xbb1e37a9	-0.0024142063
245	0xbaacc8d1	-0.0013182407
246	0x3cad8f62	0.021186534
247	0xbac58de1	-0.001507219
248	0x39893e71	0.000261772
249	0xba3a9fba	-0.0007119138
250	0xbb1cb9c4	-0.0023914436
251	0x3a995500	0.0011698306
252	0x3c210ba0	0.009829432
253	0xba78a95d	-0.00094856863
254	0x3b29239c	0.0025808578
255	0x3d5a17f9	0.05324552

weight f4 [128, 256]
0	0xbb9efe9f	-0.0048521305
1	0x38c82401	9.5434494e-05
2	0x36c4e475	5.867851e-06
3	0xb998fbb1	-0.00029179224
4	0xb9b95fa8	-0.0003535722
5	0x3ad2c5ec	0.0016080714
6	0xbc9e7fb9	-0.019348012
7	0x3a945a3f	0.0011318399
8	0xb999aca8	-0.00029311073
9	0x3a23d438	0.00062495796
10	0xba05ca7c	-0.000510372
11	0x3a245574	0.0006268837
12	0xba01f769	-0.00049578265
13	0xbd0742d1	-0.033022705
14	0xb9b4a83b	-0.00034457617
15	0xb9d81b80	-0.0004121922
16	0x3c877ff4	0.016540505
17	0x3ba582b1	0.00505098
18	0x3c4160cf	0.011802866
19	0x394a7c99	0.00019310637
20	0xbaf3c2dd	-0.0018597502
21	0x3c9e558a	0.019327898
22	0xba0e50af	-0.0005428893
23	0x3bf54582	0.0074850926
24	0x3bd384ac	0.0064550247
25	0xbca90bf3	-0.02063558
26	0xb99c95ac	-0.00029866153
27	0xbbdfd675	-0.006830985
28	0xbb46b4a1	-0.0030320066
29	0xbb608967	-0.0034261586
30	0xb9e39fa2	-0.0004341575
31	0xbd01fef1	-0.03173727
32	0xbbe0b814	-0.0068578813
33	0xbac42dbd	-0.0014967244
34	0xbb49ddd6	-0.003080239
35	0x3710b9bf	8.626316e-06
36	0x3a73d752	0.00093017996
37	0xbbd5e0f2	-0.0065270597
38	0xb9a090b0	-0.0003062538
39	0xb9e29b85	-0.0004322195
40	0x39eddc73	0.0004536841
41	0xbc52ab77	-0.012858263
42	0xbb790639	-0.0037998094
43	0x3c0880dc	0.008331504
44	0xba8f04b8	-0.001091144
45	0x3ba69b60	0.00508444
46	0xba9e4dfe	-0.0012077687
47	0xb90b9e08	-0.00013314944
48	0xb8ae703e	-8.317873e-05
49	0xb9a7c29c	-0.00031997717
50	0xb9c06cac	-0.0003670206
51	0x3a7ebbe6	0.000971733
52	0x3c92191a	0.017834235
53	0xb9d15d3d	-0.00039933054
54	0xbb00c28e	-0.0019647214
55	0x3bd218c0	0.006411642
56	0xb92e6764	-0.00016632449
57	0x3a58e60e	0.0008274027
58	0x3b2f0afc	0.0026709428
59	0x3b1fe650	0.0024398752
60	0x3bb6f01e	0.0055828234
61	0x3a6ea134	0.00091030006
62	0xbab0d6c5	-0.0013491741
63	0xb9e4c000	-0.000436306
64	0x396d495c	0.0002262941
65	0x3bc9b850	0.006156005
66	0xbc94ab60	-0.018148124
67	0xb8fe0c37	-0.00012113939
68	0xbbb2c889	-0.0054560346
69	0xbcde9d16	-0.027174514
70	0xb9ecbe9b	-0.0004515544
71	0xb88c33c8	-6.685365e-05
72	0xbcf17aee	-0.029477563
73	0xbd02d6b3	-0.031943034
74	0xbcf69ea7	-0.030104948
75	0x3bb1e8b4	0.0054293517
76	0x39a66970	0.00031740544
77	0xb9470f46	-0.00018983809
78	0x3c1c04a8	0.0095225945
79	0x3c46b202	0.012127401
80	0xb9bb4f33	-0.00035726427
81	0xba231243	-0.0006220678
82	0x3975bc1b	0.00023435095
83	0x3c459c19	0.012061142
84	0x3b548512	0.003242795
85	0x3ad4fe16	0.001625004
86	0x3a87f822	0.0010373632
87	0xb9c8ae05	-0.00038276627
88	0xbcd6302b	-0.026146015
89	0xb9ea11fb	-0.00044645355
90	0x3b8e5e8d	0.0043447674
91	0x3a1036b6	0.00055013166
92	0x3b28c4ae	0.0025751996
93	0xbc8ada8c	-0.016949914
94	0xbbddaad1	-0.0067647477
95	0xb62efcef	-2.6075247e-06
96	0x37e06dc8	2.6754002e-05
97	0x3b9a4345	0.004707726
98	0x3b86f1b6	0.0041181697
99	0x397a2714	0.00023856416
100	0x388040c3	6.1155784e-05
101	0x3c785e35	0.015159179
102	0xb98b0db7	-0.00026522364
103	0xbbdce9e2	-0.006741748
104	0x3c6b4b34	0.014361192
105	0x3b75dd76	0.0037516034
106	0xbcec64ff	-0.028856752
107	0x3cc47db0	0.023985714
108	0xbab01c75	-0.0013436215
109	0xba05e6c6	-0.0005107935
110	0xba1bacba	-0.0005938519
111	0xbbd8a3dc	-0.0066113304
112	0x3b24fb19	0.002517408
113	0xba04cd58	-0.0005065999
114	0x3b7f0e28	0.003891835
115	0x3a70a617	0.0009180023
116	0x3acebf6c	0.0015773601
117	0xbbda619f	-0.0066644694
118	0x38beb962	9.094436e-05
119	0xb952bfea	-0.00020098654
120	0x3a4729cd	0.00075974764
121	0x3b3d7d4b	0.0028913792
122	0xba0613ed	-0.00051146635
123	0xb9b16072	-0.00033831928
124	0xb993615e	-0.0002811057
125	0xbd089d9c	-0.033353433
126	0x3b0cae7a	0.00214663
127	0x3bf44d51	0.007455506
128	0x3a8c56c8	0.0010707015
129	0xb9e56949	-0.00043756727
130	0x3b52eaa4	0.0032183314
131	0xbce82cbe	-0.028341647
132	0xba3117fd	-0.00067555887
133	0x3bd4893c	0.006486086
134	0x3c8c153a	0.017099965
135	0xb94dc854	-0.00019624952
136	0x3acef0d8	0.001578833
137	0x3bb2a28b	0.0054515055
138	0xbbdeea01	-0.006802798
139	0x3ba42818	0.0050096624
140	0x39bb862c	0.00035767385
141	0x3bf8c05f	0.007591292
142	0xbae52a6e	-0.0017483959
143	0xba8139ea	-0.0009859179
144	0x3bbc38a3	0.0057440563
145	0x3a05e7ed	0.0005108107
146	0xba0deb35	-0.0005413772
147	0x37d771a1	2.568291e-05
148	0xbc2fedb8	-0.010737829
149	0xba96e67f	-0.0011512785
150	0x3c411c13	0.011786479
151	0xbca838df	-0.02053493
152	0x3c5628b4	0.013071228
153	0x397a4069	0.00023865853
154	0xb971e7d6	-0.00023069917
155	0xb9bae340	-0.00035646
156	0x3cd960ed	0.026535476
157	0x394c827e	0.00019503568
158	0xbbdc0ff4	-0.006715769
159	0xbae2aafa	-0.0017293387
160	0xbb193bc8	-0.002338158
161	0x392a85b9	0.00016262279
162	0xb4ab89c7	-3.1951478e-07
163	0xba255666	-0.0006307125
164	0x3b65793e	0.0035014893
165	0x3d1ca665	0.038244624
166	0x3b0b6944	0.002127246
167	0x36b52e14	5.3995846e-06
168	0x398e5760	0.0002714945
169	0x3c4abd28	0.0123742
170	0xb9af70b4	-0.0003346257
171	0xbcfca965	-0.030842492
172	0xbba99a2b	-0.005175849
173	0x3b11a959	0.0022226183
174	0xba13172a	-0.00056110567
175	0x3858bc3c	5.167372e-05
176	0x3c97eb81	0.018544914
177	0x3b8c9792	0.0042905295
178	0xbb9e33ef	-0.0048279683
179	0xbbdcd5f3	-0.006739372
180	0xb4dfe8d6	-4.1706397e-07
181	0xba1e6f96	-0.0006043849
182	0xb91941f1	-0.00014615782
183	0xb9b09649	-0.00033681307
184	0xbc625328	-0.013813771
185	0xba06256d	-0.0005117271
186	0xba05ea42	-0.00051084545
187	0x3a386cbf	0.00070352474
188	0xb9ab3342	-0.00032653852
189	0x3ba1deb5	0.004939879
190	0xbbde4ce3	-0.006784068
191	0xbcb61ad9	-0.022229599
192	0x3ba16cb4	0.0049262885
193	0xb83ab56c	-4.4514818e-05
194	0x3a62da98	0.0008653789
195	0xba1307ca	-0.00056087656
196	0x3ab20ce7	0.0013584167
197	0xb72aba7d	-1.017621e-05
198	0x3bc314ed	0.0059534223
199	0xbb309dd5	-0.0026949544
200	0xbb9ca646	-0.0047805635
201	0x39734d45	0.00023203071
202	0xb97afbcc	-0.0002393566
203	0x3b1738d1	0.0023074637
204	0xb90dc37b	-0.0001351963
205	0x3ce41ab0	0.027844757
206	0x3d082cd9	0.033245895
207	0xb9e691e3	-0.00043977713
208	0x3d093541	0.033498053
209	0xba035d17	-0.0005011125
210	0xb99ee7c7	-0.00030308796
211	0x3c57b0ce	0.013164712
212	0x3b1064c1	0.002203271
213	0x3b3f2eca	0.0029172176
214	0x3ae5fc1b	0.0017546447
215	0x3971147b	0.0002299118
216	0xb9c464ea	-0.0003745922
217	0x3c3aa0e5	0.011390899
218	0x3b408b04	0.0029379735
219	0xbcab78a6	-0.020931553
220	0xb9618fab	-0.00021511193
221	0xb9bc3464	-0.00035897188
222	0xb87314d0	-5.7955098e-05
223	0x3bcf8ddf	0.006334051
224	0x3ba8a9c6	0.0051471917
225	0xbbde2756	-0.0067795916
226	0xbc6277b9	-0.013822489
227	0xb69578a4	-4.4545905e-06
228	0x37c5db77	2.3586426e-05
229	0xbc0a04fd	-0.008424041
230	0xbc80e8ba	-0.015735973
231	0xb962a265	-0.00021613536
232	0x39c7de6e	0.0003812196
233	0x3b29bb60	0.0025899038
234	0xba464192	-0.00075628713
235	0xbaab704b	-0.001307973
236	0xb9fb983a	-0.00047987868
237	0xba0f74a9	-0.0005472401
238	0xbae2b116	-0.0017295207
239	0x39066166	0.0001281552
240	0x3be3bbfc	0.0069498997
241	0x39ffc557	0.0004878442
242	0x39dcac21	0.00042089916
243	0x3a254fba	0.00063061307
244	0x395dc8c7	0.00021150998
245	0xb9d0bc4e	-0.0003981315
246	0x3c2f72ac	0.010708492
247	0x3bb497f1	0.005511277
248	0x3b9079f3	0.0044090687
249	0xbb6169c4	-0.0034395317
250	0x39658a84	0.00021890743
251	0x39e3a111	0.00043416818
252	0x3b86207e	0.004093229
253	0x3bae26e3	0.0053146943
254	0xbbdfbbf5	-0.006827826
255	0x3d24a2ba	0.04019425
