models/model_objs/nhl_model_pregame.pth (torch, 867577 bytes, 11 tensors)

weight f4 [256, 165]
0	0x3cd498d7	0.025951786
1	0xbd0e0245	-0.034670133
2	0x3cb22cab	0.021749815
3	0xbc959c0c	-0.018262886
4	0x3d9123ba	0.070868924
5	0xbd3ed75e	-0.04659211
6	0xbd54dc5e	-0.05196797
7	0xbd338cfa	-0.043835618
8	0x3d99b5fc	0.07505414
9	0x3c9efbaf	0.019407121
10	0x3d8c4cd6	0.06850593
11	0xbd813383	-0.06308653
12	0xbda3ca83	-0.079976104
13	0xbd90ecab	-0.07076391
14	0xbd3264cd	-0.043553162
15	0x3ccd2f37	0.025046928
16	0x3cc78f5e	0.024360355
17	0x3d853bb7	0.0650553
18	0xbcefd107	-0.029274477
19	0xbd7539df	-0.059869643
20	0x3d2ef67e	0.042715542
21	0xbd078480	-0.033085346
22	0x3d2a2ad3	0.041544747
23	0xbcdf759d	-0.027277762
24	0x3d4461a1	0.04794467
25	0xbd77c116	-0.060486875
26	0xbd15de8f	-0.0365892
27	0x3c961e34	0.018324949
28	0x3bcfe782	0.0063447366
29	0xbc79dada	-0.015249932
30	0x3d4400cd	0.047852326
31	0x3d5a385c	0.053276405
32	0xbd86b0a0	-0.06576657
33	0xbd3ffdb6	-0.046872817
34	0x3d998967	0.074969105
35	0xbccd20f7	-0.025040133
36	0xbccda7e1	-0.025104465
37	0xbd9a451e	-0.07532714
38	0xbd369bf2	-0.044582315
39	0x3c565194	0.013080973
40	0xbc3a5f59	-0.011375272
41	0xbd836489	-0.0641566
42	0xbba284f0	-0.004959695
43	0xbd528dad	-0.051404644
44	0xbd6d9e17	-0.058012094
45	0xbd89b0d0	-0.067231774
46	0xbdb49f9f	-0.08819508
47	0xbd976a0e	-0.07393275
48	0x3d8a5316	0.06754129
49	0x3c6793b6	0.014134338
50	0x3d4fec28	0.050762326
51	0xbdaa3b7a	-0.083121255
52	0xbd8d0012	-0.06884779
53	0xbc7ef845	-0.015562122
54	0x3d0a4775	0.033759553
55	0xbd7725e6	-0.060338877
56	0xbd481790	-0.048850596
57	0xbd36a546	-0.04459121
58	0xbcfefbd4	-0.03112594
59	0xbc8da944	-0.017292626
60	0xbbd0d649	-0.006373201
61	0xbd58e3ec	-0.05295174
62	0xbd48e26b	-0.049044054
63	0xbd149215	-0.036272127
64	0xbca911d2	-0.02063838
65	0xbd8a03a3	-0.06738975
66	0x3daa29ef	0.083087794
67	0xbce460c1	-0.027878167
68	0x3d5ab0d6	0.0533913
69	0x3ce02c4b	0.02736487
70	0xbdc0706e	-0.09396444
71	0x3d33f307	0.04393294
72	0xbcbdef5e	-0.023185428
73	0xbcffac9a	-0.031210233
74	0xbd8242f9	-0.0636043
75	0xbd9ad968	-0.07560998
76	0x3ce4596c	0.02787467
77	0xbc18ca97	-0.009325645
78	0x3cbe2cb5	0.023214677
79	0xbd82af35	-0.06381074
80	0x3d7a5321	0.061114434
81	0xbd732934	-0.059365466
82	0xbc5b31dc	-0.013378587
83	0x3c4a4f08	0.012347944
84	0x3d6130af	0.05497807
85	0x3d885c3b	0.066582166
86	0x3d9f3bae	0.07775055
87	0xbd9aa4db	-0.07550975
88	0x3d122508	0.035679847
89	0xbd1df6fe	-0.03856563
90	0xbc7d857c	-0.01547372
91	0xbd9f1eb4	-0.07769528
92	0x3d897317	0.06711405
93	0xbd5b30fd	-0.053513516
94	0x3d1bc7a2	0.03803218
95	0x3d090549	0.033452306
96	0x3cc6d294	0.024270333
97	0xbd58e5cf	-0.052953538
98	0x3dab1e0c	0.0835534
99	0x3c1cb2dc	0.009564128
100	0x3ab61023	0.0013890307
101	0xbd819126	-0.06326513
102	0x3cde4633	0.027133083
103	0xbd9f01ec	-0.077640384
104	0x3cd61550	0.02613321
105	0x3d8d5047	0.06900077
106	0x3c71e053	0.014762956
107	0xbd31f42e	-0.04344576
108	0xbd45f925	-0.048333306
109	0x3b0a022f	0.002105843
110	0x3d2c7f06	0.042113326
111	0xbcb8b66e	-0.022547927
112	0xbd2afb6d	-0.041743685
113	0xbcf4a51c	-0.029863887
114	0xbd6b5f2d	-0.057463814
115	0x3cce330f	0.025170831
116	0x3d5c4149	0.0537732
117	0xbd8a2556	-0.067454025
118	0x3cefb50d	0.029261136
119	0x3d11c50a	0.0355883
120	0x3d0c835d	0.034304965
121	0xbc9f301c	-0.01943212
122	0x3c8a9fa0	0.016921818
123	0x3d2b575e	0.041831367
124	0x3d207bea	0.039180674
125	0xbd46979e	-0.048484437
126	0xbca1b1e3	-0.019738143
127	0xbb40ae3c	-0.0029400727
128	0x3c48fd3d	0.012267408
129	0xbc728883	-0.014803055
130	0x3d4ef9be	0.05053114
131	0x3d83fca5	0.064446725
132	0x39e995f2	0.0004455294
133	0xbcccae32	-0.024985407
134	0xbc105422	-0.008809121
135	0xbcf4a381	-0.029863121
136	0x3b692299	0.00355736
137	0x3d225919	0.03963575
138	0xbdbe50fa	-0.09292789
139	0xbcad551c	-0.021158747
140	0x3d8e6dc2	0.069545284
141	0x3ceb62b6	0.028733592
142	0x3c8f936e	0.017526355
143	0xbd3b5716	-0.04573735
144	0xbcb98cf9	-0.022650229
145	0xbda9b5e1	-0.08286644
146	0xbc8d99db	-0.017285278
147	0x3c3275b2	0.010892319
148	0x3d2a7d28	0.041623265
149	0x3cffe357	0.031236334
150	0xbd9b6ee9	-0.07589514
151	0xbd3f7ac9	-0.046747956
152	0xbc12fb6a	-0.008971075
153	0x3d99f9da	0.075183585
154	0x3c66681d	0.0140629085
155	0xbcd4692d	-0.025929058
156	0x3cf5a9d4	0.029988207
157	0xbcf25f90	-0.029586583
158	0xbd5d3c86	-0.054012798
159	0x3d7437c0	0.05962348
160	0xbd760b6f	-0.060069498
161	0x3bfcd8bc	0.0077162664
162	0xbdad1bb1	-0.08452547
163	0x3d55b0f7	0.05217072
164	0x3d7f2d00	0.062298775
165	0x3cde4335	0.027131656
166	0xbd8b3054	-0.06796327
167	0xbdb40730	-0.087904334
168	0xbd9ab445	-0.07553915
169	0x3d23811b	0.039918046
170	0x3cd8f431	0.026483627
171	0x3d70d546	0.058797143
172	0x3d2bf139	0.041978095
173	0x3c6798a2	0.014135512
174	0x3b789efc	0.003793656
175	0xbd8e89a8	-0.069598496
176	0xbdaa2960	-0.08308673
177	0xbd94aaf8	-0.07259172
178	0x3ce2e038	0.027694806
179	0xbd54cb23	-0.05195154
180	0xbcc36a2a	-0.023854334
181	0xbd6f86f0	-0.058478296
182	0xbccc0a60	-0.024907291
183	0xbd874a50	-0.06605971
184	0xbd4ccad8	-0.049998134
185	0x3c4e08cc	0.0125753395
186	0xbccbaba2	-0.024862114
187	0x3d33306a	0.043747343
188	0xbd1ff14c	-0.039048478
189	0xbd867701	-0.06565667
190	0xbc610beb	-0.013735752
191	0xbd6f4936	-0.05841943
192	0xbd0b7002	-0.034042366
193	0xbd9e627f	-0.077336304
194	0x3d132e71	0.03593296
195	0xbd6867cd	-0.056739617
196	0x3cb87134	0.022514917
197	0x3cc79b4e	0.024366047
198	0x3d5ac057	0.053406086
199	0xbd6d4754	-0.057929352
200	0x3d6ea93a	0.058266856
201	0xbd4c6304	-0.049899116
202	0x3ceca5e5	0.028887698
203	0x3d95baaf	0.07310998
204	0xbac00846	-0.0014650903
205	0xbb3b12b5	-0.0028545086
206	0xbc70ceac	-0.014697712
207	0xbd9ce440	-0.07660723
208	0x3cfea524	0.031084605
209	0xbd94498f	-0.07240593
210	0x3d57b0ae	0.05265873
211	0x3d6e3aee	0.05816167
212	0x3d9fa32a	0.07794793
213	0xb7d34af9	-2.5188072e-05
214	0xbd897ba9	-0.067130394
215	0xbc5b8fda	-0.013400996
216	0x3d8d4c20	0.06899285
217	0xbd8d7863	-0.069077276
218	0xbd023dc7	-0.031797197
219	0xbd79db39	-0.061000083
220	0xbcd498dd	-0.025951797
221	0xbd0e27c6	-0.0347059
222	0xbcb5281e	-0.022113856
223	0xbc27fdd8	-0.010253392
224	0xbda25e95	-0.07928196
225	0x3d629825	0.055320878
226	0x3d8d77f6	0.06907646
227	0xbc9d5fbf	-0.019210694
228	0xbc6136b8	-0.013745956
229	0xbcd27e5c	-0.025695018
230	0xbd947d5a	-0.072504714
231	0xbdc9e3d6	-0.098579094
232	0x3d1e36e6	0.038626574
233	0xbcc3dd7b	-0.023909321
234	0xbd660a30	-0.05616206
235	0x3cf815e2	0.030283872
236	0xbc75d36d	-0.015004021
237	0xbc9c7b06	-0.01910163
238	0x3b728733	0.0037006855
239	0xbc8a761a	-0.016902018
240	0xbcd760ca	-0.02629127
241	0xbd0e84e4	-0.034794703
242	0xbd8c5ef7	-0.068540506
243	0x3d885c01	0.06658173
244	0xbce58b75	-0.0280206
245	0x3c60846c	0.013703447
246	0xbcfafcf7	-0.030638201
247	0x3c1b0331	0.00946121
248	0x3d9efad9	0.07762689
249	0x3ca4726a	0.020074088
250	0xbd90a6f8	-0.07063097
251	0x3d058988	0.032601863
252	0x3dac632d	0.08417354
253	0x3c4f3294	0.012646336
254	0x3d617cd1	0.055050675
255	0x3dac2758	0.08405942

bias f4 [256]
0	0x3cde53c4	0.027139552
1	0xbd4b4794	-0.04962881
2	0x3d208ab0	0.039194763
3	0x3d975c24	0.07390621
4	0xbb0f6177	-0.0021878162
5	0xbc5d68b7	-0.0135137355
6	0xbd455262	-0.04817427
7	0x3d499c18	0.04922113
8	0x3da10946	0.07863097
9	0x3d83b375	0.06430713
10	0xbd80a7e6	-0.06282024
11	0xbbef475b	-0.0073022074
12	0xbcc04290	-0.02346924
13	0x3c238dc4	0.00998253
14	0xbd339ca1	-0.043850545
15	0xbda92627	-0.0825923
16	0x3c9895ea	0.018626172
17	0xbc93d571	-0.018046113
18	0x3d797c76	0.06090971
19	0xbd49281a	-0.04911051
20	0x3d346280	0.04403925
21	0xbca8fab5	-0.020627359
22	0xbd144fc4	-0.036208883
23	0x3dc093b2	0.09403171
24	0x3d806c48	0.06270653
25	0x3cf5f957	0.030026121
26	0xbb891704	-0.004183652
27	0xbce4d2c0	-0.027932525
28	0xbd7ace1f	-0.06123173
29	0x3ba119ea	0.0049164193
30	0xbd9ba399	-0.07599563
31	0x3d9ae7f2	0.07563771
32	0xbd692f9f	-0.05693018
33	0x3d776dc6	0.060407422
34	0x3cfd1800	0.030895233
35	0xbd40aebc	-0.04704164
36	0xbd8a8a2b	-0.06764635
37	0x3c0c206b	0.008552651
38	0x3d7fe928	0.062478215
39	0x3c74da9e	0.0149447005
40	0xbd9674be	-0.073464856
41	0xbd8f9239	-0.07010312
42	0x3ca33102	0.01992083
43	0xbd8e84d0	-0.06958926
44	0x3d88a52b	0.06672128
45	0xb9708865	-0.00022938995
46	0xbd48fd72	-0.04906983
47	0x3d2316a9	0.039816532
48	0x3d3993d0	0.04530698
49	0xbcabb8b4	-0.020962097
50	0x3c722c82	0.014781119
51	0xbd3073f8	-0.043079346
52	0xbd1c63d7	-0.038181152
53	0xbcd42fa1	-0.025901617
54	0x3c3854e5	0.011250709
55	0x3d8054f1	0.06266201
56	0x3c2334b1	0.009961293
57	0x3d78f3e9	0.060779486
58	0xbc192136	-0.009346297
59	0xbc692f55	-0.014232476
60	0xbda2e303	-0.07953455
61	0x3d237efd	0.039916027
62	0xbcee5899	-0.029094981
63	0xbd5a2e7c	-0.053266987
64	0xbcc87b87	-0.024472965
65	0xbd4647db	-0.04840837
66	0x3b92608f	0.004467077
67	0xbd5b4033	-0.053528022
68	0xbd4f42d8	-0.050600857
69	0xbd93b363	-0.0721195
70	0xbda00e90	-0.078152776
71	0xbccf580f	-0.025310544
72	0x3dd13fec	0.1021727
73	0x3c6c3f08	0.014419325
74	0xbd8d62fb	-0.06903645
75	0x3caba7e0	0.020954072
76	0xbd7add3f	-0.061246153
77	0x3cf0de36	0.029402833
78	0x3cc72a68	0.024312213
79	0xbd7ab22b	-0.06120507
80	0xbd15a2e3	-0.036532294
81	0xbc90132b	-0.017587265
82	0xbd6a1d8d	-0.057157088
83	0xbd8a7832	-0.06761207
84	0x3d6f7ebc	0.058470473
85	0x3da83a34	0.08214226
86	0xbd58f26b	-0.052965563
87	0x3d98b0a6	0.07455568
88	0x3d8a53ba	0.06754251
89	0x3cb662dd	0.022263939
90	0xbd22bb0f	-0.039729174
91	0x3c13fefc	0.009032961
92	0x3d35e112	0.044404097
93	0xbd4229c0	-0.047403097
94	0x3d90961e	0.070598826
95	0x3d37daea	0.044886507
96	0xbd0a95c0	-0.03383422
97	0x3d86d1ea	0.06583007
98	0x3c87d32a	0.016580183
99	0xba8af4e2	-0.0010601545
100	0xbdc1f80d	-0.0947114
101	0x3d09a341	0.033602957
102	0x3d991e95	0.07476536
103	0x3d4185b9	0.04724667
104	0x3d2aaa1b	0.04166613
105	0xbc97c029	-0.018524246
106	0xbbd1f125	-0.0064069205
107	0x3cb86cb2	0.022512767
108	0xbd42e0fb	-0.04757784
109	0x3d17b3d5	0.037036736
110	0xbd6d8544	-0.05798842
111	0x3d92b394	0.07163158
112	0x3da04a6f	0.07826697
113	0xbbdde468	-0.006771613
114	0xbc9f1894	-0.0194209
115	0x3d4fc412	0.050724097
116	0xbd4abb5b	-0.049495082
117	0x3d9ca7c3	0.076491855
118	0x3c370e4c	0.011172842
119	0xbcd7c7dc	-0.026340418
120	0xbd34e021	-0.04415906
121	0xbccd2046	-0.025039803
122	0x3cd75cfe	0.02628946
123	0x3d8c4ab7	0.06850188
124	0xbd297531	-0.041371528
125	0x3dbe78b0	0.09300363
126	0xbc903b97	-0.01760654
127	0xbdacda11	-0.0844003
128	0xbc83481f	-0.016025601
129	0x3ced286e	0.028949942
130	0x3d87c996	0.06630246
131	0x3d1b6ddb	0.037946563
132	0x3dbc6199	0.09198303
133	0x3d8d8e76	0.06911938
134	0x3d6fbc91	0.05852944
135	0x3d0cee7e	0.03440713
136	0xbd5fa72e	-0.054602794
137	0xbd9b774b	-0.07591113
138	0xbd0e00c2	-0.03466869
139	0xbdb4a687	-0.08820825
140	0xbd2b7430	-0.041858852
141	0x3d1a57f5	0.03768154
142	0x3da77676	0.081768915
143	0x3c07efe9	0.008296945
144	0x3d2dcca0	0.042431474
145	0xbd06048b	-0.032719176
146	0xbd08f0dc	-0.033432826
147	0x3d48018b	0.048829596
148	0xbd3f316f	-0.046678003
149	0xbd374211	-0.04474074
150	0xbcb32e93	-0.021872794
151	0x3d43c487	0.047794845
152	0xbcc3f8ac	-0.023922287
153	0x3c9e5012	0.01932529
154	0xbd17907b	-0.03700302
155	0x3d3c8098	0.046021074
156	0x3d5f6d22	0.054547437
157	0x3d901d4c	0.07036838
158	0xbd36c65d	-0.044622768
159	0xbd9538a5	-0.07286195
160	0xbd80cde3	-0.0628927
161	0xbd700282	-0.05859614
162	0x3ce257f7	0.027629836
163	0xbcf23811	-0.02956775
164	0x3b86b287	0.0041106376
165	0x3d51bef0	0.051207483
166	0x3d53eb41	0.051738027
167	0x3d87622a	0.0661052
168	0x3d631227	0.055437233
169	0xbb882178	-0.0041543804
170	0x3cb2c44e	0.021822121
171	0x3d0e2e53	0.034712147
172	0x3d466219	0.048433397
173	0xbda0f7a8	-0.07859737
174	0xbd780a0e	-0.060556464
175	0xbd170709	-0.036871944
176	0xbdaf9cf2	-0.08574857
177	0x3d64077c	0.0556712
178	0x3d66993c	0.05629848
179	0xbcfc4b12	-0.030797515
180	0x3dbceb50	0.0922457
181	0xbd860542	-0.065439716
182	0x3da4a6c9	0.08039624
183	0x3d4dd3a2	0.050250657
184	0xbd81a7df	-0.06330847
185	0xbd465f5d	-0.04843079
186	0x3d8f9399	0.07010574
187	0xbd63c737	-0.055609908
188	0x3dd9a5e2	0.10627343
189	0xbd9c3e4d	-0.076290704
190	0x3db4fd4e	0.088373765
191	0x3c9e5014	0.019325294
192	0xba2fb4c8	-0.0006702659
193	0x3d8b4e4e	0.06802045
194	0xbc57bd05	-0.013167624
195	0x3d96a9e2	0.07356621
196	0x3dc16fff	0.0944519
197	0xbc7bad3c	-0.0153611265
198	0x3d2d0acf	0.042246636
199	0xbbd2105b	-0.006410641
200	0x3b88c883	0.0041742935
201	0x3c8b1f9c	0.016982846
202	0x3bba3154	0.00568215
203	0xbd14894b	-0.036263745
204	0x3c32058f	0.010865583
205	0x3d7e38f4	0.062066033
206	0x3922b5e8	0.0001551729
207	0xbd9b2ddf	-0.075771086
208	0x3cd21967	0.025646878
209	0x3d24d71f	0.040244218
210	0xbd52b313	-0.05144031
211	0xbd77c41b	-0.060489755
212	0xbd1c32cd	-0.038134385
213	0xbb34d32e	-0.0027591693
214	0x3da34352	0.07971825
215	0x3b060881	0.0020451846
216	0x3d340928	0.043954045
217	0xbd43fe77	-0.0478501
218	0x3d8ecd44	0.06972745
219	0x3d95c895	0.073136486
220	0xb8aacd52	-8.1444756e-05
221	0x3d97e8c1	0.07417441
222	0x3cb20c7e	0.021734472
223	0x3d99310c	0.07480058
224	0x3ca00b56	0.019536655
225	0xbc4c883e	-0.012483655
226	0x3dd62694	0.10456577
227	0xbd0cf74a	-0.03441552
228	0x3d857bbc	0.06517741
229	0xbc9eb63c	-0.019374005
230	0xbb135cf2	-0.002248582
231	0xbbc55318	-0.0060218684
232	0x38ff053d	0.00012160323
233	0x3d6474ae	0.055775337
234	0xbd40de17	-0.0470868
235	0xbc2b9efd	-0.0104749175
236	0x3c84c43e	0.016206857
237	0xbcf7974c	-0.030223511
238	0x3cb25a11	0.021771463
239	0x3d9dc37c	0.07703301
240	0x3dd31453	0.10306611
241	0xbbbbdd1d	-0.005733146
242	0xbd2397d3	-0.039939713
243	0xbd6eb8e7	-0.058281805
244	0xbdb20e73	-0.08694162
245	0xbd1b6bcb	-0.037944596
246	0x3d9bc91f	0.0760672
247	0xbdc3eec8	-0.09567028
248	0x3d43a717	0.04776677
249	0xbceed2d0	-0.029153258
250	0x3b9d55dc	0.004801495
251	0xbdb0a419	-0.08625049
252	0xbcb02338	-0.021501169
253	0x3d0921b0	0.033479393
254	0xbd811790	-0.06303322
255	0xbd347f54	-0.044066742

weight f4 [256, 256]
0	0xbcb73acc	-0.022366904
1	0x3d694de9	0.056959067
2	0x3cbe5cbf	0.023237584
3	0xbc1c0e3b	-0.009524877
4	0xbd06bb96	-0.03289374
5	0x3b898f36	0.0041979803
6	0xbce3e634	-0.02781973
7	0xbcc7e267	-0.02439995
8	0x3803124a	3.1249867e-05
9	0xbdb43640	-0.0879941
10	0xbc98c535	-0.018648723
11	0x3d2b45bf	0.041814562
12	0xbc92c744	-0.017917283
13	0xbcbe01d7	-0.023194237
14	0xbc922f8d	-0.01784494
15	0xbb9efec8	-0.0048521496
16	0xbcd4e2b1	-0.025987001
17	0x3d1d2eda	0.03837476
18	0xbcafa4e9	-0.02144094
19	0xbbe8fafb	-0.0071099973
20	0x3d567864	0.052360907
21	0xbbc4e1c1	-0.0060083573
22	0x3d50c7a0	0.050971627
23	0xbd2a3290	-0.041552126
24	0x3c9713e7	0.018442107
25	0xbccdbe84	-0.025115259
26	0x3c86ac3b	0.016439548
27	0xbdcc0deb	-0.09963592
28	0x3c28c5bf	0.010301053
29	0x3cf86b44	0.030324586
30	0xbbb949f9	-0.00565457
31	0xbd2d7347	-0.042346265
32	0x3c86935b	0.016427686
33	0x3caf6131	0.02140865
34	0x3c9c205c	0.019058399
35	0x3d6bea16	0.05759629
36	0xbcf83bff	-0.030302046
37	0x3d528564	0.051396742
38	0xbd979e27	-0.07403212
39	0x3c56bb79	0.01310622
40	0xbd4336a7	-0.047659542
41	0x3d392b67	0.045207407
42	0x3d19bec6	0.03753545
43	0x3ca63735	0.020289997
44	0xbd295745	-0.041342992
45	0x3d061a34	0.032739833
46	0x3d260fe6	0.040542506
47	0x3ca2d7cc	0.01987829
48	0xbcc373a1	-0.023858847
49	0x3cce7de2	0.02520651
50	0x3d1a25c5	0.037633676
51	0xbc733f00	-0.014846563
52	0x3c55184f	0.013006284
53	0x3dac8059	0.08422918
54	0x3d21d6a2	0.03951133
55	0xbcbca316	-0.023026984
56	0x3d8fd7ec	0.07023606
57	0xbc85703c	-0.01628887
58	0x3cf14674	0.02945254
59	0xbd88d8ce	-0.06681977
60	0x3ce2bcc0	0.027677894
61	0xbaca7e8c	-0.0015449091
62	0x3bdd928c	0.0067618545
63	0xbbde3540	-0.0067812502
64	0x3d98d1f0	0.074619174
65	0x3cf624b2	0.030046795
66	0xbd86f1c9	-0.065890856
67	0x3d1c43f1	0.03815073
68	0xbcdacbee	-0.02670857
69	0x3d70f525	0.058827538
70	0x3d9d5b2c	0.07683405
71	0x3d64f328	0.055895954
72	0xbd44bbf8	-0.048030823
73	0x3cdd94e0	0.027048528
74	0xbc9497f4	-0.018138863
75	0xbb596e00	-0.0033177137
76	0x3d0c6a6c	0.03428118
77	0xba0676a3	-0.00051293726
78	0xbc9a4fbb	-0.018836847
79	0x3d702a37	0.05863401
80	0xbbff5289	-0.0077918214
81	0x3d407a95	0.046991903
82	0x3cf1a8c2	0.029499415
83	0x3d68d2a0	0.056841493
84	0x3c8cdb1c	0.017194323
85	0xbca7d79c	-0.020488553
86	0x3c7a9ff3	0.015296924
87	0xbc94c261	-0.018159093
88	0xbd846671	-0.06464852
89	0xbd379b06	-0.044825576
90	0x3baa7a14	0.005202541
91	0xbb6faef7	-0.0036572793
92	0x3d07f13d	0.033189047
93	0x3d088d00	0.033337593
94	0xbd7cf374	-0.061755612
95	0x3ce7505e	0.028236564
96	0xbc84f1a5	-0.016228506
97	0xbaa01824	-0.0012214226
98	0xbd6c5981	-0.057702545
99	0xbc441094	-0.011966843
100	0x3d2ef250	0.042711556
101	0x3ce7ef05	0.028312216
102	0xbceed34c	-0.029153489
103	0x3d635032	0.055496402
104	0x3d955853	0.07292237
105	0xbd19d93b	-0.037560683
106	0x3a25ef7b	0.0006329936
107	0x3aa14575	0.0012304025
108	0x3d0a92a2	0.033831246
109	0x3d1230bc	0.035691008
110	0xbcb5f6e5	-0.022212455
111	0x3c8ee8b2	0.017444942
112	0x3cf5465f	0.029940782
113	0x3b561384	0.003266544
114	0x3ccbe787	0.024890674
115	0x39d2fd1e	0.00040242908
116	0x3d39b8c4	0.04534222
117	0xbcb3f395	-0.021966735
118	0x3d22f9e7	0.039789107
119	0x3d17b872	0.037041135
120	0xbc865512	-0.016397987
121	0xbd306770	-0.043067396
122	0x3cfcc560	0.030855834
123	0x3d01f4a7	0.03172746
124	0x3d655028	0.055984646
125	0xbdad0654	-0.084484726
126	0xbcaab866	-0.020839881
127	0xba83f93f	-0.0010068788
128	0x3d389bf6	0.04507061
129	0x3d60a9e2	0.054849513
130	0xbbb2acf1	-0.005452745
131	0x3da27071	0.07931603
132	0x3c9285c9	0.01788606
133	0xbdb6eebc	-0.08932254
134	0xbcb59180	-0.022164106
135	0xbb157967	-0.0022807957
136	0x3c060c88	0.008181699
137	0xbd5ce69d	-0.053930867
138	0x3cf6697d	0.030079598
139	0x3d806dae	0.0627092
140	0x3c84b965	0.016201684
141	0xbd68457b	-0.056706887
142	0x3b772d1f	0.0037716103
143	0x3db07644	0.086163074
144	0xbcd6c4ec	-0.026216947
145	0x3c87db17	0.016583962
146	0xbd63816c	-0.05554335
147	0xba9466ce	-0.0011322142
148	0xbc9035f5	-0.017603854
149	0xbd3718c3	-0.04470135
150	0x3c69ee78	0.014278047
151	0x3c1e90d4	0.009678084
152	0xbce3253f	-0.027727721
153	0xbd80a62d	-0.062816955
154	0xbbfb78ec	-0.007674327
155	0xbd85b427	-0.06528502
156	0xbd6c668b	-0.05771498
157	0xbd72d642	-0.059286363
158	0xbd5c8394	-0.05383642
159	0x3db642e5	0.08899478
160	0x3d1ffe89	0.039061103
161	0x3d1386b0	0.03601712
162	0x3cd50825	0.02600486
163	0x3d24570b	0.040122073
164	0x3c0b161b	0.008489157
165	0xbd493fce	-0.049133115
166	0xbd53e188	-0.051728755
167	0xbcc843e3	-0.024446433
168	0xbd3cfd0c	-0.04613976
169	0x3cdb22a2	0.026749913
170	0x3ca3a0e3	0.019974178
171	0xbd1c2033	-0.038116645
172	0xbc5fe2cc	-0.013664912
173	0x3c2abb40	0.01042062
174	0xbcd7e0be	-0.026352283
175	0x3c9995bf	0.018748162
176	0xbd86dfc7	-0.06585651
177	0xbd508065	-0.050903697
178	0x3b8b8a2d	0.004258415
179	0xbc209db6	-0.009803226
180	0xbd4349a5	-0.047677655
181	0x3cd87dd9	0.026427196
182	0xbd279a06	-0.040918373
183	0x3d5efc14	0.05443962
184	0xbd587738	-0.05284807
185	0x3cacbe11	0.021086724
186	0xbd2b8cb5	-0.041882236
187	0x3ccf1b6d	0.025281632
188	0xbdbe8d81	-0.093043335
189	0x3bb4d8cd	0.0055190087
190	0xbb11210b	-0.002214494
191	0xbc89d695	-0.016825953
192	0xbcb4a042	-0.022049073
193	0xbc9cc782	-0.019138101
194	0xbdeba67f	-0.11506366
195	0x3c1ec5a2	0.009690674
196	0x3ca60c87	0.020269645
197	0x3b318e87	0.002709301
198	0xbc5f98ea	-0.013647297
199	0x3d90b21d	0.070652224
200	0xbcef10be	-0.029182788
201	0x3c128f7d	0.008945343
202	0xbd530964	-0.051522627
203	0xbd7b1d17	-0.06130704
204	0xbc8c9a95	-0.017163554
205	0xbd3f29b3	-0.046670627
206	0xbc89a703	-0.01680327
207	0x3d1c4a5b	0.03815685
208	0x3cc55a07	0.02409078
209	0xbbce71c7	-0.0063001844
210	0x3ca35221	0.019936623
211	0x3c8bf42c	0.017084204
212	0xbb576b4f	-0.0032870357
213	0xbdbd5f60	-0.09246707
214	0xbd38b892	-0.045097895
215	0xbd8a73de	-0.06760381
216	0xbd7d55cb	-0.061849397
217	0xbcb6b026	-0.022300791
218	0xbd2a2e3b	-0.041547995
219	0x3c11d4e8	0.008900858
220	0x3ca71a0a	0.020398159
221	0xbdef5e56	-0.11687915
222	0xbc478c87	-0.0121795
223	0x3d83db59	0.064383216
224	0xbd94bc72	-0.072625056
225	0xbda0b2d6	-0.0784661
226	0x3d248fb1	0.040176097
227	0x3ccc5114	0.024941005
228	0x3b3bae89	0.0028637967
229	0x3d28b73e	0.04119038
230	0xbd0dda90	-0.034632266
231	0x3d981e80	0.074276924
232	0xbd8b44a9	-0.06800205
233	0x3d1b05e6	0.037847422
234	0xbd5048fe	-0.05085086
235	0x3c0de94b	0.008661578
236	0x3cf35099	0.029701518
237	0x3cbd8a43	0.023137217
238	0xbd4677a2	-0.048453934
239	0xbbbcde9b	-0.0057638413
240	0xbd578205	-0.05261423
241	0xbc7b018b	-0.015320192
242	0x3d90201d	0.07037375
243	0x3d291e46	0.041288637
244	0xbd16d49d	-0.036823858
245	0xbcfa88d2	-0.03058282
246	0xbd4d1d6c	-0.050076887
247	0x3d2cc5be	0.04218077
248	0xbcf86a45	-0.03032411
249	0xbca9aa1d	-0.020711
250	0xbcc21dcb	-0.023695847
251	0x3c6bb215	0.01438572
252	0x3d46cfb4	0.048537925
253	0x3d718b52	0.058970757
254	0x3bc02c99	0.0058646915
255	0x3d8677d2	0.06565823

bias f4 [256]
0	0xbbad9c49	-0.0052981717
1	0x3cd67c37	0.026182277
2	0x3a1dc3d5	0.0006018256
3	0x3d13db3f	0.03609776
4	0x3a8948e8	0.0010473998
5	0x3d6eed56	0.05833181
6	0x3d3177ab	0.043327015
7	0x3b9fc607	0.0048759016
8	0x3d8c6764	0.06855658
9	0x3d551e45	0.05203082
10	0x3d711785	0.05886032
11	0xbc97cbaf	-0.018529741
12	0xbd20eed9	-0.039290283
13	0x3d879d7f	0.06621837
14	0xbd0acdf5	-0.033887822
15	0xbcfd523d	-0.030923003
16	0x3d9e528c	0.07730588
17	0x3c96e662	0.018420402
18	0xbd00b02b	-0.031418007
19	0xbd8f0b10	-0.06984532
20	0x3d68c659	0.056829784
21	0x3bbcbbc6	0.005759689
22	0xbce7f035	-0.028312782
23	0x3d42a01b	0.04751597
24	0x3b297ba3	0.0025861047
25	0x3d5bf949	0.053704534
26	0xbcfbdb7b	-0.030744305
27	0xbd3bc043	-0.045837652
28	0x3c6a77bc	0.014310773
29	0x3d805a2d	0.062672
30	0xbcdbe96b	-0.0268447
31	0xbd215b0a	-0.039393462
32	0xbc05b62f	-0.008161112
33	0xbd3f756d	-0.046742845
34	0x3c848c3f	0.016180156
35	0xbd2c0005	-0.041992206
36	0x3cd29141	0.025704028
37	0xbd7448e5	-0.05963983
38	0xbc962131	-0.018326374
39	0x3d3fc38e	0.046817355
40	0x3dc00da2	0.093776
41	0xbd632a3a	-0.055460192
42	0xbd2883ba	-0.04114125
43	0xbcbdf254	-0.02318684
44	0x3d9cab7f	0.07649898
45	0xbc8c9d14	-0.017164744
46	0xbb071515	-0.002061193
47	0x3a4659ee	0.0007566501
48	0x3d3bf686	0.0458894
49	0x3dc53a69	0.096302815
50	0xbd5afcc9	-0.05346373
51	0xbd58d9c2	-0.052942045
52	0x3b27bdce	0.002559531
53	0xbc00434c	-0.007828545
54	0x3d1f87f2	0.038948007
55	0x3d17c3d5	0.037051994
56	0x3cbdb425	0.023157189
57	0xbce1f914	-0.02758459
58	0xbcd2aa2f	-0.025715915
59	0x3cd62e76	0.026145201
60	0xbd2348bb	-0.039864283
61	0xbc89137d	-0.016732926
62	0xbc80d054	-0.015724339
63	0x3c4c1ff5	0.012458791
64	0xbd0d9077	-0.0345616
65	0x3d796ca3	0.06089462
66	0x3d68afed	0.0568084
67	0x3d6a352c	0.057179615
68	0xbc8cd1d8	-0.017189905
69	0xbd82052c	-0.06348643
70	0x3cd35671	0.025798054
71	0x3d888354	0.06665674
72	0x3b1bc6cb	0.0023769613
73	0xbc1a83c5	-0.00943083
74	0x3d3f72bb	0.046740275
75	0x3c60810c	0.013702642
76	0x3c37fcfe	0.011229752
77	0x3bbdc7f1	0.005791657
78	0xbd972b10	-0.073812604
79	0x3cf8be2b	0.030364117
80	0x3ac99129	0.0015378344
81	0xbd15ad27	-0.036542084
82	0xbd8ceb04	-0.06880763
83	0xbbb36b22	-0.0054754177
84	0x3d8666e6	0.06562595
85	0xbd424005	-0.047424335
86	0x3d8a4ede	0.06753324
87	0xbcf2b71c	-0.029628329
88	0xbc8b521d	-0.017006928
89	0xbd3b9a69	-0.045801554
90	0x3d86a9ec	0.06575379
91	0x3d7aeb04	0.061259285
92	0x3c266b1f	0.010157376
93	0xbd0d04a7	-0.034428265
94	0x3c98c510	0.018648654
95	0xbd36c2f6	-0.044619523
96	0xbd6f0801	-0.058357242
97	0xbd54810a	-0.051880874
98	0xbc4f68e6	-0.012659287
99	0xbd29d284	-0.04146053
100	0x3d0413a5	0.032245297
101	0xbcd0f1b8	-0.025505885
102	0xbd14fb3c	-0.03637241
103	0x3dbb6f19	0.091520496
104	0x3d5d1cdd	0.053982604
105	0xbd95e5ec	-0.07319245
106	0xbace47f5	-0.0015737998
107	0xbd51fd42	-0.051266916
108	0xbc5df790	-0.013547793
109	0x3d1ad07c	0.037796482
110	0xbd3d4c0e	-0.04621511
111	0x3d7354c3	0.059407007
112	0x3d45f96b	0.048333567
113	0xbc209cc9	-0.0098030055
114	0x3ccc10de	0.024910387
115	0xbd6b727e	-0.057482235
116	0xbba3fea1	-0.0050047194
117	0xbd11ae8d	-0.035566855
118	0xbcad1017	-0.021125836
119	0x3d4e9ee3	0.050444495
120	0x3c015e55	0.007896026
121	0x3d889209	0.06668479
122	0x3c48d122	0.012256892
123	0x3d8507e9	0.06495649
124	0x3d5b022b	0.053468864
125	0x3d095fd0	0.03353864
126	0x3d419a58	0.047266334
127	0x3c02614b	0.007957767
128	0x3ce8c024	0.028411932
129	0x3d1ba186	0.037995838
130	0x3d7e5db8	0.062101096
131	0x3d400607	0.046880748
132	0xbd52971e	-0.051413648
133	0xbc7d1970	-0.015447959
134	0x3d4970ed	0.04917996
135	0x3cc2906c	0.023750506
136	0x3c865bbd	0.016401166
137	0x3d9a1853	0.07524171
138	0x3d42d051	0.047561947
139	0x3d1ff603	0.039052974
140	0x3b2e3d25	0.0026586738
141	0xbc6fbbdc	-0.0146321915
142	0x3d7275f4	0.05919452
143	0xbce622a2	-0.028092686
144	0xbd68fab1	-0.056879703
145	0xbd9f041e	-0.07764457
146	0x3c692942	0.014231028
147	0xbd3f8966	-0.046761893
148	0xbd4de863	-0.05027045
149	0xbd541d84	-0.05178596
150	0xbabf8272	-0.0014611019
151	0x3c0cfec0	0.008605659
152	0x3d3f588e	0.04671531
153	0x3cac1459	0.021005796
154	0x3d2d8e59	0.04237208
155	0x3d02d9af	0.03194588
156	0xbd2d11f1	-0.04225344
157	0xbd407f36	-0.046996318
158	0x3c3ce6d7	0.011529646
159	0xbc8f72c4	-0.01751078
160	0xbd67a4e0	-0.05655372
161	0x3d10ee27	0.03538337
162	0xbd46b549	-0.04851273
163	0xbca42199	-0.020035552
164	0xbd0c4074	-0.034241155
165	0x3d621ab6	0.055201255
166	0x3d957097	0.072968654
167	0x3d4385e7	0.04773512
168	0x3c788e76	0.015170684
169	0x3dbce315	0.09223
170	0xbd746739	-0.059668753
171	0x3d3ec021	0.046569947
172	0xb782ac38	-1.5577403e-05
173	0x3cc16cf7	0.023611529
174	0x3d67772b	0.05651013
175	0xbc0c4a85	-0.008562689
176	0xbbb3ee32	-0.0054910416
177	0xbbb4fc36	-0.00552323
178	0x3d52f559	0.051503513
179	0x3c2c6554	0.010522205
180	0x3d415f32	0.047209926
181	0x3d3ca904	0.046059623
182	0xbd310311	-0.043215815
183	0xbcc468bd	-0.023975724
184	0x3c30be9d	0.010787633
185	0xbd45dc82	-0.048305996
186	0x3d864908	0.06556898
187	0xbd3b028e	-0.045656733
188	0xbc40ba4c	-0.011763167
189	0x3d00eab3	0.031473827
190	0xbba8198f	-0.00513
191	0xbc0dccb5	-0.008654763
192	0xbd5fc0cc	-0.054627225
193	0xbce835c7	-0.028345956
194	0xbd1dff56	-0.038573585
195	0x3d357dbb	0.04430936
196	0x3d35ae92	0.044355936
197	0xbc38c130	-0.011276528
198	0xbbf03f48	-0.0073317625
199	0xbd63a537	-0.055577483
200	0xbd3a203d	-0.0454409
201	0x3cb8fedb	0.022582462
202	0xbd1d76d6	-0.03844341
203	0x3d217894	0.039421633
204	0x3d2ce109	0.042206798
205	0xbccb70b6	-0.024834018
206	0xbd68963c	-0.0567839
207	0xb8881072	-6.4880485e-05
208	0x3d4bec70	0.04978603
209	0xbd1df1a3	-0.03856052
210	0x3d28f73b	0.041251402
211	0x3bebe780	0.007199228
212	0x3c83d3e2	0.016092245
213	0x3ba15fdb	0.004924757
214	0x3d378a1a	0.04480944
215	0x3d248978	0.040170163
216	0x3b2441e8	0.0025063697
217	0xbd58c340	-0.05292058
218	0x3d38e186	0.04513695
219	0xbd026d1c	-0.031842336
220	0xbd87c2c9	-0.06628949
221	0xbd83c1e7	-0.06433468
222	0xba6fdac9	-0.0009149728
223	0x3d440090	0.0478521
224	0xbc8686b9	-0.016421663
225	0xbd63a817	-0.055580225
226	0xbcefdbf2	-0.029279683
227	0xbd801d01	-0.06255532
228	0xbc14517b	-0.00905263
229	0x3d639d1a	0.055569746
230	0x3d61e6f5	0.0551519
231	0x3d452c15	0.048137743
232	0xbd650417	-0.055912104
233	0x3ce48ff6	0.027900677
234	0x3d21500a	0.03938297
235	0x3ceda15e	0.02900761
236	0x3d484b01	0.048899654
237	0xbd241a04	-0.040063873
238	0x3d486a3c	0.048929438
239	0xbd0f6d26	-0.0350162
240	0x3c1c1f0b	0.009528886
241	0xbcf03f3e	-0.029327031
242	0xbcbc5fdc	-0.022994928
243	0xbd47f9d1	-0.048822228
244	0xbd862819	-0.06550617
245	0x3b379ee6	0.0028018295
246	0x3c2f0382	0.010681989
247	0x3bfb9f8e	0.0076789325
248	0xbcc2365e	-0.023707565
249	0x3a29b363	0.0006473569
250	0x3ca87fbd	0.020568723
251	0x3d3dc74f	0.046332654
252	0x3d335621	0.04378331
253	0xbc145092	-0.009052413
254	0xbd6a3e1f	-0.05718815
255	0xbd6a0023	-0.057129037

weight f4 [256, 256]
0	0x3d19caa6	0.037546776
1	0xbd0200d1	-0.03173906
2	0xbd540c05	-0.051769275
3	0x3c9ee39b	0.01939564
4	0xbd49a1f7	-0.049226727
5	0x3cc0a2bc	0.023515098
6	0x3d91b708	0.071149886
7	0x3cd196ff	0.025584696
8	0x3db41ef3	0.087949656
9	0xbd3a73b2	-0.045520492
10	0xbcd98bd6	-0.026555937
11	0x3cee8ef2	0.029120896
12	0x3aff1ed9	0.0019464149
13	0x3d02b065	0.031906504
14	0xbd13c245	-0.03607394
15	0x3d1f2a20	0.038858533
16	0xbd0777c6	-0.03307321
17	0x3c81fc0e	0.01586726
18	0x3d248520	0.04016602
19	0xbd8b2b9a	-0.06795426
20	0xbd236a47	-0.039896276
21	0x3d4fac71	0.050701562
22	0xbd9653c2	-0.07340194
23	0x3d8d6e90	0.06905854
24	0x3b5addc3	0.003339634
25	0xbd8d84fc	-0.069101304
26	0x3d0c5c70	0.034267843
27	0x3cc109ef	0.023564307
28	0xbdd04aab	-0.10170492
29	0x3d744a51	0.059641186
30	0xbd0866c8	-0.033301145
31	0x3d5159a5	0.051110882
32	0xbd1ff44c	-0.03905134
33	0x3c914d54	0.017737068
34	0x3dab6d84	0.08370498
35	0xbb87dda6	-0.0041462956
36	0xbd5b36ad	-0.05351894
37	0x3d93f97a	0.07225318
38	0x3c830143	0.015991813
39	0x3d7a31d2	0.06108267
40	0xbb9435e0	-0.004523024
41	0x3ca6c34d	0.020356799
42	0xbcd2a28b	-0.025712272
43	0x3cb63d5f	0.02224606
44	0x3dbc9c07	0.09209447
45	0x3d0f84b4	0.035038665
46	0xbd3969ca	-0.045266904
47	0x3c903c56	0.017606895
48	0xbce410db	-0.027840069
49	0x3d8e8076	0.06958096
50	0xbd3fc05d	-0.04681431
51	0xbd2ffdc1	-0.042966608
52	0xbe293505	-0.16524132
53	0xbe082114	-0.13293868
54	0xbd267fc2	-0.040649183
55	0x3d8514cf	0.064981095
56	0x3aef7b3f	0.0018270983
57	0xbd73a2a2	-0.05948127
58	0x3bb92bef	0.0056509892
59	0x3d4d80d7	0.0501717
60	0xbd88c063	-0.0667732
61	0x3d2f7aa0	0.042841554
62	0xbc9a1c1b	-0.01881223
63	0x3be52fcb	0.0069942228
64	0x3d6c54c3	0.057698023
65	0x3c96c34c	0.018403672
66	0xbd64e95f	-0.055886623
67	0x3d0585a2	0.032598145
68	0xbcacbc3b	-0.021085849
69	0xbd240d4a	-0.040051736
70	0x3cfb1705	0.030650625
71	0xbcd23579	-0.025660263
72	0xba331940	-0.00068320706
73	0x3b23b4fb	0.00249797
74	0x3c918970	0.01776573
75	0xbafa5a3a	-0.0019100376
76	0x3d5d86c3	0.054083597
77	0x3cf14710	0.02945283
78	0xbc7a272c	-0.015268128
79	0x3d5324f8	0.051548928
80	0x3c5894ba	0.013219053
81	0xbcd89752	-0.026439343
82	0xbd4b157a	-0.04958103
83	0x3d0f61e0	0.03500545
84	0xbcf4c65b	-0.02987974
85	0xbd0a9871	-0.033836786
86	0xbbbb91d9	-0.0057241735
87	0x3d0fcddb	0.03510843
88	0x3d05eb06	0.03269484
89	0xbcb0aece	-0.021567728
90	0x3d6d0686	0.05786755
91	0xbd21af98	-0.0394741
92	0x3d5cccee	0.053906374
93	0x3c478c7c	0.01217949
94	0xbd3db795	-0.046317656
95	0x3d09b66e	0.033621244
96	0xbd4c1a94	-0.049830034
97	0x3b4f9efd	0.0031680458
98	0xbdd20bf4	-0.10256186
99	0x3da3242b	0.07965883
100	0xbb76edce	-0.0037678364
101	0xbbccf65a	-0.0062549533
102	0xbd72a029	-0.059234772
103	0x3bc22d91	0.005925842
104	0x3c1112e7	0.008854604
105	0x3c9c7252	0.01909748
106	0xbcdca9f1	-0.026936503
107	0xbd6757a6	-0.056480072
108	0xbc117337	-0.008877567
109	0xbd221e3a	-0.039579608
110	0x3d7eedac	0.06223838
111	0x3c57263f	0.013131677
112	0xbcda53f4	-0.02665136
113	0xbbbb239b	-0.0057110316
114	0xbc9e6c91	-0.019338878
115	0x3c709558	0.014684044
116	0x3ca2f575	0.019892434
117	0x3d1a547f	0.037678238
118	0x3dad3a6b	0.08458408
119	0x3d894b2f	0.06703793
120	0x3d371e5e	0.044706695
121	0xbd35c558	-0.044377655
122	0xbd409b0f	-0.047022875
123	0xbce475a1	-0.027888121
124	0x3d154267	0.03644028
125	0x3d38130a	0.044940032
126	0x3d82f1d2	0.0639378
127	0xba74e6b4	-0.0009342239
128	0xbd1e3f7d	-0.038634766
129	0xbcd1eda5	-0.025626013
130	0x3cbcffd7	0.023071213
131	0x3c202f89	0.009776958
132	0xbd4add9b	-0.049527746
133	0xbd4c13bf	-0.04982352
134	0xbc964a3d	-0.018345946
135	0x3d038c16	0.03211602
136	0x3d40e5c4	0.04709412
137	0xbbd715b5	-0.006563867
138	0x3d8d1a68	0.06889802
139	0x3ab0bcab	0.0013483962
140	0xbd8da706	-0.06916623
141	0x39c538c6	0.00037617068
142	0x3c788707	0.015168912
143	0xbc9d20a9	-0.019180613
144	0xba8966ca	-0.0010482904
145	0x3b4a12dc	0.0030833995
146	0xbcd75d02	-0.026289467
147	0xbd8b0659	-0.0678832
148	0x3d16ebd0	0.036845982
149	0xbd2c1974	-0.04201646
150	0x3c38740f	0.011258139
151	0xbcdb3470	-0.026758403
152	0x3d44c232	0.04803676
153	0xbbdcbd10	-0.006736405
154	0x3d281b35	0.04104157
155	0x3ccbf9b6	0.024899345
156	0xbd0453a8	-0.032306343
157	0x3ccf3df3	0.025298094
158	0x3d87aeb8	0.06625122
159	0xbc6bb2d4	-0.014385898
160	0x3d23520a	0.03987316
161	0x3b87316e	0.0041257655
162	0xbcf497bf	-0.029857514
163	0xbd3b2b09	-0.04569534
164	0xbcfed9e0	-0.03110975
165	0x3d1d4acc	0.03840141
166	0x3d726bdc	0.059184894
167	0x3d1ace86	0.037794612
168	0x3cb6fb09	0.0223365
169	0x3d7e7c9d	0.06213056
170	0x3d238bb8	0.039928168
171	0x3bbc9375	0.005754883
172	0x3d691c23	0.0569116
173	0x3c97b276	0.018517714
174	0x3c61b73b	0.013776596
175	0x3b48eb75	0.0030657921
176	0xbe016bc2	-0.12638763
177	0x3c480c92	0.012210028
178	0xbd1f6eeb	-0.03892414
179	0xbcdd9fd6	-0.027053755
180	0x3d21eae1	0.03953064
181	0x3d1a5c2b	0.037685554
182	0xbd94248c	-0.07233533
183	0x3d04ec24	0.032451764
184	0x3c94e5e7	0.018176032
185	0x3d302a2c	0.04300897
186	0xbd3f400f	-0.04669195
187	0xbce92927	-0.028462006
188	0x3bda7b97	0.006667565
189	0xbc36c95e	-0.011156408
190	0xbca3441f	-0.019929944
191	0x3bf81630	0.0075710043
192	0x3c4f6584	0.012658481
193	0x3d31bb6a	0.043391623
194	0x3d01eb49	0.031718526
195	0xbd528286	-0.051394008
196	0x3d7368ac	0.059425995
197	0x3d9e1412	0.07718672
198	0xbd10da49	-0.035364423
199	0xbc8ee50a	-0.017443199
200	0xbc940893	-0.018070495
201	0xbd33e588	-0.04392007
202	0xbd4f8bda	-0.050670482
203	0xbcd67408	-0.026178375
204	0xbdd11165	-0.10208396
205	0xbb50d60c	-0.0031865863
206	0x3c237bf1	0.00997828
207	0xbd0ab700	-0.03386593
208	0x3d2acd83	0.041699897
209	0xbd47466a	-0.048651136
210	0xbd3847bc	-0.044990286
211	0x3c49df21	0.0123212645
212	0xbd8c6ae2	-0.06856324
213	0x3ce9d173	0.028542256
214	0x3c39c39b	0.01133814
215	0x3db465e1	0.08808494
216	0xbd3dd48b	-0.046345275
217	0xbc343e2d	-0.011001152
218	0x3c896260	0.016770542
219	0x3d5eedd1	0.05442602
220	0xbd5b3920	-0.053521276
221	0xbc8d95a7	-0.017283274
222	0x3d5dce95	0.05415209
223	0xbd38633b	-0.04501651
224	0x3c344e98	0.011005066
225	0x3d1afae8	0.03783694
226	0xbd4c5c6c	-0.049892828
227	0xbd1b33ba	-0.037891127
228	0xbc3a9011	-0.011386887
229	0xbd579af7	-0.05263802
230	0xbd904204	-0.070438415
231	0xbb5e7b3d	-0.0033947967
232	0x3cbe4eb1	0.023230882
233	0xbd64da19	-0.055872057
234	0xbc8a8186	-0.016907465
235	0x3af83d88	0.0018939236
236	0x3d1b3fa9	0.037902508
237	0xbcc851a9	-0.024453001
238	0xbcecc37a	-0.028901804
239	0xbbe1aeba	-0.006887284
240	0xbd0b2386	-0.033969425
241	0x3d3fcaca	0.046824254
242	0xbd22ff32	-0.039794154
243	0xbd8850a4	-0.06656006
244	0xbd7eaaa5	-0.062174458
245	0xbd819fc3	-0.063293
246	0x3d0aaf74	0.03385873
247	0xbd1db0d7	-0.038498726
248	0xbd3bdb03	-0.045863163
249	0x3d3fad25	0.046795983
250	0x3c3743a8	0.011185564
251	0x3d7f4a65	0.062326808
252	0xbc973c1c	-0.01846128
253	0x3d8d6644	0.06904271
254	0x3d1cc170	0.038270414
255	0xbd4ad6fe	-0.04952144

bias f4 [256]
0	0xbd521ec0	-0.051298857
1	0x3d7218cd	0.059105683
2	0x3d74540d	0.05965047
3	0x3ca493f6	0.020090085
4	0xbd32d658	-0.043661445
5	0xbd8cfa96	-0.06883733
6	0xbcfff893	-0.03124646
7	0xbd0b633c	-0.034030184
8	0xbd023b1d	-0.031794656
9	0xbd06eab7	-0.032938685
10	0xbd7ddba8	-0.06197706
11	0xbd4bbae9	-0.0497388
12	0xbcbac175	-0.022797326
13	0x3d57e26f	0.05270618
14	0xbd333196	-0.04374846
15	0x3cf38ebe	0.02973115
16	0x3c204a9d	0.009783414
17	0x3d83f190	0.06442559
18	0x3c976203	0.018479353
19	0xbd63f9f6	-0.055658303
20	0x3c029fc4	0.007972661
21	0xbbcaa071	-0.006183677
22	0x3ccbba74	0.024869181
23	0xbd2fb715	-0.04289921
24	0xbd500dfa	-0.05079458
25	0x3d3dc95c	0.04633461
26	0xbd54e03a	-0.05197165
27	0x3d6c198c	0.05764155
28	0x3c911528	0.017710283
29	0x3c59fcc6	0.013304895
30	0x3c38d4e0	0.011281222
31	0xbd10decc	-0.035368726
32	0x3dc8db99	0.0980751
33	0x3c7baa89	0.015360483
34	0xbcbf350b	-0.023340723
35	0xbcfecebd	-0.03110444
36	0x3d914b2d	0.07094417
37	0x3c82f9be	0.015988227
38	0xbd09ba83	-0.033625137
39	0xbc04712b	-0.008083622
40	0x3bbc0cb3	0.0057388186
41	0x3d66c509	0.05634025
42	0x3d3d759a	0.04625473
43	0x3d8f869e	0.07008098
44	0xbc86b86f	-0.016445367
45	0xbca00c49	-0.019537108
46	0x3d4a3ed2	0.049376316
47	0xbd2250b5	-0.03962775
48	0x3d0f84c1	0.035038713
49	0xbd9504f3	-0.072763346
50	0x3d6cfa24	0.05785574
51	0xbb624a09	-0.0034528992
52	0x3c568aea	0.013094643
53	0xbd6d05e4	-0.057866946
54	0x3c8e35a9	0.017359572
55	0xbcf69fb0	-0.030105442
56	0x3d863545	0.06553129
57	0xbb39f4de	-0.0028374712
58	0x3d886637	0.06660121
59	0xbd188009	-0.03723148
60	0x3c4bf4aa	0.012448469
61	0xbc68268d	-0.0141693475
62	0xbbb170ec	-0.0054150727
63	0xbd1b4408	-0.037906677
64	0x3d205f7a	0.039153554
65	0x3d56c9c7	0.052438524
66	0xbce8181a	-0.028331805
67	0xbd22a720	-0.039710164
68	0x3c185ce2	0.009299489
69	0x3da8add4	0.0823628
70	0xbcc049c5	-0.023472676
71	0xbd4d970f	-0.05019289
72	0x3d5431da	0.051805355
73	0x3c770943	0.015077892
74	0x3cd95338	0.02652894
75	0x3ca6587c	0.020305865
76	0x3d1e3524	0.038624898
77	0x3cdc472c	0.026889406
78	0x3d7c5116	0.061600767
79	0xbd17467f	-0.036932465
80	0x3c983b12	0.018582854
81	0x3d5066ac	0.050879166
82	0x3d824087	0.06359964
83	0xbd86197c	-0.065478295
84	0x3cb4e125	0.022080014
85	0xba7e1f5a	-0.0009694003
86	0x3cd0998e	0.025463846
87	0x3c3ff863	0.011716935
88	0x3cfd2092	0.03089932
89	0x3d7570e5	0.059922118
90	0x3cd30c13	0.025762593
91	0x3caacfc9	0.020851033
92	0xbc7f25ca	-0.015572974
93	0xbce8cdf9	-0.028418528
94	0xbd7b06d9	-0.061285827
95	0x3b067b67	0.002052033
96	0xbd695d6d	-0.056973863
97	0xbcf01a55	-0.029309431
98	0x3be474f9	0.006971952
99	0xbd41ae2e	-0.04728525
100	0x3cd69d1c	0.026197962
101	0x3c506712	0.012719886
102	0xbc55450f	-0.013016953
103	0x3d46a899	0.04850063
104	0xbc1b9beb	-0.009497623
105	0x3c58ec17	0.013239882
106	0xbcfe7803	-0.031063085
107	0xbbc1d18f	-0.005914874
108	0x3c1748ca	0.009233663
109	0xbc416084	-0.011802796
110	0xbcc765fb	-0.02434062
111	0xbc0077d9	-0.007841074
112	0xbd15228e	-0.036409907
113	0xbd79e0ce	-0.061005406
114	0xbc56ec5f	-0.013117879
115	0x3d610cf3	0.05494399
116	0x3c791410	0.015202537
117	0x3d9f534e	0.07779561
118	0xbb70b674	-0.0036729844
119	0x3c9f2e4d	0.019431258
120	0x3d029965	0.03188457
121	0x3bd1f50e	0.0064073866
122	0x3d1be390	0.038058817
123	0x3c89b2a8	0.016808823
124	0x3d00c824	0.03144087
125	0x3d877064	0.06613234
126	0xbbb6cc28	-0.0055785365
127	0xbc89ee2e	-0.016837206
128	0x3cc314d2	0.023813639
129	0x3c77b10d	0.015117896
130	0x3d2fc8d4	0.042916134
131	0xbc89c3a1	-0.016816916
132	0x3d583c78	0.052792042
133	0xbc04c029	-0.008102455
134	0x3ce810e1	0.028328361
135	0x3d22cd2f	0.03974646
136	0xbb80def1	-0.0039328267
137	0xbd39369b	-0.04521809
138	0xbc21c595	-0.009873767
139	0xbc5d5d2f	-0.013510986
140	0x3d6e4b7a	0.05817745
141	0x3d60282a	0.054725803
142	0xbc56c962	-0.013109537
143	0x3cc976c2	0.024592761
144	0xbd1f2a14	-0.03885849
145	0x3c56d2cc	0.013111781
146	0x3cced1c0	0.025246501
147	0x3cbfca58	0.023411915
148	0x3d0fc6d5	0.03510173
149	0xbc737119	-0.014858508
150	0xbcfa5b86	-0.03056122
151	0xbd9a6500	-0.075387955
152	0x3d735dda	0.059415676
153	0xbda9d435	-0.082924284
154	0xbcd70ba9	-0.026250677
155	0xbc422a75	-0.011850943
156	0x3d020e8b	0.03175215
157	0x3cfeacfb	0.031088343
158	0xbcf54d80	-0.029944181
159	0xbcd1b48d	-0.025598789
160	0x3d8ab8fa	0.06773563
161	0xbd489d73	-0.04897828
162	0x3d014c89	0.03156713
163	0x3d4c8698	0.049933046
164	0x3c8715e7	0.016489936
165	0xbc9e6ec5	-0.019339928
166	0xbca44d30	-0.020056337
167	0x3cd689d0	0.026188761
168	0x3cef345b	0.02919977
169	0xbcf4d43d	-0.02988636
170	0x3c8d0578	0.017214522
171	0x3d3acdae	0.045606308
172	0x3d5b5c97	0.053555097
173	0xbd2b0e19	-0.04176149
174	0xbc97de8b	-0.018538734
175	0x3cbd8457	0.023134394
176	0x3c6bace7	0.014384485
177	0xbce418f2	-0.027843926
178	0x3ca09885	0.019603977
179	0x3d75cfdc	0.060012683
180	0x3d27c471	0.040958825
181	0x3ce404eb	0.027834376
182	0xbc8240c0	-0.015900016
183	0x3d2af28d	0.04173522
184	0x3d37d7b4	0.044883445
185	0x3d076526	0.033055447
186	0x3c8b63f1	0.01701543
187	0xbd5cfce1	-0.0539521
188	0xbd257695	-0.04039629
189	0x3d09c195	0.03363188
190	0x3c93f99f	0.018063365
191	0x3c3783a6	0.011200821
192	0x3d1672be	0.03673052
193	0xbcaaf070	-0.020866603
194	0x3d63508f	0.05549675
195	0xbc9dca58	-0.019261524
196	0x3cefec20	0.029287398
197	0xbcb45ec4	-0.022017844
198	0xbb9ca009	-0.00477982
199	0xbc84d42e	-0.016214456
200	0xbcf48e92	-0.02985314
201	0xbd863a72	-0.06554116
202	0xba90a70f	-0.0011036115
203	0x3d6294f9	0.055317853
204	0xbd0746d9	-0.03302655
205	0x3ab17582	0.0013539048
206	0x3dafea72	0.08589639
207	0x3d55001b	0.052002054
208	0x3c732723	0.014840874
209	0xbd31342b	-0.043262642
210	0xbd345def	-0.044034895
211	0x3c9c6ad9	0.019093918
212	0x3d748c25	0.059703965
213	0x3c673c6c	0.014113527
214	0xbcc89316	-0.024484199
215	0x3d7f0515	0.062260706
216	0xbd1592a4	-0.0365168
217	0x3af65a1a	0.0018795163
218	0x3d28dee5	0.041228194
219	0x3d1c7650	0.03819877
220	0x3cf8e384	0.030381925
221	0xbd4dd184	-0.050248638
222	0x3c4fb8f0	0.01267837
223	0xbcfd3d51	-0.030913027
224	0x3ba981b9	0.005172935
225	0xbc9aa218	-0.01887612
226	0x3d29254f	0.041295346
227	0x3c9e4dbc	0.019324176
228	0x3d40cbfe	0.047069542
229	0xbd60cbbc	-0.054881796
230	0x3d733b52	0.059382744
231	0xbd44e58d	-0.04807048
232	0xbc2c0be6	-0.010500884
233	0x3ce84174	0.028351523
234	0xbbda8450	-0.006668605
235	0x3d5aa630	0.053381145
236	0x3d3d5b0c	0.046229407
237	0xbc6470d2	-0.013942914
238	0x3d2ac898	0.041695207
239	0x3d00ab35	0.031413276
240	0x3da80b18	0.08205241
241	0xbc84d6cc	-0.016215704
242	0x3d795a98	0.060877413
243	0xbcfad568	-0.030619338
244	0x3d38add0	0.045087636
245	0xbd022228	-0.031770855
246	0x3be57c8c	0.0070033725
247	0xbc67d68d	-0.014150274
248	0xbc803927	-0.015652252
249	0x3c7b3276	0.015331855
250	0xbcd10abf	-0.02551782
251	0x3d7b3998	0.061334223
252	0x3d0dc1cc	0.034608647
253	0xbad14019	-0.0015964537
254	0x3d3b57b1	0.045737926
255	0xbd12038d	-0.035647918

weight f4 [128, 256]
0	0x3d5474aa	0.051869072
1	0x3c071439	0.008244568
2	0x3d3a36bb	0.04546235
3	0xbd713738	-0.05889055
4	0x3db36b0c	0.08760652
5	0xbd321dbd	-0.043485392
6	0x3cb5d11f	0.022194443
7	0xbbdfa1cc	-0.0068247076
8	0x3d923733	0.07139435
9	0x3d905c3d	0.07048843
10	0x3c02b5ee	0.007977946
11	0x3cc2c99b	0.023777774
12	0xbd74fc14	-0.059810713
13	0x3cf6315f	0.030052839
14	0x3da41fdd	0.0801389
15	0x3d8c89c6	0.06862216
16	0xbd99014d	-0.07470951
17	0x3cf96aeb	0.03044649
18	0xbbc5411f	-0.006019726
19	0x3db5da4d	0.08879528
20	0x3d610b38	0.05494234
21	0x3cbd94e5	0.023142288
22	0x3dd9863e	0.10621308
23	0xbd088c51	-0.03333694
24	0x3d50a194	0.050935343
25	0x3d865bc3	0.06560471
26	0x3c14830f	0.00906445
27	0x3d43d642	0.047811754
28	0xbd9521a6	-0.072818086
29	0x3d9270cb	0.0715042
30	0x3d5a6c64	0.053326026
31	0xbc2148e9	-0.009844043
32	0x3d507f8b	0.050902884
33	0x3d194e3b	0.037428122
34	0x3c1ebd88	0.009688742
35	0x3d3fc0f3	0.04681487
36	0x3dc98a37	0.098408155
37	0x3ca5c1f3	0.020234084
38	0x3cb2094b	0.021732947
39	0xbd5fd637	-0.05464765
40	0xba327ec1	-0.0006809049
41	0xbd08361e	-0.033254735
42	0x3d5ef713	0.054434847
43	0xbcea323c	-0.028588407
44	0xbcf77c48	-0.03021063
45	0xb81b3480	-3.7003774e-05
46	0x3d0ab6f9	0.033865903
47	0x3d67b89e	0.05657255
48	0xbcb00a06	-0.021489155
49	0xbd3f14f3	-0.046650838
50	0x3d8e54de	0.06949781
51	0xbd4b2c5b	-0.049602848
52	0x3d270017	0.04077157
53	0x3d7e00dd	0.062012542
54	0x3db273fc	0.087135285
55	0xbd33dc22	-0.043911107
56	0xbd1709cb	-0.036874574
57	0xbca73237	-0.020409686
58	0x3dabeedd	0.08395169
59	0xbce7f89d	-0.02831679
60	0x3d80cf25	0.0628951
61	0x3d3adf72	0.04562325
62	0x3d148ae7	0.03626528
63	0xbc77e589	-0.015130409
64	0x3c5ce228	0.013481654
65	0x3d2d4589	0.042302642
66	0x3cde4f76	0.0271375
67	0xbce487e3	-0.027896827
68	0x3d7e455f	0.062077876
69	0x3bf5f7a6	0.0075063286
70	0x3cbdc321	0.023164334
71	0xbbd79581	-0.0065791016
72	0xbd8e79a8	-0.06956798
73	0x3d77bf23	0.060485017
74	0x3d1b8586	0.037969135
75	0x3ce0fdac	0.02746471
76	0xbc001f69	-0.007819989
77	0x3d9073e2	0.07053353
78	0xbe1c3d58	-0.15257776
79	0x3cc417c2	0.02393711
80	0xbd860177	-0.06543248
81	0xbc3768a8	-0.011194386
82	0xbda43c12	-0.0801927
83	0xbd4306a7	-0.047613766
84	0xbc8ebc27	-0.017423702
85	0x3cb68e63	0.022284692
86	0xbd49d65c	-0.049276695
87	0xbd40efaa	-0.04710356
88	0xbc0e29f7	-0.008676997
89	0x3c1669d0	0.009180501
90	0xbd4ff985	-0.05077507
91	0xbd1e354a	-0.03862504
92	0x3cb6f491	0.022333415
93	0x3d6680e4	0.056275263
94	0x3d815e5c	0.06316826
95	0x3c2013a1	0.009770305
96	0xbc9fe4e1	-0.019518318
97	0x3c5607fd	0.013063428
98	0x3c80846b	0.015688142
99	0x3d8dcd78	0.06923956
100	0xbd95a946	-0.07307677
101	0xbc460de8	-0.012088276
102	0x3dcecea9	0.10098011
103	0xbd68b512	-0.056813307
104	0x3be9869a	0.0071266415
105	0xbdc61e96	-0.096738026
106	0xbd14e25d	-0.03634869
107	0xbb98beae	-0.0046614027
108	0x3caeddfc	0.021346085
109	0x3d00e6ca	0.031470098
110	0x3c62060a	0.013795385
111	0xbd937113	-0.071993016
112	0x3d92085d	0.071305014
113	0xbd0a876b	-0.03382055
114	0xbc9584b1	-0.018251749
115	0x3b9d15b6	0.004793848
116	0xbd6e48cb	-0.05817489
117	0xbc593afd	-0.013258693
118	0x3d61101b	0.054947
119	0x3daa205b	0.083069526
120	0x3d2a9804	0.04164888
121	0x3d1bdde8	0.038053423
122	0xbde48917	-0.1115896
123	0x3be1df1c	0.006893052
124	0x3c5b2ae3	0.013376924
125	0xbbb007ec	-0.005372038
126	0xbd296232	-0.041353412
127	0x3cde650d	0.027147794
128	0x3db0d6ab	0.08634695
129	0x3cfcf0aa	0.030876476
130	0x3d2594b6	0.040425025
131	0x3d143883	0.036186706
132	0x3c875abd	0.01652276
133	0xbc244d63	-0.010028216
134	0x3cfb094d	0.030644083
135	0x3c04a32c	0.008095544
136	0x3d97966b	0.07401737
137	0x3d989c9e	0.07451747
138	0x3c963551	0.01833597
139	0x3d5746de	0.05255782
140	0x3c0e2225	0.008675133
141	0x3d7b8830	0.061409175
142	0x3c028a3e	0.00796753
143	0x3c952f86	0.018211138
144	0x3c9aa4d0	0.018877417
145	0xbd84fdbc	-0.064937085
146	0xbcd0bd47	-0.02548088
147	0xbdc989fe	-0.09840773
148	0x3d1860db	0.037201744
149	0xbcb5190b	-0.022106668
150	0x3d99a708	0.07502562
151	0x3c1f560e	0.009725107
152	0x3cdd506c	0.027015887
153	0xbd0cecbe	-0.034405462
154	0xbc30fdb2	-0.010802673
155	0x3bc86dbc	0.006116597
156	0x3d2c9718	0.04213628
157	0x3d2edf5a	0.042693473
158	0xbd05a826	-0.032631062
159	0xbdd6e41a	-0.10492726
160	0xbce5bba8	-0.028043583
161	0x3af763c1	0.0018874333
162	0x3d99942c	0.07498965
163	0x3cadf294	0.021233834
164	0x3d70506e	0.058670454
165	0x3dc8b4d9	0.09800119
166	0x3d33c571	0.043889467
167	0x3c22f1cd	0.009945345
168	0xbbb24deb	-0.0054414175
169	0xbbe76eb7	-0.007062759
170	0xbcfe1d41	-0.031019809
171	0xbc839686	-0.016062986
172	0x3d245190	0.040116847
173	0xbcd00f3c	-0.02539789
174	0x3d85c33f	0.06531381
175	0x3d0af975	0.033929307
176	0xbd42ee88	-0.047590762
177	0xbd4c1ec5	-0.04983403
178	0x3d96e95e	0.0736873
179	0x3da7a9dd	0.08186696
180	0xbcedc775	-0.029025773
181	0xbceee9ab	-0.029164156
182	0x3d453fc5	0.04815652
183	0xbd1f2602	-0.038854606
184	0x3b080799	0.0020756482
185	0x3b8fc956	0.004388015
186	0xbe19ba49	-0.15012468
187	0x3d77db05	0.060511608
188	0x3d8e574b	0.069502436
189	0x3d0c508a	0.034256496
190	0xbcffd2a9	-0.03122838
191	0xbbbb258f	-0.0057112644
192	0xbd477049	-0.048691068
193	0x3d417d1b	0.04723845
194	0xbd8a9741	-0.06767131
195	0xbc9faa80	-0.01949048
196	0xbd8ea4c0	-0.06965017
197	0x3b88c2a1	0.004173592
198	0x3d9954d6	0.07486884
199	0x3bfa85f1	0.0076453616
200	0xbd22473c	-0.039618716
201	0x3c616df0	0.013759121
202	0xbd0a776d	-0.0338053
203	0x3c6bb00f	0.014385237
204	0xb90baff6	-0.00013321624
205	0x3da86746	0.08222823
206	0xbdc75d9d	-0.09734652
207	0x3b8fc111	0.004387029
208	0x3d0cceb5	0.03437682
209	0x3d99c030	0.0750736
210	0xbc3f5593	-0.011678117
211	0x3c4ef7a1	0.0126322815
212	0x3ca66d2b	0.020315727
213	0x3bc6c16e	0.006065539
214	0xbc64a9b0	-0.013956472
215	0x3d37202f	0.044708427
216	0xbd15c966	-0.03656902
217	0xbbc01170	-0.0058614537
218	0x3d2aa10f	0.041657504
219	0x3d42ef44	0.047591463
220	0xbb448224	-0.0029984796
221	0x3cba62b6	0.022752147
222	0x3b15ff15	0.0022887636
223	0xbc14dd66	-0.009085989
224	0x3caf8d47	0.021429671
225	0xbc9248e9	-0.017857032
226	0x3d9877ab	0.074447
227	0x3d8ff1dc	0.07028553
228	0x3ce766ce	0.028247263
229	0xbd327ceb	-0.043576162
230	0xbd109fd6	-0.03530868
231	0xbd113d07	-0.03545859
232	0xbd039278	-0.032122105
233	0x3bc35e27	0.0059621516
234	0x3c07152b	0.008244793
235	0xbd2e265c	-0.04251705
236	0x3c8e6f38	0.017387018
237	0x3cf557ed	0.029949153
238	0xbd829c2d	-0.063774444
239	0xbd8cdabc	-0.06877658
240	0xbc57d0ae	-0.013172312
241	0x3b9380ce	0.0045014387
242	0xbd564960	-0.05231607
243	0x3da241eb	0.07922729
244	0xbd509fd3	-0.05093367
245	0xbd084528	-0.033269078
246	0x3cc49adf	0.02399963
247	0xbc9ff92c	-0.019527994
248	0x3dd46161	0.10370136
249	0xbd878c9f	-0.06618618
250	0xbc58916c	-0.013218265
251	0xbd1b9645	-0.037985105
252	0xbd4aa240	-0.04947114
253	0xbc8ab6ad	-0.01693281
254	0xbd939183	-0.072054885
255	0x3cdee44e	0.027208474
