models/model_objs/nhl_model_pregame.pth (torch, 867661 bytes, 11 tensors)

weight f4 [256, 165]
000000 81 a9 43 bd be 4b ea bb 02 01 ce bc 41 0f b5 bc
       -0.047769073 -0.0071501425 -0.025146965 -0.022102
000010 a7 7b 4e 3b f0 c5 60 bc 87 fb e0 bc e3 f7 2e bd
       0.0031506808 -0.013719067 -0.027463688 -0.042716872
000020 ab 6b 87 bd 4f b8 7e 3d d9 3c 02 bd c0 38 ab 3c
       -0.06612333 0.06218749 -0.03179631 0.020901084
000030 38 13 00 bd 6f 6b d4 3b ec 17 8b 3d 08 3f 1c 3d
       -0.03126833 0.0064825336 0.06791672 0.03814605
000040 86 b3 7e bd e4 f4 ef 3c 26 f7 98 3d 76 b2 b5 3c
       -0.062182926 0.029291578 0.07469015 0.022179823
000050 04 e6 54 3d 94 5e 95 3d 5d 95 27 bc 28 87 8f 3c
       0.051977172 0.0729343 -0.010228482 0.017520502
000060 56 46 52 bd c7 6c 83 bc b2 30 6a 3d 2d 6c 29 3d
       -0.05133661 -0.01604308 0.057175346 0.04136293
000070 f8 25 44 bd 6f 28 85 bd 0e 8a 3e bd ae 0d 9c bd
       -0.047887772 -0.06501853 -0.046518378 -0.07619797
000080 c6 8f 6d bd 50 ce a2 bc 74 75 43 3d ff 03 00 3c
       -0.05799844 -0.019873768 0.047719434 0.007813453
000090 7f ed 56 bd c4 ce 7f bd ab a1 1e 3d 31 17 87 bd
       -0.052472588 -0.062453046 0.038728397 -0.0659622
0000a0 fd 77 50 bc f8 76 e4 3c 60 d1 12 bd 55 75 20 bc
       -0.01272392 0.02788876 -0.035844207 -0.009793599
0000b0 2b 0f 4b bc b1 6a 97 bc 7f 95 23 bd 10 44 8e bd
       -0.012393753 -0.018483492 -0.039937492 -0.06946576
0000c0 25 5b 59 bd 30 58 16 bd e4 28 9f 3d fa 83 dc bc
       -0.053065438 -0.036705196 0.07771471 -0.0269184
0000d0 3e 79 6e bd 3e 73 a6 3c 6e ad d1 3c f5 05 1b 3d
       -0.058221094 0.020318624 0.025595393 0.037847478
0000e0 50 32 7d 3d d5 a5 3a 3d ad 52 84 bd 1e fe 31 3c
       0.06181556 0.045568306 -0.06461082 0.010863809
0000f0 54 bf 54 3d 97 09 a4 ba 85 30 0e bd 79 87 b2 3d
       0.051940277 -0.0012515065 -0.03471424 0.087172456
000100 38 58 e9 bc 50 0c 3e bd ea 2e 81 bd 38 28 22 3c
       -0.028484449 -0.04639846 -0.06307776 0.009897284
000110 f5 89 d8 3c 3b ba 28 3c 9f 3f cd 3b 2f fa 73 bd
       0.02643297 0.010298307 0.0062636877 -0.059564766
000120 40 33 97 bd 86 ed 8e bb db ed 98 3d 00 e6 56 3d
       -0.07382822 -0.004361811 0.07467242 0.05246544
000130 ab 9c 22 bd e9 86 26 bc 4f f5 5b bd 02 b1 fe bc
       -0.03970019 -0.010164001 -0.05370074 -0.031090263
000140 6d 42 4c 3c 18 9f 30 3d c3 4f 91 3d 92 65 87 bd
       0.012467009 0.043120474 0.070952915 -0.0661117
000150 94 7c 65 3d 76 33 75 bd ee 83 e5 3c 16 b1 8d 3d
       0.05602701 -0.05986353 0.02801701 0.06918542
000160 65 c0 01 3c 64 a4 95 3d c8 1a 6f bd 7e a7 ce bc
       0.007919406 0.07306746 -0.05837515 -0.02522635
000170 00 63 4b 3d 53 90 49 bc 98 dd 95 bc 4f 5f 07 bd
       0.04965496 -0.012302476 -0.01829414 -0.033049878
000180 fa 94 7d 3d 9f 37 2a 3d 1e 0e 09 3d 91 4b 3c bd
       0.061909653 0.04155695 0.03346073 -0.045970503
000190 6c e3 7c bd 16 55 10 3c 7d 26 a8 3c e1 75 e5 bd
       -0.061740324 0.008809349 0.020526165 -0.11204124
0001a0 82 25 82 3d 06 76 65 3d 9e 6a 41 3c ec aa a6 3b
       0.0635481 0.05602076 0.011805205 0.0050862934
0001b0 a7 c5 a8 bc 6a 07 84 bd 6f 93 90 bd 5c 0f 0c bd
       -0.02060206 -0.064467266 -0.07059371 -0.034194335
0001c0 40 a4 13 bd 6b 81 e1 3c 79 84 a5 bc 6d 98 cb bc
       -0.036045313 0.027527532 -0.02020477 -0.024852956
0001d0 ba 0d 9a 3d 01 c9 07 3d 86 8a 63 3d 6f 32 04 bd
       0.075221494 0.033150677 0.055552028 -0.03227466
0001e0 d1 bb b5 bc da 2c f8 3c e8 4c 45 bd 53 32 7d bd
       -0.022184284 0.030294824 -0.048169047 -0.06181557
0001f0 7f 34 51 3c 2a b1 bf bc 67 5e 67 bd 8e 74 60 3d
       0.012768864 -0.023399908 -0.056486513 0.054798655
000200 79 e9 84 3d 2b 01 c8 3c 18 45 69 bc 8c db 93 bd
       0.06489844 0.02441462 -0.014237665 -0.072196096
000210 82 86 85 bc a8 02 88 3c 3f 10 1b 3d 02 78 8a bc
       -0.01629949 0.01660283 0.03785729 -0.016902927
000220 17 9f ea bc 6a b0 51 3d ef fc 8a bd b7 7a 52 3d
       -0.028640313 0.051193632 -0.067865245 0.05138656
000230 db 30 e6 bc 82 9d 38 3c b9 c9 8a bb 79 8b a4 3b
       -0.028099468 0.011268022 -0.004235473 0.0050215092
000240 d2 2c ba bb 3f 6c 63 3d dc 63 d8 bb 89 f6 5b 3d
       -0.0056816125 0.055523153 -0.006603701 0.05370191
000250 64 74 97 3d b0 3e 13 bd d5 82 59 bd cd 27 8d 3d
       0.073952466 -0.035948455 -0.053103287 0.06892357
000260 53 2f 73 3d f2 1d 7a bd 1b c8 7f ba 42 d0 90 bd
       0.059371304 -0.061063714 -0.0009757296 -0.07070972
000270 2d 07 81 bd 6a 26 b0 3c 75 9d c0 3c ce 7e b0 3c
       -0.06300197 0.021502692 0.023512581 0.02154484
000280 53 84 a7 bd 94 8e fe 3d 51 d1 72 3c a9 ad 21 bd
       -0.08179536 0.12429538 0.014820413 -0.039472256
000290 ac e2 c5 bb 20 c9 8c 3c 11 25 ba 3c 5c 5d 69 bd
       -0.0060389843 0.017185748 0.022722753 -0.0569738
0002a0 0b da e4 3c 76 82 31 bd 04 59 89 bd b5 2e 3f bd
       0.027936002 -0.043337308 -0.067064315 -0.046675403
0002b0 00 17 93 3d 83 4d 86 3d 6a 45 8e 3d 9f 57 2c 3d
       0.07182121 0.06557753 0.069468334 0.04207575
0002c0 ea 44 62 3d bf f9 5b bc 94 c3 29 bd bb 5b 15 3d
       0.055241503 -0.013426243 -0.041446283 0.036464434
0002d0 c3 6a 2b bd 20 07 5e bd b8 de d8 bc ab c5 47 3c
       -0.041849863 -0.054206014 -0.026473388 0.012193124
0002e0 65 c2 10 3d 0a 7b 02 bd 5f 05 46 bd 7a a6 13 3c
       0.03534164 -0.03185562 -0.048344966 0.009011859
0002f0 24 65 4a bd 5c bc 53 bd 98 36 26 3d 76 4c 76 bc
       -0.04941286 -0.051693305 0.04057941 -0.015032878
000300 7b e4 8c 3d ca 71 97 3d 59 ba af 3c 03 de e5 3c
       0.06879517 0.073947504 0.021451162 0.028059965
000310 b2 3e 69 3c 9c 13 82 bb bf 04 05 bc 18 19 93 ba
       0.014236139 -0.003969623 -0.008118807 -0.0011222688
000320 f2 7e d2 3c 97 18 93 3d 1b 47 a5 bc f0 ca 06 bd
       0.025695298 0.071824245 -0.020175507 -0.03290838
000330 45 35 c4 bc 87 56 26 bd ad cd b0 3b d3 0f 5a 3d
       -0.023951182 -0.040609863 0.005395612 0.053237747
000340 d9 35 7b 3d ad f9 d8 3c d7 5d 82 bd 66 bc 48 bd
       0.06133065 0.026486242 -0.06365555 -0.049007796
000350 19 44 c0 bc d4 a1 70 bc c3 93 5d 3b 54 f2 85 bd
       -0.023469971 -0.01468702 0.0033809997 -0.06540361
000360 33 bd ea 3c 19 40 90 bd 78 cb 3d bd 58 e6 82 bd
       0.02865467 -0.07043476 -0.04633662 -0.06391591
000370 39 6a 7f 3d 8c 6d a2 bd 56 69 79 3d 57 93 9d bb
       0.06235716 -0.07931051 0.06089147 -0.004808824
000380 dd 51 fa bb db 74 49 3d fb 1c 73 bb be 4e 65 3d
       -0.0076391534 0.049183708 -0.003709613 0.055983298
000390 44 b0 7f 3d 36 e7 98 bd ad d1 c8 3c 13 1e a0 3c
       0.06242396 -0.07465975 0.024514044 0.01954559
0003a0 71 1a 68 3c 49 2b 0c bb a4 9b 54 3c 7c fe 64 bd
       0.01416646 -0.0021388105 0.012976561 -0.055906758
0003b0 9e 54 4c bc d9 34 8a 3d c4 c1 3b 3d e9 46 a3 bb
       -0.012471346 0.06748361 0.045839086 -0.0049828184
0003c0 5c 13 91 bd 7b 82 62 3b 17 26 70 bd b1 07 6c 3d
       -0.07083771 0.0034562636 -0.058630075 0.057624523
0003d0 34 5f 5c bd 7a a4 86 bc 2a 79 e8 bc 5e a5 ef 3b
       -0.05380173 -0.01643585 -0.028378088 0.0073134145
0003e0 88 5b 85 3d 32 08 0e 3c 68 c0 17 3d 71 24 64 3d
       0.06511599 0.008668946 0.037048727 0.055698816
0003f0 07 e6 7c 3d 18 bb cf bc 67 7c 93 bc 06 0d 1e 3d
       0.06174281 -0.025357768 -0.018003656 0.03858664

bias f4 [256]
000000 5c f2 85 bd ca 1f f4 bc 8c e3 19 3d d7 e2 13 bd
       -0.06540367 -0.029800314 0.03757052 -0.036105003
000010 74 89 87 3d 58 5a 8e 3d 24 da b4 3d 1e 09 1c 3a
       0.06618014 0.069508255 0.088306695 0.00059522863
000020 80 09 1d bd 08 1a 34 bd cb 4b 66 bd f4 f8 a6 bc
       -0.038339138 -0.043970138 -0.056224626 -0.020382382
000030 c8 b1 7d 3d 4f fe a9 bd 2d e5 3d 3d 1c 39 36 bd
       0.061937124 -0.08300459 0.046361137 -0.044488057
000040 7f e5 8a 3b e5 69 57 bd 75 d6 5b bd 94 a7 47 3c
       0.004238784 -0.052591223 -0.05367132 0.01218595
000050 f6 c5 8d bd fc 1a 59 bd 91 65 91 bc 64 63 67 3d
       -0.06922524 -0.05300425 -0.017748626 0.05649127
000060 99 80 69 3d 15 f1 22 3c 7b 69 1f bd 6b 07 6d 3c
       0.057007406 0.009945174 -0.038918953 0.014467101
000070 d5 61 15 bd bc 48 43 bc d8 17 49 3c 8a 1e 99 bd
       -0.036470253 -0.011919197 0.012273751 -0.07476528
000080 80 11 57 3d 5a de 55 3d 50 f2 8d 3c 2d d9 e5 3c
       0.052506924 0.052214004 0.017327458 0.028057659
000090 2f b2 02 bb 6c 59 b5 bb 3d 1e 10 bd ce dd cd 3d
       -0.0019942631 -0.0055343416 -0.035185087 0.100520715
0000a0 de 12 46 bc 2f 49 26 bd 41 3e 68 3d ba 52 85 3d
       -0.012089459 -0.040597137 0.056699995 0.065099195
0000b0 ee 2f c8 3d 5e 25 b5 bc 1f 86 14 bd b8 d1 84 bc
       0.09774767 -0.022112545 -0.03626072 -0.016213283
0000c0 61 09 7c 3c f5 66 55 bd 39 5a d4 3b 18 02 9e 3d
       0.0153830955 -0.05210014 0.006480482 0.07715243
0000d0 19 e9 3a 3c 88 98 10 bd 7d be 03 3d 33 1c 8f 3d
       0.011408114 -0.035301715 0.032164086 0.069878004
0000e0 d3 cf d2 3c ea f2 e7 3d ba b9 c0 bd 97 32 86 3d
       0.025733864 0.11325629 -0.094104245 0.06552618
0000f0 b3 b1 67 bd fe c0 85 3d 5a c7 ea bc 41 80 82 3d
       -0.05656595 0.06530951 -0.028659511 0.06372119
000100 fa 82 a7 3d e4 41 e6 3c 91 9f bb 3b 0e 83 c6 3d
       0.08179279 0.028107591 0.005725809 0.096929654
000110 97 f8 36 3d c3 c0 a1 bb e1 f4 16 bb 2a ec 86 3d
       0.044670667 -0.004936309 -0.0023034143 0.065880135
000120 93 27 7a 3d d1 e2 6a 3c 3f 73 23 3d a5 f5 af 3d
       0.061072897 0.014336304 0.03990483 0.08591775
000130 0e ea 0f 3d 48 79 da bc 7e 9f 89 3d c2 62 72 bc
       0.03513532 -0.02666916 0.06719874 -0.0147940535
000140 18 9e 22 3d fe 54 39 bd 96 a1 63 3d 89 ea c2 bc
       0.03970155 -0.04524707 0.055574022 -0.023793476
000150 d3 65 f0 bb 64 d2 a7 bc bf e2 8c 3d 10 f2 39 3d
       -0.007336357 -0.020486064 0.06879186 0.045396864
000160 77 08 ab bc e5 10 41 3d 54 bd ec bc 17 33 98 3d
       -0.02087806 0.047135253 -0.028898872 0.074316196
000170 a1 e9 a5 3d bc 88 6b 3d ad 29 ac bb b6 05 3e 3d
       0.08101202 0.057503447 -0.0052539916 0.046392165
000180 f9 1a 79 3c 18 57 a0 bc 69 82 82 3d dc 62 9b 3c
       0.015204185 -0.01957278 0.0637253 0.018968038
000190 34 eb 18 3c 09 10 b4 3d 38 a8 21 bc 31 7a a4 3d
       0.009333421 0.08792121 -0.009866767 0.08031119
0001a0 c4 7c cf 3c c6 28 9c 3d 0f 77 21 3d 6b 14 fd bb
       0.025328048 0.076249644 0.039420184 -0.0077233813
0001b0 f6 e0 8c 3d b2 6d ae bc cf ef 9b bd 81 80 df bc
       0.068788454 -0.021292541 -0.07614099 -0.027282955
0001c0 b9 d3 08 3d 59 55 98 bb 63 c6 47 3d 2a 32 2b 3d
       0.03340504 -0.004648846 0.04877318 0.041795887
0001d0 5e c3 92 bd 70 6d 8d 3d 25 8f f3 bc 2a af 80 bb
       -0.071661696 0.06905639 -0.029731343 -0.003927131
0001e0 40 e5 38 bd 45 2d 84 39 3e 3c ab 3d 24 77 48 3d
       -0.045140505 0.0002521073 0.083611 0.048941746
0001f0 aa 7e 65 3c a0 42 c1 3d 17 9f a8 3d 67 0d db bc
       0.01400725 0.09436536 0.08233469 -0.02673979
000200 a9 12 76 3c 2e 66 a6 3c 81 39 11 3d 5c 66 a0 3d
       0.015019097 0.020312395 0.03545523 0.078320235
000210 00 a8 b1 3b ad b1 13 3c 69 7b 42 3d b6 53 e9 3b
       0.0054216385 0.009014529 0.047480974 0.007120575
000220 cf 0d 3a 3d 17 d2 81 3d ad 12 1a 3d 6f 61 b2 bb
       0.045423325 0.063388996 0.037615467 -0.005443744
000230 c7 45 a3 3d 72 59 27 3c f8 15 df bc 13 3e 9c bc
       0.07972293 0.0102141965 -0.027232155 -0.019072568
000240 29 5d b3 3d 46 f9 90 3d 29 00 a0 3d 71 a0 9a bd
       0.08758003 0.07078795 0.078125305 -0.07550133
000250 ce 02 04 3c 4a 71 36 3a 6b db 82 3d 01 1e 89 3d
       0.008057309 0.00069596304 0.06389507 0.06695176
000260 63 c6 11 3d 32 33 b7 3d 49 95 a1 3d 00 c3 15 bd
       0.035589587 0.089453116 0.07889802 -0.03656292
000270 b3 45 13 bd 4e 2a 5a 3d 33 15 c1 3c 9f 61 61 bd
       -0.035955142 0.053263 0.023569679 -0.05502474
000280 8d a1 c7 3c 42 9e b8 3d 57 e7 73 3d 08 b1 4a bd
       0.024369026 0.0901456 0.059546795 -0.049485236
000290 6f ab f1 ba fd cb fd 3c 92 7b 4e bc 45 e1 e0 bc
       -0.0018437932 0.030981058 -0.012602704 -0.027451167
0002a0 7e 84 90 bd 73 73 2d 3c c5 7a 2d bd 23 b5 ad bd
       -0.07056521 0.010586607 -0.04235341 -0.08481815
0002b0 7f 7f b9 3c 9b 5c 67 3c da 40 15 bd 29 00 a6 bd
       0.022643803 0.0141212 -0.0364388 -0.08105499
0002c0 78 69 19 3d c7 14 7b bd 7c f4 9c bd 27 76 07 bd
       0.0374541 -0.06129911 -0.07663819 -0.033071663
0002d0 79 2d 93 bd 21 36 88 3d 6f e3 9b 3d df ca 43 3d
       -0.071864076 0.06650949 0.07611739 0.047800895
0002e0 d3 3c 4e 3d 06 66 2e 3d d4 e8 58 3d 52 28 9c bc
       0.050350975 0.042577766 0.052956417 -0.019062195
0002f0 12 c1 84 bd c5 5a bf bb b3 44 f8 bc de 97 75 3d
       -0.06482138 -0.005839678 -0.030306196 0.059959285
000300 2c 64 f1 3c 0e 25 85 bc 1b 64 14 bc 17 ab dd bc
       0.029466711 -0.01625302 -0.00905707 -0.027059121
000310 f5 eb 93 bc fa bd e6 3c 6a b3 81 bd df cb 0e bd
       -0.018056849 0.02816676 -0.06333049 -0.034862395
000320 57 8e 5e 3d a0 c9 92 3c 7b 5d fd 3a f5 85 09 3d
       0.054334965 0.017918408 0.0019330228 0.033575017
000330 00 c2 d6 bb a9 4a 90 3d 42 e0 a9 bd a6 59 2e 3d
       -0.0065538883 0.0704549 -0.08294727 0.042565964
000340 c3 46 d2 3a a0 86 81 3d 1a 47 6b bd d9 fd 1d 3d
       0.0016042817 0.06324506 -0.057440855 0.038572166
000350 0e 2e 11 bb 3e 17 37 bc 49 52 03 3d 1b 17 4a bb
       -0.0022152695 -0.011174975 0.032060895 -0.0030836526
000360 6b 10 3b bd 48 aa 27 3d 1e 76 80 3d c6 f4 35 3d
       -0.045669954 0.040933877 0.06272529 0.044422887
000370 21 e4 5d 3c 4b 6f af 3d e5 9d 06 bc 5d 72 f6 3c
       0.01354316 0.08566149 -0.008216356 0.03008383
000380 b7 ca dc bc 90 d6 82 bd 38 95 e7 bc 21 78 7c bd
       -0.02695213 -0.06388581 -0.028269395 -0.061638
000390 aa 12 9d 3b 61 28 0b 3d cc 79 06 3d fe 59 09 3c
       0.0047934847 0.033974055 0.032831 0.008383272
0003a0 21 eb 13 bd 00 a5 67 3d ea 7a 10 39 04 01 31 bd
       -0.03611291 0.05655384 0.00013778699 -0.04321386
0003b0 c2 4d 3a bd f7 0e 8f bd 83 df 42 bd d8 63 9a bc
       -0.045484312 -0.06985276 -0.04757644 -0.018846437
0003c0 85 67 ce bc 7b 4a 23 3d be 3c 95 3c 24 bf 80 bd
       -0.025195846 0.039865952 0.01821744 -0.06286457
0003d0 e9 72 07 bc 6f 58 43 3d 03 bf a5 bd 04 12 ac bd
       -0.008267143 0.04769176 -0.08093073 -0.08401874
0003e0 f9 58 c0 3d 7d c8 91 3c be fd 52 3c a5 7b a0 3d
       0.0939197 0.017795796 0.01287788 0.07836083
0003f0 b4 d4 0b bd 52 af 9d 3d de a5 8d bd bc 2a 2c 3d
       -0.034138396 0.07699455 -0.06916402 0.042032942

weight f4 [256, 256]
000000 28 23 8c bb a9 9d a1 bc ce 26 12 3d 54 49 7d bb
       -0.004276652 -0.019728499 0.03568154 -0.0038648443
000010 66 cd 8d bd 70 2f 7a bc 78 e9 3c bd 53 d3 7e bc
       -0.06923942 -0.015270099 -0.04612109 -0.015553313
000020 b6 f9 75 3d 4c ab 29 3d c2 d3 58 bd 5c f5 39 bd
       0.060052596 0.041423127 -0.052936323 -0.04540001
000030 e9 58 2c bd c2 14 ce 3c c6 43 7f bc d7 76 98 bc
       -0.04207698 0.025156382 -0.015580123 -0.018611355
000040 38 4c 60 3c 27 b3 32 3d 51 27 7b 3d f2 1e 67 3d
       0.013690047 0.043627884 0.061316792 0.056425996
000050 fd 37 a6 bb 96 71 77 3d 83 31 a1 ba 4e 6f 46 3c
       -0.0050725923 0.06041106 -0.0012298081 0.012111498
000060 09 7b b0 bd 78 fb 58 3d b2 0a f7 3c 17 96 12 3c
       -0.08617217 0.052974194 0.030156467 0.008946917
000070 3d ae 4d 3c 8c 3d 3a bd 83 96 13 bd d4 80 34 bc
       0.012553749 -0.045468852 -0.03603221 -0.011017043
000080 58 5f 7d bb fa 9b 24 bb 5f a1 92 bc d4 7e 29 bd
       -0.0038661566 -0.0025117383 -0.017899213 -0.04138072
000090 4f c1 6f 3c 2c 25 0f bd 05 21 22 bc ba 13 0f bd
       0.014633491 -0.03494756 -0.009895568 -0.034930922
0000a0 27 da 7c 3d c5 c3 31 3d 75 53 31 bd 4f 9f 6d 3d
       0.061731484 0.04339959 -0.04329248 0.058013257
0000b0 9b 66 14 bd b9 9b 57 3d e1 26 96 3d b2 27 07 3d
       -0.036230665 0.052638743 0.07331634 0.03299684
0000c0 72 4e 80 bc 30 b5 97 bd 3f f8 73 3c e9 c3 a1 3c
       -0.015662406 -0.07407606 0.014890729 0.019746738
0000d0 6a 7b c4 bc 44 12 8a bc 96 68 b3 bc 34 01 31 bc
       -0.02398463 -0.016854413 -0.021900456 -0.0108035095
0000e0 97 47 47 bd 9e 19 03 bd f6 9a 6f bc 10 d4 57 3c
       -0.048652258 -0.032006852 -0.014624348 0.013173118
0000f0 a2 17 cb bb 38 a4 86 bd 89 ae 64 bd 0a 3f e6 3c
       -0.0061978856 -0.06574291 -0.055830512 0.028106231
000100 9a ba 80 3d 4e a7 77 bc 67 6b 80 bd 1a 31 31 3c
       0.062855914 -0.015115572 -0.06270485 0.010814929
000110 cc f5 1a 3c 5a d6 4e 3c d0 2e ef bc a8 48 9d 3b
       0.009458017 0.012624348 -0.029197127 0.004799921
000120 f0 1d 38 3d 88 5a 75 bd 03 6f 83 3d 82 03 ad 3a
       0.044950426 -0.05990079 0.06417658 0.0013199898
000130 a9 4e 16 bd 48 80 f4 3c 02 5c 67 bc ea 46 49 3d
       -0.03669611 0.029846326 -0.0141210575 0.049139895
000140 13 95 20 bb ea 12 71 bc 2e 26 a7 bd 6b e9 e8 3b
       -0.0024502918 -0.014713982 -0.08161579 0.0071079037
000150 e5 3d 83 bc bb b5 83 bd eb 68 8f 3c f9 60 7a 3d
       -0.016020725 -0.06431147 0.017506083 0.061127637
000160 27 3c 0e 3d 0b 8a 02 3d ba f1 a3 3b a6 59 79 3c
       0.034725334 0.03186993 0.0050031813 0.015219128
000170 5f c1 4e bc 1a b9 49 bb b5 b3 81 3c b9 4c a4 bd
       -0.012619345 -0.0030780495 0.015832761 -0.08022446
000180 c4 a2 00 bd 7f e1 81 bc 1d 6a 87 3c 7d 8e db bb
       -0.031405225 -0.015854595 0.016530091 -0.0067003355
000190 3f fc a9 3c d0 4a 98 bd d2 40 6a bd d5 2d f6 3c
       0.020750163 -0.07436144 -0.057190724 0.030051151
0001a0 6a 6d ce 3c a9 99 5a 3c ca c2 d4 bb 82 66 79 3d
       0.025198657 0.0133422995 -0.006492947 0.060888775
0001b0 fa e4 c9 bc 05 73 04 3d e9 6f eb 3b 43 3f b0 3d
       -0.024645317 0.032336254 0.0071849716 0.08605816
0001c0 3e 48 12 3d f3 63 05 3d 33 55 42 3d 91 0c 5e 3d
       0.035713427 0.032566022 0.047444534 0.054211203
0001d0 e1 22 8e 3c 8a 53 12 3d 05 74 77 bd da 3d 6a 38
       0.017350616 0.0357242 -0.06041338 5.584755e-05
0001e0 da f4 28 bd 6f d0 bc bc 59 86 bc 3c 78 61 67 3d
       -0.041249134 -0.023048608 0.02301328 0.056489438
0001f0 2d b9 b7 3b 9e 8a 65 bc 69 ce 3f bd 3d 59 08 3c
       0.0056067915 -0.0140101 -0.046827707 0.008322057
000200 fb 35 99 bc 78 6b 0c bc de 1b 0d 3d ba f4 08 3d
       -0.018702498 -0.008570544 0.034450404 0.033436514
000210 bb 4b 4a bd f2 4b dc bc b2 b8 0e bd 2d ef 8c bc
       -0.04938863 -0.026891682 -0.034844108 -0.017203892
000220 96 9b 30 3d 5f 3a 0d bd 98 1f 8f 3c 65 e5 b3 3d
       0.04311713 -0.034479495 0.01747112 0.08783988
000230 4e 4f e8 ba 33 c4 b2 bb 18 a6 78 3d b1 af c5 bc
       -0.001772383 -0.0054555177 0.060705274 -0.024131628
000240 90 6d f1 3c 6e a4 61 bd 1e 93 b6 bc d5 61 42 bd
       0.029471189 -0.055088453 -0.022286948 -0.04745658
000250 a0 32 d5 bc 5f f0 97 bc 71 07 36 3d 0c 7a 92 bb
       -0.026025116 -0.018547235 0.04444069 -0.0044701155
000260 16 10 91 bd a6 53 d5 bc c2 18 8f bd b8 d2 54 bd
       -0.07083146 -0.026040863 -0.06987144 -0.05195877
000270 77 6c 01 bd c9 0f 8b bd 0a be a1 3c fa 60 0a bd
       -0.03159758 -0.0679012 0.019743938 -0.03378389
000280 a1 f4 65 3c 16 39 d6 bc fa 35 1d 3d 4c f3 bc bc
       0.014035375 -0.026150268 0.038381554 -0.023065232
000290 86 bb 0c bc 74 80 16 3d 94 e0 0b 3d d4 a5 30 bb
       -0.008589631 0.036743596 0.03414972 -0.002695431
0002a0 bb 9b 98 3d 02 86 d5 bb 77 44 0b 3b 47 d3 c3 3c
       0.07451578 -0.006516219 0.0021250525 0.023904456
0002b0 6c db d3 bc 4a fb 01 bd 28 48 6a 3c 94 1c 86 bc
       -0.025861464 -0.03173379 0.01429943 -0.016371049
0002c0 af 35 a9 bd 00 a0 52 3d 1f d1 51 3d a8 1d 3e 3d
       -0.082621925 0.05142212 0.051224824 0.046415
0002d0 4e a9 ed bc c1 dd 2c 3d e1 eb d6 bb 4b 66 5b 3b
       -0.029011395 0.04220367 -0.0065588807 0.003347772
0002e0 c7 78 a3 3c 58 f4 35 bd 36 0e af bc 15 f6 16 bd
       0.019955052 -0.044422477 -0.021369081 -0.036855776
0002f0 be c9 c0 3c 9d 04 f6 bc ef a8 68 3c 58 39 aa bc
       0.023533698 -0.030031497 0.014200433 -0.020779297
000300 96 63 d9 3c 19 9e b0 3c f2 82 dc 3c 0d 6b 3a 3d
       0.026536744 0.021559762 0.026917908 0.045512248
000310 1f d8 ed 3c 7a 7d 1b 3b 3b 13 64 bc a0 b6 c5 3a
       0.029033719 0.0023725913 -0.0139206005 0.0015084334
000320 a1 b1 5c bd 26 37 9b 3c 7b 13 b1 3b 5c b2 29 3d
       -0.053880338 0.018947195 0.0054039336 0.041429862
000330 a3 a7 2c 3d 3d 74 34 bd 22 f9 0e 3d 12 6b 46 3c
       0.04215206 -0.044056166 0.03490556 0.0121104885
000340 98 0c 6b bd dc 7d ef 3c f3 33 6b bd 11 59 fb 3b
       -0.057385057 0.02923482 -0.05742259 0.0076705297
000350 de 23 23 3c c3 f4 21 bd 91 c1 3b 3c 66 c0 44 3d
       0.009957282 -0.039540064 0.011459724 0.048035048
000360 8e a0 43 bd dd 16 78 3c 75 05 13 bd fb 12 00 bd
       -0.04776054 0.01514217 -0.035893876 -0.0312681
000370 be eb 6b bc ec eb bd bc 77 e1 66 bd 3e 38 99 3c
       -0.014399467 -0.023183785 -0.056367364 0.018703576
000380 24 b0 bb 3b ca 0e 7d 3d 4b f8 05 3b 52 9f 3b bd
       0.0057277847 0.061781682 0.0020442184 -0.045806237
000390 df a5 86 bd 5d 12 54 bd b8 68 60 bb 9b a8 9e 3c
       -0.06574606 -0.051775325 -0.0034242105 0.019367507
0003a0 b2 de 2f 3d d6 9f e4 bc 60 48 39 bd f8 2c 1e 3d
       0.04293699 -0.027908247 -0.045235038 0.038617104
0003b0 b6 6d 98 3b c0 1e 57 bd 6f 22 cc 3b 41 2d 03 3d
       0.0046517504 -0.05251956 0.0062296907 0.03202558
0003c0 c6 e1 74 3d f6 4b d7 bc 72 a5 aa 3d b9 af a0 ba
       0.059785627 -0.026281338 0.083323374 -0.0012259401
0003d0 5d dc 0e 3d 0c a3 dc bc b0 40 5a 3d c6 83 1c 3d
       0.034878124 -0.026933216 0.053284347 0.038211606
0003e0 c2 7b 86 bd 8f df 11 3d 50 27 18 bd 69 25 b9 3b
       -0.06566574 0.035613593 -0.037146866 0.0056502116
0003f0 ec 95 3a 3c be 7a 40 bd 63 25 bc bc 3c 7c 04 3d
       0.011388283 -0.046992056 -0.022967046 0.03234504

bias f4 [256]
000000 1d af 95 3c b4 f3 6f 3c da 0b d1 3d 0d 3b 7b bd
       0.018271977 0.014645506 0.10207339 -0.061335612
000010 24 d0 23 3d 80 e8 5a bd df c4 1f 3d 10 c0 d9 bb
       0.03999342 -0.053444386 0.03900611 -0.00664521
000020 f1 75 6e 3b ec 9c 63 bd 84 ff 88 bd 97 13 e1 3c
       0.0036386217 -0.055569574 -0.06689361 0.027475161
000030 00 1a 3b 3c 46 2c 2d bb e9 ff ea bc c1 04 21 bd
       0.011419773 -0.0026424094 -0.02868648 -0.039311174
000040 fd a9 f0 3c c7 5c f7 3c 30 9b 6a 3d 44 37 94 bc
       0.029377932 0.030195607 0.057276905 -0.018092759
000050 b0 c2 5e bd 9e f3 22 bd 57 25 19 3d 98 9e 39 bd
       -0.054384887 -0.039783113 0.037389126 -0.045317262
000060 c0 3e 8e bc 29 a5 08 3d ea c7 62 3b 2b 95 f1 3c
       -0.017363906 0.033360634 0.0034604021 0.029490074
000070 82 37 7d 3d cb 85 84 3d d0 93 54 3d 71 37 b1 bc
       0.061820515 0.064708315 0.051898777 -0.021632882
000080 3b bb 59 bd 64 15 c0 3d 75 16 44 3d 5b 47 3a 3d
       -0.053157073 0.0937908 0.04787298 0.045478206
000090 5e f7 4f bd 3e fa 58 3d 60 e2 09 bd 61 6d 5b 3d
       -0.050773017 0.052973025 -0.033663154 0.05357111
0000a0 ef 9a 1d 3d 2e e9 8c bd 6e 0b 03 bd df 70 99 3d
       0.038477834 -0.06880413 -0.031993322 0.074922316
0000b0 ac 53 1a bd 0b 1e 2d 3d d2 dd 43 bd 18 db 98 bd
       -0.037677452 0.04226498 -0.047818966 -0.07463664
0000c0 64 96 30 3d 8d 22 83 bc d0 fa 52 bc 51 57 9b 3d
       0.043112174 -0.016007686 -0.012877181 0.07585014
0000d0 87 cd 00 bd c7 7c 80 3d 5f ef 35 bd 2e c7 47 3d
       -0.031446006 0.062737994 -0.044417735 0.048773937
0000e0 06 98 ba 3d ee 68 4c 3c 7d 58 7b bd 6e 5a 8c 3d
       0.091110274 0.012476189 -0.061363686 0.068531856
0000f0 a9 ec 22 3d b0 83 da 3c 4a d1 16 bd b8 2d fa 3c
       0.039776478 0.026674122 -0.036820687 0.030539379
000100 85 a8 ca 3b 53 d6 25 3d 0f 25 a2 3d 45 c7 4a 3d
       0.00618464 0.0404876 0.079172246 0.049506444
000110 95 ac cc 3b 18 73 52 bb 02 0c 22 bd 57 80 3c 3d
       0.0062461593 -0.0032112058 -0.039562233 0.046020832
000120 f4 6e ea bb 89 3b 1a bd 89 c3 37 bd 48 b6 55 bd
       -0.00715434 -0.037654433 -0.04486421 -0.05217579
000130 8a da 81 bc a3 37 a3 3d 21 92 e4 3c a3 64 d9 bc
       -0.015851278 0.07969596 0.027901711 -0.026537245
000140 f4 8e 2b bc 38 71 7c 3c 2d ea 89 bd 59 11 bf 3c
       -0.010471094 0.015407853 -0.067341186 0.023323702
000150 cf ba d5 bc 87 a3 89 3b 83 58 a3 3d 89 ab f5 3b
       -0.026090054 0.004200402 0.07975867 0.007497255
000160 8b 7a 36 bd ee 04 3a 3c 0d 57 fb bc 54 bb 01 bd
       -0.04455046 0.011353714 -0.030681157 -0.03167279
000170 b4 24 69 3d 09 9f 2c bd 71 ec 5b 3d 83 1e 8b 3c
       0.05691977 -0.042143855 0.053692285 0.016982323
000180 fb 76 10 3d 93 9c d9 bc d5 7a 68 3d 85 f3 16 3d
       0.03526972 -0.026563918 0.056757767 0.036853332
000190 a0 40 85 3b e2 bc 1b 3d aa bd 08 3c 17 ee 51 bd
       0.004066542 0.03802193 0.008346001 -0.05125245
0001a0 8f fa d0 bc c7 95 81 3d 99 25 56 bd a4 54 b1 bc
       -0.0255101 0.06327396 -0.05228195 -0.021646805
0001b0 1c a1 18 bc 1c d0 52 3d 70 7c 69 3d 4c be c0 3c
       -0.009315755 0.051468 0.05700344 0.02352824
0001c0 e7 aa b6 3c 11 ca 1a bd d3 83 8e 3d 4e 33 0c 3d
       0.02229829 -0.03779036 0.06958737 0.034228615
0001d0 58 40 2d bd 24 8e 4a 3d 87 df a2 bc 01 17 46 3d
       -0.04229769 0.049451962 -0.019881977 0.048361782
0001e0 4b ea 28 bd 4b 23 bb 3d 40 21 98 3d a0 67 2b bd
       -0.041239064 0.09137591 0.07428217 -0.04184687
0001f0 ca d9 95 bd 87 a8 b5 3b 5d fe 32 3c 3e ac 8d 3d
       -0.073169306 0.0055437717 0.010924903 0.06917618
000200 fa 46 ba bc a3 31 1f bd 1b 13 29 3c a4 f0 81 bc
       -0.022738922 -0.038865697 0.0103194965 -0.015861817
000210 91 ac 3f 3d 59 46 02 3d 35 5f c2 bc 2f 82 56 3a
       0.04679543 0.03180537 -0.023727039 0.0008182851
000220 6c 39 84 bb 41 10 a2 3d 87 ab 20 3d 31 df ad 3d
       -0.0040351655 0.079132564 0.03922608 0.08489836
000230 a0 82 99 3d f7 2c db 3d 6e c0 96 3d 61 85 bd bd
       0.07495618 0.10701936 0.07360922 -0.09253956
000240 a2 29 57 bd 77 b7 88 bc 9d af 0c 3d 83 19 95 3d
       -0.05252994 -0.016689045 0.034347165 0.072802566
000250 a6 57 fc 3c 87 90 ab bc 65 43 82 bd 8c 13 88 bb
       0.030803513 -0.02094294 -0.06360511 -0.004152721
000260 89 c5 81 3d 39 8c 69 3c 11 6b 2e bd f7 63 5e 3d
       0.06336505 0.014254623 -0.042582575 0.054294553
000270 f3 18 1d 3b 4d 19 d9 3c 7c 3f b8 3d f4 f8 da bb
       0.002397117 0.026501322 0.08996484 -0.0066825096
000280 af 2d 28 3d ed 41 12 bc 87 fe 4a bd d8 1f 67 bc
       0.041059192 -0.008926851 -0.049559142 -0.014106713
000290 46 1a 24 3d 68 f0 a5 3b 97 11 24 3b 85 27 93 3c
       0.04006412 0.005064059 0.0025034898 0.01796318
0002a0 b6 c4 17 bd 8a e7 43 bd 7e 10 71 3d 5d 8c 98 bc
       -0.037052833 -0.047828235 0.05885362 -0.018621618
0002b0 e0 08 70 bc 95 dd d3 3b 8e cc 2b 3d da 05 e9 bc
       -0.014650553 0.0064656236 0.041943125 -0.028445173
0002c0 f3 46 d5 3c 4b 3f be 3c f9 66 14 3c 5b bf 13 3d
       0.026034808 0.02322354 0.009057754 0.036071163
0002d0 df bb d4 3c 95 d3 47 bc 46 0e 9a 3d 7a 28 f6 3c
       0.02596849 -0.012196441 0.07522254 0.030048598
0002e0 e3 41 5e bd 85 85 37 bd 1e 75 15 bd 86 17 9e 3d
       -0.054262053 -0.04480507 -0.036488645 0.077193305
0002f0 ff c7 9c 3d 76 d0 0a 3d 3b 59 43 3d 00 9e ff 3c
       0.07655334 0.03389021 0.04769252 0.03120327
000300 88 9c 9f 3d 94 f5 10 3d af d5 83 3d 7d 87 1a 3b
       0.07793528 0.03539045 0.06437241 0.0023579292
000310 8b 29 0d 3d 92 50 07 bd 09 6d 68 bd a7 69 05 3c
       0.034463447 -0.033035822 -0.05674461 0.008142865
000320 2b 79 1a bd 24 ff 79 bc 7e aa 52 3d c8 6e 00 3d
       -0.03771321 -0.015258584 0.051432125 0.03135565
000330 6d 53 0c bd ac 62 bb 3c 44 fe 89 39 45 3e 7b 3d
       -0.03425925 0.022874199 0.0002632012 0.06133868
000340 24 97 5d bd ef 00 97 bb ce ac 32 bc d3 d5 87 3c
       -0.054099217 -0.0046082656 -0.010905458 0.016581452
000350 d3 3f d8 bc ac 2a 86 3d 00 60 12 3d 14 8d 62 3d
       -0.026397621 0.06551108 0.035736084 0.055310324
000360 64 eb 38 3d 85 49 46 3d 8b 88 98 3d f4 87 a1 3d
       0.04514636 0.048409957 0.074479185 0.07887259
000370 69 b8 0e bd 93 52 ee 3b 95 64 97 3c 4a f6 6a bd
       -0.034843836 0.007273027 0.018480578 -0.057363786
000380 0a e2 8d bd 42 49 67 bd 0a 32 5c bd 5f bf 27 3c
       -0.06927879 -0.05646635 -0.05375866 0.0102384975
000390 01 62 06 3d 56 97 bf bc 44 24 56 3d b4 e1 0f bd
       0.032808308 -0.023387592 0.05228068 -0.035127357
0003a0 18 78 d1 bc 56 0d cf 3b 69 f4 3f bd c6 20 dd 3c
       -0.02556996 0.0063187284 -0.046863947 0.026993167
0003b0 9b e4 a3 3c 40 ef 5f 3d 69 6e 8e bd 7f 75 b5 3c
       0.020006469 0.054671526 -0.06954653 0.022150753
0003c0 49 c8 e3 3c 53 ce 42 3d 46 94 01 bd f0 2a 57 3c
       0.027805464 0.047560047 -0.031635545 0.013132796
0003d0 9b 66 41 3d e4 fb 8c bd 26 66 d5 bb c7 8c 86 3d
       0.047216993 -0.06883982 -0.006512421 0.0656982
0003e0 6f f8 f4 bc af 5a 68 bd 3e 4c a4 bb f9 99 38 bd
       -0.029903619 -0.056727108 -0.0050139716 -0.045068715
0003f0 a9 da 95 bd d5 6c 46 3c 6e 2d 39 3d 52 78 64 bd
       -0.07317097 0.0121109085 0.04520934 -0.05577881

weight f4 [256, 256]
000000 f9 55 84 3a aa 50 8c 3c 0f ba 62 3d 3f dd d6 bc
       0.0010096423 0.017128307 0.05535322 -0.026228545
000010 f0 7b 4e bc e2 de 07 3c fa b1 3b bd 1e 22 bd 3c
       -0.012602791 0.0082928855 -0.04582403 0.023087557
000020 3d 76 46 bd 72 e1 f5 bc 62 32 75 bc 6d a1 93 bd
       -0.048452605 -0.030014727 -0.0149656255 -0.07208524
000030 4d af 89 3d ad 9d f9 bb 22 7b a1 bc a3 24 89 3d
       0.06722889 -0.0076176734 -0.019712035 0.06696441
000040 82 00 5c 3d d5 57 ac 3d a1 51 e9 3c ca c1 c2 3d
       0.05371142 0.0841519 0.028481307 0.095096186
000050 cc 3d 98 3d dd d6 d8 bc 0d 43 14 bd 0f 81 64 3d
       0.07433662 -0.026469642 -0.036196757 0.055787142
000060 c7 4f c5 bb fa 26 b1 bb a5 2e 56 bd 01 ba a2 3b
       -0.006021473 -0.0054062577 -0.052290577 0.004966021
000070 f2 5b f9 bb 81 78 09 3d fa 8c 39 3d 7d a2 c8 bc
       -0.0076098377 0.033562187 0.04530046 -0.024491543
000080 0b ae 1d bc 8d c8 44 bd 68 22 a8 bc 71 e5 6f bc
       -0.009624015 -0.048042823 -0.020524219 -0.014642105
000090 77 75 86 3d 3e 86 1b bd 8b 5b 1b 3d af aa 0f 3d
       0.065653734 -0.03796982 0.0379291 0.035074886
0000a0 2e 9d 1d bd 0e 05 9d 3d 06 89 17 bd b8 8d ab bd
       -0.038479976 0.0766698 -0.03699591 -0.0837664
0000b0 02 6d 80 3d fc db 1c 3d 9b b4 06 3d 1f b5 51 3d
       0.062707916 0.03829573 0.032887083 0.05119812
0000c0 2d d9 b2 3d 68 33 61 bb 55 fc 98 bc da f0 60 bb
       0.08732829 -0.0034362916 -0.018675009 -0.0034323246
0000d0 d7 c2 12 3d 03 b8 ff 3c 46 9d 2c 3d 6e 5d 1c 3c
       0.035830345 0.031215673 0.042142175 0.00954376
0000e0 a6 31 0f bd a0 cc 87 bd 19 09 b7 3d 1b 55 f4 ba
       -0.034959458 -0.06630826 0.08937282 -0.0018641086
0000f0 2d 97 8f 3d 3b 8d ae 3d 65 21 3c bd 12 08 12 3d
       0.07011256 0.08523031 -0.045930285 0.035652228
000100 94 2b 4c bd 83 86 fb bc b0 6d 91 bb f4 2c b9 3c
       -0.049846247 -0.030703789 -0.0044381246 0.022604443
000110 77 35 28 3d d8 52 20 3d 87 e4 4e 3d db b7 96 bc
       0.041066613 0.039141506 0.05051091 -0.018398216
000120 a4 dd 39 3c 00 9c 0c bd 36 82 2c 3c 18 b1 01 bc
       0.011344347 -0.03432846 0.010529092 -0.007915758
000130 f9 45 01 bd 97 f2 39 bd 95 6a ce 3c d9 90 ef 3c
       -0.03156087 -0.045397367 0.025197307 0.029243873
000140 54 5a 3a 3d 3c 3b f4 ba 21 93 7d 3c 37 a1 2f 3d
       0.0454963 -0.0018633376 0.015476973 0.042878356
000150 6c ed 48 3d 96 b7 af 3d cc 18 e1 3c 60 af a2 3d
       0.04905455 0.08579938 0.027477644 0.079436064
000160 7b 78 72 3c e0 94 43 3d cd 27 3c 3d 60 b0 38 bc
       0.014799233 0.0477494 0.045936394 -0.01127252
000170 da ef 89 bd ba a5 a2 3d 55 a7 6f bd ef 3d cf bb
       -0.06735201 0.07941766 -0.05850919 -0.0063245217
000180 44 33 f3 bb 05 c1 32 bc 83 74 9e 3d 30 15 c1 3c
       -0.007421883 -0.010910277 0.077370666 0.023569673
000190 72 9d 24 bc 14 8f 80 3d e2 e6 d0 bc e8 62 18 bd
       -0.0100473035 0.0627729 -0.025500719 -0.0372037
0001a0 3a 13 5a bb 8c b8 b8 3c 95 6e 24 bd 21 33 75 bd
       -0.003327562 0.022548936 -0.04014452 -0.059863213
0001b0 12 07 44 3d 47 f2 1c bb a5 14 12 bd c1 c7 92 3c
       0.047858305 -0.002394812 -0.03566422 0.017917516
0001c0 b2 8f 21 3d 64 a4 0f bd 1e 9e b6 bc e9 7c c3 bb
       0.03944368 -0.035068884 -0.022292193 -0.005965818
0001d0 09 f0 ab bc 17 bb 07 bb a5 35 69 bc 1b b1 d5 3c
       -0.020988481 -0.002071088 -0.014233981 0.026085427
0001e0 35 f6 59 3c 22 d3 2d bc 3e 9a 2b bc d3 4c a8 bc
       0.013303329 -0.01060942 -0.010473786 -0.020544445
0001f0 6f 76 e4 3c 83 96 07 bd 81 71 b9 ba 9f 5c 72 bd
       0.027888505 -0.033102524 -0.0014148207 -0.05917036
000200 fa 7e c0 3d 6d b2 de bc 23 a5 05 bd 35 d2 33 bd
       0.09399219 -0.02718469 -0.03262819 -0.04390164
000210 57 c0 eb bc c5 ee 74 bd bd ea 85 bc 1a b6 61 bd
       -0.028778238 -0.05979802 -0.016347283 -0.055105306
000220 6e 37 c5 bc 47 a8 15 3d 79 4c 1b 3d 60 ea 49 bd
       -0.024074282 0.036537435 0.037914727 -0.049295783
000230 d5 6d b0 bc fa b5 17 3d 17 f3 56 bc 0c b2 dc 3c
       -0.021536747 0.03703878 -0.013119481 0.026940368
000240 2a da 99 bb 70 50 38 3c 38 ca ed 3b 0b bf fe 3c
       -0.0046951966 0.011249647 0.0072567724 0.031096956
000250 4a 71 fc 3c 51 b8 da bc ae 8c 8f 3d af 8c 7f bd
       0.03081574 -0.026699217 0.070092544 -0.062390026
000260 96 f6 8a 3d 70 ab 8d 3d 9e a0 55 3b 5a 62 a0 bc
       0.06785314 0.06917465 0.0032596956 -0.019578148
000270 75 b1 03 bc 45 37 56 3d e9 45 83 bd d0 78 7f bc
       -0.0080379145 0.052298803 -0.06409819 -0.015592769
000280 92 7a d9 3c bc 31 b8 3c 8e b3 aa 3d 13 ff 1e 3d
       0.026547704 0.022484653 0.083350286 0.038817476
000290 91 0d 99 bd a5 9f 59 bd 53 66 a3 3c 0d 1f b0 bc
       -0.07473291 -0.053130765 0.019946253 -0.021499181
0002a0 f7 17 47 bc 67 7f d4 3c 94 92 8f bd 73 f9 c7 bc
       -0.01215171 0.025939656 -0.070103794 -0.024410939
0002b0 0c ce 5b bb fe 57 d5 bd 60 ea 0b 3d 21 9d d0 3a
       -0.0033539562 -0.10417174 0.034159064 0.0015915969
0002c0 0b b8 d0 3b 53 0e 6c bc 3f 4b 95 3c be bb a9 3c
       0.006369596 -0.014407712 0.018224357 0.020719405
0002d0 43 c5 95 3d 6a 91 5b 3c 53 9c 13 bd 16 d9 3d bc
       0.07313015 0.013401369 -0.036037754 -0.011587402
0002e0 0f 6b d2 bb c0 d6 aa bc 8d 41 c6 3c d0 da 98 bd
       -0.006421454 -0.020854354 0.024201179 -0.0746361
0002f0 fa 3d 84 bc f5 2d 82 3c 45 dc b4 bc 35 9f 56 3d
       -0.016142834 0.015891055 -0.022077689 0.052397925
000300 84 d7 9f bc 1f 2c 07 bd b9 f8 8b 3b e4 85 13 bd
       -0.019511946 -0.03300106 0.0042715934 -0.03601636
000310 b8 1a 87 bd 8d c1 4c 3d a3 98 fb bb af 86 87 3d
       -0.06596893 0.049989272 -0.007678108 0.06617486
000320 eb ab aa bc b3 6a f5 bc a9 81 08 bd 99 2b a1 3d
       -0.02083393 -0.029958105 -0.03332678 0.07869644
000330 b9 5b 5b bd da ac d3 3d 63 29 e8 bc a7 1a ee 3c
       -0.05355427 0.10335703 -0.028340047 0.029065443
000340 85 a3 a4 3b 78 52 32 3c 74 85 0f bd 38 63 84 3c
       0.005024376 0.01088392 -0.03503938 0.016160592
000350 3e 9a 17 bd 23 f7 ac bd 9e c6 f1 bc e5 60 11 3d
       -0.03701233 -0.08445575 -0.029513653 0.035492796
000360 94 e6 84 bc 91 08 60 bd c4 cd e3 bc 73 5a 0a bd
       -0.01622323 -0.05469567 -0.027808078 -0.033777665
000370 b3 0f 0a bd 1b 45 f0 bc bc aa 8f 3c d9 56 56 3d
       -0.03370638 -0.029329827 0.017537467 0.052328918
000380 ee ca 57 3c ec 43 03 3d 40 0f 9f 3b 73 64 6c 3d
       0.013170941 0.032047197 0.004854113 0.057712983
000390 9c 51 31 3d e5 a3 67 3d a4 6b a1 bb ac 38 3d 3d
       0.04329072 0.056552786 -0.004926162 0.046196625
0003a0 3f be 88 bd 3b 16 09 bb 3c 40 b1 3d 06 1c 35 3d
       -0.066769116 -0.0020917791 0.0865483 0.04421618
0003b0 49 c2 df 3b 61 e2 e4 3c ff 90 7e 3d 55 03 e8 bc
       0.0068285805 0.027939977 0.062149998 -0.028321901
0003c0 c7 71 bf bc e2 df ed 3c 13 24 d1 bd 20 15 52 bd
       -0.023369683 0.02903742 -0.10211959 -0.051289678
0003d0 50 49 88 bc 63 d4 0b bd 93 ef ac 3d 0a a5 f0 bc
       -0.01663652 -0.034138095 0.08444133 -0.029375572
0003e0 59 82 02 3d 49 60 a4 3d 80 3e 1e bd 41 ea 97 bd
       0.03186259 0.080261774 -0.038633823 -0.07417727
0003f0 37 8f 50 3b 08 f1 b4 3d 33 03 14 3d cc 49 28 3c
       0.0031823644 0.088350356 0.036135864 0.010271501

bias f4 [256]
000000 2c 68 d4 bc cf 10 b0 3d d2 b5 51 3d 5f 20 f9 bc
       -0.02592858 0.08596956 0.051198788 -0.030410944
000010 86 c8 98 3d de f3 74 3d f7 47 8e 3d 63 98 c7 3c
       0.07460122 0.059802882 0.0694732 0.024364656
000020 65 c3 65 3d c1 f6 41 bc 9e 06 89 3d d4 31 5b bd
       0.056094546 -0.011838616 0.06690715 -0.053514317
000030 d0 c4 c2 bb 54 e3 62 bc cd 50 46 bd 03 52 e1 3c
       -0.005943872 -0.013848145 -0.0484169 0.027504927
000040 74 56 69 bd 6b 3f 23 3d 84 9d 6f 3c b2 85 8d bc
       -0.056967214 0.039855402 0.014624957 -0.017275665
000050 c6 a1 94 3d 3e 6c 46 bd 78 d0 bc 3c c6 e2 d3 bb
       0.07257418 -0.04844307 0.023048624 -0.0064662425
000060 18 f3 a8 3d a6 82 f6 bc 2a 9e a7 3d a1 8f 94 bd
       0.082494915 -0.030091595 0.08184464 -0.072539575
000070 01 41 5b bd 4a 7a 00 bc f0 99 9f 3c 9f 15 97 3d
       -0.05352879 -0.007841656 0.019482583 0.07377171
000080 5a cc 8e bb 4e 75 63 3c 3d 8d a8 bc d8 28 89 3d
       -0.0043578567 0.013882948 -0.02057516 0.066972435
000090 f9 9c a1 3d d3 0c 5b 3c 67 fc 1a bd f2 92 75 3d
       0.07891268 0.013369757 -0.037838366 0.05995459
0000a0 e0 33 7f 3a 28 34 a4 3d 73 8c 21 3d 4a 1b dd 3c
       0.0009735208 0.080177605 0.039440583 0.026990552
0000b0 2c 14 9c 3d f4 9e 92 bc f2 d9 91 3c b3 69 3b 3c
       0.07621035 -0.01789806 0.01780412 0.011438775
0000c0 21 d1 2b 3d cc a6 ad 3d 1d 95 9b bd 63 76 5f 3d
       0.041947488 0.084790796 -0.075968005 0.05455626
0000d0 fd 32 35 3d 50 90 a1 3d b3 ca 4d bb 25 ab a9 3d
       0.04423808 0.078888535 -0.0031401336 0.08284596
0000e0 a4 e7 1c 3c d0 4c 8c 3b 34 b0 1a 3d 19 6b 2b bd
       0.009576712 0.0042816177 0.037765697 -0.041850183
0000f0 dd cd a5 3b 6d 18 11 bd e3 c7 3e 3c ef e8 f6 bc
       0.005059941 -0.035423685 0.011644336 -0.030140368
000100 53 9d 48 3d 42 ad 26 bd d1 a2 bd bc 2b 3a 74 bd
       0.04897816 -0.040692575 -0.023148926 -0.059625786
000110 f7 cb a8 3d b4 08 e8 3c 79 ee da bb 15 e7 33 bd
       0.08242028 0.028324462 -0.00668126 -0.04392155
000120 1b 50 2a 3d 29 e1 5d bd ca e9 20 3d b1 c0 f8 3c
       0.0415803 -0.054169808 0.03928546 0.03036532
000130 3b 5f a6 3d eb 35 56 bb 48 84 ba 3b d0 a2 79 bd
       0.081236325 -0.0032685946 0.0056920387 -0.060946286
000140 b7 40 85 3d 52 5e 82 bd 84 38 5f 3c c7 62 23 3d
       0.06506484 -0.063656464 0.013624314 0.039889123
000150 d8 b8 27 3d ed 22 7b bd 3f ac f4 3c 6b dd 9e 3d
       0.040947765 -0.061312605 0.02986729 0.07757076
000160 28 12 96 3d 11 34 b4 3c 57 3f 87 3d b0 a8 15 3d
       0.07327682 0.021997483 0.06603878 0.036537826
000170 72 2f 67 3c 48 dc 09 3d 96 1e 16 bd 3b 85 be bb
       0.014110433 0.033657342 -0.036650263 -0.005814222
000180 36 0f c3 bc 6c f4 c3 bc e4 b2 ba 3c a0 0e 71 3d
       -0.023810964 -0.02392026 0.02279038 0.058851838
000190 11 6b 09 bd 98 55 9a 3d 23 9e 69 bd 04 aa 04 bc
       -0.033549372 0.07535857 -0.057035577 -0.0080971755
0001a0 e8 25 77 bd 62 70 bf bd 23 bf bc 3c b2 0d 48 3c
       -0.060338885 -0.09347607 0.02304036 0.0122102965
0001b0 5f 4f 2d bd 9d d2 61 bd 3e 11 72 3d cd ff e5 3c
       -0.042312022 -0.055132497 0.059098475 0.028076077
0001c0 7c 2c 87 bc 34 5b 31 bd 20 dd 30 bc d6 8c 68 3d
       -0.016500704 -0.04329987 -0.010794908 0.056774937
0001d0 99 c6 cb 3d 90 13 a0 3d cd 8f 0f bd 65 d1 7d 3d
       0.09949989 0.07816231 -0.03504925 0.061967272
0001e0 e3 47 b8 3c b0 bb bd 3d 12 ba 7f bd 34 5d 92 bd
       0.022495216 0.09264314 -0.06243331 -0.07146683
0001f0 ac 01 74 3d 48 4d 1f bd fb 44 29 bc 38 47 97 bd
       0.059571907 -0.03889206 -0.010331388 -0.07386631
000200 28 15 01 bd 29 6f 82 bd 28 10 a8 3d ac 90 ca 3c
       -0.031514317 -0.06368858 0.082062066 0.024727188
000210 7a 97 ba bc 54 3a 44 bd 51 90 5e 3d cd 31 89 bb
       -0.022777308 -0.04790719 0.05433685 -0.004186845
000220 24 e6 72 bd 6c 83 f6 bc 64 37 c5 bc a4 c0 fb bc
       -0.05930151 -0.030091964 -0.024074264 -0.030731507
000230 e6 ff 1b 3d c4 25 a3 3d 26 4e 60 3d c5 ce 0f 3d
       0.03808584 0.079661876 0.05476203 0.0351093
000240 66 8b 61 bd 09 de 0f 3d aa 35 09 3d 23 45 ad 3b
       -0.05506458 0.03512386 0.033498444 0.0052877828
000250 6d 9e 8b bd c3 9c 41 3d d8 b7 d5 3c c1 17 a4 bc
       -0.06817327 0.04726864 0.02608864 -0.020030858
000260 68 07 ac 3d 29 3f 3c bc db 39 64 3d 6f 84 fa bc
       0.0839985 -0.011489668 0.055719238 -0.030580727
000270 db 4e c9 3d 58 6f 9d 3d de 88 73 3d 0f 57 ae 3d
       0.098294936 0.07687253 0.0594567 0.08512699
000280 8e 8f af 3b 07 1c 92 3c 4a 82 b0 3d 05 0d 53 3d
       0.005357689 0.01783563 0.08618601 0.05152609
000290 82 69 4d 3d cb 38 51 bd 1b 18 4e 3d 2c b7 58 bd
       0.05014945 -0.051079553 0.050315958 -0.05290906
0002a0 cf 04 9e 3d 48 a1 e6 3b 20 d7 2d 3c 4c 64 a5 bc
       0.07715761 0.007038269 0.010610372 -0.020189427
0002b0 86 60 7d 3d 1e f2 f4 ba 26 31 72 3d f7 1f 84 ba
       0.06185963 -0.0018687879 0.059128903 -0.0010080327
0002c0 f0 aa b0 3b 91 52 71 3d bb 06 95 3d 03 b6 0d 3c
       0.005391471 0.058916632 0.07276674 0.008649352
0002d0 01 60 83 bd bc 3e 10 bd 3a 28 c9 bc f6 c2 cd 3b
       -0.06414796 -0.03521608 -0.024555314 0.0062793447
0002e0 b0 e2 c8 3c 22 2e 71 3d 0c c2 78 3d 60 af 60 3d
       0.024522156 0.058881886 0.060731933 0.05485475
0002f0 dd c3 12 3d ce fd 5f 3d 71 d9 3e bd c9 1c 74 3d
       0.03583132 0.054685406 -0.046594087 0.059597764
000300 c9 58 45 3d 8a e2 17 3c 09 2b a6 3d 57 f3 c4 3c
       0.048180375 0.00927032 0.08113677 0.024041815
000310 96 a0 3d 3d a4 f7 39 3d 2c b3 5a bb ba 66 2a bb
       0.046295725 0.045402184 -0.0033370955 -0.0026001171
000320 c4 8f 29 3d 4f 82 9a 3d b2 40 83 bd 44 12 44 bd
       0.04139687 0.07544386 -0.06408824 -0.047868982
000330 f3 be 61 3d a2 27 44 bd 43 ec 92 3c ed 88 08 3c
       0.055113744 -0.04788936 0.017934924 0.008333427
000340 cf 24 21 bd ec 38 93 3d 34 7d e5 3c 6b 45 27 3d
       -0.039341744 0.07188591 0.028013803 0.040837687
000350 3b e4 44 bc 5d 67 c9 bc c1 b0 7a bd 74 3c 29 bb
       -0.012017305 -0.02458542 -0.061203722 -0.0025823386
000360 c3 bc 0c bd 34 53 d8 3c f7 e3 7b bd 9f 8f 22 3c
       -0.034359705 0.026406862 -0.0614967 0.009921937
000370 7c 90 4b 3d 1d 50 58 bc 71 f1 99 bd 3d 91 6c 3d
       0.049698338 -0.013202694 -0.075167544 0.057755698
000380 f4 3e 21 bd bb 69 8d 3d 47 9b f3 bc ae b0 aa 3d
       -0.039366677 0.06904932 -0.029737128 0.0833448
000390 0d f8 d6 3c 2c c1 a6 b9 6a 5e 9b 3d 8b 9e 80 3d
       0.026241327 -0.00031805912 0.075863674 0.0628024
0003a0 b3 14 34 3d b1 a5 a7 3c 5d 8a 8a 3d d6 40 42 bd
       0.043965053 0.02046475 0.06764672 -0.047425114
0003b0 8b 79 93 bc 21 0d ba 3d 75 24 0c 3c da 46 b6 bc
       -0.018002292 0.090845354 0.008553614 -0.022250582
0003c0 c3 6b 81 3d a0 43 93 3c c0 73 ab bc 56 7e a4 bc
       0.06319382 0.017976582 -0.020929217 -0.020079773
0003d0 5b 65 a5 3b 3d b7 1b bd 8e 07 2a 3c d8 3e 06 bd
       0.005047483 -0.038016547 0.010377778 -0.032774776
0003e0 36 09 2a 3c 72 73 64 3d 2e cd fb 3c 0c 6c ce 3c
       0.010378173 0.05577416 0.030737486 0.025198005
0003f0 0f f6 16 bd 24 96 0f bd ff 8e 7e bc 41 a9 59 3d
       -0.036855754 -0.035055295 -0.015537023 0.05313993

weight f4 [128, 256]
000000 05 76 71 bd 29 ec 8e 3c 2a cb 0d 3e 97 b2 39 bd
       -0.058950443 0.017446594 0.13847032 -0.045336332
000010 67 70 59 bd 96 54 0c bd b0 72 e2 bc d2 fa d0 3d
       -0.05308571 -0.034260355 -0.027642578 0.1020409
000020 b0 0a c6 bd 72 5e cc 3d a2 76 87 3b 58 75 c4 bd
       -0.09670007 0.099789515 0.004134015 -0.09592694
000030 ef b1 c9 bb dd 96 c0 bd 5e 20 9f 3c c2 ba cb bc
       -0.0061552445 -0.09403775 0.019424614 -0.024869327
000040 ac c4 1e bd 7b 21 41 bd 6a b2 c5 bb 1c 29 f3 bd
       -0.03876178 -0.04715107 -0.0060332315 -0.11873075
000050 40 e9 2e bd de 7b 2e bd ae 8a cd 3d 93 d0 78 3d
       -0.042702913 -0.042598598 0.10036217 0.060745787
000060 ca 00 83 3d 64 87 d5 bd d5 8b 28 3d 90 9e f0 bc
       0.06396635 -0.10426214 0.04114898 -0.029372483
000070 c2 78 61 bd 5b 24 eb bc 47 7c a2 bd db f9 8b 3d
       -0.055046804 -0.02870386 -0.0793386 0.068347655
000080 ce 57 8e bc db 40 43 3c 84 c0 01 be 18 9c c0 3b
       -0.017375853 0.011917318 -0.12671095 0.005877983
000090 f4 40 93 3d b0 f7 73 bd f3 99 a4 3d 88 69 bf bd
       0.07190123 -0.059562385 0.08037176 -0.093463
0000a0 ed 6f bc bd d4 6f b0 3d e4 04 32 ba 7a 6c 8e 3c
       -0.09201036 0.086150795 -0.000679089 0.01738571
0000b0 aa 15 ad bb 6d fc 73 3d c7 3a 6f bd 09 54 f1 bc
       -0.0052821236 0.059566904 -0.058405664 -0.029459016
0000c0 54 79 dc bb 76 ac a6 3d 40 bf 27 bd 18 72 5e bb
       -0.0067283306 0.08138363 -0.040953875 -0.0033942517
0000d0 07 c5 e4 bd db 21 93 3d e3 eb 88 3d 90 2e a6 3d
       -0.111703925 0.07184192 0.06685617 0.0811435
0000e0 ea 39 d2 3a 85 c0 10 bd 4d cb d2 3c c3 f5 1b bd
       0.0016038988 -0.03533985 0.025731707 -0.038076174
0000f0 25 73 a6 bd 26 5c 64 3d a5 a2 9d 3d e7 eb 45 bd
       -0.08127431 0.055751942 0.076970376 -0.048320677
000100 dc 04 42 bd 2e b3 4d bd 4c e7 20 bd 9b 1b 6b bc
       -0.047367916 -0.050219707 -0.039283082 -0.014349843
000110 23 38 26 3d c2 8a 66 bd ba 56 1e bd d0 44 8d bc
       0.04058088 -0.056284674 -0.038656928 -0.017244726
000120 31 49 68 3d 5e 87 cb 3b f8 c4 d0 bd 59 61 8a 3d
       0.056710426 0.0062112054 -0.10193819 0.06756849
000130 ef e4 a0 3d 6a 88 37 bc cb 94 36 bb 22 90 98 bd
       0.078561656 -0.011201957 -0.0027859684 -0.07449366
000140 4c 24 64 bd b4 69 43 bd f8 ed be bd df d9 f1 3d
       -0.055698678 -0.04770823 -0.09322733 0.11809134
000150 45 0a cb 3c f7 3a 42 3c a6 f8 e7 bc 26 f8 9a 3d
       0.02478517 0.011854879 -0.028316807 0.07566862
000160 6a 86 b0 3d 33 99 5b bd 2f 75 6a bc 72 d5 8b 3d
       0.086193874 -0.0536129 -0.014310165 0.06827821
000170 af 59 ee 3b 09 81 80 3d 6d c1 a1 bd c6 d0 f0 bc
       0.0072738747 0.062746115 -0.07898221 -0.029396426
000180 5e e8 8f bc 3d 57 fb bd 56 fa d0 3d a8 92 a1 3d
       -0.017566856 -0.12272499 0.10203998 0.078893006
000190 69 ef 83 3d af ce 15 bd 52 b5 b4 3b cd a1 d0 3b
       0.06442148 -0.036574062 0.005514779 0.0063669444
0001a0 33 c2 91 3a 11 1b b2 3c 71 79 8b 3c 6c f1 bc bd
       0.0011120498 0.021741422 0.017025681 -0.09225735
0001b0 65 3d e9 bd 4b 79 67 ba 2b 42 84 3c d1 74 b3 ba
       -0.11388663 -0.0008830025 0.016144833 -0.001369143
0001c0 cc 01 7c 3d ed 5f 9e bd 19 1f 6b bd 8e 2c bd 3d
       0.06152515 -0.0773314 -0.057402704 0.09237014
0001d0 59 e9 b1 bd ce 34 3c 3c f0 aa 89 3d 72 5d bc bd
       -0.08687086 0.011487199 0.06722057 -0.09197511
0001e0 ca 7c 68 bd b1 36 84 3d 0e 83 a0 bd 70 1f 02 bd
       -0.056759633 0.06455744 -0.07837497 -0.031768262
0001f0 1c a2 77 bd 8d 31 84 bc 1a 1b 2b bd 9b 3e 9e bd
       -0.060457334 -0.016136909 -0.041773893 -0.07726785
000200 49 70 92 bc b1 f1 ad bd df 2f b6 bc 8f e4 4e bd
       -0.017875807 -0.084933646 -0.022239624 -0.05051094
000210 4f d7 b8 bd 95 3e 06 3e 15 37 d1 3d 68 77 4b bc
       -0.09025442 0.1310981 0.10215584 -0.012418605
000220 7d 31 01 bd ba ce b6 bc b8 18 7f 3c a6 eb d8 3c
       -0.031541336 -0.022315372 0.015569858 0.026479553
000230 e2 7f 96 3d db 90 8d 3d 2d 51 a1 bd 75 e6 9b bd
       0.073486105 0.069123946 -0.07876811 -0.076123156
000240 bb e1 1c bd 8c 42 e0 3d fc 5a be bd 2f 47 83 3d
       -0.03830121 0.10950193 -0.09294698 0.064100616
000250 af fc cf bb 2b 00 b6 bd e9 64 86 bd 36 d5 a9 bd
       -0.006347261 -0.08886751 -0.06562216 -0.0829262
000260 fd f1 42 bc 84 01 7e bd b0 3e a9 3d 85 f2 e3 3d
       -0.011898515 -0.062013164 0.0826391 0.11130241
000270 eb 4d de bd 1e f9 87 3d 0e a9 14 bd 30 db f7 3b
       -0.108547054 0.06639312 -0.036294036 0.007563971
000280 d3 38 30 3d 39 df ca bd e3 09 21 bd 15 77 8d bd
       0.04302294 -0.099058576 -0.03931607 -0.06907479
000290 33 34 31 bd 04 01 94 bb 3a f9 11 3e 67 3b ce bc
       -0.04326267 -0.0045167226 0.14255229 -0.02517481
0002a0 46 c8 0e bd 58 a8 94 3c 6b 45 fe 3d 9f 51 77 bc
       -0.034858964 0.018146679 0.12415584 -0.015095144
0002b0 5c 62 d1 3d f2 07 ae bd 31 4f 5c 3a 3b 91 41 bc
       0.10223839 -0.08497609 0.00084041344 -0.011814411
0002c0 7f 4a 11 3d 00 4c 3b bd 32 9f 0d bc 02 38 92 bd
       0.035471436 -0.045726776 -0.008643912 -0.07139589
0002d0 a8 33 90 bd 91 e6 02 bd 35 e0 72 bd 16 1e af 3d
       -0.07041103 -0.031958167 -0.05929585 0.0855066
0002e0 0e 97 76 bc b2 ad d7 3d a9 7c 5b 3c a2 3d 8f bd
       -0.015050663 0.105311766 0.0133964205 -0.069941774
0002f0 8d 5e 0c 3d 61 c8 ef 3a f2 f8 63 bc 75 2e e0 3c
       0.03426986 0.001829397 -0.013914334 0.027365902
000300 82 62 03 be 36 0a 15 3e f0 cf 48 3d cc 2d 35 3d
       -0.12830546 0.14554676 0.04902643 0.04423313
000310 23 d4 9d 3d 5a 65 c2 bc ed 66 9d bd dc 7d 18 3d
       0.077064775 -0.023729969 -0.07685647 0.037229404
000320 ab 7e d8 bd 29 c5 24 3d 92 8d d8 3c 07 e5 f4 bb
       -0.10571035 0.04022709 0.026434693 -0.0074735912
000330 00 61 55 bd 31 04 37 bd 84 92 b3 bc 68 82 71 3c
       -0.05209446 -0.04468173 -0.02192045 0.014740564
000340 22 1e d5 bd f1 d2 36 3d 8f 66 d9 bc 2e 3f b5 bd
       -0.10406138 0.044634763 -0.026538162 -0.08849941
000350 9e 74 e4 bd 20 e1 24 bb 12 67 5d bd 54 fa 60 bd
       -0.111550555 -0.00251586 -0.054053374 -0.05492623
000360 04 2b b2 3d 5d 32 f7 3c b8 3c 1d bd 5c c1 09 3d
       0.08699611 0.030175382 -0.038387984 0.033631667
000370 7b aa 08 bd 42 9a 9a 3d ca 0f 2d 3c 51 0a 48 3d
       -0.033365708 0.075489536 0.010562846 0.048837963
000380 79 e1 aa 3a a4 23 9a bc 33 1e 05 bd eb 61 a8 bc
       0.0013037167 -0.018815823 -0.032499503 -0.020554503
000390 b2 63 81 bc cd 46 ab 3d 86 2b fa 3c 23 6b 49 bc
       -0.015794609 0.083631136 0.030538332 -0.01229361
0003a0 4a 2b f8 bd 32 9c 97 3d b7 74 8d bd ca 94 a0 bd
       -0.12117632 0.07402839 -0.06907027 -0.07840879
0003b0 6d f5 16 bd d6 8e da bc 32 5a 31 3d 0a f2 ff bc
       -0.03685515 -0.026679438 0.043298908 -0.031243343
0003c0 a6 86 ac bd f2 e4 45 bd 0b 96 3c 3d ca d9 a8 bc
       -0.0842412 -0.048314042 0.04604153 -0.020611662
0003d0 a2 f6 a4 3c ed 3c 3f 3d 5a a0 9e 3c a6 e8 0e be
       0.020137135 0.046688963 0.019363571 -0.13955936
0003e0 f3 7f 34 bd 31 81 9d 3c 4c 80 ab bd 0a 51 fa 3d
       -0.044067334 0.019226642 -0.0837408 0.12222488
0003f0 a3 af 11 bc 16 41 96 3d 7b f1 93 bb 32 20 ec bd
       -0.008891973 0.07336633 -0.0045148707 -0.11529578
