models/model_objs/nhl_model_1.pth (torch, 866553 bytes, 11 tensors)

weight f4 [256, 164]
-0.021124568 0.027441727 0.054922678 0.036052506 -0.071819134 -0.050902948 -0.0105179325 0.0738207
0.009054831 -0.024050703 0.032305732 -0.028169816 -0.052481312 0.054593 -0.039636962 -0.011325027
-0.07926282 0.05591828 0.05484982 0.026206458 -0.06002436 -0.07694479 -0.064199954 0.06494665
0.035911914 0.06571046 0.036180794 0.026937243 -0.02207874 -0.05848535 -0.07130755 -0.07789642
0.025438601 -0.03786061 -0.016730351 -0.05156992 -0.006728243 -0.054960273 -0.051023193 0.019016601
-0.024135651 0.048206404 -0.031111622 -0.056960642 -0.009569366 -0.04087386 -0.02666695 -0.07742246
0.047039647 -0.043237247 0.05182719 0.036931213 0.053213336 -0.052919805 0.057408683 -0.038648114
0.03296816 0.06918165 -0.015586169 -0.0020199826 -0.015552269 -0.05471443 0.04134844 -0.06632911
0.05546637 0.047455028 0.06690725 -0.008377423 -0.053325344 0.01267182 0.017321728 -0.08366278
-0.007745988 -0.048893053 -0.009219165 -0.02604452 -0.041051984 -0.020239448 -0.06820632 0.06567445
0.06015555 -0.011110658 -0.0072889715 0.0058736256 -0.059253365 -0.091200456 0.038930133 -0.029073281
-0.04984563 -0.018165773 -0.036262486 -0.005841817 0.0024272713 -0.0094398195 -0.014780687 -0.041195333
-0.062161583 0.068663664 -0.018554503 0.0075813374 -0.019829694 0.005555746 0.06808445 0.04616031
-0.060007326 0.034706898 0.05921477 0.02205588 0.05238536 0.077629186 -0.0061113997 0.014572836
-0.052023113 -0.01834135 0.061543893 0.04271481 -0.049378537 -0.06182702 -0.051336255 -0.072061054
-0.056594737 -0.03231979 0.05566597 0.027927708 -0.07098578 -0.06889423 0.040828094 -0.05041956
0.016008375 0.03401062 -0.02987815 0.004280183 -0.0009982401 -0.016771443 -0.04479511 -0.068180844
-0.07543305 -0.054804776 0.07789405 -0.018212171 -0.037843596 0.017368013 0.012983598 0.06064423
0.048377097 0.03613833 -0.07525455 0.008217573 0.05405534 -0.0012172059 -0.044411235 0.06913625
-0.02654673 -0.042122588 -0.077430524 0.004626778 0.03620662 0.01636384 0.017777367 -0.040730935
-0.08586776 0.0073750895 0.07280586 0.03974302 -0.045689538 -0.0134783555 -0.06156338 -0.03767094
0.008047387 0.037756532 0.06005809 -0.07839184 0.05048146 -0.059154205 0.02924098 0.06670512
-0.0029107288 0.05994855 -0.07283339 -0.030050704 0.042590387 -0.019636156 -0.015746612 -0.03243723
0.047747593 0.0377886 0.023259964 -0.04301096 -0.076243676 0.008445925 0.011860568 -0.040560845
-0.044342496 0.050190084 -0.0010168725 -0.0032242436 -0.033239294 -0.07308823 -0.07515527 -0.04619912
-0.026627563 0.024328249 -0.022731932 -0.03976737 0.07009329 0.027199447 0.048605774 -0.040611275
-0.030628456 0.022126488 -0.05855556 -0.057541694 0.0010510249 -0.0053903013 -0.048415404 0.051685043
0.06841364 0.017837353 -0.012186116 -0.076979004 -0.021594668 0.0285685 0.033913825 -0.004547745
-0.020037143 0.04616755 -0.060022816 0.060805578 -0.024713434 -0.00911621 -0.028036065 0.021319557
-0.0068770126 0.058231764 -0.02026574 0.056499254 0.0790547 -0.047281638 -0.062124636 0.07229231
0.06585433 -0.062124483 -0.0012939534 -0.07312049 -0.06345806 0.019970136 0.02465697 0.057855625
-0.0137223685 0.06252048 0.02993683 -0.03517496 -0.0019733715 0.013514931 0.025571013 -0.04085046
00000000: 6e0d adbc 79cd e03c 9af6 603d cbab 133d
00000010: e915 93bd 9c7f 50bd 6853 2cbc 4f2f 973d
00000020: b75a 143c fb05 c5bc 0453 043d 63c4 e6bc
00000030: a5f6 56bd e99c 5f3d 5e5a 22bd 9b8c 39bc
00000040: 8c54 a2bd 910a 653d 34aa 603d edae d63c
00000050: 1adc 75bd 3b95 9dbd 447b 83bd c002 853d
00000060: 5f18 133d 3593 863d 5032 143d 7eab dc3c
00000070: 79de b4bc 568e 6fbd b109 92bd 2988 9fbd
00000080: 9d64 d03c ba13 1bbd 170e 89bc fb3a 53bd
00000090: 9878 dcbb 061e 61bd b2fd 50bd b4c8 9b3c
000000a0: 21b8 c5bc 1474 453d cddd febc 904f 69bd
000000b0: d5c8 1cbc 596b 27bd a674 dabc ab8f 9ebd
000000c0: a5ac 403d 8a19 31bd bf48 543d 2f45 173d
000000d0: 3af6 593d 70c2 58bd 5e25 6b3d 7c4d 1ebd
000000e0: 9f09 073d 1caf 8d3d 225d 7fbc af61 04bb
000000f0: f2ce 7ebc 3d1c 60bd fb5c 293d 8ed7 87bd
00000100: b430 633d 3460 423d ab06 893d 7541 09bc
00000110: ad6b 5abd 779d 4f3c 4ce6 8d3c 6457 abbd
00000120: 0fd2 fdbb 1544 48bd fb0b 17bc 515b d5bc
00000130: 2026 28bd 33cd a5bc c1af 8bbd 5380 863d
00000140: aa65 763d 7a09 36bc 53d8 eebb 8b77 c03b
00000150: a8b3 72bd 4ec7 babd 3475 1f3d 172b eebc
00000160: ee2a 4cbd 63d0 94bc f987 14bd b66c bfbb
00000170: db12 1f3b 79a9 1abc b22a 72bc 70bc 28bd
00000180: 259d 7ebd 899f 8c3d 9dff 97bc de6c f83b
00000190: e271 a2bc fa0c b63b dc6f 8b3d 9812 3d3d
000001a0: 3eca 75bd d228 0e3d 308b 723d 88ae b43c
000001b0: 0892 563d 0dfc 9e3d 2342 c8bb e8c2 6e3c
000001c0: 3016 55bd 9940 96bc 7315 7c3d baf5 2e3d
000001d0: 2641 4abd 543e 7dbd f745 52bd bf94 93bd
000001e0: e2cf 67bd c261 04bd 0002 643d a6c8 e43c
000001f0: fe60 91bd 6b18 8dbd 5c3b 273d be84 4ebd
00000200: ff23 833c b84e 0b3d 06c3 f4bc c740 8c3b
00000210: 61d7 82ba 4464 89bc 147b 37bd 66a2 8bbd
00000220: a57c 9abd f97a 60bd ea86 9f3d b131 95bc
00000230: e301 1bbd 5d47 8e3c 28b9 543c 1666 783d
00000240: 1027 463d c905 143d 0f1f 9abd 00a3 063c
00000250: 2269 5d3d a78a 9fba 8ee8 35bd 4e97 8d3d
00000260: 8778 d9bc bc88 2cbd e593 9ebd 3a9c 973b
00000270: 654d 143d 760d 863c d7a1 913c 7bd5 26bd
00000280: 70db afbd bcaa f13b 3d1b 953d 94c9 223d
00000290: f424 3bbd 52d4 5cbc e229 7cbd d84c 1abd
000002a0: 30d9 033c 98a6 1a3d 79ff 753d e78b a0bd
000002b0: a6c5 4e3d ae4b 72bd c88a ef3c b29c 883d
000002c0: edc1 3ebb 9c8c 753d ac29 95bd e52c f6bc
000002d0: 4273 2e3d 01dc a0bc 0aff 80bc e7dc 04bd
000002e0: fb92 433d 38c8 1a3d ae8b be3c 432c 30bd
000002f0: a525 9cbd c760 0a3c d452 423c 2123 26bd
00000300: 7aa0 35bd 1e94 4d3d 9448 85ba d54d 53bb
00000310: ed25 08bd 48af 95bd 02eb 99bd 4a3b 3dbd
00000320: 0c22 dabc 094c c73c 5138 babc 1ce3 22bd
00000330: 128d 8f3d 60d1 de3c d916 473d 0258 26bd
00000340: 87e8 fabc 9c42 b53c f4d7 6fbd d7b0 6bbd
00000350: 8bc2 893a 20a1 b0bb 3b4f 46bd b2b3 533d
00000360: 731c 8c3d a41f 923c 46a8 47bc 2ba7 9dbd
00000370: 4de7 b0bc 7d08 ea3c 39e9 0a3d 4005 95bb
00000380: ef24 a4bc 2f1a 3d3d 7cda 75bd 450f 793d
00000390: d473 cabc 285c 15bc e4ab e5bc 5aa6 ae3c
000003a0: 9058 e1bb 6e84 6e3d 5604 a6bc c36b 673d
000003b0: 6ee7 a13d 64aa 41bd 6776 7ebd fe0d 943d
000003c0: a3de 863d 3e76 7ebd df99 a9ba 32c0 95bd
000003d0: 4df6 81bd 6998 a33c 6afd c93c 05fa 6c3d
000003e0: c9d3 60bc bd0a 803d 153e f53c 9e13 10bd
000003f0: ae53 01bb bb6d 5d3c 4d7a d13c d052 27bd

bias f4 [256]
-0.02604811 0.037966855 0.038707513 0.018950708 -0.0066411155 -0.057869207 -0.020137362 -0.009580014
0.05701917 0.033665773 0.08263325 0.05867969 -0.05148789 -0.04148641 -0.0011392928 -0.006516171
0.06766873 -0.038406502 0.023907192 0.012197308 0.061944515 0.011448533 0.015045687 0.028640017
-0.002317921 0.032177355 -0.06991374 0.028381996 0.02785946 -0.070161484 0.07650251 0.03249355
0.0078274375 -0.00068164995 0.07180212 0.03813196 0.028435878 0.072083466 0.017570272 -0.020800978
-0.029923007 0.016924268 -0.004992456 -0.0488457 -0.044091195 -0.030673146 -0.050706252 0.018384896
-0.028021308 -0.0041831005 0.081567295 -0.042555977 0.02598383 -0.029130334 -0.049987752 0.072597414
-0.057230327 0.003542363 0.033218414 0.026828336 0.02724733 0.055935163 -0.05655556 -0.051246393
-0.026619416 0.066340104 -0.06464982 -0.063603885 0.04739545 -0.064730495 0.009508908 -0.04552489
0.04278408 -0.07224315 0.060583558 -0.037234228 0.029733421 0.0756964 -0.06307718 0.07471791
0.06730768 0.072225615 0.0069568213 -0.0053137764 -0.061435416 -0.0028245258 -0.033504806 -0.06894977
0.0022983996 -0.014098975 -0.0022356762 -0.0746967 -0.05226679 0.010432929 -0.049970873 0.057953216
0.0031360947 -0.050218653 0.055889916 -0.050450034 0.04310589 -0.025985673 -0.055767428 -0.060737684
-0.0042718784 -0.013876988 -0.00792041 -0.05266394 0.07476316 0.0029824784 0.040147115 -0.038899537
0.042304493 0.07159114 -0.018132454 -0.019141763 -0.029789725 0.03732688 0.07488502 0.05317806
-0.06825061 -0.02917627 -0.040959477 0.028820604 -0.032600883 -0.06600526 0.020092405 -0.022026382
0.032288264 -0.05235289 0.0728563 -0.01932621 -0.033054747 0.07119863 0.06355005 0.006779564
-0.017291382 -0.050247937 -0.04816136 0.031491764 -0.06420067 0.05883328 -0.04290172 0.075089164
0.07394739 -0.036666553 -0.06851563 0.019055203 0.044932507 0.0410455 -0.056529097 -0.053256296
0.044819843 -0.07577594 0.04101455 0.0077107623 -0.041431025 0.013272282 0.05084174 -0.046427492
0.0385459 -0.061328094 -0.045620628 -0.016871642 0.006094512 0.03777255 0.019627705 0.036993243
-0.0072733583 -0.020370662 -0.06883084 0.04819583 -0.021442106 -0.06107692 -0.04166934 -0.057058975
0.0006845904 -0.029540781 -0.04918434 -0.06946846 -0.062132157 -0.031521138 0.07812535 -0.00018756698
-0.065957166 0.019470755 -0.07456327 0.023886422 0.007378439 -0.056441363 -0.030099064 -0.027654994
-0.046762068 -0.039645627 0.042750675 0.0782006 -0.06766305 0.0788424 0.039114498 0.009827179
-0.0488082 0.017104961 0.07143512 -0.025253521 0.083570726 0.013196178 -0.037526585 0.073474534
0.010971662 0.020035068 -0.0630094 0.0020912942 0.07861279 0.06697683 0.019378379 -0.032256197
0.023441555 0.02910671 -0.048904747 0.025502674 -0.057110127 0.0821088 0.0433734 -0.011650932
-0.04183491 0.06258611 -0.031162634 0.0742053 0.013170686 -0.025043944 -0.038730364 -0.012922821
0.041323394 0.06672502 -0.017848548 0.068404846 -0.025717966 -0.044403 -0.010773054 0.008729211
0.046440255 0.019676043 0.09679734 0.043965217 0.055274356 0.05574283 -0.038540807 -0.07069378
-0.026266461 -0.06374146 -0.04237792 0.040822003 0.055395864 -0.0049802293 0.037585553 -0.021317203
00000000: d962 d5bc 2283 1b3d c58b 1e3d 843e 9b3c
00000010: b79d d9bb 4308 6dbd 1cf7 a4bc 7ef5 1cbc
00000020: ef8c 693d 1fe5 093d 9f3b a93d 1d5a 703d
00000030: f7e4 52bd a7ed 29bd 5354 95ba 9b85 d5bb
00000040: e795 8a3d 2350 1dbd 04d9 c33c 38d7 473c
00000050: 88b9 7d3d a192 3b3c 2f82 763c 789e ea3c
00000060: 43e8 17bb 67cc 033d ef2e 8fbd 5c81 e83c
00000070: 8639 e43c d3b0 8fbd 59ad 9c3d f517 053d
00000080: a73e 003c c1b0 32ba fd0c 933d 4230 1c3d
00000090: 5cf2 e83c 7fa0 933d 88ef 8f3c d066 aabc
000000a0: 1821 f5bc c3a4 8a3c c297 a3bb 6e12 48bd
000000b0: f898 34bd 4046 fbbc 5cb1 4fbd ec9b 963c
000000c0: f18c e5bc 6412 89bb c10c a73d 2d4f 2ebd
000000d0: 0bdc d43c bda2 eebc f5bf 4cbd f4ad 943d
000000e0: 596a 6abd fd26 683b 0810 083d 19c7 db3c
000000f0: cb35 df3c 451c 653d cea6 67bd bde7 51bd
00000100: f610 dabc 52dd 873d 2067 84bd c142 82bd
00000110: bb21 423d 6c91 84bd 40cb 1b3c 4f78 3abd
00000120: 5c3e 2f3d 37f4 93bd 7726 783d eb82 18bd
00000130: 8193 f33c b706 9b3d 9c2e 81bd b405 993d
00000140: 9cd8 893d 06eb 933d 0cf6 e33b 301f aebb
00000150: b4a3 7bbd ae1b 39bb 563c 09bd 8935 8dbd
00000160: bfa0 163b 63ff 66bc 6c84 12bb 95fa 98bd
00000170: b415 56bd e0ee 2a3c 42ae 4cbd 5a60 6d3d
00000180: f086 4d3b 13b2 4dbd d3ec 643d b2a4 4ebd
00000190: cd8f 303d e8df d4bc 636c 64bd 14c8 78bd
000001a0: 1dfb 8bbb 4e5c 63bc 9bc4 01bc 25b6 57bd
000001b0: 6d1d 993d af75 433b 4d71 243d 1f55 1fbd
000001c0: 7a47 2d3d 609e 923d 838a 94bc 30cf 9cbc
000001d0: 9509 f4bc 12e4 183d 515d 993d 3dd1 593d
000001e0: fac6 8bbd 1303 efbc 20c5 27bd 3019 ec3c
000001f0: 8188 05bd c42d 87bd d498 a43c ac70 b4bc
00000200: b340 043d fc6f 56bd af35 953d 0052 9ebc
00000210: 6a64 07bd 96d0 913d 8726 823d 1b27 de3b
00000220: a8a6 8dbc c8d0 4dbd d944 45bd 82fd 003d
00000230: a47b 83bd 2afb 703d b7b9 2fbd 59c8 993d
00000240: bb71 973d ab2f 16bd ec51 8cbd a819 9c3c
00000250: 260b 383d 541f 283d 0e8b 67bd 4623 5abd
00000260: 0395 373d 6b30 9bbd dffe 273d 90aa fc3b
00000270: 94b3 29bd fc73 593c 6e3f 503d c12a 3ebd
00000280: 4ee2 1d3d 2b33 7bbd b2dc 3abd 6636 8abc
00000290: 79b4 c73b 64b7 1a3d 48ca a03c 3a86 173d
000002a0: 5a55 eebb 60e0 a6bc 2ff7 8cbd fe68 453d
000002b0: 5ba7 afbc cb2b 7abd 78ad 2abd acb6 69bd
000002c0: 1676 333a 82ff f1bc 8575 49bd 7b45 8ebd
000002d0: 4a7e 7ebd 4f1c 01bd 2f00 a03d a1ad 44b9
000002e0: 8d14 87bd 2281 9f3c a1b4 98bd 75ad c33c
000002f0: d5c6 f13b 0f2f 67bd 5092 f6bc ba8c e2bc
00000300: 9589 3fbd 7463 22bd 551b 2f3d a327 a03d
00000310: ed92 8abd 2078 a13d 8636 203d 2d02 213c
00000320: 1beb 47bd b41f 8c3c 944c 923d 79e0 cebc
00000330: 2127 ab3d c834 583c 7ab5 19bd d179 963d
00000340: 7cc2 333c 9520 a43c 130b 81bd 180e 093b
00000350: beff a03d 262b 893d 68bf 9e3c 131f 04bd
00000360: 8108 c03c 3271 ee3c 5850 48bd fcea d03c
00000370: 4fec 69bd a928 a83d 4ea8 313d 8de3 3ebc
00000380: 155b 2bbd 252d 803d c848 ffbc f3f8 973d
00000390: dcc9 573c f528 cdbc bba3 1ebd 3dba 53bc
000003a0: b842 293d 21a7 883d 1e37 92bc d717 8c3d
000003b0: 7cae d2bc ecdf 35bd 7781 30bc f704 0f3c
000003c0: 2338 3e3d a72f a13c af3d c63d df14 343d
000003d0: 5d67 623d 9852 643d f7dc 1dbd e7c7 90bd
000003e0: c32c d7bc e28a 82bd 7894 2dbd f934 273d
000003f0: c6e6 623d 3131 a3bb 4ff3 193d 6aa1 aebc

weight f4 [256, 256]
-0.051954824 0.013912407 -0.048673462 -0.035120685 0.013109329 0.06836443 -0.0353689 -0.013601485
-0.051708754 0.03311398 0.042352714 0.052891366 -0.042167854 -0.017808361 -0.029190201 -0.044913217
0.013687619 0.011546694 0.09657388 0.1249343 0.019302893 0.07315608 0.03942284 -0.0229836
0.012367941 0.017294489 0.019851971 -0.05259447 -0.042732123 -0.017146898 -0.016926803 0.039150607
0.046885584 -0.020901674 0.043489505 -0.06851884 0.032074295 0.009924985 -0.014322699 -0.019564653
0.036272533 -0.0676083 0.057673544 -0.048661422 0.052755997 -0.0014179768 -0.027309531 0.052334886
0.007892147 0.058452312 0.028954657 -0.03791386 0.061597317 0.0018458796 -0.011388793 -0.0075729853
0.008369988 -0.037930045 0.035536516 0.03484262 -0.040123574 -0.061869364 0.011308124 0.016527545
-0.052211173 -0.038582817 -0.011441637 -0.029207122 0.06578056 0.014338957 0.014909051 -0.03762374
0.034603447 0.06278267 -0.008769066 -0.0047778585 0.0164026 0.048014008 0.0062224674 -0.0032782499
0.041699164 -0.022080328 0.076375954 -0.024140824 0.0018302883 0.007891468 -0.030325864 0.034820914
-0.046309225 -0.006729185 0.009029526 -0.028247707 0.033596452 0.07074502 0.07191931 -0.021854063
-0.005017173 -0.047037307 -0.046131603 -0.026929932 0.04204495 -0.06390783 0.012046119 -0.03462541
0.006466204 -0.07601379 -0.022432998 -0.0026951544 -0.030530686 -0.033655558 -0.05889785 0.038648367
0.0311869 -0.0030688758 -0.04328944 -0.0027818491 -0.029447565 -0.0065245754 0.0009496996 -0.03497063
0.029822972 0.060160276 -0.01071271 0.004219194 -0.015175361 -0.016972173 -0.044569496 0.065698564
-0.019984357 -0.039689712 0.03261986 0.05475249 0.05974106 -0.008796085 -0.010246307 -0.005619947
0.011480369 -0.04783441 -0.006164996 0.07255287 0.0094282655 -0.055065554 -0.0009872433 0.034262557
0.00016800975 0.07231669 -0.058009446 0.06428102 -0.02337433 0.050835423 -0.012497806 0.035527144
0.06303162 0.0060814605 -0.0102776885 0.06332623 0.04810326 0.024893418 0.006447515 0.037820097
0.03338649 -0.0027538952 0.017906716 0.07645214 0.03307317 -0.020327646 0.063551895 -0.052732646
0.023986401 -0.032139078 0.018367471 -0.016989218 -0.017229872 -0.024438204 0.07380996 -0.017974224
-0.026866881 0.009658883 -0.01739809 0.06192493 0.040965702 -0.004598602 -0.051409278 0.02757356
-0.0051476634 -0.01852856 0.050000776 0.013785031 -0.004516678 0.043316595 -0.0051043835 0.054171763
0.014665351 0.06683117 -0.004256979 -0.0065470086 0.02901254 -0.034408588 -0.040800735 0.023227772
0.012921177 -0.012162326 0.042238392 0.027631328 -0.03335662 0.057643496 -0.02678758 -0.014812724
-0.05921206 0.006810411 0.056954242 0.025698068 0.014171925 0.06276464 0.05254757 -0.042046074
-0.007693745 0.0042315344 0.00037418067 0.077920415 -0.030882776 0.016255781 0.007980302 0.006960078
0.037984017 0.0007985669 0.019869758 -0.019989235 0.033559024 0.017735548 -0.032809027 -0.050790302
0.07407046 0.0038345028 0.032037515 -0.061146032 -0.025499564 -0.03254587 0.063184984 0.049732
-0.017799629 0.053221382 0.029958429 -0.049867265 -0.0073194415 0.018348215 -0.0010387392 -0.051521465
0.013127218 0.06284019 0.04456128 -0.04534798 0.051119782 0.009642024 -0.017229257 -0.014528355
00000000: 95ce 54bd ddf0 633c d35d 47bd b5da 0fbd
00000010: 83c8 563c a602 8c3d fbde 10bd c3d8 5ebc
00000020: 8fcc 53bd 86a2 073d 0a7a 2d3d 9ea4 583d
00000030: 33b8 2cbd d7e2 91bc 4a20 efbc ecf6 37bd
00000040: 0942 603c 582e 3d3c 87c8 c53d 8edd ff3d
00000050: 1a21 9e3c dbd2 953d d879 213d 1a48 bcbc
00000060: e8a2 4a3c 2cad 8d3c 9aa0 a23c 4d6d 57bd
00000070: e107 2fbd a777 8cbc 14aa 8abc 635c 203d
00000080: 190b 403d fd39 abbc 0d22 323d 9b53 8cbd
00000090: 5660 033d 679c 223c c1a9 6abc 0d46 a0bc
000000a0: 8292 143d 3876 8abd 183b 6c3d 3351 47bd
000000b0: ac16 583d 68db b9ba 3db8 dfbc 1b5d 563d
000000c0: 104e 013c b16b 6f3d 5132 ed3c 904b 1bbd
000000d0: 784d 7c3d 71f1 f13a 0f98 3abc ce26 f8bb
000000e0: 4622 093c 895c 1bbd bd8e 113d 23b7 0e3d
000000f0: 9e58 24bd bb6a 7dbd b645 393c c664 873c
00000100: 62db 55bd 0409 1ebd b475 3bbc c643 efbc
00000110: f5b7 863d f2ed 6a3c 1845 743c 5a1b 1abd
00000120: 58bc 0d3d 3394 803d 21ac 0fbc 958f 9cbb
00000130: bf5e 863c 56aa 443d d7e5 cb3b e8d7 56bb
00000140: becc 2a3d cee1 b4bc ff6a 9c3d fac2 c5bc
00000150: 49e6 ef3a 374b 013c f26d f8bc 60a0 0e3d
00000160: beae 3dbd 7f80 dcbb 94f0 133c bc67 e7bc
00000170: 6f9c 093d c4e2 903d 6e4a 933d 4b07 b3bc
00000180: 1967 a4bb 31aa 40bd 7ef4 3cbd 299c dcbc
00000190: 5337 2c3d 1ce2 82bd 165d 453c 60d3 0dbd
000001a0: 73e2 d33b 1ead 9bbd 68c5 b7bc 30a1 30bb
000001b0: 7d1b fabc 69da 09bd df3e 71bd c04d 1e3d
000001c0: ab7b ff3c 311f 49bb 4550 31bd af4f 36bb
000001d0: 053c f1bc 1bcc d5bb 43f5 783a 5d3d 0fbd
000001e0: 4e4f f43c 9f6a 763d 5d84 2fbc 2a41 8a3b
000001f0: 14a2 78bc 3a09 8bbc 818e 36bd f88c 863d
00000200: 3cb6 a3bc ae91 22bd 679c 053d 2644 603d
00000210: 0bb3 743d 741d 10bc 20e0 27bc 8827 b8bb
00000220: 2818 3c3c 04ee 43bd bc03 cabb 9996 943d
00000230: 0379 1a3c 6b8c 61bd 6366 81ba e556 0c3d
00000240: c62b 3039 c61a 943d 509b 6dbd c4a5 833d
00000250: 867b bfbc ce38 503d 99c3 4cbc e984 113d
00000260: b916 813d fd46 c73b c063 28bc 2fb1 813d
00000270: ed07 453d 48ed cb3c ad45 d33b 3fe9 1a3d
00000280: 46c0 083d b27a 34bb 1bb1 923c f192 9c3d
00000290: bb77 073d 2a86 a6bc 7f27 823d 30fe 57bd
000002a0: 217f c43c 44a4 03bd 6177 963c f92c 8bbc
000002b0: a925 8dbc a132 c8bc ad29 973d ae3e 93bc
000002c0: ef17 dcbc 4b40 1e3c 7086 8ebc ffa4 7d3d
000002d0: a7cb 273d dfaf 96bb 8992 52bd f2e1 e13c
000002e0: bbad a8bb 35c9 97bc 9dcd 4c3d 9cda 613c
000002f0: a400 94bb be6c 313d ac42 a7bb 36e3 5d3d
00000300: f146 703c c8de 883d 217e 8bbb 4a88 d6bb
00000310: b5ab ed3c 05f0 0cbd ac1e 27bd 2b48 be3c
00000320: 58b3 533c 7e44 47bc 2a02 2d3d 185b e23c
00000330: f4a0 08bd 961b 6c3d a171 dbbc 11b1 72bc
00000340: 5888 72bd de29 df3b da48 693d c184 d23c
00000350: 5d31 683c bf8a 803d 1f3c 573d 8138 2cbd
00000360: d01b fcbb afa8 8a3b ae2d c439 bd94 9f3d
00000370: e0fd fcbc d82a 853c d0bf 023c 5e11 e43b
00000380: 2195 1b3d eb56 513a e7c5 a23c 77c0 a3bc
00000390: 3075 093d 244a 913c c262 06bd 7e09 50bd
000003a0: 41b2 973d 484c 7b3b c539 033d 4374 7abd
000003b0: 76e4 d0bc d14e 05bd 2167 813d c8b3 4b3d
000003c0: 87d0 91bc aafe 593d 616b f53c 9e41 4cbd
000003d0: edd7 efbb ff4e 963c 4e26 88ba 2c08 53bd
000003e0: 8b13 573c 5cb2 803d e485 363d cebe 39bd
000003f0: fa62 513d 94f9 1d3c 5f24 8dbc 5608 6ebc

bias f4 [256]
0.013707101 -0.044968117 -0.036754195 0.024215179 -0.012913283 -0.017960219 -0.02473632 0.016436014
0.03823565 -0.008468752 0.041101 -0.044469584 0.021980023 0.02549746 0.0055742054 -0.04360575
0.06483386 -0.026510581 0.055556264 0.04704515 0.04762587 -0.028279023 0.048288 -0.009809463
-0.013985715 0.053713392 -0.02297174 0.0153152235 -0.05196241 -0.010443383 -0.052605785 0.047851954
0.06195639 -0.05937732 -0.023701955 0.028232988 0.06217571 0.010716008 -0.050338466 0.030506637
-0.020768948 0.05888827 0.015107252 -0.045370124 0.010933355 0.02908202 0.03985792 -0.0127169555
-0.050573044 0.054647096 0.01979878 0.028519837 0.011600056 -0.050135784 0.058931835 0.065268874
-0.045507476 0.061531983 -0.004958236 -0.022870556 -0.008426894 0.037380375 -0.015721325 0.05063437
-0.028198121 0.043417938 0.062384173 -0.033335153 0.009895134 -0.006164472 0.029010164 -0.035912
0.028273588 0.050547227 -0.031919938 0.02517554 0.050445825 0.04731032 -0.013268476 -0.017134143
0.054526787 -0.049366675 -0.06674133 0.03313173 -0.00724887 0.045059748 0.08892077 -0.053924207
-0.011639347 -0.049573783 -0.0108065875 -0.00539165 -0.06256349 -0.014348175 0.024559239 -0.017019574
-0.04671377 0.056586456 0.027737366 0.05430612 -0.02882729 -0.022789618 -0.020897148 0.03024302
-0.0020863009 0.010450165 -0.0046760673 0.0063305097 -0.044248134 -0.05058977 0.02533607 0.06293503
0.004643411 0.038480893 0.0074997144 0.04093108 0.038854096 0.04965094 0.03781385 0.053482108
0.048643593 -0.020644117 -0.007763683 0.046720784 -0.031195126 -0.017554838 0.061609164 0.020412505
-0.040153027 -0.06156743 0.06465237 0.009215847 -0.028861906 0.04278717 -0.0022896773 0.058686696
-0.028154552 -0.045542415 0.0210359 0.06419765 -0.021399684 -0.029174129 -0.032456655 -0.04830856
0.004825538 -0.038072255 0.030303216 -0.054914966 -0.0070682005 0.03234186 0.05146001 -0.015543123
-0.05239693 -0.049984947 0.05546672 -0.02927679 0.028619157 -0.019835267 0.047592886 0.051578242
-0.043900967 -0.051266342 -0.0053556873 0.011850191 0.03852314 0.022520186 0.02657482 -0.023004873
-0.020583233 0.0271835 -0.024314 -0.012953918 -0.019586707 0.013837045 -0.037356507 0.065995194
0.06707648 0.058906674 -0.005276395 -0.05968414 0.030062363 0.05253078 0.026155865 -0.006611764
0.04287062 -0.022914726 0.01953292 0.0057370015 -0.056089472 0.011667602 -0.0023258184 -0.02749729
-0.048391953 0.006447799 0.040882587 -0.04273363 0.075524576 -0.030541744 -0.016012255 -0.029136831
0.06575372 0.05058949 0.017183503 -0.034529913 0.012061943 -0.03286568 -0.03458743 -0.049551167
-0.01050417 -0.041409306 0.065307096 -0.035177168 -0.021805873 0.027591655 0.060324986 -0.051972866
0.00301102 -0.043582905 0.024673272 0.03723035 -0.045425415 0.041570704 0.056149654 0.0010413155
0.042325508 -0.0388504 0.0020200503 -0.031755745 -0.027781615 0.032100026 0.0063954373 0.06314664
0.0143205505 0.07129418 0.055072542 0.037155844 0.048098225 0.011260823 0.021013469 0.031769395
0.06942095 0.054688994 -0.049865592 0.0020037733 0.050770424 0.029486403 0.022753837 0.052950777
0.0053672106 0.05082216 0.009170709 -0.0132046845 0.062321335 -0.019281339 -0.05832041 -0.055456158
00000000: c093 603c 7d30 38bd 918b 16bd e95e c63c
00000010: 3c92 53bc 4f21 93bc d3a3 cabc d2a4 863c
00000020: fc9c 1c3d 85c0 0abc 8659 283d bd25 36bd
00000030: 730f b43c 0de0 d03c d3a7 b63b f19b 32bd
00000040: 9dc7 843d b82c d9bc f78e 633d 6ab2 403d
00000050: 5813 433d 69a9 e7bc a3c9 453d dfb7 20bc
00000060: 5724 65bc 9302 5c3d 3b2f bcbc b4ec 7a3c
00000070: 89d6 54bd b91a 2bbc 2a79 57bd 6900 443d
00000080: fcc5 7d3d a235 73bd 9a2a c2bc de48 e73c
00000090: f5ab 7e3d 3292 2f3c b52f 4ebd 0ee9 f93c
000000a0: a423 aabc d434 713d 6884 773c 06d6 39bd
000000b0: d121 333c 6b3d ee3c 0f42 233d c75a 50bc
000000c0: ae25 4fbd a2d5 5f3d 0d31 a23c 6fa2 e93c
000000d0: 290e 3e3c 2e5b 4dbd 8262 713d b0ab 853d
000000e0: 0c66 3abd f608 7c3d b378 a2bb 085b bbbc
000000f0: f510 0abc 2a1c 193d 02ca 80bc fc65 4f3d
00000100: bfff e6bc 02d7 313d 8c86 7f3d 718a 08bd
00000110: 331f 223c 57ff c9bb b9a6 ed3c 7618 13bd
00000120: 039e e73c 9c0a 4f3d 7bbe 02bd ef3c ce3c
00000130: 48a0 4e3d 77c8 413d 0664 59bc e75c 8cbc
00000140: 7b57 5f3d b634 4abd aeaf 88bd 23b5 073d
00000150: ee87 edbb 9290 383d 181c b63d a1df 5cbd
00000160: f6b2 3ebc e10d 4bbd 1d0e 31bc 70ac b0bb
00000170: 4921 80bd 9c14 6bbc 7530 c93c a26c 8bbc
00000180: f056 3fbd 33c7 673d 7939 e33c 1870 5e3d
00000190: 3527 ecbc 4bb1 babc 7f30 abbc 36c0 f73c
000001a0: 52ba 08bb 2b37 2b3c b239 99bb 2a70 cf3b
000001b0: 883d 35bd 3837 4fbd 978d cf3c 15e4 803d
000001c0: c127 983b 249e 1d3d 2ac0 f53b 59a7 273d
000001d0: 7925 1f3d c95e 4b3d b2e2 1a3d 0e10 5b3d
000001e0: 813e 473d da1d a9bc 7e66 febb 4b5e 3f3d
000001f0: ec8c ffbc 2acf 8fbc e459 7c3d 2038 a73c
00000200: 8077 24bd 212e 7cbd 7668 843d 10fe 163c
00000210: ce6f ecbc 9941 2f3d 690e 16bb 7661 703d
00000220: 60a4 e6bc af8a 3abd 7b53 ac3c 0f7a 833d
00000230: 644e afbc 95fe eebc 45f1 04bd 32df 45bd
00000240: 8c1f 9e3b a7f1 1bbd 733e f83c 84ee 60bd
00000250: 5d9c e7bb e678 043d bbc7 523d 95a8 7ebc
00000260: 2a9e 56bd 04bd 4cbd 1231 633d e1d5 efbc
00000270: b972 ea3c 927d a2bc c2f0 423d b543 533d
00000280: 80d1 33bd a8fc 51bd c37e afbb 4e27 423c
00000290: 71ca 1d3d 417c b83c 70b3 d93c b774 bcbc
000002a0: 2b9e a8bc eeaf de3c 272e c7bc ac3c 54bc
000002b0: 4d74 a0bc c6b4 623c 2303 19bd 7d28 873d
000002c0: 655f 893d 2048 713d 9ce5 acbb 5b77 74bd
000002d0: 5845 f63c 842a 573d d344 d63c 7fa7 d8bb
000002e0: 1a99 2f3d aab7 bbbc 8103 a03c 75fd bb3b
000002f0: 13be 65bd 7829 3f3c c26c 18bb ff41 e1bc
00000300: a436 46bd 0f48 d33b 8074 273d 7509 2fbd
00000310: a1ac 9a3d ae32 fabc 222c 83bc 5db0 eebc
00000320: e3a9 863d ed36 4f3d 6bc4 8c3c 3d6f 0dbd
00000330: 759f 453c 2a9e 06bd 8dab 0dbd 2af6 4abd
00000340: af19 2cbc ce9c 29bd babf 853d ef15 10bd
00000350: 3ba2 b2bc e507 e23c 5517 773d 80e1 54bd
00000360: 8854 453b fd83 32bd 9a1f ca3c da7e 183d
00000370: 0010 3abd 0b46 2a3d 2efd 653d c07c 883a
00000380: 835d 2d3d 9921 1fbd d262 043b 5012 02bd
00000390: 4596 e3bc 517b 033d d190 d13b 0753 813d
000003a0: bea0 6a3c af02 923d bf93 613d ba30 183d
000003b0: a502 453d 517f 383c 7024 ac3c a020 023d
000003c0: 922c 8e3d 9101 603d dd3f 4cbd bd51 033b
000003d0: a6f4 4f3d 788d f13c 4166 ba3c eae2 583d
000003e0: 6ddf af3b e62a 503d be40 163c 7658 58bc
000003f0: a844 7f3d e6f3 9dbc 62e1 6ebd ff25 63bd

weight f4 [256, 256]
0.019932015 -0.043117076 -0.07815754 0.004000116 0.023013493 0.025588082 0.023920754 0.03299481
0.035079125 0.047742624 -0.031063996 -0.08403993 -0.015181506 0.05094388 -0.067968875 0.054107398
-0.029416773 0.03591223 -0.046820775 0.071091846 0.051647406 0.023275742 0.031169351 0.07684268
-0.066209994 0.036066145 -0.015144046 0.016683422 0.07044335 0.004589639 -0.010666531 0.06923013
0.035499673 0.019890476 0.078848496 0.017856127 -0.013758687 -0.030165005 0.021906095 -0.06426562
0.06832303 -0.027601566 -0.028944908 0.013515704 -0.0093865 -0.015343448 -0.015725223 -0.012931071
-0.052499652 0.08319789 0.019913731 -0.028521063 -0.037410695 -0.061251685 -0.029283047 0.017046237
-0.060281694 0.083329365 0.10204659 -0.0071210074 -0.06762 0.0012674946 0.104188845 -0.05997527
0.033103246 0.075979814 0.00030588475 0.008167443 0.04253212 0.010363472 -0.011081465 -0.054742847
0.0477586 -0.04155979 -0.062157407 -0.05247829 0.08267368 0.042109303 -0.011269893 -0.06588387
-0.018056437 -0.052335545 0.007435155 0.06028911 0.050867368 0.14621478 -0.04828866 0.070099026
0.033636115 0.009141887 0.042585663 -0.04077994 0.045771092 -0.01201101 0.04468277 -0.068289675
0.009227823 0.035241593 -0.043420486 -0.0034417533 0.013797541 0.013035732 -0.030005446 -0.012512174
0.077705756 0.0418839 0.03169862 -0.016917309 -0.08619945 -0.06653399 0.057089858 -0.0012740487
-0.07933692 0.017651567 -0.017493611 0.035835315 0.07103831 0.036096867 0.04715939 -0.0518129
-0.014377849 0.022586456 0.031287633 0.012052604 0.004771083 0.02478556 -0.0019508104 0.0072487337
0.007784228 -0.05231501 -0.031740088 0.059451535 -0.07535731 0.059443332 -0.030467113 -0.02872944
0.03674602 -0.0032452613 -0.03723983 0.03473837 -0.08504755 0.034138102 -0.040184516 0.022558376
0.028385045 -0.037602805 -0.103857554 0.1457993 0.073222846 0.020735199 0.08139526 0.030982569
-0.011144717 0.011619127 0.03927437 0.03721808 -0.03240917 0.024238363 -0.04370412 0.11005898
-0.04146003 -0.098602235 -0.07602684 -0.024749365 -0.036621667 0.042420957 -0.010020093 -0.056116685
-0.017359627 0.059936605 -0.044474464 0.039348796 -0.027681284 -0.008923701 0.037350975 0.010005834
-0.026195701 -0.0006394528 0.02540947 -0.032040376 0.013148697 -0.0076080887 0.028224394 0.027687173
0.0033749912 -0.026060456 0.048545867 0.024649695 -0.0027504023 0.15555617 0.047399607 -0.04197769
-0.03959549 0.07386191 -0.006581369 -0.042519234 0.03158902 0.020940877 0.07570801 -0.0406263
0.059805892 -0.05094178 0.043184523 0.047874223 -0.03734125 0.041769747 -0.055369243 0.018940154
-0.057298195 0.074577734 0.037573364 -0.027326614 -0.058528516 -0.03419687 0.0147256 0.045142546
-0.08758621 -0.0633975 0.025322005 0.03679831 -0.008607489 0.06793786 -0.03349723 -0.009763763
-0.007637964 0.019429334 0.07706806 0.043936923 0.093751185 0.04781166 0.029221173 -0.06311188
-0.05937506 -0.0321871 0.028914094 0.03676105 0.051316563 0.0024652698 -0.062209517 -0.045076672
0.024163382 0.008932838 -0.043742325 0.017242126 -0.031081527 0.0556601 0.06374287 0.0194077
0.13533281 0.007096688 -0.044655334 0.0050461898 0.035127994 -0.004790038 0.041688185 0.020318527
00000000: 7748 a33c 889b 30bd 0f11 a0bd 6813 833b
00000010: cb86 bc3c 199e d13c 75f5 c33c 9125 073d
00000020: 21af 0f3d c58d 433d ec79 febc 201d acbd
00000030: dabb 78bc 88aa 503d 4433 8bbd b89f 5d3d
00000040: 72fb f0bc b418 133d 24c7 3fbd 9a98 913d
00000050: 3b8c 533d c5ac be3c de56 ff3c b25f 9d3d
00000060: 1b99 87bd 18ba 133d bc1e 78bc acab 883c
00000070: 9a44 903d af64 963b acc2 2ebc 87c8 8d3d
00000080: 1b68 113d 5af1 a23c 527b a13d 0347 923c
00000090: 1e6c 61bc 9a1c f7bc 6974 b33c b29d 83bd
000000a0: f2ec 8b3d ae1c e2bc df1d edbc f970 5d3c
000000b0: d6c9 19bc 1663 7bbc 2fd2 80bc d8dc 53bc
000000c0: e009 57bd a863 aa3d 1f22 a33c 01a5 e9bc
000000d0: f53b 19bd 0ce3 7abd 00e3 efbc 8da4 8b3c
000000e0: f0e9 76bd 96a8 aa3d cdfd d03d 5757 e9bb
000000f0: 5b7c 8abd 1022 a63a f660 d53d a1a8 75bd
00000100: 4597 073d 4e9b 9b3d 285f a039 bdd0 053c
00000110: 2936 2e3d 8dcb 293c 088f 35bc 093a 60bd
00000120: 869e 433d 993a 2abd c498 7ebd 7af3 56bd
00000130: d150 a93d ce7a 2c3d 5ba5 38bc 1fee 86bd
00000140: 18eb 93bc cc5d 56bd 9aa2 f33b b7f1 763d
00000150: 4d5a 503d 54b9 153e 54ca 45bd 1490 8f3d
00000160: 06c6 093d dac7 153c 4e6e 2e3d de08 27bd
00000170: 787a 3b3d d4c9 44bc 4805 373d 75db 8bbd
00000180: 4b30 173c 7d59 103d aed9 31bd 0a8f 61bb
00000190: 150f 623c d393 553c fbcd f5bc ddff 4cbc
000001a0: 3224 9f3d 748e 2b3d 6ad6 013d 2b96 8abc
000001b0: 5689 b0bd f942 88bd 0ed7 693d fbfd a6ba
000001c0: 657b a2bd 059a 903c c34e 8fbc 0dc8 123d
000001d0: 897c 913d 4fda 133d 342a 413d c339 54bd
000001e0: 1291 6bbc 3b07 b93c 7627 003d 4978 453c
000001f0: bf56 9c3b 160b cb3c 56b2 ffba c986 ed3b
00000200: d612 ff3b 4448 56bd e501 02bd 7483 733d
00000210: ef54 9abd da7a 733d 2b96 f9bc 015a ebbc
00000220: ff82 163d 73ae 54bb cb88 18bd d249 0e3d
00000230: 692d aebd 65d4 0b3d 8598 24bd 58cc b83c
00000240: c187 e83c 6605 1abd 45b3 d4bd 694c 153e
00000250: dcf5 953d dddc a93c 8fb2 a63d 28cf fd3c
00000260: 5598 36bc 275e 3e3c 29de 203d fc71 183d
00000270: 7abf 04bd 888f c63c 1703 33bd 9a66 e13d
00000280: fed1 29bd f8ef c9bd f6b3 9bbd 2ebf cabc
00000290: 9a00 16bd 99c1 2d3d 512b 24bc 9cda 65bd
000002a0: c735 8ebc 1680 753d db2a 36bd 342c 213d
000002b0: dcc3 e2bc b734 12bc 56fd 183d 82ef 233c
000002c0: 5e98 d6bc f3a0 27ba 8527 d03c c53c 03bd
000002d0: a26d 573c 464d f9bb d836 e73c 36d0 e23c
000002e0: f52e 5d3b bd7c d5bc 08d8 463d 28ee c93c
000002f0: 1840 34bb 1e4a 1f3e 1726 423d ccf0 2bbd
00000300: e12e 22bd ea44 973d 86a8 d7bb a628 2ebd
00000310: 7d63 013d 348c ab3c cd0c 9b3d c367 26bd
00000320: 06f7 743d 54a8 50bd 41e2 303d c317 443d
00000330: 23f3 18bd c116 2b3d dcca 62bd 6228 9b3c
00000340: 83b1 6abd 36bc 983d 87e6 193d 10dc dfbc
00000350: 99bb 6fbd 0412 0cbd a543 713c 64e7 383d
00000360: 6660 b3bd 8cd6 81bd 1870 cf3c d3b9 163d
00000370: 6d06 0dbc 0123 8b3d 6434 09bd 31f8 1fbc
00000380: e347 fabb 442a 9f3c dcd5 9d3d 34f7 333d
00000390: 9f00 c03d 29d6 433d 3e61 ef3c cd40 81bd
000003a0: 4333 73bd 9fd6 03bd 40dd ec3c c192 163d
000003b0: 5131 523d 5d90 213b 68cf 7ebd 51a2 38bd
000003c0: 49f2 c53c 0a5b 123c 272b 33bd 5c3f 8d3c
000003d0: b09e febc d8fb 633d 9f8b 823d e6fc 9e3c
000003e0: af94 0a3e 558b e83b 83e8 36bd 825a a53b
000003f0: 5fe2 0f3d c0f5 9cbb 3bc1 2a3d 0a73 a63c

bias f4 [256]
0.04961822 -0.0005166727 0.0072892066 -0.013191592 -0.047201224 -0.031065306 -0.012441151 -0.02452323
0.025417414 0.08192767 -0.019248255 -0.027978485 0.015609022 -0.038705952 0.020891687 -0.044431336
-0.03604344 -0.016196232 0.04636217 0.007917528 0.015766395 0.039095033 0.052698027 0.0147668235
-0.0011038998 -0.020597968 -0.045899384 0.0062299864 0.0072178184 0.014115583 0.021153135 0.038906973
0.032543033 0.000568182 -0.033585675 -0.048263375 -0.04558856 0.026813297 -0.026885614 0.014479853
0.021660786 -0.011486893 0.042685907 0.015987778 -0.005784905 -0.07848742 -0.011641899 0.017749432
0.0069211335 0.03607807 -0.07004515 0.028967371 -0.02552908 -0.033371277 0.06568819 0.06843607
-0.024226664 0.038235825 0.061089765 0.05609876 -0.022614833 0.020893402 -0.022963848 -0.031164056
0.04013501 -0.047785893 -0.018597784 0.054291144 0.01128307 0.07699637 -0.03145462 0.039666284
-0.025530199 0.015008168 -0.031246055 0.01969561 0.06598332 0.024948431 0.0439845 -0.038014807
0.07246073 0.06352591 0.0299626 0.022640511 -0.017073182 0.020745588 0.053066332 0.03298486
0.023672925 -0.052099805 0.04774553 0.06155816 -0.007731554 -0.048496544 0.0150334565 0.04955605
-0.026732774 0.036478814 0.02890753 0.05917864 0.038151007 -0.026904315 0.046682633 0.0017900048
-0.008934135 0.028568694 0.075639695 -0.04615013 -0.009256116 0.0669033 -0.05344398 0.06189799
0.062494908 0.032530762 -0.041397095 -0.051782813 -0.04724406 -0.020295713 -0.035477698 -0.031424645
-0.05606177 -0.048779916 0.01808695 0.05846415 -0.039919667 0.021522406 0.019838942 0.066963084
0.020947214 -0.055873957 0.00073161244 -0.0055358955 0.026244543 -0.06917076 -0.053251598 0.04966515
-0.02799527 0.065306194 0.016727915 0.010649047 0.019891042 -0.03510715 0.06493638 0.021248795
-0.01540437 -0.03063341 0.04600683 0.0063687544 -0.026803248 0.00065180985 0.023737315 0.06586279
0.04222991 0.07611125 -0.0033461188 -0.012423119 0.04909395 -0.026961666 0.04509967 -0.012707779
0.04208066 0.0044485377 0.0061916164 -0.055574957 0.012839806 -0.026543392 0.07394677 -0.00195158
0.06454929 -0.026735933 0.008979771 -0.008775473 0.00077982614 -0.04338015 0.043855403 0.06702491
-0.014642875 -0.024319224 0.009806499 0.06198948 -0.0076660025 -0.04119305 0.057437412 0.007291286
0.0019650082 0.012414451 0.04256627 0.022850573 0.05759987 -0.03421699 0.014938498 0.05946172
0.067143746 -0.04778472 0.008725863 0.0026338967 0.032465115 0.004312366 0.036641244 0.07080231
0.029358024 0.03535172 0.00073288917 -0.031388618 -0.049948044 0.014830104 -0.05968982 -0.02517406
0.01645279 -0.03076914 0.037867498 0.0038471706 -0.018794453 0.06472491 -0.023637252 0.02934758
-0.018979834 -0.0053631356 0.038543075 -0.011155344 -0.025293592 0.0049862014 -0.04136289 -0.054383125
-0.020534113 0.068530545 0.020402411 0.059685465 -0.0052449573 0.029242218 0.03349292 0.013432672
0.052286 0.02440581 0.048650227 0.0664844 0.0046118177 -0.010441914 -0.006671177 -0.0035056763
0.048622962 -0.016908437 0.056303885 -0.010351284 0.023399947 0.050366536 -0.009984082 -0.038499817
-0.023051219 0.0005891068 0.07564229 0.042994577 -0.00551801 0.010633025 -0.031160062 0.009992302
00000000: 7a3c 4b3d 5171 07ba 4cda ee3b 8c21 58bc
00000010: 1256 41bd ab7c febc f8d5 4bbc f1e4 c8bc
00000020: 2e38 d03c b2c9 a73d 84ae 9dbc 2333 e5bc
00000030: fcbc 7f3c 228a 1ebd 0b25 ab3c a2fd 35bd
00000040: 49a2 13bd f6ad 84bc 42e6 3d3d 85b8 013c
00000050: 8728 813c 1d22 203d e3d9 573d 8cf0 713c
00000060: bbb0 90ba 12bd a8bc fe00 3cbd ea24 cc3b
00000070: 7383 ec3b 0c45 673c 5749 ad3c eb5c 1f3d
00000080: d84b 053d 0cf2 143a 2291 09bd d1af 45bd
00000090: 12bb 3abd 8fa7 db3c 383f dcbc e83c 6d3c
000000a0: f671 b13c 8533 3cbc 6bd7 2e3d cdf8 823c
000000b0: 4d8f bdbb 03be a0bd aabd 3ebc 4267 913c
000000c0: adca e23b 99c6 133d d573 8fbd fb4c ed3c
000000d0: 5c22 d1bc 52b0 08bd 8887 863d 3628 8c3d
000000e0: ff76 c6bc 2b9d 1c3d 4339 7a3d d0c7 653d
000000f0: be42 b9bc a428 ab3c ae1e bcbc c34b ffbc
00000100: 9c64 243d 24bb 43bd 615a 98bc 6460 5e3d
00000110: a0dc 383c 46b0 9d3d 8fd6 00bd 1d79 223d
00000120: b524 d1bc d2e4 753c baf7 ffbc b058 a13c
00000130: 4322 873d a760 cc3c 1729 343d 6ab5 1bbd
00000140: 4b66 943d df19 823d 2074 f53c 9878 b93c
00000150: 0fdd 8bbc a7f2 a93c 155c 593d 221b 073d
00000160: b9ed c13c 9b66 55bd d190 433d 6924 7c3d
00000170: fa58 fdbb 50a4 46bd e34e 763c 49fb 4a3d
00000180: b1fe dabc cf6a 153d 7ccf ec3c 4d65 723d
00000190: 3b44 1c3d 7066 dcbc 4a36 3f3d 989e ea3a
000001a0: 7a60 12bc e508 ea3c fce8 9a3d eb07 3dbd
000001b0: f7a6 17bc 9904 893d 13e8 5abd bf88 7d3d
000001c0: a9fa 7f3d fa3e 053d 0090 29bd 371a 54bd
000001d0: fd82 41bd 3243 a6bc 1051 11bd 21b7 00bd
000001e0: 07a1 65bd 73cd 47bd 152b 943c 1b78 6f3d
000001f0: ce82 23bd c24f b03c 4785 a23c f123 893d
00000200: 7e99 ab3c 17dc 64bd aec9 3f3a 7566 b5bb
00000210: ccfe d63c 66a9 8dbd 591e 5abd af6d 4b3d
00000220: 5656 e5bc 41bf 853d fb08 893c 5779 2e3c
00000230: 8af2 a23c 84cc 0fbd 5dfd 843d f411 ae3c
00000240: 9c62 7cbc ebf2 fabc a871 3c3d fcb0 d03b
00000250: 7c92 dbbc 38de 2a3a c274 c23c 12e3 863d
00000260: 45f9 2c3d 37e0 9b3d 8f4a 5bbb 568a 4bbc
00000270: bd16 493d b6de dcbc 6eba 383d 4a34 50bc
00000280: c55c 2c3d 0ac5 913b 0be3 ca3b 91a2 63bd
00000290: 0d5e 523c 8771 d9bc 6771 973d 29cc ffba
000002a0: 6b32 843d 5105 dbbc e41f 133c 00c7 0fbc
000002b0: 3f6d 4c3a 62af 31bd b9a1 333d 5b44 893d
000002c0: abe8 6fbc 1c39 c7bc 70ab 203c aee8 7d3d
000002d0: 1733 fbbb 0bba 28bd 7e43 6b3d bdeb ee3b
000002e0: 5ec7 003b fb65 4b3c f859 2e3d 2031 bb3c
000002f0: d7ed 6b3d 1d27 0cbd 9ac0 743c 228e 733d
00000300: a982 893d e9b9 43bd ecf6 0e3c 749d 2c3b
00000310: 24fa 043d bf4e 8d3b 2115 163d cd00 913d
00000320: 3d80 f03c f7cc 103d 5c1f 403a 5a91 00bd
00000330: 5296 4cbd f7f9 723c 507d 74bd d539 cebc
00000340: 00c8 863c 900f fcbc f31a 1b3d d020 7c3b
00000350: d3f6 99bc 7e8e 843d e9a2 c1bc 566a f03c
00000360: 997b 9bbc 3ebd afbb 58df 1d3d e7c4 36bc
00000370: 8234 cfbc 4a63 a33b 226c 29bd d7c0 5ebd
00000380: 2837 a8bc be59 8c3d f522 a73c bf78 743d
00000390: e4dd abbb 608d ef3c df2f 093d b614 5c3c
000003a0: d829 563d b1ee c73c 7645 473d f928 883d
000003b0: bb1e 973b 9014 2bbc e499 dabb 7dbf 65bb
000003c0: df28 473d 9083 8abc e79e 663d 6f98 29bc
000003d0: 3fb1 bf3c 244d 4e3d 4694 23bc fcb1 1dbd
000003e0: e9d5 bcbc 4a6e 1a3a 58ea 9a3d 151b 303d
000003f0: 6cd0 b4bb 2436 2e3c 6343 ffbc c1b6 233c

weight f4 [128, 256]
-0.009865758 0.06148191 0.058939777 0.018018663 -0.0048267646 -0.016229656 0.09926171 -0.087514825
-0.054318864 -0.05488801 -0.0055010533 0.041624896 0.0124425385 -0.07045403 0.09089028 -0.08152245
0.029654486 0.0873404 0.04637835 -0.068224736 -8.058429e-05 -0.014078193 0.05604122 0.008705073
-0.026518108 0.08367623 0.08733906 -0.005012231 0.0046272804 -0.013589866 -0.03339284 -0.074484654
-0.0053140162 0.099938296 0.08747493 0.05434201 0.011325949 0.003156442 0.017681269 -0.05275954
-0.06090537 -0.012743448 -0.0837468 -0.0321385 0.046824858 -0.013152212 0.07900639 -0.07155028
0.014727886 -0.050164714 0.006638077 -0.030722285 0.027394917 0.017349552 0.002697219 -0.091532804
0.028798446 0.021946196 -0.008520028 -0.06918692 0.08823158 0.009925576 0.056988567 -0.07948599
-0.086550295 -0.011809314 0.08878631 0.03208208 0.009451961 0.026382558 -0.00084731216 0.031925507
0.06756908 0.07058122 -0.01592134 -0.022684606 0.028000794 -0.01374441 0.0379732 -0.061010975
-0.00012144067 -0.030047156 0.012603853 -0.07400847 0.023084728 -0.07213429 -0.04610239 -0.007541285
-0.04254656 0.08766897 0.07167168 -0.047511168 0.06961968 0.067321055 0.068361245 -0.03351327
0.02397009 -0.004669435 -8.552921e-05 -0.013583944 -0.046891678 -0.045282103 -0.0012444039 -0.028439386
0.01869536 0.024080103 -0.008050127 0.02396535 0.009805148 -0.09036618 0.05119168 -0.07114085
0.088906124 -0.06344023 0.12226865 -0.007312298 0.0053727096 -0.030745637 -0.024763191 0.009925157
-0.055640858 0.005139366 -0.049790896 0.066497326 0.010789054 0.059847884 -0.10558955 0.0015438577
0.04820523 0.09908196 -0.033524018 -0.012011974 0.013291448 -0.04925503 0.059106182 0.0697628
0.04694312 0.09227525 -0.021406272 0.06332529 0.00244373 0.095451646 0.018547315 0.08799
0.056834467 0.064392366 0.053234268 0.018065706 -0.02348657 -0.07867939 -0.03573722 0.013927396
0.04829191 -0.05303316 0.02628653 -0.07465013 -0.0011792146 0.012200073 0.0358394 -0.069839835
0.048437864 -0.0059201275 0.08246804 0.085706174 0.09441819 0.004640642 -0.063169405 -0.10065853
-0.0039857025 -0.09241866 -0.016537884 0.058260992 0.046177503 -0.088693306 -0.023958787 0.0180637
0.017494341 -0.04340959 0.073313385 0.033230606 0.0015346906 -0.03576939 -0.027037596 0.04702278
-0.07704023 -0.06871761 -0.048652176 0.07281891 -0.080394246 0.082598925 -0.00246379 -0.031021554
-0.08605961 -0.027919807 0.03043422 0.06361068 0.0035718698 0.009897228 0.05962155 0.0012123937
-0.060920484 0.006166501 -0.03209995 0.07019466 0.09366064 0.07859435 -0.005097648 0.055419598
0.06602743 0.036142316 -0.09041467 0.00011711143 0.08747247 -0.05925967 0.00023865236 -0.091602296
-0.046545282 -0.0046843337 0.001422744 0.08694704 -0.051329274 -0.08937314 0.009140686 0.04745791
-0.09301172 -0.050617404 -0.09178757 -0.025942415 -0.019456312 0.0282334 0.09267665 0.050491787
-0.07575351 0.0561058 -0.011332072 0.03344878 -0.09769301 0.07596608 -0.00034815824 -0.056477733
0.08913604 0.042658705 -0.015209151 0.00034885915 0.08015607 0.014178044 0.06513402 0.093788035
-0.044724215 0.00014719271 -0.009133577 0.03525321 0.050180096 -0.0021354184 0.07930972 -0.09003538
00000000: fda3 21bc 75d4 7b3d d66a 713d e09b 933c
00000010: d629 9ebb 0ef4 84bc b949 cb3d f93a b3bd
00000020: 757d 5ebd 40d2 60bd 2e42 b4bb de7e 2a3d
00000030: cadb 4b3c 344a 90bd af24 ba3d 3ef5 a6bd
00000040: f7ed f23c 86df b23d 3af7 3d3d 69b9 8bbd
00000050: 5cff a8b8 39a8 66bc 7a8b 653d b99f 0e3c
00000060: 813c d9bc 715e ab3d d2de b23d a43d a4bb
00000070: 71a0 973b 08a8 5ebc eec6 08bd 698b 98bd
00000080: 3321 aebb 73ac cc3d 0e26 b33d ba95 5e3d
00000090: 7990 393c 4fdc 4e3b 4fd8 903c 631a 58bd
000000a0: e977 79bd e5c9 50bc 7183 abbd a9a3 03bd
000000b0: 6ccb 3f3d 607c 57bc 1ace a13d f488 92bd
000000c0: 3b4d 713c 8479 4dbd 3a84 d93b 4dad fbbc
000000d0: 4e6b e03c a620 8e3c d3c3 303b 8d75 bbbd
000000e0: b8ea eb3c 82c8 b33c 9697 0bbc dfb1 8dbd
000000f0: c2b2 b43d e29e 223c d86c 693d 8dc9 a2bd
00000100: 4841 b1bd da7b 41bc 99d5 b53d 8068 033d
00000110: 66dc 1a3c 3c20 d83c 281e 5eba 52c4 023d
00000120: a861 8a3d e38c 903d 786d 82bc 11d5 b9bc
00000130: ec61 e53c 3c30 61bc c989 1b3d a5e6 79bd
00000140: f7ad feb8 7425 f6bc 6480 4e3c c191 97bd
00000150: 2f1c bd3c 25bb 93bd dcd5 3cbd e21c f7bb
00000160: 4d45 2ebd ca8b b33d 9ac8 923d 129b 42bd
00000170: c394 8e3d 9fdf 893d fb00 8c3d 3645 09bd
00000180: ec5c c43c 0f02 99bb 255e b3b8 318f 5ebc
00000190: 7d11 40bd ba79 39bd 441b a3ba b7f9 e8bc
000001a0: 0327 993c a343 c53c aee4 03bc fb52 c43c
000001b0: c5a5 203c e711 b9bd 5eae 513d 4bb2 91bd
000001c0: 6a14 b63d f4ec 81bd fc67 fa3d 009c efbb
000001d0: 8e0d b03b 46de fbbc 2ddc cabc 209d 223c
000001e0: abe7 63bd 2068 a83b 8af1 4bbd c02f 883d
000001f0: 93c4 303c 0e23 753d 563f d8bd 455b ca3a
00000200: d972 453d 7ceb ca3d 7b50 09bd dfcd 44bc
00000210: 60c4 593c a4bf 49bd 5319 723d cddf 8e3d
00000220: 6e47 403d cefa bc3d 355c afbc b1b0 813d
00000230: fc26 203b 277c c33d 8af0 973c 1a34 b43d
00000240: 42cb 683d 25e0 833d 2d0c 5a3d 88fe 933c
00000250: e866 c0bc a922 a1bd 3161 12bd bc2f 643c
00000260: bdcd 453d 4c39 59bd d956 d73c 2be2 98bd
00000270: e08f 9aba d1e2 473c 56cc 123d 3008 8fbd
00000280: c866 463d a1fd c1bb 01e5 a83d b886 af3d
00000290: 535e c13d 8710 983b f65e 81bd 0f26 cebd
000002a0: 7f9a 82bb ff45 bdbd 757a 87bc 14a3 6e3d
000002b0: 9f24 3d3d d6a4 b5bd 3845 c4bc 53fa 933c
000002c0: 4b50 8f3c 41ce 31bd 5425 963d d11c 083d
000002d0: ac27 c93a ed82 12bd f37d ddbc f59a 403d
000002e0: 45c7 9dbd d1bb 8cbd 8147 47bd 1522 953d
000002f0: bda5 a4bd a029 a93d 8977 21bb ea20 febc
00000300: 0540 b0bd 14b8 e4bc 2f51 f93c 5146 823d
00000310: 0816 6a3b fc27 223c ba35 743d 2fe9 9e3a
00000320: c287 79bd 5c10 ca3b 3d7b 03bd 38c2 8f3d
00000330: 26d1 bf3d 13f6 a03d 2c0a a7bb a9ff 623d
00000340: 6439 873d f709 143d 542b b9bd b899 f538
00000350: c424 b33d 45ba 72bd c13e 7a39 fc99 bbbd
00000360: 44a6 3ebd 0a7f 99bb 5e7b ba3a 4a11 b23d
00000370: a53e 52bd 4409 b7bd d1c2 153c 3a63 423d
00000380: ee7c bebd 3254 4fbd 1ffb bbbd 3085 d4bc
00000390: d862 9fbc bb49 e73c 41cd bd3d 7ad0 4e3d
000003a0: a824 9bbd 32cf 653d 28aa 39bc 9701 093d
000003b0: 4613 c8bd 1b94 9b3d 0289 b6b9 3255 67bd
000003c0: f58c b63d e5ba 2e3d ce2f 79bc 15e7 b639
000003d0: de28 a43d 074b 683c fc64 853d f113 c03d
000003e0: bd30 37bd be57 1a39 00a5 15bc ac65 103d
000003f0: a589 4d3d 60f2 0bbb 226d a23d 7864 b8bd

bias f4 [128]
0.031453207 0.066798896 -0.035869658 0.05042462 0.03814131 0.04776476 0.062751696 -0.0036481586
0.04981333 -0.021734864 -0.0070888787 0.08361062 0.052147143 0.06387439 0.06058391 0.035397995
0.093216754 -0.007295279 0.028325152 0.03140654 0.0062106336 0.029759567 -0.017842272 -0.026375178
0.08061563 0.035843384 -0.03240693 -0.025435844 -0.0039695813 0.026967183 -0.028307766 -0.018083131
-0.045570653 0.08429595 -0.03668312 0.04371059 0.05550316 -0.04746378 -0.029792579 0.009506844
0.043360107 0.057252932 -0.02902334 0.025111346 -0.019186685 -0.02833691 0.05275832 -0.0041904612
0.0051933913 0.012446359 0.015019535 0.09179218 -0.008867604 -0.018993493 0.012109928 0.005731911
0.076249436 0.002686613 0.010537068 0.02568988 0.04504014 0.06468266 0.074533984 -0.016224947
0.0068652346 0.06834936 0.06787902 0.0055902 0.03731246 0.05685523 -0.051082652 0.0023098455
0.08035932 0.051099133 -0.0064135506 -0.036831904 0.023216154 -0.025583366 -0.03632681 0.050776172
0.0072210836 0.0032447218 0.071291976 -0.0101169 0.013814237 -0.03650315 -0.013022869 0.007798454
0.012207197 0.08105691 0.05412341 -0.033400998 -0.030644005 0.07933859 -0.03266912 -0.045170125
0.082895756 -0.012296178 -0.03005368 0.0151387 -0.014202288 0.023355847 0.036053002 0.030768678
0.065365456 0.05988135 0.0030730194 -0.059991594 0.019164253 0.05227566 0.0061705317 -0.020663796
-0.006785066 0.055840865 -0.012391727 0.005148591 -0.0074792863 -0.039618228 -0.0059457803 0.015191107
0.03233258 -0.03183623 0.009002589 -0.043596514 -0.02161042 0.051022127 0.03275168 -0.034641314
00000000: 14d5 003d dccd 883d 10ec 12bd 0c8a 4e3d
00000010: 103a 1c3d fba4 433d f683 803d f215 6fbb
00000020: 1009 4c3d 500d b2bc d349 e8bb 0b3c ab3d
00000030: 3e98 553d 94d0 823d d626 783d 7dfd 103d
00000040: 6de8 be3d 3c0d efbb 260a e83c 25a4 003d
00000050: 9282 cb3b 56ca f33c f529 92bc c210 d8bc
00000060: cf19 a53d 83d0 123d 21bd 04bd d55e d0bc
00000070: 4313 82bb 48ea dc3c b0e5 e7bc 1323 94bc
00000080: 4ba8 3abd 5ba3 ac3d 0a41 16bd e009 333d
00000090: 4857 633d 6169 42bd 910f f4bc 98c2 1b3c
000000a0: 5e9a 313d 0d82 6a3d 5bc2 edbc 4fb6 cd3c
000000b0: 652d 9dbc cf22 e8bc 1c19 583d 2350 89bb
000000c0: 532d aa3b d0eb 4b3c 7f14 763c 8afd bb3d
000000d0: 6d49 11bc 3e98 9bbc b868 463c c1d2 bb3b
000000e0: aa28 9c3d e311 303b aba3 2c3c 9573 d23c
000000f0: 037c 383d 5878 843d 46a5 983d 2eea 84bc
00000100: c3f5 e03b c0fa 8b3d 2804 8b3d ff2d b73b
00000110: f3d4 183d 08e1 683d 0b3c 51bd c760 173b
00000120: 6d93 a43d 534d 513d c328 d2bb 0ddd 16bd
00000130: ce2f be3c 3594 d1bc 6ccb 14bd adfa 4f3d
00000140: d79e ec3b 66a5 543b 8701 923d 5bc1 25bc
00000150: 1c55 623c 5484 15bd df5d 55bc 2c8a ff3b
00000160: b200 483c 2a01 a63d 82b0 5d3d 7ccf 08bd
00000170: 2309 fbbc 457c a23d 0ed0 05bd 4f04 39bd
00000180: 40c5 a93d e975 49bc 2333 f6bc 4f08 783c
00000190: b7b0 68bc c354 bf3c 50ac 133d 980e fc3c
000001a0: 53de 853d 2546 753d b664 493b bfb9 75bd
000001b0: 5afe 9c3c 011f 563d 2c32 ca3b 1f47 a9bc
000001c0: 4255 debb 64b9 643d ac06 4bbc 83b5 a83b
000001d0: cd14 f5bb b946 22bd d2d4 c2bb 1fe4 783c
000001e0: 2b6f 043d b566 02bd 987f 133c 4292 32bd
000001f0: 5608 b1bc 94fc 503d a026 063d 0de4 0dbd
